code/models weights/Autoencoder_gaussian_0.1_300.pth (torch, 193695 bytes, 12 tensors)

encoder.0.weight f4 [12, 3, 4, 4]
00000000: 7c0a 2a3d 868c 843d d384 8bbb cbe4 7ebd
00000010: b680 703d 9655 723d 7c91 133e a303 f4bc
00000020: f78c 30bc e489 803c cb99 083e a57d 253d
00000030: 7b62 413c 54bd a83d 253a 653d 8de1 db3b
00000040: fbe1 1e3d 7822 13bd 2009 40bd d681 96bd
00000050: 78c3 a0bd 6da1 12be 3f39 93bc 8c51 b8bd
00000060: 0fdd f9bd e5af 49be e545 abbb 3334 82bd
00000070: c6d9 d5bb 3114 11bd d133 73bd a96a 15bc
00000080: cca2 fd3b d46b 74bb 424d fc3c f877 67bd
00000090: cd93 1e3c e148 ce3c 0102 263e 5229 2fbd
000000a0: 4b48 60bd 4468 4fbd 28ab 143e ee5c e43b
000000b0: 3e08 80bc 2637 0abd 355a 5d3d 29b2 a7bc
000000c0: 327c 21bd 6ac3 febd 2841 d9bd 186f 1d3d
000000d0: f085 20bd 3cac f3bd 763e c7bb 3934 6fbc
000000e0: ed96 0b3c e15b 893c 700d 76bd 9de0 46ba
000000f0: f2b9 84bd 43ed 163d 8ad9 5d3c 6931 4c3d
00000100: 9002 513d 38ee aebc bdf5 393d 4f0d cc3c
00000110: 595b 473d 712f 8d3b bf1b 1c3c 9d55 0d3d
00000120: d538 b23c d417 f43d f180 d53d c5ff 78bd
00000130: f2d0 00bd ad80 023d 1d87 c43c ebb4 a13d
00000140: 73a7 1cbd 0070 84bd 2c0d 4abb f109 40bd
00000150: 3267 2fbd d8fa f43a fe82 9e3d 7e39 c7bd
00000160: ef5e 363d 02fe 1bbd 601f 90bd c895 62bd
00000170: 6609 3f3d 35de 98bd 4422 a1bd ecfb 60bd
00000180: fcbf 55bd 757b cfbd 38d9 9f3c 003e 85bc
00000190: 4174 96bc b554 203d eada ef3c 9d35 38bd
000001a0: d58f 39bd efc4 02be 22b7 0d3d f363 03be
000001b0: a5ec acbb bce9 f6bd 22b6 223d a50f 1fbd
000001c0: 647f debd c25f bebd b29d 84bd e334 723c
000001d0: b285 233d b6b3 cd3d 0cf8 d93d b2c9 0abd
000001e0: 2d09 a63c 9e2f d8bc 43cc 3ebc 56ee 6fbd
000001f0: 3138 393c f02f 27bd 1cdb 9e3d 6cd1 82bd
00000200: 5784 313b b4d4 513c 592b ecbc cb96 0b3d
00000210: 6302 593d cde8 c33d 9761 f0bb 669c 133c
00000220: 94c1 0a3d 3a04 bc3a 02af a5bc 443e 98bd
00000230: f357 b63c 1e61 6b3d 35fa 8b3c 1e27 cd3c
00000240: fbd0 9b3c 3cdf 5b3d 5b13 f93d 9516 863d
00000250: f6cb dd3c 5d9f ec3d f01e 4f3e ee38 fb3d
00000260: e516 543c 8769 2e3d 8c23 b23d c729 123d
00000270: bd1e c63c fc7c 5f3d faf0 313d 9631 14bc
00000280: 0ee7 19bd 5bcb fb3b 3681 743d 2a5d fd3c
00000290: e10f a7bc b9b1 633c 8790 e63d a1b7 743d
000002a0: 07dc 3dbc be31 0ebd fc15 853c 7de7 2d3c
000002b0: 08aa ae3b e62b f73c 5df9 cd3c 2f8d 94bc
000002c0: 3b07 54bd 4496 e8bc db94 ebba 556c 07bb
000002d0: 730b 9fbd 7e40 91bd a2f1 c7bc c819 21bc
000002e0: 2739 53bd 0a9e a9bd 05a6 90bd bc57 85bd
000002f0: 69e3 2fbc 1ccd cc3c 7db8 843b d1e7 27bd
00000300: 2689 a0bc d4f0 00bd c6a3 cb3d 401a b23c
00000310: 5663 f7bc 8d92 1cbe 0a08 98bc 5d61 a3bc
00000320: c160 f03c a902 c2bc bf0a f13d 1ca5 c4bc
00000330: 642f ccbc 7f53 fabd c7fe 41bb 4dca 76bc
00000340: 6458 11bd bbfd 46bd 2b18 4a3d 3db5 ed3c
00000350: fe19 debc bfdf 23be a2b9 e4bb 07bb 38bd
00000360: 0fcc 4d3d 8c7a c6bc 1695 4d3d 8c29 74ba
00000370: e3c3 57bc 31d9 a3bd 23b9 783c fc52 dcbc
00000380: 38b1 193c 35f7 aeba c477 c13d abe5 4d3d
00000390: 42ce 1b3c 1751 0ebe 6240 89bc 13ac 213c
000003a0: 127d 763d 28b8 e83c b868 fc3d 7690 793c
000003b0: 6deb 2fbc 192e 9abc e2da 493d eec8 453d
000003c0: 7482 3cbd b4e6 bdbb 715f 52bd ce70 873a
000003d0: efa1 19bd d8c1 f03d 4177 18be 44a3 25bd
000003e0: 9879 ecbd 1bea 80bd b3b8 23be f307 b9bc
000003f0: 6dc9 7bbd aeda 2bbc 27da b33c c469 423c
0.041513905 0.06472115 -0.0042577772 -0.062229913 0.0587165 0.059163652 0.14410967 -0.02978689
-0.010775796 0.015690751 0.13339917 0.040403027 0.011803265 0.082392365 0.055963654 0.0067102374
0.03878973 -0.035921544 -0.046883702 -0.07348983 -0.07849783 -0.14319392 -0.017971633 -0.08999929
-0.12200367 -0.19696005 -0.005226838 -0.063576125 -0.0065262048 -0.035419647 -0.059375588 -0.009119668
0.007740354 -0.0037295716 0.030798558 -0.056510895 0.009678793 0.025181236 0.16211702 -0.042764015
-0.054756444 -0.050636545 0.14518416 0.006969086 -0.01562893 -0.033744 0.054041106 -0.020470696
-0.039425083 -0.12439616 -0.10608131 0.038436025 -0.039190233 -0.118980855 -0.006080444 -0.014599853
0.00851987 0.016767444 -0.06007141 -0.00075865706 -0.06480779 0.036847364 0.013540635 0.04985181
0.051027834 -0.021353826 0.04540037 0.02490869 0.0486711 0.004308634 0.0095281 0.034505475
0.021755615 0.11918607 0.10424984 -0.060790796 -0.031449266 0.031860996 0.023990208 0.078958355
-0.03824563 -0.06466675 -0.0030830605 -0.04688448 -0.042823024 0.001869048 0.077398285 -0.09727763
0.04452413 -0.038084038 -0.07037234 -0.055318624 0.046639822 -0.07464258 -0.07867864 -0.05492775
-0.052185044 -0.101309694 0.019512758 -0.016264915 -0.018365981 0.039143283 0.029279191 -0.044973005
-0.045303185 -0.12770437 0.034598477 -0.12831096 -0.0052772337 -0.120563 0.039724477 -0.03883328
-0.108641416 -0.09295608 -0.064753905 0.014783117 0.039922424 0.10044043 0.10643014 -0.033883758
0.020268047 -0.026389893 -0.0116453795 -0.058576904 0.011304901 -0.0408172 0.077566355 -0.063876
0.0027086937 0.01280706 -0.028829264 0.034079354 0.05298079 0.095658876 -0.0073358524 0.009009456
0.033876017 0.0014344521 -0.020225052 -0.07433751 0.022258734 0.057465665 0.017087081 0.025043067
0.019020548 0.05367969 0.12161895 0.06547276 0.027074795 0.11553834 0.20226645 0.12266718
0.012944912 0.042581107 0.08698186 0.035684373 0.024184579 0.054562554 0.043442704 -0.009045025
-0.037573867 0.007684154 0.059693538 0.030928213 -0.020393314 0.013897353 0.11258035 0.059745435
-0.011588103 -0.034715407 0.016245835 0.010614273 0.005330328 0.0301723 0.02514332 -0.018133728
-0.051764708 -0.028391965 -0.001797344 -0.0020663936 -0.07765856 -0.07092379 -0.024407212 -0.009832807
-0.051568177 -0.08282097 -0.07062916 -0.06510875 -0.010735371 0.025000148 0.004050313 -0.04099256
-0.019596647 -0.03147967 0.09943347 0.021741033 -0.030198734 -0.1529028 -0.01855852 -0.019943887
0.02934301 -0.02368291 0.11769628 -0.024004512 -0.024924941 -0.12222957 -0.0029601322 -0.015062881
-0.035484686 -0.04858182 0.049339455 0.029017085 -0.027112003 -0.16003321 -0.006980137 -0.04510024
0.050243434 -0.024228357 0.050191008 -0.00093140523 -0.013169262 -0.0800041 0.015180859 -0.026895039
0.009380631 -0.001334882 0.094466716 0.050267857 0.009509625 -0.13898121 -0.016754333 0.009867686
0.06017787 0.028408125 0.12324661 0.015232196 -0.010737282 -0.01882081 0.04928101 0.048287325
-0.046022847 -0.005795324 -0.05136055 0.0010333301 -0.037507948 0.11755723 -0.14889242 -0.040438905
-0.1154663 -0.06294652 -0.15988426 -0.022586798 -0.06147139 -0.010489149 0.02195461 0.011866037

encoder.0.bias f4 [12]
00000000: 21d6 ec3e 5528 ee3e 3dd7 fe3e b2de 893e
00000010: 5108 f33e 92de f13e 788f 5e3c 489d 69bc
00000020: d243 debb ce08 9a3c 4ce2 b4bb 9081 9dbe
0.46257117 0.46515146 0.4977359 0.26927716 0.47467282 0.4724012 0.01358401 -0.01425869
-0.006782987 0.018803027 -0.0055201408 -0.3076291

encoder.2.weight f4 [24, 12, 4, 4]
00000000: 0e3f 78bd f13a 09be dfa5 26be c960 5dbb
00000010: 5705 e9bb 93dd 40bc c0bb d5be 8bc7 74bc
00000020: 7227 7cbc 3f50 a2bd 5dfa a7be e4a1 aabc
00000030: 401f 5abd dd4a 5c3d 1e67 5abd eef5 abbd
00000040: e005 2fbd 85bf 143d e00d 933d caa0 02bc
00000050: 0f07 033e 0c5d af3e e038 b63d afbf 173e
00000060: 4beb 2a3e c81d f43e 3d45 513e 9aa4 3a3e
00000070: 6739 153c e286 afbc 1247 15bd 9c34 9cbd
00000080: 4d4a f9bd 38a6 b3bd 9f39 37be 040f a7bd
00000090: 3de2 0c3d 71a4 9d3e 0822 aa3e 3271 c83c
000000a0: 5f2f 113d 3aba f13c 7b8d 943c a8db bb3c
000000b0: ac25 44bc 16ac 5fbc d170 dcbc 060c 20bd
000000c0: a160 d63d 67d0 95bd 8857 813b 45dd eb3d
000000d0: 34c8 9b3b d436 7dbd 295d b2be af05 52bd
000000e0: cbc0 fcbb ef86 b93d fd14 1cbe 80bc 543d
000000f0: 35de 673e 8629 143e a9d5 ab3d 8ded 673d
00000100: 69e7 05be da69 563c 0d45 263e 48a4 edbd
00000110: 3e7d c4bd 99ba a73d a8b0 00bd aa8b c23b
00000120: f627 713d 523d fd3e 2115 523e 56b9 513e
00000130: bb06 f8bd fd9c c9bc ffda 033d ebc4 e5bd
00000140: f141 d5bd db54 48bd 0229 7ebd b86c d0bd
00000150: 4738 0d3d 0c4d 80bb 77cc 143e 5e58 c5bd
00000160: 67e8 e9bd 71f3 6bbd d205 9fbc 3d39 f1bd
00000170: 3aac 12bd 1449 63bd 8798 9cbc d325 06be
00000180: 5123 98bd 3575 f2bd 0bae 51bd 5eb8 babd
00000190: 140f 2e3d f081 3c3e 32d2 733e 808f e5bc
000001a0: 295e bfbd cf7d 603d 1afb 563d ea4c 01bd
000001b0: 2ea6 593c 9e40 1e3d 6741 02bc 71c1 15bd
000001c0: c2f5 573d 45d2 7ebb 90bf 98bc 4b1b 64bc
000001d0: 618b e8bc e9a9 f83d 9e12 963e 7f9d cb3d
000001e0: c59c 26bc f691 28bd 9166 8f3d ade3 0cbd
000001f0: cb38 9d3d ab77 a33d 7b8b 103d b14a e2bc
00000200: 8e0a 963c 4620 793d 768e 18bc f48d d63c
00000210: 85b5 9c3d d1af 263f 592b 703e 5f8e cdbd
00000220: 9351 28be 1f56 333d fb2d 01be 4556 323d
00000230: d4be e83b 1b91 1b3c 8187 2a3c 9ffa 503c
00000240: 876e 14bd 1b93 aebd 7d5b 07bd 35bb 9fbd
00000250: 90c5 21be a643 bf3d 3502 823e e9af 29bd
00000260: 0e40 153e 8974 8bbd e04a da3c c415 dbbc
00000270: 725c 9b3d e9d6 babd 2bb0 debd a76c 4dbd
00000280: d63a f8bc dcbe 81bd ad54 20bd f57e f63c
00000290: 44c7 ab3d 9413 f83e 4965 f93e 57fe 783d
000002a0: 465d b7bd ee73 b83c 2e5d a6bd f477 673d
000002b0: 0a2d 883d bdd2 683d 6f58 b1bc c3ea 723d
000002c0: 4473 a8bd 8ebc d0bc 4369 b0bd 839b b8bd
000002d0: d661 aabd 8195 1bbe f9d3 c5bb ac7c c0bd
000002e0: 3077 94bd 9c47 abbd 1b6e 9f3d 400f 18bd
000002f0: 8915 45bd 720d e33b 2d35 8c3c 667c 5bbd
00000300: 9bfa cfbc 317d 4f3d 5329 b03d 2ad7 ae3d
00000310: 53ce 71bd 01ad 463e cd81 6e3d 643e dd3d
00000320: 4d55 59bd d87d 17bd bf78 873e 605e 0bbe
00000330: 7564 e5bd b61a a3bc 405e 27bd 5d42 66bd
00000340: 3d8f 1e3d f1b0 713b ec25 5cbc 1c2b aabc
00000350: f0bb 353c 47bc 943e 10be cb3d 230e c23c
00000360: 5b7b 63bc d906 0fbc fbb9 0d3e 8ce2 83bd
00000370: e624 25bd 1171 a03d fbb5 e53b 41a6 c2bc
00000380: 1dcc 853d 2913 5e3e a1b1 1f3d 9d39 b93c
00000390: 0966 343c 4ebc 1f3e 399c 8a3e e549 9e3d
000003a0: 30b7 03bd 967e bb3d 7df4 a3bd 16a1 56be
000003b0: 6b1c e8bd 3202 e13d 9980 303d fb14 15be
000003c0: 3c5f 41bd e8f7 9fbc 3cdd 8c3d 5955 793d
000003d0: c080 d7bd c93b c53d a48b a83e 0850 793c
000003e0: 30c0 9cbc 5e42 093c 5307 043d 5d79 293e
000003f0: 7ce9 10be b283 36be 6800 1f3e a42a a4bd
-0.06060701 -0.1340139 -0.16274212 -0.0033779612 -0.0071112323 -0.011771577 -0.41744804 -0.014940153
-0.015390264 -0.07925462 -0.328082 -0.020829149 -0.05325246 0.053782333 -0.053320996 -0.08396517
-0.042730212 0.03631546 0.07180381 -0.007972905 0.12795661 0.34250677 0.08897567 0.14819215
0.1669132 0.4767897 0.20436569 0.18226853 0.009107924 -0.021426622 -0.03644473 -0.07627222
-0.12172375 -0.08771938 -0.17893074 -0.08157161 0.034395445 0.3078952 0.3322909 0.024468038
0.035445567 0.029507745 0.01813387 0.022931889 -0.011971872 -0.013651868 -0.026909264 -0.039073966
0.10467649 -0.0731514 0.003947202 0.11516813 0.0047540907 -0.061819866 -0.348367 -0.05127495
-0.0077134124 0.0905894 -0.15242381 0.05193758 0.22643359 0.14468965 0.08390362 0.05662303
-0.13076557 0.01308676 0.16237278 -0.116036 -0.095942006 0.081898876 -0.031418473 0.0059370594
0.058876 0.49460846 0.20515873 0.20480856 -0.12110659 -0.02461099 0.032191273 -0.112192
-0.10412968 -0.04890905 -0.062050827 -0.101769865 0.0344775 -0.0039154347 0.14531122 -0.09635995
-0.1142128 -0.05760521 -0.019411955 -0.117784955 -0.03580878 -0.055489615 -0.0191157 -0.13100366
-0.07428611 -0.11838762 -0.05119137 -0.091171965 0.04249485 0.18408942 0.23810652 -0.028022528
-0.093441315 0.05480748 0.052485563 -0.03156749 0.013284249 0.038635843 -0.007950163 -0.036561433
0.052724607 -0.0038882655 -0.018646032 -0.013922523 -0.028386774 0.12141783 0.2931108 0.09942149
-0.010169213 -0.041154824 0.07001985 -0.034396816 0.07676848 0.07981809 0.03528927 -0.027623506
0.01831558 0.060821794 -0.009311309 0.026190735 0.076518096 0.65112025 0.23454036 -0.10036921
-0.16437368 0.043783303 -0.12615196 0.043539304 0.0071028266 0.009495045 0.010408283 0.012755065
-0.03623822 -0.08524152 -0.033046234 -0.07799379 -0.1579802 0.09339075 0.2539231 -0.041427527
0.14575216 -0.06809337 0.026647031 -0.026743777 0.07585992 -0.09123022 -0.10873445 -0.050152447
-0.030301493 -0.06335232 -0.039143253 0.030089835 0.08387616 0.48452437 0.48710087 0.060789432
-0.08953337 0.022516217 -0.08123241 0.05651088 0.066492155 0.0568416 -0.021648614 0.059305917
-0.0822511 -0.025480535 -0.08613827 -0.090140365 -0.08319442 -0.1519375 -0.006037232 -0.09398779
-0.07249296 -0.08363268 0.07784673 -0.03712392 -0.04811624 0.006929093 0.0171152 -0.053585432
-0.025388053 0.0506565 0.08601632 0.08537133 -0.059034657 0.19401933 0.058229256 0.10802916
-0.053059865 -0.03698525 0.2645931 -0.1361022 -0.11200801 -0.019910198 -0.04086137 -0.056215633
0.03871082 0.0036879147 -0.013436776 -0.02077251 0.011092171 0.29049894 0.09948361 0.023688382
-0.013884391 -0.00872966 0.13840477 -0.06439695 -0.040318392 0.07834066 0.007010219 -0.023760917
0.06533072 0.21686997 0.03898776 0.02261048 0.011010655 0.15599176 0.27072313 0.07728938
-0.032157123 0.09155004 -0.08005617 -0.20959887 -0.11333545 0.10986747 0.04309139 -0.14558785
-0.047209963 -0.01952739 0.068781346 0.06087241 -0.10522604 0.09630544 0.32919037 0.015216835
-0.01913461 0.00837764 0.032233547 0.16550203 -0.14151567 -0.17823675 0.15527499 -0.080159456

encoder.2.bias f4 [24]
00000000: 7ed4 c2bc 72aa 6c3e 34cf 57bd 8cea 823e
00000010: c431 cb3e a6ff 3cbe 2770 8fbe 4617 193e
00000020: f433 3fbe e7cf 963c 5b03 ffbc 7890 a63e
00000030: 806c 333d a06f 30be 492b dc3e fb5d 963e
00000040: 7e2f 86be fa0c ea3e fa27 f53d cda3 da3e
00000050: 2dcb 11be 6ab8 1a3e 28c8 88be 68d8 c93e
-0.023782965 0.23111895 -0.05268784 0.2556957 0.39686406 -0.18456897 -0.28015253 0.14950284
-0.18672162 0.018409682 -0.03112953 0.32532096 0.043804646 -0.17230082 0.43001774 0.29368576
-0.2620811 0.45713025 0.119705155 0.42703095 -0.14237662 0.15109411 -0.26715207 0.39422917

encoder.4.weight f4 [48, 24, 4, 4]
00000000: 4695 0a3b 7cd6 393c 970b 0a3d ad2e fbbc
00000010: 0778 92bd 1f98 dd3c 7213 8a3d ea22 89bd
00000020: cbc1 26bd f370 703e 3713 a23c fa10 e5bd
00000030: dd71 f9bb e657 173b f0ca f5bc cce2 d4bc
00000040: 6261 fc3c beff a0bd c0e5 dabd 4b90 f5bc
00000050: b64b 0c3c b364 6c3d 8b6a 06bf 6e3a 1d3e
00000060: 360e 38bd 8b61 093d a321 36be 1aa2 143c
00000070: 210b c13d 7f03 943c 080b 37bd 1fed 2cbb
00000080: 0ed8 84bd abb2 52be fbbe 2bbe f783 473b
00000090: 94f0 f93d 8dfc 023e 1e5c 733e b2eb d23e
000000a0: 846b f9bb 1cd5 a2be 44e8 36be 6797 9f3e
000000b0: 5366 203d 2140 afbc 5eea 573e a851 ecbd
000000c0: 0bf2 00bc b614 f7bc 81c7 133e 1c22 c7bc
000000d0: ca75 c53c fd39 ae3e 3241 fc3d d0cb 1bbe
000000e0: 9af4 80bd 23f3 e43c 08db b2bd 93c0 6b3c
000000f0: 690d 3e3d 3627 323b 4801 b8bd 6749 af3d
00000100: 2b5c 4cbb 9d13 9b3b 95bd 493c 0b30 073d
00000110: ac09 5d3d cbcb 9dbd f0fe 10be d512 80bd
00000120: 1b16 6f3b 6da5 6dbd 3bc5 edbd f2ee 703c
00000130: b61c e83c a27c 28bc 1894 e8bc a6ba 1dbd
00000140: 22dd 2dbb 1990 84bd dd18 b2bd ae97 68bc
00000150: eb4c 963c c18b 71be e365 e3bd 6ef2 6e3d
00000160: c9a5 b9bd b6d5 8c3d 5afb 813d 59b4 273c
00000170: a4cf eabc 0138 493d 108a 593d c58b 44bd
00000180: 46d3 a13d 313f b0bd 21e1 b6bd 3f6e 733d
00000190: 3eac a8bd 82b7 0a3c bacd 05bd 3479 c73b
000001a0: e1da 67bd 752c 823d 5d53 b6bd f0aa 693d
000001b0: 0460 c43d 113a 323c a54d c43c bcfc e0bc
000001c0: dc09 d3bb 3497 f638 44b9 b8bb 5c1c 853c
000001d0: ae18 283d 2ce9 1cbe 2c1e 833d acf9 503c
000001e0: 926d 883d 83f2 fdbc 2e97 c5bb 0f6d 97bb
000001f0: 82a3 46bd f2be 5d3d c09e 08bd 2b2f 7fbb
00000200: 3645 3cbd 65fe 2a3c 4a06 9ebd a44b efbb
00000210: b41c d73c a617 5ebd 28f5 883e d33e 013e
00000220: 7cca 2d3d c543 183e 9285 cd3d 4668 813d
00000230: 9af3 4e3c 06e8 133c b321 4abe 976a 283d
00000240: db1e 033d 2725 863d 6b47 62bd 6021 923c
00000250: 03e2 853d 5ca2 0e3e 5b4b 3bbe cda8 d4bc
00000260: ba64 033d 3541 20bd 5ded a3bd 22c2 c6bc
00000270: 7c5a 69bc 5aab 0abc 82f1 efbc f1cd 0abc
00000280: a3f6 203d 97e9 c1bc 8d30 bcbd fa15 c43c
00000290: 3b4d 1f3e 9690 1abe 6126 373a 4270 50bc
000002a0: 128b 543d 65e6 6a3e acb4 50be 42ce f63c
000002b0: 88f5 b13c fbb9 7dbd a444 d83c 30c0 e53c
000002c0: eb5d 723d f9ec 39bd 39a8 473d 2dd4 4f3c
000002d0: 6ae1 923c 0206 373e 586a 873b 6faf 65bd
000002e0: 3222 74bd 45ec b53c e576 35be 44ff a5b9
000002f0: 8953 89bc ed87 723d 61ed 623c 8300 5d3c
00000300: bbb7 613c 2661 5dbd dce2 92bd 76f7 3fbd
00000310: d0ba 7abb 4592 e73d 80f7 17be 9ad0 0a3d
00000320: 4e73 fa3b 84fb af3b 4bbe 623d 3880 81bc
00000330: 4896 003d d400 76bd 5772 0c3d ccbb a8bc
00000340: f1b3 523b c1a9 85bd 1db7 0d3d 5b2c 8e3d
00000350: 4061 e53d eaaf 0bbe 2d05 fe3d 538b 0ebc
00000360: f0a6 39bc eb1e 3fbc 30c1 c9bd 23bb 413d
00000370: 4495 a03c 20e7 783d 9af6 abbc e912 313b
00000380: d294 7ebd ab2d 9f3d 421c 103c 6dbc 4abd
00000390: 59a0 22bd 1d32 ea3d 3939 243d 22b6 89bb
000003a0: c16c 7ebd 0701 d1bd 48af 623c fa98 a0bd
000003b0: 666a 9fbd f320 b0bb 92a4 043e 4a00 7f3b
000003c0: b4bd cbbd 25e0 c4bb 198a 20bd 787d a43c
000003d0: 4bd6 b9bd da11 3e3e 425c e73e 74df 1dbd
000003e0: b37f 92bd 81bb abbc b5cb 773e b8b4 7dbd
000003f0: 1cf4 b8bc 4893 a2bc 77c0 163c db56 e5bb
0.0021146103 0.011342641 0.03370246 -0.030661905 -0.071518 0.027050076 0.0674199 -0.066961125
-0.04071216 0.23480587 0.019784553 -0.11184879 -0.0076124505 0.0023093163 -0.030003995 -0.025987051
0.030808154 -0.07861279 -0.106883526 -0.02997603 0.008562973 0.05771322 -0.5250632 0.1535432
-0.044935428 0.03354029 -0.17786269 0.009071851 0.09425951 0.018068073 -0.044688255 -0.0026386452
-0.06486522 -0.20575969 -0.16772072 0.0030443647 0.1220409 0.12791653 0.23765609 0.41195446
-0.007611694 -0.31803215 -0.1786204 0.31170198 0.039160084 -0.021392884 0.21085498 -0.11539012
-0.007870208 -0.030161243 0.14431573 -0.024308257 0.024104018 0.34028617 0.123171225 -0.15214467
-0.06296654 0.027947968 -0.08733183 0.014389175 0.046399508 0.0027184016 -0.089846194 0.08558922
-0.0031182866 0.0047325627 0.012313266 0.0330048 0.053964302 -0.07704886 -0.14159751 -0.06253592
0.0036481682 -0.05801909 -0.11609884 0.0147054065 0.028334003 -0.010283621 -0.02839093 -0.03850808
-0.002652951 -0.06472797 -0.086961485 -0.0141963195 0.018347224 -0.23588468 -0.11103418 0.058336668
-0.09064824 0.068766996 0.0634677 0.010235869 -0.028663464 0.049125675 0.053110182 -0.047984857
0.07901625 -0.08605803 -0.08929659 0.05943131 -0.082359776 0.008466603 -0.0326669 0.0060874466
-0.056605224 0.06356136 -0.08902619 0.057047784 0.09588626 0.010878102 0.023962805 -0.027464263
-0.0064403843 0.00011758358 -0.0056373198 0.016248874 0.04103916 -0.15323323 0.06402239 0.012754839
0.06661524 -0.030999428 -0.006029985 -0.004621155 -0.048495777 0.054137178 -0.03335452 -0.0038938026
-0.045964442 0.010436629 -0.07716043 -0.0073027182 0.026258804 -0.05422177 0.2674954 0.12621622
0.042429432 0.14869602 0.10035242 0.06318717 0.012631321 0.009027487 -0.19739418 0.041117277
0.032011848 0.06550055 -0.05524389 0.01783818 0.06537249 0.13929123 -0.18290465 -0.025959397
0.032078482 -0.039124686 -0.08004258 -0.024262492 -0.014242765 -0.008463705 -0.029289965 -0.008471952
0.03929771 -0.023670955 -0.09188948 0.02393626 0.15556805 -0.15094218 0.0006986615 -0.012722077
0.05189044 0.22939451 -0.20381421 0.030127648 0.021723524 -0.061944943 0.026399918 0.028045744
0.0591716 -0.04539201 0.048744414 0.012684864 0.017929751 0.17873386 0.00413255 -0.05607551
-0.059602924 0.022207389 -0.17721136 -0.0003166144 -0.016763465 0.05921166 0.013850541 0.013488892
0.013776715 -0.054047726 -0.07172176 -0.046866857 -0.0038258322 0.113071956 -0.14840508 0.033890344
0.00764314 0.005370559 0.05535726 -0.01580821 0.03139332 -0.060059384 0.03428873 -0.020597361
0.003215071 -0.065265186 0.03459846 0.06942054 0.112001896 -0.13641325 0.12403331 -0.00870021
-0.011331305 -0.011665086 -0.09851301 0.047297608 0.019602425 0.060767293 -0.020991612 0.0027019328
-0.062153645 0.07772382 0.0087958 -0.049496103 -0.0397037 0.114353396 0.040093634 -0.00420262
-0.062115435 -0.10205274 0.013835736 -0.07841678 -0.07783966 -0.0053750216 0.12953404 0.0038910084
-0.099482924 -0.0060081654 -0.0391942 0.02007936 -0.09074076 0.18561497 0.45187575 -0.03854318
-0.07153263 -0.020963432 0.24198802 -0.061939925 -0.022577338 -0.01984562 0.009201161 -0.0069988794

encoder.4.bias f4 [48]
00000000: f741 85be 7818 f8bd bc09 db3e 8143 953d
00000010: ba93 b33e c015 c93e 2e1a 5fbe 6507 953e
00000020: 9ded afbe 8b9a 63be 4351 5a3c 015f 2bbe
00000030: e9fb 8a3e 4726 193e 990c 963e ed9f c73e
00000040: 81f9 ddbb b9b3 5a3e 1323 363e be84 c3bb
00000050: 88dc 32be 216f 533e 754a 6bbe 0780 bfbe
00000060: a8f1 ca3e 384e 7ebe 7aca 893e c95d f83e
00000070: 8a98 4c3e f19c 503d ad56 60be a8f6 9bbe
00000080: a1a2 af3d fe14 dc3e b28a d2bd d947 553e
00000090: c50f 613e 86f9 4dbe 8950 5abd bdda 66be
000000a0: eb98 9cbe 737e 91be 6c79 07bd 3361 463e
000000b0: 15b6 bbbd 04a1 b93e 43ea b0be 0c5f 07bd
-0.2602689 -0.12114042 0.42780864 0.07288266 0.35073644 0.39274406 -0.2178733 0.29107204
-0.34360972 -0.22226922 0.013325038 -0.1673546 0.27145317 0.14956008 0.29306486 0.389892
-0.006774128 0.21357621 0.17786817 -0.005966752 -0.17466938 0.20647861 -0.22977622 -0.37402365
0.39637494 -0.24834526 0.2691229 0.48509052 0.19980064 0.05093092 -0.21908064 -0.3046162
0.08575941 0.42984766 -0.1028036 0.20828189 0.21978672 -0.20114717 -0.05329946 -0.2254438
-0.30585417 -0.28416786 -0.03307478 0.19373016 -0.09165589 0.36255658 -0.34553728 -0.03304963

decoder.0.weight f4 [48, 24, 4, 4]
00000000: 3e90 c1bc b501 07be abf5 113c c5da c4bd
00000010: 4627 293d 1ec6 6dbd 4ecf 79bd 6c5c e43a
00000020: dea8 2e3d b14e c43e 4be4 573c 2619 27bd
00000030: a850 1e3c f5a1 df3c 470b 5bbd edce 4cbc
00000040: 70b7 a1bd 16a5 d73d bc4f 09be 556e ffbc
00000050: 3d83 2ebd e72f 1dbd d0c1 793d 9eb0 8fbc
00000060: 5e8b 2cbf 1eb4 46be 106a 8cbc edaf efbe
00000070: 454c d03c f2a5 83bd 869c 58bc c507 233d
00000080: ea9d 74bb ae6d ce3d d272 e8bc de34 76be
00000090: 6d0c c23e 6759 803d 6b4a 3e3f 7f3e 8d3e
000000a0: c214 893c e0d6 87bf 17ca 49bd 7889 eabc
000000b0: 8380 c93b eeeb 87bf fdd7 64bd 3225 01bd
000000c0: a2f2 32bd cbba ee3c 35e3 1fbd 03fb 22bd
000000d0: d2d8 243d 59bc 1e3d afb2 773e 2a14 e83d
000000e0: 2a5f c63c 9acb 85bc 71ec 20bd 9dc5 da3c
000000f0: 2695 a13a b1e2 c4be 4e89 e13c 3852 863d
00000100: 03b2 983c 1b22 973d 5ab0 803d 71b5 353d
00000110: e3d7 533c bd61 f33e d1c8 653e 81c1 2f3d
00000120: 32e7 a03c ab5a 083d 94ba dabc a14c 84bd
00000130: 5fc4 91bd ee0c 54bd 597d 86bd 4899 0c3c
00000140: 232a 20bc a414 fdbc a2da ad3b 0e61 bfbd
00000150: e5c0 9b3d bfce f03d 8e9d 8dbe 8723 efbc
00000160: bb15 aebc 1215 9ebe 13dc 8a3c faa9 273c
00000170: f2c3 8a3c e87e aebd 4fdc d03d 6da7 133d
00000180: 306c 113c d633 053c 9b23 87bd c807 003c
00000190: a630 063e e84b cbbc 5fb3 65be 97c3 eebc
000001a0: 6264 da3c e08f fa3c 135f 45be 60c2 f53c
000001b0: bd2d fdbc 927b 3f3c b95e 03bd 18d0 083b
000001c0: ff1a 2abd 036e 033e df12 55bd 1391 ed3c
000001d0: 8d4c fc3d 085e 87be 0087 f9bd 263b 143d
000001e0: 56e1 653d 87d8 30be e3e9 01bd debe 0dbd
000001f0: 5c7f ba3c ff04 48bd 559b 653d 608c cf3c
00000200: 3a0d 95bd 27a1 38bd f439 84bc cf04 65bd
00000210: a32b b6bb 2caf 03bd 50cd d23e ca2e 8ebb
00000220: 14b5 8a3d a832 543e 7abf 853e 3248 c73c
00000230: 2aab aebb de70 09bd f346 303d 2c0e ddba
00000240: 7190 4939 1482 123e d695 7a3d 3533 9c3d
00000250: 6cb3 b33d 89f7 6f3d 9e2e ea3c 3260 a0bd
00000260: e89b 0b3e d1d8 5abd c4bd b7bd bf85 153d
00000270: 1734 d63a 089d 143c d8a7 913d e9a3 dc3c
00000280: 2267 ccbd 1089 d3bd 0990 eb3c a407 68bb
00000290: 6c78 d0bc 93ff f4bd ec91 993d be79 ae3c
000002a0: e75e 253d 50a5 cc3c e16d 423e 7380 c53b
000002b0: 30ff 54bc 5061 e03c f401 b33b 1476 b6bb
000002c0: 7345 c03c bf28 1a3d 1e3b 433d 34f5 cdbc
000002d0: c1a4 7b3c 354f 59be 8d9c 1e3e b921 ae3d
000002e0: 93a3 8a3d 4c6f d73b 8b63 953d 4981 91bc
000002f0: 5c42 773c 0fc1 b53c d785 ba3c 0e3a 123b
00000300: 837d b63c fd84 44bb 9c3b c2bc 26c4 a93c
00000310: af09 90bd 7cbf a3be b2a6 6c3d 5539 8bbd
00000320: c4dd 9b3b 31f7 c4bc b966 03be 009a 19bd
00000330: 7295 25bd b20a f4bc 20fa eebd 29f7 09bc
00000340: 20de 4cbd 7c60 53bc 5d22 24bd e27e 2dbd
00000350: ea27 37bd e9b2 05be 88b1 413b a308 b03c
00000360: bea3 863d f74f fcbd 4430 383e df04 91bd
00000370: d9ed a33c 4820 353d 8b1c b13c 505f 05bd
00000380: 2c74 063d 7ff6 cd3c 7e02 82bd 21f6 c43c
00000390: d21a 29bd 2722 cd3d 757f bc3b ece4 2bbe
000003a0: f679 673d d74b c33d 55dd 33bd 39af c8bd
000003b0: 1517 ba3b 7d92 3ebc 9cf3 623c 525c b9bb
000003c0: 6c24 36bd 96ee 503e 084c 7c3d dfc8 f8bb
000003d0: 8d5e dcbc f50e 8d3e d4bc 2e3e 5edf 9c3d
000003e0: d6bd 783c 6ef1 293e 61bd 6a3a 4074 c5bc
000003f0: 12a3 1c3c 190f dc3d 8015 f93d a5fe f8bc
-0.02362835 -0.13184245 0.008908669 -0.096120395 0.04129722 -0.058050267 -0.060988717 0.0017422563
0.042641513 0.38341287 0.013176988 -0.040795468 0.009662785 0.027298907 -0.05347755 -0.012500507
-0.07896316 0.105295345 -0.13409323 -0.03118054 -0.042605627 -0.03837576 0.06097585 -0.017540272
-0.6740016 -0.19404647 -0.017140418 -0.46813908 0.025426993 -0.06428136 -0.013220912 0.03980233
-0.003732557 0.100795135 -0.028375063 -0.24043605 0.37900105 0.06267052 0.743323 0.27586743
0.01673353 -1.061245 -0.049264994 -0.028630003 0.006149353 -1.0618875 -0.055870045 -0.031529613
-0.043688424 0.029141804 -0.03903504 -0.039790165 0.04024584 0.03875384 0.24189256 0.11331971
0.0242153 -0.016332436 -0.039287988 0.026705557 0.0012327775 -0.38454202 0.027531292 0.06558651
0.01863957 0.07379552 0.062836364 0.04436249 0.012929889 0.47535506 0.22439887 0.04290915
0.019641493 0.033289593 -0.026700296 -0.06459928 -0.07117533 -0.051770143 -0.06566877 0.008581467
-0.009775671 -0.030893631 0.005305604 -0.093446836 0.07605151 0.11758184 -0.27659267 -0.029191745
-0.021250596 -0.3087545 0.016950643 0.010233397 0.016939137 -0.08520299 0.101982705 0.03604834
0.008875892 0.008130034 -0.06598588 0.007814355 0.13104495 -0.024816468 -0.22431706 -0.029145999
0.026659194 0.030586183 -0.19274549 0.029999912 -0.030905599 0.011687176 -0.032072756 0.0020875987
-0.04152965 0.12834935 -0.05201995 0.02899984 0.123192884 -0.26438928 -0.12183952 0.03618922
0.0561231 -0.17270099 -0.031717192 -0.034605853 0.022765808 -0.04883289 0.05605634 0.02533549
-0.072779134 -0.04507556 -0.016140915 -0.05591279 -0.005559401 -0.03214948 0.41172266 -0.004339074
0.06772819 0.20722449 0.26122648 0.024326418 -0.005330463 -0.033554904 0.043036412 -0.0016865185
0.00019222662 0.14307433 0.06117805 0.076269545 0.087744564 0.058585677 0.028586682 -0.07830848
0.13633692 -0.05342943 -0.08971742 0.036504503 0.0016342428 0.009070642 0.07112092 0.026933627
-0.099806085 -0.10328877 0.028755205 -0.0035404945 -0.025448047 -0.119628094 0.074985355 0.021298286
0.04037371 0.02498117 0.18987228 0.006027275 -0.013000295 0.027390152 0.0054628793 -0.005568275
0.023470616 0.037636515 0.0476638 -0.025141336 0.015359105 -0.21221621 0.15489407 0.08502526
0.067694806 0.006574547 0.07294377 -0.017761843 0.015091505 0.022186784 0.022768898 0.0022312435
0.022276646 -0.0029986494 -0.023710065 0.020723414 -0.07033097 -0.31982028 0.05777616 -0.067980446
0.004756661 -0.024043651 -0.12832154 -0.03750038 -0.040425725 -0.029790256 -0.11668801 -0.008420744
-0.050016522 -0.012901422 -0.040071834 -0.042357333 -0.0447158 -0.1305653 0.002955528 0.021488493
0.065742 -0.123199396 0.17987162 -0.07081007 0.020010876 0.04422024 0.021620056 -0.0325616
0.032825634 0.025141953 -0.063481316 0.024043145 -0.041285343 0.1001628 0.0057524987 -0.16786546
0.056512795 0.0953595 -0.04391225 -0.09799046 0.005679021 -0.011631605 0.013852026 -0.0056567574
-0.04446833 0.20403513 0.061595947 -0.007592305 -0.026900554 0.27550474 0.1706422 0.076597914
0.015181979 0.16596004 0.0008954611 -0.024103284 0.009560363 0.10745067 0.12162304 -0.030394861

decoder.0.bias f4 [24]
00000000: 179c 5cbe 4680 09bf 7133 883d 34f6 0bbe
00000010: 4c34 f23e 65a8 d93e 9041 053f 3b9f f23e
00000020: adab 8abe 6979 7ebd 124b 75be c219 a13e
00000030: ebae e93e 91c8 94bd b46b e5be 8a94 ac3e
00000040: d5bf ee3d 5e2f 01bf b1ce 10bf a381 d0be
00000050: 39ad 103f 983f ffbd 37f8 55be 7af6 7f3e
-0.21543919 -0.53711355 0.06650437 -0.13668138 0.47305524 0.42511287 0.52053165 0.47387108
-0.27084103 -0.062127504 -0.23954418 0.31464964 0.45641264 -0.072648175 -0.44808733 0.33707076
0.11657683 -0.504629 -0.56565386 -0.40723905 0.56514317 -0.124633014 -0.20895468 0.24996367

decoder.2.weight f4 [24, 12, 4, 4]
00000000: 8e73 09bd 35e4 133e e103 173c ef33 96ba
00000010: 625d 093d 509f 28be 7eef 843d 7fba 053e
00000020: 959e 113d 6cc8 c43d 0a28 acbc dafd c2bd
00000030: c44f 903c 21e1 b33d 0ee5 003e 8347 da3c
00000040: 8155 5cbc 10fe 18be 57f0 1dbc 1c30 6c3c
00000050: c3fe 84bd 72ef 0dbd a506 67bd a174 dcbb
00000060: faa5 3fbd 6329 ccbd cc4c 4abb d2c4 b8bd
00000070: dff1 203d fe6c e6bc 4da5 93bd 3671 f53b
00000080: 42e2 89bd 6cf6 1bbe d33b a33c 3fdb 923b
00000090: 45a3 ebbc 26e0 4f3d ad15 80bd 4f1c 9dbd
000000a0: f258 69bd 3deb 093e 432c 1d3e 268a 353d
000000b0: d2f5 ff3b 24df 2bbd 0364 1f3b 278e 75bd
000000c0: a257 303e a39b 94bc 931c 543c 975f f93c
000000d0: dcb5 083d 983f 3e3c 976f fabc ff7f 7bbb
000000e0: 4f02 17bd a91c 14bf dc6b 55be d7f6 32be
000000f0: 92fd bd3b 0cd3 0ebd 1844 b6bd ccea ddbc
00000100: e7f1 b1bc 8c68 46bc b794 f8bc f3d6 61bd
00000110: ff1b 67be e7a6 d63c 4f62 03bc 579c 9d3c
00000120: 71b8 9cbc 22e5 7639 5223 4ebd f1f6 d63d
00000130: 33b9 2dbe 3844 4d3e 522d a13e 0812 6f3e
00000140: e284 f13c 76f0 36be 4930 57bb f38d 853c
00000150: a5a0 dabd 9c15 f43d 857c 853e 9c52 6cbc
00000160: 3ba3 35bd 4988 373d a231 c23c a9cb b7bd
00000170: f1fa 1a3e f1d6 3fbc c893 d3bc 9f04 833a
00000180: 90ee cdbb 94f4 a4bd 06dd a0bc ec4c f43c
00000190: a928 91bd 26aa 003e a478 b93d 8ed0 6e3d
000001a0: bd22 06bd 3a8c d33c 5509 253e 4e64 283a
000001b0: 4030 1e3c 0da7 a53c a1f3 56bb d2ca 93bc
000001c0: c57b 24bd 163e 893d 1852 69bc 5f97 f9bc
000001d0: 9679 d63d 0da4 a93d a6ab d7bc 70ad c33c
000001e0: e2c5 063c bc3b 98bd 883c eb3c 4c5c 4738
000001f0: f3f2 4bbd e3de fd3c ab74 67bd bd96 aebc
00000200: 07bd 113d c398 933d c9b6 82bd a97a 41bd
00000210: 1c89 c7bb b50f 3a3e 4511 2b3d b00e 09bd
00000220: cc5a c73c f5c5 4f3d 6f68 d1bc ff00 3c3c
00000230: bf5c 463c ddb1 6f3d 2005 d3bc 7184 a0bb
00000240: ada4 a8bd d3ab edbc 5968 dbbd 402d 57bc
00000250: f519 39bc c05d 88be 5ccf 8fbb 25c6 2bbd
00000260: 08bf fa3d 1f27 df3d bb1e 1c3e bbb9 e2bc
00000270: 3ad1 013d 6715 c33c d911 473c f5ce 35bd
00000280: d152 453d 7fad b5bd 1d07 383d 5166 8dbb
00000290: da83 193e d5d8 ae3e d2fb 0cbb 8b12 0f3e
000002a0: aed7 df3d e26c 7abe 6731 823d c4a1 d4bd
000002b0: cd6c 62bc 7209 c33d b01d 5dbd 5051 0dbd
000002c0: b046 b8bd 51ae cdbd b7fb 1a3c 1eb2 f4bc
000002d0: 25e2 093c 2d81 57be 8134 b4bd 4925 f13c
000002e0: 1fb9 69bd 01db a7bb 73b9 c03d 147f 703d
000002f0: 88d6 203c 0976 85bc 2b28 2dbc e2eb e73c
00000300: 9f7a b8bd 58d0 af3c 6437 603e 862f 3abc
00000310: 412d 6cbc 2c72 7e3b e9fc 3e3c 8e20 d2bc
00000320: feff 5ebd a9da 8b3d a8c4 c93d 0361 c13d
00000330: 0cc1 6cba b353 163e 1ce8 dc3d 881c a93e
00000340: 80e0 dcbb be8b 583c 1473 bb3c 9198 88bb
00000350: 75fd 62bd ce5d 173d c37f b2bd 2a13 c1bc
00000360: 406d 54bb 88c7 da3d 9248 933f 641b 9a3d
00000370: 39fd e03c f6d3 3bbd 1c07 8739 52d9 f23e
00000380: 3607 86bc b9c8 bcbc 44cb d5bb 6b29 7dba
00000390: 2726 43bd 78d8 9a3b bf38 2abb 6778 38bd
000003a0: 12c6 27bd d456 84bd a884 c13e 74fe 48be
000003b0: b45e 8abd 6130 47be 2500 9fbd fcda b4be
000003c0: ac1f 813d f38f 113c 6e11 d63d e665 e2be
000003d0: 252c 23be 4f48 aebd 67ec be3e da82 85bd
000003e0: 4243 f3bd 841f 513c 9cb4 1e3f 5def c53e
000003f0: 3017 4c3e 5166 81bc a916 8f3e ba91 a9bd
-0.033557467 0.14442523 0.009217233 -0.0011459569 0.033536322 -0.16467023 0.06490992 0.13059424
0.035551626 0.0960854 -0.021015186 -0.095210746 0.01761616 0.08783174 0.12587377 0.026645428
-0.01344812 -0.14940667 -0.009639821 0.014415767 -0.064939044 -0.03465218 -0.05640282 -0.0067277704
-0.046789147 -0.099688314 -0.0030868528 -0.090219155 0.039293166 -0.028128143 -0.07209263 0.0074903024
-0.067326084 -0.15230721 0.019925987 0.0044817026 -0.028764376 0.050750874 -0.06254134 -0.07671415
-0.05696959 0.13468643 0.15348916 0.0443212 0.0078112865 -0.04196085 0.0024321086 -0.05995002
0.1722093 -0.01814062 0.012946266 0.030441089 0.03337656 0.011611842 -0.030570788 -0.0038375852
-0.036867436 -0.5785623 -0.20841926 -0.17476974 0.00579805 -0.03486924 -0.088997066 -0.027089499
-0.021721793 -0.012109887 -0.03034435 -0.055136632 -0.22569273 0.026202632 -0.008019044 0.019239588
-0.019130917 0.00023545747 -0.050326653 0.10496319 -0.16965179 0.20045555 0.3147989 0.23346722
0.029482309 -0.17865166 -0.0032835177 0.016303038 -0.10675172 0.11918184 0.26071563 -0.0144239925
-0.04434512 0.044807706 0.023705307 -0.08974392 0.15134789 -0.011708961 -0.025827304 0.0009995884
-0.0062845424 -0.08054462 -0.019636642 0.029821835 -0.070878334 0.12564906 0.090562135 0.058304362
-0.032747973 0.025823701 0.16116841 0.0006423638 0.009655058 0.020221258 -0.0032799023 -0.018041048
-0.0401571 0.06701295 -0.014240764 -0.030467687 0.104724094 0.08283243 -0.026326966 0.023886412
0.00822589 -0.074332684 0.028715387 4.7531255e-05 -0.04979224 0.03099007 -0.056507748 -0.021312112
0.03558066 0.07206871 -0.0638252 -0.04723612 -0.0060893428 0.18170054 0.041764516 -0.033461273
0.024335288 0.050725896 -0.025562493 0.011474847 0.012107073 0.058519233 -0.02575928 -0.0048986007
-0.082345344 -0.029012596 -0.10713262 -0.013133347 -0.011297693 -0.26634026 -0.004388733 -0.041937012
0.122434676 0.10896134 0.15246098 -0.027676454 0.031693675 0.023813916 0.012150251 -0.044386823
0.048174683 -0.088709824 0.04492866 -0.0043151756 0.14991704 0.34149805 -0.0021512401 0.13971917
0.109298095 -0.24455598 0.06357079 -0.10382417 -0.013819885 0.09523286 -0.05398339 -0.034501374
-0.089978576 -0.10043014 0.009459428 -0.02987009 0.008415733 -0.2104537 -0.08799077 0.029436724
-0.05706131 -0.005122543 0.09410372 0.05871494 0.009816773 -0.016291635 -0.010568659 0.02831072
-0.09007763 0.02146165 0.2189613 -0.0113638695 -0.014415086 0.0038825376 0.011656978 -0.025650289
-0.054443352 0.068288155 0.09851962 0.09442332 -0.0009031452 0.14680366 0.10786459 0.3302958
-0.0067406297 0.013216911 0.022882022 -0.004168578 -0.055417497 0.036954693 -0.08715775 -0.023568708
-0.003241375 0.10682589 1.1506522 0.075247556 0.027464496 -0.04585644 0.00025754503 0.47431427
-0.01636086 -0.02304493 -0.0065244753 -0.0009657356 -0.047643807 0.004725512 -0.0025973765 -0.0450367
-0.04096038 -0.06461874 0.3779652 -0.19628316 -0.067563444 -0.19452049 -0.077636994 -0.35323322
0.06304869 0.008884418 0.10452543 -0.44218367 -0.15934809 -0.085098855 0.37289736 -0.065190986
-0.11878063 0.012763862 0.6199434 0.38659182 0.1993072 -0.015795859 0.27946976 -0.08279748

decoder.2.bias f4 [12]
00000000: 46c7 bebe c20c 7fbe c0a1 19bf 3786 77be
00000010: 3d71 fcbd a65f 0fbf d578 dabe 2309 aa3e
00000020: 0863 1ebd eab8 fc3e 28be e33e 285e ea3e
-0.3726141 -0.2490721 -0.60012436 -0.24172293 -0.12326286 -0.5600532 -0.42670313 0.33210096
-0.038668662 0.49359828 0.44481015 0.4577496

decoder.4.weight f4 [12, 3, 4, 4]
00000000: d226 0e3d 3c7e 1a3e 49c9 913d aaf7 9abc
00000010: 86a2 1b3e 421a f43e 02b0 b03e 341d 543d
00000020: 6bee a0bb 9697 a63d 97a9 8bbd db45 02be
00000030: ed95 ce3b cdcd b43c 4cfc 61bd 7d68 64bd
00000040: 7cce 173d 974c 003e 0f54 f63c df6c 6ebc
00000050: 2f36 053e 7f1d d53e 48ff 6b3e b99c 7bbb
00000060: 5634 17bd 576b a73c 7f2f 27be 3fa2 38be
00000070: 160e 11bc 155d 2ebc 8b87 b7bd 9597 5bbd
00000080: 1c07 3e3d 5214 393e def4 913d 22a1 97bc
00000090: 032a 463e f138 0b3f 7bb2 ad3e d3cd 163d
000000a0: bc65 973c 2773 0f3e 058c 6bbd 3f3c 14be
000000b0: b68d ebbb ec74 233d 7698 20bd d6b9 62bd
000000c0: 6fc3 8c3d 1bc2 523e f373 cf3d 0ac1 9bb9
000000d0: 5d06 2d3e 6062 b83e 5f44 f03d 0788 56bd
000000e0: 5ef4 263e 10ad c63e 12c4 1e3e 61c4 78bd
000000f0: b607 af3c 0ffa f43d 3ea4 8d3c ac39 8abd
00000100: 5860 a03d 9a6f 823e 8d29 163e 9c07 a23c
00000110: c4bf 293e c3e6 cc3e af80 583e de56 493c
00000120: 1978 363e 3c72 d73e 8847 703e a1bc b63b
00000130: 636c 1e3d 2faf 253e 5e67 613d 8e2f 27bd
00000140: c1c4 683d db13 213e 69e9 8f3d e12e 583c
00000150: 60bb ad3d 5999 623e f406 843d b256 1fbd
00000160: eefb df3d 785b 803e 82c5 a83d 67b6 3bbd
00000170: 7c9c ff3c 7718 933d acd0 07bd 2e10 4cbd
00000180: 0e9c 883c 6cee 123e e7e9 993e 3dec 103e
00000190: 3796 d2bd d9cd 333d f260 cb3e fb20 703e
000001a0: 2a66 b7bd 70d6 e23b e423 bb3e 57e8 6f3e
000001b0: ea05 a6bd e726 0abe 0036 a93c 2e0d 023d
000001c0: 76b0 623a 133e 213d ba20 473e 4531 de3d
000001d0: 2f82 2abe def9 00be d72b 2f3e b24f a83d
000001e0: dbf8 29be bd48 28be 2519 193e 52c0 a43d
000001f0: 36ae cabd 993b 6ebe 6f9f 8abd dc70 7bbb
00000200: 52ca 233c d483 de3d 3405 7a3e f846 d33d
00000210: 343a dcbd 02fb 843c e49d 853e e74d b93d
00000220: 0206 ddbd 77b0 9cbc 2d08 833e 02b4 cc3d
00000230: 9db0 ccbd 71f4 26be d6b3 adbb ef80 debb
00000240: 517a 7cbd 2a7d 14be 6abf 64bf e265 fd3c
00000250: 5042 443c 85d4 03be a2b3 a2bf ab2d 473d
00000260: 0387 053e fd52 00bb 8c32 9cbd 0e3a 963d
00000270: e04a 0e3d 0f64 fdbb cd89 b93b c6a6 8d3d
00000280: 0140 c0bd 512e 0ebe 8437 60bf b8b3 be3c
00000290: 7089 c9bc 90f8 1cbe 2b73 b1bf 010b 003d
000002a0: 7fcd ce3d b2b9 e6bc 3684 bfbd 53e1 6d3d
000002b0: c360 8a3c 596b e6bc 9a95 2cbc 2234 703d
000002c0: 7c8d b0bd 0770 29be fea2 78bf 1747 7b3c
000002d0: d3de 55bd 0df3 6dbe 2d5e bebf 340e 693c
000002e0: d12e 833d 1905 c4bd 699a 0ebe 39a7 253d
000002f0: 9747 933c dcbe 4ebd d7ec 1fbd 3c1a 543d
00000300: 91ef 8a3c 42d1 aabe 2160 633d cb89 51bc
00000310: 10e1 e03c 1f8a c2bf 8909 763d 19bd 82bc
00000320: 2aab fb3c 4159 d0bf 4876 703d 1b73 4bbc
00000330: 6fe4 113d 0d61 b6be 5e3c 443d 5220 42bc
00000340: 4900 233d 75ed e8be ed19 203d 63bd 7fbc
00000350: f40b 2b3d c7b0 ccbf 3e10 1d3d 80d0 aabc
00000360: cc55 473d 2adb dabf a5fb 1b3d 9dd2 91bc
00000370: 3a20 593d aefd d2be a4b9 123d 68d4 84bc
00000380: 7389 063d 129c cfbe 4853 da3c 1e37 9cbc
00000390: 52fd 1b3d 0db5 c7bf 30c2 0f3d ced7 adbc
000003a0: 8b69 233d 044f d1bf 4709 063d bc85 9abc
000003b0: 45a7 2d3d 3301 cbbe a140 ad3c 4d35 a0bc
000003c0: 9786 833b 0b4b cf3c d83b c53c ec39 483c
000003d0: dc05 eb3c 1017 e13d 91e8 023e 0124 763d
000003e0: 8395 443d c2f5 0a3e 9f45 163e f3f7 b33d
000003f0: 4951 043d 82ab 703d ac35 843d b561 4e3d
0.03470499 0.15087217 0.0711847 -0.018916924 0.15198717 0.47676283 0.34509283 0.051785663
-0.004911234 0.081343815 -0.06819456 -0.1272196 0.0063044936 0.02207079 -0.05517225 -0.05576371
0.037062153 0.12529217 0.03006938 -0.014552324 0.1300895 0.41624066 0.23046601 -0.0038392975
-0.036915146 0.020436926 -0.16326712 -0.18030642 -0.008853456 -0.01064231 -0.089614 -0.053611357
0.0463935 0.18074158 0.07126783 -0.018509451 0.19351964 0.5438376 0.33925232 0.036817383
0.018481128 0.14008771 -0.05750658 -0.14476107 -0.007188524 0.039906427 -0.039207898 -0.05535301
0.068732135 0.20581858 0.101295374 -0.0002970773 0.16896959 0.36012554 0.11731791 -0.05237582
0.16304156 0.3880391 0.15504482 -0.060734157 0.021365982 0.119617574 0.01729023 -0.06749281
0.07830876 0.2547577 0.14664288 0.019779019 0.16577059 0.40019807 0.21142839 0.012288777
0.17819251 0.4207934 0.23464787 0.0055766855 0.038677584 0.16180108 0.05503022 -0.040816836
0.056828264 0.1573023 0.07026941 0.013194771 0.084830046 0.2212881 0.06446639 -0.03890104
0.10936724 0.25069785 0.082407966 -0.04582825 0.031202547 0.07182401 -0.03315799 -0.049820118
0.016675975 0.14348763 0.30061266 0.14152618 -0.102825575 0.043897483 0.397224 0.23450081
-0.08955033 0.0069225356 0.3655082 0.23428474 -0.08106597 -0.13491403 0.020655632 0.03175085
0.00086475105 0.03936584 0.19446078 0.10849241 -0.16651224 -0.12595317 0.17106567 0.08218326
-0.16598837 -0.16433997 0.14950998 0.08044495 -0.09896509 -0.23264922 -0.06768691 -0.003836683
0.009996967 0.10864988 0.24416047 0.103162706 -0.10753289 0.016232971 0.26097023 0.09048062
-0.107921615 -0.019127114 0.25592175 0.09995271 -0.09994624 -0.16304184 -0.005300979 -0.0067902724
-0.061640088 -0.14500871 -0.89354575 0.03093237 0.011978701 -0.12874039 -1.271107 0.048627537
0.13039784 -0.0019580715 -0.076268286 0.07335292 0.034739375 -0.007732875 0.005662179 0.06916575
-0.09387208 -0.13884856 -0.8758471 0.023279056 -0.024601668 -0.15329194 -1.3863271 0.031260494
0.10097789 -0.028164718 -0.09351389 0.058076214 0.016891843 -0.02812736 -0.010533715 0.058643468
-0.08620736 -0.16546641 -0.97123706 0.015336773 -0.052214455 -0.23237248 -1.487249 0.014224578
0.06405414 -0.09571285 -0.1392609 0.04044268 0.017978473 -0.050474986 -0.039044227 0.05178283
0.016959937 -0.33362776 0.055511598 -0.0127892 0.027451068 -1.5198401 0.060067687 -0.01595931
0.030721266 -1.6277238 0.05870655 -0.01241758 0.035618242 -0.3562092 0.047909133 -0.011848526
0.039795194 -0.45493665 0.039087225 -0.015609118 0.041759446 -1.5991448 0.038345568 -0.020851374
0.048665807 -1.7098134 0.038081784 -0.017800624 0.05300925 -0.41209167 0.035821572 -0.016214564
0.032845926 -0.4054876 0.02665104 -0.01906925 0.038083382 -1.5602127 0.0350973 -0.021221068
0.039895575 -1.6352239 0.03272369 -0.018862598 0.04239585 -0.39649352 0.021148982 -0.019556666
0.004013847 0.025304338 0.024076387 0.012220841 0.028689317 0.10990727 0.1278403 0.06009293
0.047994148 0.13570312 0.14674996 0.08787527 0.032304082 0.058757313 0.064555496 0.05038615

decoder.4.bias f4 [3]
00000000: 56d4 61bf 4097 bb3e 4c7c 0abf
-0.88214624 0.36638832 -0.5409591
