code/models weights/Autoencoder_speckle_300.pth (torch, 193695 bytes, 12 tensors)

encoder.0.weight f4 [12, 3, 4, 4]
0	0x3caebd00	0.021330357
1	0x3d503f19	0.050841425
2	0x3c8a1f53	0.01686064
3	0xbd3c2384	-0.045932308
4	0x3d76e62a	0.060278095
5	0x3d3477a3	0.044059407
6	0x3debb68a	0.11509426
7	0x3baf6b90	0.0053533986
8	0xbccdba5b	-0.025113275
9	0xbc5c6de7	-0.013453937
10	0xbbe2c7ae	-0.0069207763
11	0x3da0ead5	0.07857291
12	0x3c14a39c	0.009072211
13	0x3d3decef	0.046368536
14	0x3d91f487	0.07126718
15	0x3c6ba468	0.014382459
16	0x3bb6e908	0.0055819787
17	0xbd21a6dd	-0.039465774
18	0xbd82c6db	-0.06385585
19	0xbd54226b	-0.051790636
20	0xbd4a648e	-0.049412303
21	0xbdf935b8	-0.12168449
22	0xbcc288e5	-0.023746917
23	0xbd68d084	-0.05683948
24	0xbdcce222	-0.10004069
25	0xbe4fcc52	-0.20292786
26	0xbbd2a8b3	-0.006428802
27	0xbca74677	-0.020419342
28	0xbc65298f	-0.013986959
29	0xbd4a6b8c	-0.04941897
30	0xbd572711	-0.05252749
31	0xbc9c58f6	-0.019085389
32	0x3c970907	0.018436922
33	0x3bc01b71	0.0058626463
34	0x3b5e30a7	0.003390351
35	0xbd680835	-0.05664845
36	0x3d41e6b7	0.047339167
37	0x3b9404d0	0.0045171753
38	0x3df608ee	0.12013422
39	0x3cbcdbf0	0.023054093
40	0xbd0aad16	-0.033856474
41	0xbda566b5	-0.080762304
42	0x3ddf617d	0.10907266
43	0x3d84dca5	0.06487397
44	0xbca6a361	-0.020341577
45	0xbc66b562	-0.014081331
46	0x3b8d4418	0.004311096
47	0xbc439904	-0.011938337
48	0xbd0fb084	-0.035080448
49	0xbda414f4	-0.08011809
50	0xbd9b43fe	-0.07581328
51	0x3c8b93b1	0.017038198
52	0xbd30ae86	-0.04313519
53	0xbd9d611c	-0.07684538
54	0xbd0e711d	-0.034775842
55	0xbcc94b71	-0.024572106
56	0xbd1270a7	-0.035751965
57	0xbd457ce7	-0.04821482
58	0xbdcf625a	-0.10126181
59	0xbd1d4184	-0.03839256
60	0xbd406ec8	-0.04698065
61	0xbc59a11e	-0.013283042
62	0x3a80847c	0.0009805108
63	0x3c008901	0.007845164
64	0xbc5b62a5	-0.013390218
65	0xbceb1b9f	-0.028699694
66	0xbb1b4b03	-0.0023695834
67	0x3c9f9c0e	0.019483592
68	0x3d352f52	0.04423458
69	0x3d861e5e	0.06548761
70	0x3c8bc99e	0.017063912
71	0xbb936b61	-0.0044988845
72	0x3b5c8b18	0.0033652242
73	0x3dda1ae4	0.1064966
74	0x3d8edadf	0.0697534
75	0xbd1c8b8c	-0.03821902
76	0xbcdc8447	-0.026918544
77	0x3cd29c96	0.025709432
78	0x3d5073eb	0.050891798
79	0x3d015497	0.03157481
80	0xbd11f92a	-0.035638012
81	0xbc7b0d18	-0.015322946
82	0x3c4ba28b	0.01242889
83	0xbc12d406	-0.008961683
84	0xbd59cb68	-0.0531725
85	0x3cc48e15	0.023993531
86	0x3d7daefd	0.06193446
87	0xbcd38821	-0.025821747
88	0x3c15315f	0.009106009
89	0xbd05fa5c	-0.032709464
90	0xbd6b9e55	-0.057524044
91	0x3c15d2ec	0.009144526
92	0x3cf4d797	0.029887957
93	0xbd000947	-0.031258848
94	0xbd94a00d	-0.0725709
95	0x3ca26de7	0.019827796
96	0xbc42c9bd	-0.0118889185
97	0xbc6a1bd0	-0.014288858
98	0xbca1efc5	-0.019767651
99	0xbc737124	-0.014858518
100	0xbc27e404	-0.010247234
101	0xbca76a75	-0.020436505
102	0xbdf14be9	-0.11782057
103	0xbca152f8	-0.019692883
104	0xbcc358f1	-0.023846122
105	0xbe04a64b	-0.1295406
106	0x3f27d5e5	0.6556075
107	0xbe093051	-0.13397337
108	0xbc74c2de	-0.014939038
109	0xbcbe172a	-0.023204405
110	0xbe05150b	-0.12996309
111	0xbcdb1d9a	-0.026747514
112	0x3b1a6268	0.002355719
113	0x3bfd3a2e	0.007727883
114	0x3c6b1cfb	0.014350171
115	0x3c0fdfe6	0.008781409
116	0x3c086aa2	0.0083262045
117	0x3cd4a056	0.02595536
118	0x3c9bf7f3	0.01903913
119	0x3cd110a7	0.025520636
120	0x3c95f33b	0.018304458
121	0x3ca38f03	0.019965654
122	0xbe7e3cad	-0.24827833
123	0x3cb416b9	0.021983491
124	0x3c1da7a5	0.009622489
125	0x3cde67dd	0.027149135
126	0x3cbcda98	0.023053452
127	0x3ce92111	0.02845815
128	0xbad88cc2	-0.0016521441
129	0x3c0b86e9	0.008516052
130	0x3c9927b3	0.018695688
131	0x3bebb2ba	0.0071929367
132	0x3bd45e84	0.0064809937
133	0x3cda8a8b	0.02667739
134	0x3cba9565	0.022776315
135	0x3cd84da1	0.026404204
136	0x3c83bf93	0.01608256
137	0x3ce128ae	0.027485218
138	0xbe421fcd	-0.18957444
139	0x3cf0fca5	0.029417345
140	0x3ba0e291	0.0049098213
141	0x3cf69b75	0.030103425
142	0x3cf5c062	0.029998962
143	0x3cde97b3	0.027171945
144	0xbcb68f04	-0.022284992
145	0x3d42872e	0.0474922
146	0x3d4d5d87	0.050138023
147	0x3b6f60db	0.0036526236
148	0x3b5aa90e	0.0033364925
149	0x3de3689e	0.111039385
150	0x3e0d0d52	0.13774613
151	0x3c93eb95	0.01805667
152	0x3bcb5fad	0.006206474
153	0x3d80e1f1	0.06293095
154	0x3d411a78	0.047144383
155	0xbbfe9e94	-0.007770369
156	0xba167c0c	-0.00057405303
157	0x3d313e27	0.043272164
158	0x3daec272	0.08533181
159	0xbcbafa2b	-0.022824368
160	0xbd38086c	-0.044929907
161	0x3c5d5fd0	0.013511613
162	0x3d35bf29	0.044371758
163	0x3bbb2101	0.0057107215
164	0xbd2f4982	-0.042794712
165	0x3d0c4419	0.03424463
166	0x3db690fb	0.089143716
167	0xbab3560c	-0.001368226
168	0xbd63f069	-0.055649195
169	0xbd214c71	-0.03937954
170	0x3ce5923d	0.028023833
171	0xbcf07221	-0.029351296
172	0xbcb501d5	-0.0220956
173	0xbb51a749	-0.003199058
174	0x3d3e957b	0.046529274
175	0xbcf0d4f6	-0.029398423
176	0xbd7c4014	-0.061584547
177	0xbc2f0be0	-0.010683984
178	0x3c47bc99	0.012190961
179	0xbc90f29e	-0.017693814
180	0xbd82b884	-0.0638285
181	0xbc3381d4	-0.010956246
182	0x3bc5451e	0.0060202023
183	0xbd42afd0	-0.04753095
184	0xbdae8eb2	-0.08523311
185	0xbdd633bc	-0.10459086
186	0xbd5d0a51	-0.053964917
187	0xbdda94d5	-0.10672919
188	0xbd24ac37	-0.0402033
189	0xbd0bf770	-0.03417152
190	0x3d08cc76	0.033398114
191	0xbd415a9f	-0.047205564
192	0x3be28bdf	0.0069136466
193	0xbd2fe837	-0.042946067
194	0x3cfc622c	0.03080853
195	0x3b0c94a4	0.0021450901
196	0xbca1da69	-0.019757466
197	0xbe020ea2	-0.12700894
198	0xbd171b4c	-0.036891267
199	0xbbae6f32	-0.005323314
200	0x3d939ff0	0.0720824
201	0x3d156eb6	0.036482535
202	0x3cc12c75	0.02358077
203	0x3cc290b6	0.023750644
204	0x3cb35180	0.021889448
205	0xbc9d09f0	-0.019169778
206	0xbcba7bc3	-0.022764092
207	0xbaa7db8f	-0.0012806522
208	0xbc47861b	-0.012177969
209	0xbd6f22b2	-0.058382697
210	0x3d353284	0.04423763
211	0x3c5f15ca	0.013616035
212	0xbd132ca1	-0.035931233
213	0xbe373b06	-0.1789361
214	0xbd293ab7	-0.04131576
215	0xbc17fdd5	-0.009276827
216	0x3db5ee6d	0.08883367
217	0xbb355add	-0.0027672567
218	0x3d4ccfc9	0.050002847
219	0x3d108133	0.035279464
220	0x3d0ab86e	0.033867292
221	0xb91d98e9	-0.0001502965
222	0xbc966cdd	-0.018362457
223	0xbbe16bf7	-0.0068793255
224	0xbc971c6d	-0.018446172
225	0xbd476da9	-0.048688564
226	0x3d59eda7	0.05320516
227	0x3cc4f3a7	0.024041964
228	0xbd3f77fb	-0.04674528
229	0xbe5408d7	-0.20706497
230	0xbd9a62b8	-0.0753836
231	0xbc60005f	-0.0136719635
232	0x3dadc0b0	0.08484018
233	0x3cd8fb01	0.026486875
234	0x3db7e635	0.089794554
235	0x3baef540	0.0053392947
236	0x3ca128e8	0.019672826
237	0x3cf9a441	0.03047383
238	0x3d02e2ae	0.03195446
239	0x3bd940e0	0.006630048
240	0xbd5e3961	-0.05425394
241	0xbce5d342	-0.028054837
242	0xbdb7e140	-0.0897851
243	0xbd532fac	-0.051559135
244	0xbc14d4a0	-0.009083897
245	0x3da86e89	0.08224208
246	0xbdd5f9f3	-0.10448065
247	0xbd86cf49	-0.06582505
248	0xbd33f924	-0.04393877
249	0xbd80f8ec	-0.06297478
250	0xbded4838	-0.1158604
251	0xbd541ca8	-0.05178514
252	0xbcd13225	-0.025536606
253	0xbd497efe	-0.049193375
254	0xbd473fd0	-0.04864484
255	0xbc947046	-0.018119942

encoder.0.bias f4 [12]
0	0x3eee2bb3	0.46517715
1	0x3f093327	0.5359368
2	0x3a414524	0.00073726685
3	0x3e9c56db	0.30535015
4	0x3efdec16	0.49594182
5	0x3f17f3b2	0.59356225
6	0x3dc8e975	0.098101534
7	0x3bd78795	0.006577442
8	0x39439e0a	0.00018655523
9	0x3f06ade2	0.52609074
10	0x3dd74152	0.10510506
11	0xbea4502a	-0.3209241

encoder.2.weight f4 [24, 12, 4, 4]
0	0xbca6cd30	-0.020361513
1	0xbdbc855e	-0.09205125
2	0xbd0e16cf	-0.03468972
3	0xbcf74ac1	-0.030187013
4	0xbd81c814	-0.0633699
5	0x3c252e02	0.01008177
6	0xbe57f692	-0.21090153
7	0xbc559337	-0.013035587
8	0xbe09cb1f	-0.13456391
9	0x3c03955a	0.008031214
10	0xbec49f14	-0.38402617
11	0xbd82a472	-0.06379022
12	0xbd537d65	-0.051633257
13	0x3d6c03d8	0.057620853
14	0xbbc6cd3f	-0.0060669477
15	0xbbc7b732	-0.0060948366
16	0x3de9647b	0.11396118
17	0x3e73b58a	0.2379972
18	0x3dcd38c3	0.10020592
19	0x3d9502f7	0.07275956
20	0x3e10bedc	0.14135307
21	0x3efaf2ef	0.4901347
22	0x3e1d62f3	0.15369777
23	0x3e21ee15	0.15813477
24	0x3e0321cc	0.12805861
25	0x3f0da36f	0.55327505
26	0x3e912729	0.2835019
27	0x3e8f812a	0.28028232
28	0x3e05e631	0.13076092
29	0x3ea0f490	0.31436586
30	0x3e3ad64b	0.18245809
31	0x3e169ace	0.14707491
32	0x3cfff29a	0.031243611
33	0x3e089ca8	0.1334101
34	0x3e125548	0.14290345
35	0x3da2a0d7	0.07940834
36	0xbd15f208	-0.036607772
37	0x3e5e8f3d	0.21734329
38	0x3e131fd6	0.14367613
39	0x3dc082d9	0.09399957
40	0xbcd8eb3a	-0.026479352
41	0x3e33e9bc	0.17569631
42	0x3bf9df45	0.0076254928
43	0x3d24feb0	0.04028195
44	0xbcb6fef8	-0.022338375
45	0xbd9b9e4e	-0.075985536
46	0xbd696383	-0.056979667
47	0x3cbd02e2	0.023072664
48	0xbcd0906a	-0.025459487
49	0xbdbfe683	-0.093701385
50	0x3ccf7e5f	0.025328813
51	0x3cec3d83	0.028837925
52	0xbd1e11bc	-0.03859113
53	0x3e51bbd3	0.20481806
54	0x3ee3c26e	0.44484276
55	0x3e92fec6	0.28710002
56	0xbdf7f565	-0.12107352
57	0xbdc9ace5	-0.0984743
58	0xbdacfa75	-0.084462084
59	0x3e487a87	0.1957799
60	0xbc9bda40	-0.019024968
61	0xbd1ab879	-0.037773583
62	0x3e3e6429	0.18592896
63	0xbd2c42d0	-0.042055905
64	0x3d7d5199	0.061845396
65	0x3e5a0890	0.21292329
66	0x3e734a93	0.23758917
67	0x3db6d051	0.08926452
68	0x3d1bba26	0.03801932
69	0x3dd966e9	0.10615332
70	0xbeca67fc	-0.3953246
71	0x3c85135d	0.016244585
72	0xbe7ebd6f	-0.2487695
73	0x3e50ea6c	0.20401925
74	0x3da7cada	0.08192988
75	0x3dff9ff1	0.12481678
76	0xbd1e3a6c	-0.038629934
77	0x3d43c521	0.04779542
78	0xbe066b44	-0.13126856
79	0x3b5b9bd6	0.0033509634
80	0xbd868404	-0.06568149
81	0xbd9cb838	-0.076523244
82	0xbe87f28f	-0.26552245
83	0xbe3819ba	-0.17978564
84	0xbdd97e59	-0.10619802
85	0xba90c577	-0.0011045177
86	0x3dbdfedc	0.09277126
87	0x3d6d2d74	0.057904676
88	0xbcf1a7e1	-0.029498996
89	0xbe80ad74	-0.25132334
90	0xbe942d69	-0.28940895
91	0xbe0cde20	-0.13756609
92	0xbd229cef	-0.039700445
93	0xbdedcb99	-0.11611099
94	0xbdc48fc3	-0.09597733
95	0xbca6491c	-0.020298533
96	0x3c6ee701	0.014581443
97	0xbdb31ec3	-0.08746102
98	0xbe984da9	-0.2974675
99	0xbdf36d60	-0.11886096
100	0xbd9d23f0	-0.0767287
101	0xbdca720e	-0.098850355
102	0xbdadf1ef	-0.08493411
103	0xbe816f74	-0.25280344
104	0x3c96dc2c	0.018415533
105	0xbdbc3400	-0.09189606
106	0xbe2fec8c	-0.17180079
107	0xbc526dc4	-0.012843553
108	0x3df65fb0	0.1202997
109	0x3e4a6c6b	0.1976792
110	0x3d1d2ef7	0.038374867
111	0xbcef2b1e	-0.029195365
112	0xbd772250	-0.060335457
113	0xbbb625ee	-0.005558721
114	0x3c4122f2	0.011788117
115	0xbd8a13c2	-0.0674205
116	0xbcd4bc1c	-0.025968604
117	0x3e1ec285	0.15503891
118	0x3eacdde6	0.33763045
119	0x3d6e4904	0.058175102
120	0x3c989a3d	0.018628234
121	0xbca49337	-0.020089729
122	0x3d8b1189	0.06790454
123	0xbd676cc2	-0.056500204
124	0xbbd53efa	-0.0065077515
125	0xbe01cc10	-0.126755
126	0xbd86fbba	-0.06590982
127	0xbd89acef	-0.067224376
128	0x3d2d2266	0.042269133
129	0xbc6f8f02	-0.014621498
130	0xbbad18c9	-0.0052824956
131	0x3d533ff6	0.05157467
132	0xbd78fb9c	-0.06078683
133	0x3ea7f5b8	0.32804656
134	0x3e805b1e	0.25069517
135	0xbcce1513	-0.025156533
136	0x394bf3f0	0.00019450462
137	0x3e208ebf	0.15679453
138	0xbdb2fdb9	-0.087398
139	0x3d137f7a	0.036010243
140	0x3c000006	0.007812506
141	0xbd81a209	-0.06329734
142	0xbd450cac	-0.048107788
143	0x3d444d4e	0.047925286
144	0xbcd8f631	-0.02648458
145	0x3dc3fee4	0.09570101
146	0x3c95243b	0.018205753
147	0xbd4115e0	-0.047140002
148	0xbdfa861e	-0.12232612
149	0xbbe2b298	-0.0069182627
150	0x3d58ea43	0.052957784
151	0xbdc39858	-0.09550542
152	0x3d883be5	0.06652049
153	0xbd9bed7f	-0.07613658
154	0x3e7a2078	0.24426448
155	0xbdae95ba	-0.08524652
156	0x3d74ab1a	0.059733488
157	0xbe3b5971	-0.18295838
158	0xbe339b67	-0.1753975
159	0x3bbb3823	0.005713479
160	0x3c2218e4	0.00989363
161	0xbbdb2e1d	-0.0066888467
162	0xbe3beb70	-0.18351531
163	0xbd5fcfc0	-0.054641485
164	0xbe50871c	-0.2036404
165	0x3e24fde3	0.16112475
166	0x3ec7b6d4	0.39006674
167	0xbe0a235c	-0.13490051
168	0xbd7d4ca2	-0.06184066
169	0xbdea52e6	-0.11441593
170	0xbdfd56b8	-0.12370056
171	0xbc903205	-0.017601976
172	0x3cf7268c	0.030169748
173	0x3d8ef8f1	0.069810756
174	0x3d63e123	0.05563463
175	0x3aebcdd2	0.0017990416
176	0xbb7c5571	-0.0038503075
177	0xbd19b0ea	-0.037522234
178	0x3db4f144	0.0883508
179	0x3d116fe2	0.03550709
180	0x3dc89f77	0.097960405
181	0xbe933e47	-0.2875845
182	0xbefd9f20	-0.49535465
183	0xbd3064d3	-0.043064903
184	0xbd8f55f4	-0.06998816
185	0xbd009d84	-0.03140022
186	0xbe14a5d9	-0.14516391
187	0x3cc8f477	0.024530632
188	0xbd647d53	-0.05578358
189	0x3d3a6a05	0.045511264
190	0xbb8af4df	-0.0042406167
191	0xbd45161d	-0.048116792
192	0xbced89c1	-0.02899635
193	0x3d45cef7	0.04829308
194	0xbd4e06ce	-0.05029946
195	0x3d215898	0.03939113
196	0xbd625278	-0.05525443
197	0x3e7d42ee	0.24732563
198	0xbe081c7d	-0.13292117
199	0x3ddd5ead	0.108090736
200	0xbdab2324	-0.08356312
201	0xbd5f515a	-0.054520942
202	0x3d9d811e	0.07690643
203	0xbdc63757	-0.09678524
204	0xbd84494e	-0.06459294
205	0xbca7a973	-0.020466542
206	0xbe359aab	-0.17734782
207	0xbd05562d	-0.032552887
208	0x3d205b18	0.039149374
209	0x3dac79fd	0.08421705
210	0x3cb13f17	0.021636529
211	0x3ce9f31c	0.028558306
212	0x3c896389	0.016771095
213	0x3e7522fb	0.23939125
214	0x3dc9dac1	0.09856177
215	0x3e2439e8	0.16037714
216	0x3da213f4	0.07913962
217	0x3de6d626	0.11271314
218	0x3e5b6a33	0.2142723
219	0x3e315969	0.17319264
220	0x3d6ee00a	0.05831913
221	0x3e7d1d28	0.24718153
222	0x3e1cd27c	0.15314668
223	0x3ccd7a42	0.025082711
224	0xbca9e499	-0.020738887
225	0x3db0dc85	0.08635811
226	0x3c9cac09	0.019125002
227	0x3d2f3ac7	0.042780664
228	0x3cc0e373	0.023545956
229	0x3e325da0	0.17418528
230	0xbbe5f44f	-0.0070176492
231	0x3db7c27b	0.08972641
232	0xbd6e3030	-0.058151424
233	0xbe64bdc2	-0.22338012
234	0xbc6a4fd6	-0.014301261
235	0xbcfd4a74	-0.030919291
236	0xbc367a90	-0.01113762
237	0x3d95bc8f	0.07311355
238	0xbd9cc84f	-0.07655393
239	0xbd3b18b9	-0.045677874
240	0x3bb405f6	0.0054938747
241	0x3d2838d8	0.041069835
242	0x3c3bb621	0.011456997
243	0x3c09f329	0.00841979
244	0x3d98a6af	0.07453667
245	0x3dece686	0.11567406
246	0x3dfb6f8a	0.12277134
247	0x3e0c6a5c	0.13712448
248	0x3d3ba814	0.04581459
249	0x3e0bfebd	0.13671394
250	0xbc68dc50	-0.014212683
251	0x3c9ad8b7	0.018902166
252	0xbc0bb465	-0.008526896
253	0xbd899326	-0.067175195
254	0xbdab02ff	-0.08350181
255	0xbbfe6d37	-0.0077644843

encoder.2.bias f4 [24]
0	0x3d85dcee	0.065362796
1	0x3ea85c2b	0.3288282
2	0x3d97dfe4	0.074157506
3	0x3e809bbe	0.25118822
4	0x3daf4c3d	0.08559463
5	0xbe5d2d41	-0.21599294
6	0xbeb80c76	-0.35947007
7	0x3e39d009	0.18145765
8	0xbec2bf55	-0.380366
9	0x3ec34e08	0.3814547
10	0x3bd42a33	0.006474757
11	0x3ec66a75	0.38753095
12	0x3e3fd364	0.18732983
13	0xbe515838	-0.20443809
14	0x3efc3d1d	0.49265376
15	0x3e9bb134	0.30408633
16	0xbeb4d5b8	-0.35319304
17	0x3ed23bb1	0.41061166
18	0x3e9d534b	0.3072761
19	0x3edc5aca	0.43038017
20	0xbdd3783b	-0.103256665
21	0x3e6110c5	0.21979053
22	0xbeaac13e	-0.33350557
23	0x3ea0725a	0.31337243

encoder.4.weight f4 [48, 24, 4, 4]
0	0xbd004a30	-0.03132075
1	0x3d24cd4e	0.040234856
2	0x3d34c41f	0.04413235
3	0x3ca700c4	0.020386107
4	0xbb9caf1b	-0.0047816164
5	0xbd96e66e	-0.0736817
6	0xbe83bf62	-0.2573195
7	0xbd8d8cab	-0.06911596
8	0xbcedfaea	-0.02905031
9	0xbe075ad2	-0.13218239
10	0xbd490666	-0.049078368
11	0x3d881638	0.06644863
12	0x3d291879	0.041283105
13	0xbdb7e799	-0.089797206
14	0xbca1743f	-0.01970875
15	0x3d456e15	0.048200686
16	0x3aca6f46	0.0015444539
17	0x3c930aa6	0.017949414
18	0xbc8cc2ce	-0.017182734
19	0x3db5959c	0.08866426
20	0x3acc7ecd	0.0015601754
21	0x3d86d684	0.06583884
22	0x3d01058e	0.031499438
23	0x3e16be67	0.1472107
24	0x3d77bf46	0.060485147
25	0x3d808e89	0.062771864
26	0xbdcafb50	-0.09911215
27	0x3e1fa87d	0.15591617
28	0xbcc1c17e	-0.023651835
29	0xbd0efabd	-0.03490709
30	0xbdeccabc	-0.11562106
31	0x3db6b80d	0.08921824
32	0xbbd32c4d	-0.00644449
33	0x3ce05e44	0.0273887
34	0xbaea1aea	-0.0017860804
35	0x3a840cbe	0.0010074598
36	0x3cebb4a1	0.028772654
37	0x3d646b11	0.05576617
38	0xbe329437	-0.17439352
39	0x3e5e0ae9	0.2168385
40	0xbd392169	-0.045197878
41	0xbe1c54d1	-0.1526673
42	0x3d16b5d9	0.036794517
43	0xbd295417	-0.04133996
44	0xbc7da3b5	-0.015480925
45	0x3ce2b6a6	0.027674984
46	0x3ddfa998	0.10921019
47	0xbd234363	-0.039859187
48	0xbb982589	-0.0046431464
49	0xbd38d137	-0.045121398
50	0x3d558f7d	0.052138794
51	0xbd85f539	-0.06540913
52	0xbd978247	-0.07397895
53	0x3ead6693	0.3386732
54	0xbe7db064	-0.24774319
55	0xbdcdbe07	-0.100460105
56	0xbdc24b4c	-0.09487018
57	0xbe6e6676	-0.23281273
58	0xbe059b3f	-0.13047503
59	0xbc535c96	-0.012900492
60	0x3cfd3e9d	0.030913645
61	0xbcf00748	-0.029300347
62	0x3cd2d1bf	0.02573478
63	0x3d8b8b2c	0.06813654
64	0x3c85beac	0.016326271
65	0xbc6705ca	-0.014100501
66	0x3d8618f1	0.06547726
67	0xbc970a75	-0.018437603
68	0xbd150746	-0.03638389
69	0xbe69f341	-0.228467
70	0x3e52b34b	0.20576207
71	0xbd9746d2	-0.07386555
72	0x3b961d26	0.0045811115
73	0x3e1f8bbb	0.15580647
74	0x3db871be	0.090060696
75	0xbce11f82	-0.027480844
76	0xbbaad2a9	-0.005213101
77	0xbc445736	-0.011983683
78	0x3c911631	0.017710777
79	0xbd1465ff	-0.036230084
80	0xbcfe0480	-0.031008005
81	0xbd3b4e7e	-0.045729153
82	0xbd977780	-0.0739584
83	0xbd5fdc9b	-0.054653745
84	0x3dc687c8	0.09693867
85	0x3d784de3	0.060621154
86	0xbcf47b00	-0.029843807
87	0x3dd18895	0.10231129
88	0xbc02f3fa	-0.007992739
89	0xbdbe8a6b	-0.09303745
90	0xbc77d46e	-0.015126331
91	0xbe209f56	-0.15685782
92	0x3cb583f7	0.022157652
93	0x3c100101	0.008789302
94	0xbda4986d	-0.080368854
95	0x3da1c303	0.07898524
96	0xbc88025b	-0.016602686
97	0xbc100b5c	-0.008791771
98	0xbb4bf07f	-0.0031118689
99	0xbd837132	-0.06418075
100	0xbe208605	-0.15676124
101	0xbe33c260	-0.17554617
102	0x3dd838a3	0.105576776
103	0xbc9155d6	-0.017741125
104	0xbc7f1c95	-0.015570779
105	0xbd471e8d	-0.04861312
106	0x3e073740	0.1320467
107	0xbd967fc2	-0.073485866
108	0x3c92708d	0.017875934
109	0x3dbd6d3e	0.09249352
110	0x3c0d9552	0.008641558
111	0xbd5e7185	-0.05430748
112	0xbdd14a01	-0.10219193
113	0xbd12d10a	-0.035843886
114	0x3e715f80	0.23571587
115	0xbd04e8fe	-0.03244876
116	0xbdba211b	-0.090883456
117	0xbe318724	-0.17336708
118	0x3edb660b	0.4285129
119	0x3da38672	0.07984628
120	0x3d82c9ca	0.063861445
121	0x3e1132ae	0.14179489
122	0x3e04135e	0.12898013
123	0x3dbf5f45	0.09344343
124	0xbabc5e34	-0.0014371336
125	0x3cd41bb7	0.025892122
126	0x3b162913	0.0022912666
127	0x3d451898	0.048119158
128	0xbdeafc90	-0.11473954
129	0x3dd7e3b9	0.105414815
130	0xbdf9c2aa	-0.12195332
131	0xbd44248f	-0.047886427
132	0x3dbe7ac1	0.09300757
133	0xbaeb1a53	-0.0017936922
134	0x3ce9c611	0.028536828
135	0xbe9b06e6	-0.302787
136	0xbc687bc0	-0.014189661
137	0x3e3f0752	0.18655136
138	0x3dace06f	0.08441245
139	0xbc54fc32	-0.012999581
140	0xbc5e17af	-0.013555451
141	0x3ce70044	0.028198369
142	0x3d97570d	0.073896505
143	0xbda9ed77	-0.08297246
144	0x3c837123	0.016045159
145	0x3cf0ed97	0.029410167
146	0xbc1dc8ad	-0.009630364
147	0x3cd6e45c	0.026231937
148	0x3df80288	0.12109858
149	0xbd8d13da	-0.06888552
150	0x3e4bc506	0.19899377
151	0x3b5b2bde	0.0033442895
152	0x3c40b28b	0.011761318
153	0x3cb20750	0.021732002
154	0x3d5875a7	0.052846577
155	0x3c3f6aac	0.011683147
156	0x3ce39df4	0.027785279
157	0xbdbdae5c	-0.09261772
158	0xbdcc8045	-0.09985403
159	0x3d2283c1	0.03967643
160	0x3d248eb3	0.04017515
161	0x3c85b96c	0.016323768
162	0x3be514fd	0.0069910274
163	0x3d8d1fba	0.06890817
164	0xbd3fb47d	-0.046802986
165	0x3ca2e685	0.01988531
166	0x3c84013b	0.016113868
167	0xbd203c32	-0.039119907
168	0x3d188de0	0.037244678
169	0x3cab0fbf	0.020881532
170	0xbea547db	-0.32281384
171	0xbd27c778	-0.040961713
172	0x3c389611	0.011266247
173	0xbd0b09fd	-0.033945072
174	0xbd8565d5	-0.065135635
175	0xbbf41381	-0.007448614
176	0x3dfbfe7d	0.12304399
177	0x3d42966d	0.04750674
178	0x3cb356ad	0.021891916
179	0x3dcf6f2c	0.10128626
180	0xbdd74313	-0.1051084
181	0xbdf9e20e	-0.1220132
182	0xbdb25943	-0.087084316
183	0x3dcdcc28	0.10048705
184	0x3de6959d	0.11259005
185	0x3e891928	0.26777005
186	0x3e91d35c	0.28481567
187	0x3db15ace	0.08659898
188	0xbd298d32	-0.04139442
189	0xbd54b68b	-0.0519319
190	0x3d4552a9	0.048174534
191	0xbd9383b6	-0.07202856
192	0x3c33f50f	0.0109837195
193	0x3c86d550	0.016459137
194	0x3c8570f7	0.016289217
195	0x3cd36da1	0.025809111
196	0xbc979372	-0.018502925
197	0x3dc9908f	0.098420255
198	0x3e5f8294	0.21827155
199	0x3d98add7	0.07455032
200	0xbac2ba21	-0.0014856496
201	0x3c874e44	0.016516812
202	0x3e2500d8	0.16113603
203	0xbe214563	-0.15749125
204	0xbc809067	-0.015693856
205	0xbc4fa64a	-0.012673924
206	0xbcc22d3e	-0.023703214
207	0x3d06e27c	0.032930836
208	0xbb84c5e7	-0.004051912
209	0x3ba2cbe8	0.004968155
210	0xbe068fb5	-0.13140757
211	0xbd45f654	-0.04833062
212	0xbd3a4e35	-0.04548474
213	0x3cb9d5c6	0.022684943
214	0xbe8f7001	-0.2801514
215	0xbdfd64f5	-0.12372772
216	0xbcc571f6	-0.024102192
217	0xbe196a4e	-0.14981958
218	0x3e8b3b15	0.27193514
219	0xbd45ab83	-0.04825927
220	0x3ca4dfec	0.020126306
221	0x3c1e1e78	0.009650819
222	0x3ba96deb	0.005170574
223	0x3b2c8a8d	0.00263277
224	0xbd536222	-0.05160726
225	0x3d9f84d3	0.07789006
226	0x3d6ea295	0.05826052
227	0xbd04bd92	-0.03240735
228	0x3c7ab2de	0.015301434
229	0x3e0d05f4	0.13771802
230	0x3bb361e3	0.0054743155
231	0x3d4f7a24	0.05065359
232	0xbc2e3cf9	-0.010634654
233	0xbd594fb7	-0.053054538
234	0xbc765c13	-0.015036601
235	0xbc830394	-0.015992917
236	0x3c8dd66f	0.017314164
237	0x3cefebad	0.029287184
238	0x3daae9ba	0.08345361
239	0xbd86a34e	-0.06574117
240	0x3ceb35da	0.028712202
241	0xbd98facb	-0.0746971
242	0xbe15ba2b	-0.14621799
243	0x3a4e443e	0.0007868445
244	0x3cb5fe1d	0.022215897
245	0x3dee90f9	0.11648745
246	0x3d934a43	0.07191899
247	0xbe215665	-0.15755613
248	0xbccfa3c5	-0.025346646
249	0xbe010a9a	-0.126017
250	0xbef24439	-0.47317675
251	0x3d8b6a9a	0.06807442
252	0xbbeef04c	-0.007291829
253	0x3dfd5512	0.123697415
254	0x3db8ede6	0.090297505
255	0xbd8d4953	-0.06898751

encoder.4.bias f4 [48]
0	0xbead5fa5	-0.33862033
1	0x3eba7f17	0.36425087
2	0x3f035dd7	0.51315063
3	0xbea4f312	-0.32216698
4	0x3eb8d6e6	0.36101454
5	0x3ecdd7fc	0.40203846
6	0xbea73b45	-0.32662407
7	0x3e4e5bb5	0.20152171
8	0xbecd2df9	-0.40074137
9	0xbe89556a	-0.26822978
10	0xbdc91639	-0.09818692
11	0xbe8fa046	-0.28051966
12	0x3e4d38ed	0.20041247
13	0x3e0e5d66	0.13902816
14	0x3dafd022	0.0858462
15	0x3eb79f77	0.3586385
16	0x3ded5a4f	0.115894906
17	0x3d8c88e0	0.06862044
18	0x3e0246a3	0.12722258
19	0x3dc6c5f1	0.09705723
20	0xbda79f09	-0.081846304
21	0x3f11652c	0.56795
22	0xbe99f808	-0.30072045
23	0xbe9f14a8	-0.31070447
24	0x3ed1a492	0.4094587
25	0xbe8d8584	-0.27640927
26	0x3ef1d2dc	0.47231185
27	0x3f083b1b	0.5321519
28	0x3e671fdb	0.22570746
29	0x3d9dc379	0.07703299
30	0xbe83d9cf	-0.25752112
31	0xbec7f78a	-0.39056045
32	0xbd6efe06	-0.058347724
33	0x3ecea6ba	0.40361577
34	0x3d7a81d5	0.061158974
35	0x3d72c56a	0.0592703
36	0xbdce5127	-0.10074072
37	0xbe4a5f49	-0.19762911
38	0x3dc5184b	0.09623774
39	0xbe95cd68	-0.29258275
40	0xbebb708b	-0.366093
41	0xbeb00314	-0.34377348
42	0x3ea111a2	0.31458765
43	0x3e21ccfa	0.15800849
44	0xbdf306e7	-0.11866551
45	0x3f056924	0.52113557
46	0xbe596766	-0.2123085
47	0xbd0e4a9b	-0.034739118

decoder.0.weight f4 [48, 24, 4, 4]
0	0xbcd3e247	-0.025864733
1	0x3dcf47bc	0.10121104
2	0x3c099d84	0.008399371
3	0x3bea4f75	0.0071505853
4	0x3d7cfd5f	0.06176507
5	0xbe68d528	-0.22737563
6	0x3ee8b907	0.45453665
7	0xbcfba618	-0.030718848
8	0x3d2c4814	0.042060927
9	0x3e00de87	0.12584887
10	0x3cf7dd9d	0.03025704
11	0xbd81e7ba	-0.063430265
12	0x3c827dd5	0.015929142
13	0x3cb1be0e	0.02169707
14	0x3ccddca5	0.025129626
15	0xbd84eedf	-0.064908735
16	0xbd9f0690	-0.077649236
17	0x3da4b6f6	0.080427095
18	0xbf00a14e	-0.5024613
19	0xbd13acd4	-0.036053494
20	0xbd237e1d	-0.039915193
21	0xbd7db1b4	-0.06193705
22	0xbe96cac7	-0.29451582
23	0xbe1e640f	-0.15467857
24	0x3992b2e3	0.0002798057
25	0x3d653d8e	0.055966906
26	0xbe3c8993	-0.18411855
27	0xbe8bcb6a	-0.2730363
28	0x3d26f898	0.04076442
29	0xbebb5a3e	-0.36592287
30	0x3ce782dd	0.028260643
31	0xbbb2bdd4	-0.005454758
32	0x3c944675	0.018100003
33	0x3d0020ac	0.03128116
34	0xbcf9af8f	-0.03047922
35	0xbda19891	-0.07890428
36	0xbd62a50b	-0.05533318
37	0x3d8d4456	0.068978
38	0x3dece3e1	0.11566902
39	0x3dcc2a11	0.09968961
40	0x3ccdf923	0.025143212
41	0x3c6979f5	0.014250268
42	0x3d36e942	0.044656046
43	0x3d5844ac	0.052799866
44	0xbda6f15e	-0.08151506
45	0xbc111f39	-0.008857542
46	0xbd92cd58	-0.071680725
47	0xbb26abd9	-0.002543202
48	0xbd305c26	-0.04305663
49	0x3d06d76b	0.032920282
50	0xbd227ff4	-0.039672807
51	0xbd263fe6	-0.040588282
52	0x3db5c83e	0.08876084
53	0xbd23cd0e	-0.039990477
54	0xbd3c067a	-0.045904614
55	0x3c55fc0e	0.013060583
56	0x3cbe0474	0.023195483
57	0xbc311b96	-0.0108098
58	0xbd24e218	-0.040254682
59	0x3cc11241	0.023568274
60	0xbb512427	-0.0031912418
61	0xbd27bda7	-0.04095235
62	0xbca0c454	-0.019624867
63	0xbd04f90c	-0.032464072
64	0x3ccde614	0.025134124
65	0x3da57d44	0.08080533
66	0x3c170a14	0.009218711
67	0xbcfca26e	-0.030839171
68	0x3cae922a	0.02130993
69	0x3e97160e	0.29509014
70	0x3e07fcc9	0.13280024
71	0x3c8328e7	0.016010715
72	0x3c30a314	0.010781068
73	0xbda4ae4d	-0.08041058
74	0x3d74496e	0.05964034
75	0x3de92e27	0.11385756
76	0xbd42a550	-0.047520936
77	0x3bfd97b5	0.007739032
78	0x3e2a26ca	0.1661636
79	0x3d226ba7	0.039653447
80	0xbb5372c4	-0.003226445
81	0x3c50e037	0.0127487695
82	0xbd4867e6	-0.04892721
83	0xbd360c2c	-0.0444452
84	0x3d9119f5	0.07085029
85	0x3e405735	0.18783267
86	0xbd8cbfb0	-0.06872499
87	0x3df2e91f	0.118608706
88	0xbc9df29b	-0.019280722
89	0xbdec98c9	-0.11552579
90	0xbd774312	-0.060366698
91	0x3d57d237	0.05269071
92	0xbbc6e5f9	-0.0060698953
93	0xbc712dc6	-0.014720386
94	0xbd4c71dd	-0.049913276
95	0x3db23c4c	0.08702907
96	0xbd0fd6a4	-0.035116807
97	0x3cdd5af2	0.027020905
98	0x3c784896	0.015154025
99	0x3d0531a0	0.03251803
100	0xbbbd1bd3	-0.005771139
101	0x3ddfd261	0.109287985
102	0x3c434607	0.011918551
103	0x3d0220df	0.03176963
104	0xbcd57eb5	-0.026061395
105	0xbe1787c2	-0.14797881
106	0xbdecaacc	-0.115560144
107	0xbcff76cb	-0.031184575
108	0x3d4588da	0.048226215
109	0xbbe9390e	-0.007117397
110	0x3da879fa	0.0822639
111	0x3cf75b5b	0.030194929
112	0xbc812e88	-0.015769258
113	0xbd28ea46	-0.041239046
114	0x3c0eeeb4	0.008723903
115	0xbd5f5c90	-0.054531634
116	0x3d28383b	0.04106925
117	0x3e37e9b2	0.17960241
118	0xbe9db2ce	-0.3080048
119	0x3d0d5c7b	0.034512024
120	0x3d13b20f	0.03605848
121	0x3d6a9c96	0.05727824
122	0x3e4bc5f7	0.19899736
123	0xbd137636	-0.036001407
124	0xbcd96b7a	-0.026540507
125	0x3dfbe477	0.122994356
126	0xbe0c5655	-0.13704808
127	0xbd90c5cc	-0.07068977
128	0x3a1ad415	0.00059062365
129	0xbd4e9187	-0.050431754
130	0x3d3f1bfd	0.04665755
131	0xbc8a07d1	-0.01684943
132	0x3cab64ca	0.020922083
133	0xbd83bec9	-0.06432874
134	0x3ead0f73	0.3380085
135	0x3d5b1d84	0.053494945
136	0x3cb91b78	0.022596106
137	0x3dcd427e	0.10022448
138	0x3e24ec02	0.16105655
139	0x3ce4e78a	0.027942438
140	0xbcf34c20	-0.029699385
141	0x3a51b8fc	0.0008000282
142	0xbd0d2262	-0.034456618
143	0x3d32cf20	0.04365456
144	0x3c8c5d52	0.017134342
145	0x3cf35582	0.02970386
146	0xbcc1abb4	-0.023641445
147	0x3da63936	0.08116381
148	0x3d9a16a1	0.07523847
149	0x3e1cf7ec	0.1532895
150	0xbddd306c	-0.10800251
151	0x3cd812b8	0.026376113
152	0x3d63efee	0.055648737
153	0x3c05f409	0.008175858
154	0x3dc8a462	0.097969785
155	0xbc2af63e	-0.010434685
156	0xbc2ce1ca	-0.010551879
157	0xbd399b2e	-0.045314007
158	0xbd6f1086	-0.058365367
159	0xbcd16f7d	-0.025565857
160	0xbbe4acc2	-0.006978602
161	0xbd16ba0c	-0.036798522
162	0x3c7ec5ad	0.015550059
163	0xbc679a89	-0.014135965
164	0xbd3fa72f	-0.046790298
165	0xbe255fa7	-0.1614977
166	0xbe8a874c	-0.27056348
167	0xbdb5c67f	-0.08875751
168	0x3d93a5e4	0.072093755
169	0x3da86ad2	0.08223499
170	0x3eaf52d6	0.34242886
171	0x3d30fd07	0.043210056
172	0x3ca31c64	0.019910999
173	0x3c5e639f	0.013573556
174	0x3d341b65	0.043971438
175	0xbc2fbe02	-0.010726454
176	0xbd1bf8d8	-0.038079113
177	0x3dfbf721	0.123029955
178	0xbd175cda	-0.036953785
179	0xbd652791	-0.055945937
180	0x3b859e44	0.0040777046
181	0xbe3bbe1f	-0.18334244
182	0x3e1ed2ad	0.15510054
183	0x3dcb7d25	0.09935979
184	0xbb3b9af2	-0.002862629
185	0xbc293330	-0.010327145
186	0x3d4b8b22	0.049693234
187	0xbc2ff805	-0.010740285
188	0x3ba12c1b	0.004918588
189	0x3d088c97	0.033337202
190	0x3c61a536	0.0137722995
191	0x3bbae4a3	0.005703525
192	0xbb55d3a9	-0.003262738
193	0x3d0c9e16	0.03433045
194	0x3d18949d	0.037251104
195	0xbe1792b2	-0.14802054
196	0x3ba6e1aa	0.005092819
197	0x3d6c3c3b	0.057674628
198	0xbd82ddd3	-0.06389966
199	0xbe4ecd1b	-0.20195429
200	0x3c7ad28e	0.015308989
201	0x3ec1707c	0.3778113
202	0xbd2fc747	-0.042914655
203	0xbe1316b0	-0.14364123
204	0xbd32d305	-0.043658275
205	0xb9bf3586	-0.00036470237
206	0xbd2e35a4	-0.042531624
207	0xbd0f1872	-0.034935422
208	0x3b872600	0.004124403
209	0x3e1ecfa7	0.155089
210	0x3d0d02bb	0.034426432
211	0xbd4c8de9	-0.049940024
212	0xbd3eed81	-0.04661322
213	0xbdb83886	-0.08995156
214	0xbb817705	-0.003950956
215	0xbd92171f	-0.07133316
216	0xbdde69ee	-0.10860048
217	0xbe46ceec	-0.19414872
218	0x3e974991	0.29548314
219	0x3c99ff7b	0.01879858
220	0x3c30a003	0.010780337
221	0x3caac51f	0.020845948
222	0x3c5ccee9	0.013477066
223	0xbd8f0dca	-0.06985052
224	0x3c35b2a1	0.011089952
225	0xbd929bd3	-0.07158627
226	0x3c592b30	0.013254926
227	0xbdaeec2d	-0.08541141
228	0xbd144f43	-0.036208402
229	0x3d245f75	0.040130097
230	0xbbec10ff	-0.0072041745
231	0x3d0b70b7	0.03404304
232	0xbcd8d459	-0.026468443
233	0x3e15f589	0.14644445
234	0x3e041c30	0.12901378
235	0xbddc9b36	-0.10771792
236	0x3bae7373	0.005323821
237	0xbdb6a668	-0.08918458
238	0xbc7244fb	-0.014786954
239	0xbda9476a	-0.08265574
240	0xbb31fd4e	-0.0027159038
241	0x3d2cbd4c	0.042172715
242	0xbce65a6f	-0.028119294
243	0xbd181f65	-0.037139315
244	0x3d5e9403	0.054340374
245	0x3e669503	0.22517781
246	0x3d470abc	0.04859422
247	0xbe2dac93	-0.16960363
248	0x3c0c1266	0.008549308
249	0x3c147c80	0.009062886
250	0xbdbe8a3f	-0.09303712
251	0x3d01532f	0.03157347
252	0xbb5ce769	-0.0033707267
253	0x3d6a9653	0.057272267
254	0x3d2facc3	0.042889368
255	0xbcb885ae	-0.022524681

decoder.0.bias f4 [24]
0	0xbef69de5	-0.4816734
1	0xbe01d6a7	-0.1267954
2	0x3f169f27	0.588366
3	0xbeaa5c2d	-0.3327345
4	0x3ee2f2fc	0.44326007
5	0x3ee0ecb6	0.43930596
6	0x3ecfe661	0.40605453
7	0x3efce075	0.49389997
8	0xbe8f589d	-0.27997294
9	0x3e19d857	0.15023933
10	0xbe456d59	-0.19279994
11	0x3e96412a	0.2934659
12	0x3f08d8d3	0.5345585
13	0xbe84447c	-0.258335
14	0xbeb2adf8	-0.34898353
15	0xbe556d05	-0.20842369
16	0x3f033431	0.5125151
17	0xbed771cf	-0.42079017
18	0xbedb0ca3	-0.4278308
19	0xbe0b8687	-0.13625537
20	0x3e3754b4	0.17903405
21	0xbf18211a	-0.5942551
22	0xbeb6c04c	-0.35693586
23	0x3ddb91ee	0.10721193

decoder.2.weight f4 [24, 12, 4, 4]
0	0x3e8d8f8d	0.27648583
1	0x3bfacf5e	0.0076541146
2	0x3d1bb7e4	0.03801717
3	0x3cc4bff1	0.024017306
4	0xbce1af8b	-0.027549526
5	0xbd6efd95	-0.058347303
6	0xbd71c81d	-0.059028734
7	0x3d281318	0.041033834
8	0x3e04e9a7	0.12979756
9	0xbdedabbc	-0.11605021
10	0x3da910ed	0.082551815
11	0x3e026bea	0.12736478
12	0x3d5318a1	0.05153716
13	0x3d98d968	0.07463342
14	0x3d885a38	0.06657833
15	0x3c5f4af4	0.01362871
16	0xbccbc2c9	-0.024873154
17	0xbd65b1c8	-0.05607775
18	0xbda27646	-0.07932715
19	0x3c9dc0c9	0.019256966
20	0xbd8a896f	-0.06764495
21	0x3e65cd82	0.22441676
22	0xbd8ad3ff	-0.06778716
23	0x3d2812b0	0.041033447
24	0x3de5c870	0.11219871
25	0xbd823db7	-0.063594274
26	0x3e019db0	0.1265781
27	0x3aec7e3a	0.001804299
28	0x3d1ff6ba	0.039053656
29	0x3ea16a8c	0.315266
30	0xbd966ca2	-0.07344939
31	0x3dc9f733	0.09861603
32	0xbc7d83f0	-0.015473351
33	0xbd2a48a6	-0.04157319
34	0x3d6e5464	0.05818595
35	0xbd6de150	-0.058076203
36	0xbce55983	-0.027996784
37	0x3e342025	0.17590387
38	0xbd6d1d22	-0.05788911
39	0x3cd6b924	0.026211329
40	0x3e02aad5	0.1276048
41	0x3e9a2bd6	0.3011157
42	0x3e856adc	0.2605809
43	0xbd5cc20a	-0.053895988
44	0x3c518871	0.012788878
45	0x3d06e15d	0.032929767
46	0x3b85540a	0.004068856
47	0x3ca622d9	0.020280289
48	0x3e390275	0.18067344
49	0x3beb92fd	0.007189153
50	0x3dc34c86	0.0953608
51	0x3ad706e2	0.001640525
52	0x3e8ac888	0.27106118
53	0xbdf24790	-0.11830056
54	0x3ee6fb0e	0.45113415
55	0xbd94fc0e	-0.07274638
56	0x3e8cd4d7	0.27506134
57	0x3c9329fa	0.017964352
58	0xbd13290e	-0.035927825
59	0xbd5f7172	-0.05455155
60	0x3e507599	0.2035736
61	0xbc8065ac	-0.01567348
62	0xbc2e95ad	-0.010655803
63	0xbd1921ed	-0.03738587
64	0xbcaa3581	-0.020777466
65	0x3c85cce7	0.016333057
66	0xbd022b19	-0.031779382
67	0xbe4a7b7c	-0.19773668
68	0xbd3284a8	-0.043583542
69	0x3d4ca83a	0.04996512
70	0xbd4e0d55	-0.050305683
71	0x3dc3fea1	0.09570051
72	0xbc928036	-0.017883401
73	0x3da57c34	0.080803305
74	0xbd5940b8	-0.053040236
75	0xbea89391	-0.32925084
76	0x3ba23c2b	0.0049510202
77	0x3d18c1f3	0.03729434
78	0xbcdb2fd3	-0.026756203
79	0xbd9974c9	-0.07492978
80	0x3d726eba	0.05918763
81	0x3de59269	0.11209566
82	0xbd9650e5	-0.07339648
83	0x3ca2ccb3	0.019872999
84	0x3d590b38	0.052989215
85	0x3ec01c2f	0.37521502
86	0x3d36b7b7	0.044608798
87	0xbdfce35b	-0.12348052
88	0x3e706913	0.23477583
89	0x3e9615f0	0.29313612
90	0x3e1e1eee	0.15441486
91	0x3dc0abba	0.09407754
92	0x3cf5e819	0.0300179
93	0xbda2f9a7	-0.07957774
94	0x3c8b6663	0.017016595
95	0x3d35cc14	0.044384077
96	0xbd209634	-0.039205745
97	0x3db0c82b	0.08631929
98	0xbd9dfd9a	-0.07714386
99	0xbdce9ac9	-0.10088117
100	0x3dd0c529	0.10193855
101	0x3e2d5bd2	0.16929558
102	0x3e890672	0.2676273
103	0xbe20525e	-0.1565642
104	0x3bb43139	0.005499032
105	0x3d9cbf76	0.07653706
106	0x3e68e2b4	0.2274273
107	0x3ba8e229	0.0051539135
108	0xbd3f35dc	-0.046682224
109	0xbc331867	-0.010931111
110	0x3ce786fa	0.028262604
111	0xbcac1afe	-0.021008965
112	0xba314f27	-0.0006763809
113	0xbd205b3c	-0.039149508
114	0xbbf1ca9a	-0.0073788883
115	0x3e4c05d5	0.199241
116	0x3d11723c	0.035509333
117	0xbfb3e2fb	-1.4053644
118	0x3de1a70d	0.110181905
119	0x3e192005	0.1495362
120	0x3d1a7705	0.037711162
121	0xbc83aec3	-0.016074544
122	0xbc1d79d8	-0.009611569
123	0xbcf8ae31	-0.030356498
124	0x3cef3d19	0.029203938
125	0x3eb3eafe	0.35140222
126	0xbacdd307	-0.001570315
127	0x3dc5923a	0.09647031
128	0x3dca0d25	0.09865788
129	0x3df1ec0e	0.11812602
130	0x3d64defb	0.055876713
131	0xbd774dbd	-0.06037687
132	0x3e780433	0.24220352
133	0x3ebfa269	0.37428597
134	0x3ea29917	0.31757423
135	0xbd6c8e38	-0.057752818
136	0x3d3a982f	0.04555529
137	0x3dc9874a	0.098402575
138	0x3df0b27b	0.117527924
139	0xbc6b0502	-0.014344456
140	0xbc5b95a6	-0.013402378
141	0x3d1c603b	0.03817771
142	0x3db3dcb7	0.087823324
143	0x3c6edc39	0.014578872
144	0x3d0a9dec	0.033842012
145	0x3b6a909b	0.0035791758
146	0x3e30247a	0.17201415
147	0xbd0e534e	-0.034747414
148	0x3deaa950	0.11458075
149	0xbe8b8303	-0.27248392
150	0x3e2821ad	0.16419096
151	0xba3bf261	-0.0007169601
152	0x3e7783ba	0.24171343
153	0x3d7e5714	0.062094763
154	0xbe10c21c	-0.14136547
155	0x3b5f9222	0.0034114202
156	0x3bda5b93	0.0066637485
157	0x3c96b220	0.018395483
158	0x3cf896e0	0.03034538
159	0x3cd2e66c	0.02574464
160	0xbbb46128	-0.005504746
161	0xbd20c8a2	-0.03925384
162	0xbd9f499c	-0.07777712
163	0x3c1e44d3	0.009659964
164	0x3cc619b0	0.02418217
165	0x3cee7c1d	0.029111916
166	0x3e8df2ff	0.27724454
167	0x3dd2ef7a	0.10299583
168	0x3d8a09c4	0.06740144
169	0xbc1662e2	-0.009178849
170	0x3b014c00	0.0019729137
171	0x3d7015b1	0.058614437
172	0x3c3fa1a1	0.01169625
173	0xbbad5591	-0.0052897413
174	0x3cbdeeb7	0.023185117
175	0xbc361891	-0.0111142555
176	0x3a894110	0.0010471661
177	0x3c66465b	0.01405486
178	0x3dbd0e4d	0.09231243
179	0xbbc2e589	-0.005947773
180	0x3db43b87	0.088004164
181	0xbe7da01d	-0.2476811
182	0x3d997c86	0.07494454
183	0xbd8dbfcf	-0.0692135
184	0x3da15ea2	0.07879378
185	0x3e1c1bc6	0.1524497
186	0x3cb4a56f	0.022051541
187	0xbc0bab6a	-0.008524755
188	0x3d2c6caa	0.042095818
189	0x3b9dee31	0.0048196544
190	0x3d29a80c	0.041420028
191	0x3878e978	5.9345242e-05
192	0x3e85b605	0.26115432
193	0x3c21798e	0.009855641
194	0x3d0a43f8	0.033756226
195	0xbc67244e	-0.014107777
196	0xbc6daca1	-0.01450649
197	0x3e022e8f	0.12713073
198	0x3d750703	0.05982114
199	0x3b8ce422	0.0042996565
200	0x3e0c2568	0.13686144
201	0x3f1a3a55	0.6024526
202	0x3e80f82a	0.25189334
203	0x3d12c33b	0.035830718
204	0x3e449e33	0.19200973
205	0xbf253691	-0.64536387
206	0x3cf5c471	0.030000897
207	0xbdb06f56	-0.08614986
208	0xbca34159	-0.019928621
209	0x3c6b37a1	0.014356525
210	0x3d55dc68	0.05221215
211	0x3cd23012	0.025657687
212	0xbd61897e	-0.055062763
213	0x3ed8d07f	0.4234657
214	0xbdb1c932	-0.08680953
215	0x3d9ca798	0.076491535
216	0xbdaa3c0f	-0.083122365
217	0x3e140867	0.1445633
218	0x3ea688ec	0.32526338
219	0xbbfce372	-0.0077175433
220	0x3ce42639	0.027850257
221	0x3fc80a81	1.5628206
222	0x3a56a2cb	0.000818771
223	0x3dcb87be	0.09938
224	0xbcbbf952	-0.022946034
225	0xbcd22a75	-0.02565501
226	0x3c40e139	0.011772447
227	0x3cbbb395	0.02291278
228	0xbd39a440	-0.045322657
229	0x3d0322df	0.032015678
230	0xbb3deec1	-0.002898142
231	0xbcace7a4	-0.021106549
232	0xbd96ea32	-0.07368888
233	0xbc962f74	-0.018333174
234	0xbc50edfa	-0.0127520505
235	0xbd11e141	-0.03561521
236	0xbd893b08	-0.067007124
237	0x3f3387b5	0.7012895
238	0xbd9c64c6	-0.076364085
239	0x3db1ea5d	0.086872794
240	0x3e491a0f	0.19638847
241	0xbc618b33	-0.013766098
242	0xbd68a129	-0.05679432
243	0x3d02c85b	0.031929355
244	0x3e02ecc1	0.12785627
245	0x3e801882	0.25018698
246	0x3eefa084	0.4680215
247	0x3d202b98	0.039104074
248	0xbee50c0f	-0.44735762
249	0xbef0b1d7	-0.4701068
250	0x3f1b6e73	0.6071541
251	0xbd3c6440	-0.045994043
252	0xbcd200e5	-0.025635192
253	0xbf43080b	-0.7618415
254	0x3e41fc3b	0.18943875
255	0xbe04ad7f	-0.12956809

decoder.2.bias f4 [12]
0	0xbe9484ce	-0.29007572
1	0xbe7107c3	-0.23538117
2	0xbeec9fe9	-0.46215752
3	0xbebc47e4	-0.36773598
4	0x3def3924	0.116808206
5	0xbed78e52	-0.4210077
6	0xbed362c1	-0.4128628
7	0x3e714da4	0.23564774
8	0xbeba1d51	-0.36350492
9	0x3ee8797a	0.4540518
10	0x3eb955f2	0.36198384
11	0x3f06b85a	0.5262505

decoder.4.weight f4 [12, 3, 4, 4]
0	0xbcdfa60b	-0.027300855
1	0x3db1f08f	0.08688461
2	0x3d839cdb	0.06426402
3	0xbd5b1137	-0.053483214
4	0x3de601d6	0.11230819
5	0x3ee1aaa5	0.44075504
6	0x3ec14331	0.37746575
7	0x3d12d989	0.03585199
8	0x3c99d7b7	0.018779619
9	0x3e38db56	0.1805242
10	0x3ddde06e	0.10833822
11	0xbd93ee23	-0.07223155
12	0x3ba9e86c	0.0051851775
13	0x3cfa7750	0.03057447
14	0x3c6e790d	0.014555228
15	0xbc7c553e	-0.015401183
16	0x3b2fb97e	0.0026813443
17	0x3d44a3da	0.048007824
18	0x3c12047e	0.008912204
19	0xbd256bea	-0.040386118
20	0x3da37661	0.07981563
21	0x3ea25e71	0.31712678
22	0x3e6295cf	0.2212746
23	0xbcc5012b	-0.024048408
24	0xbd327477	-0.0435681
25	0x3c9986b0	0.018740982
26	0xbd920164	-0.071291715
27	0xbe1ccc4e	-0.15312311
28	0x3c5cec58	0.013484083
29	0xbd19b262	-0.037523635
30	0xbd8ce626	-0.06879835
31	0xbcb1cfc2	-0.021705512
32	0x3bd45d41	0.0064808433
33	0x3d52a1a1	0.051423673
34	0xbbdccb75	-0.006738121
35	0xbd807d68	-0.06273919
36	0x3dac602a	0.08416779
37	0x3ea122bc	0.31471813
38	0x3e50cf4c	0.20391577
39	0xbd2a9d6e	-0.041654043
40	0xbc96c467	-0.018404199
41	0x3d0f18d9	0.034935806
42	0xbda805d3	-0.08204236
43	0xbe27c0e9	-0.16382183
44	0x3d26f242	0.04075838
45	0xbc633d40	-0.013869584
46	0xbd9624ac	-0.07331213
47	0xbd13397c	-0.035943493
48	0x3d417bcb	0.0472372
49	0x3e393101	0.180851
50	0x3d9cbed0	0.07653582
51	0xbd87992c	-0.06621012
52	0x3da2426f	0.079228275
53	0x3e8c48ab	0.2739919
54	0x3d436c1a	0.047710516
55	0xbe1c421e	-0.15259597
56	0x3db7947d	0.08963869
57	0x3e938779	0.28814295
58	0x3db33fb2	0.08752383
59	0xbdef7283	-0.11691763
60	0x3c2eaa0d	0.01066066
61	0x3df89f72	0.12139787
62	0x3d513e12	0.051084585
63	0xbd8685bc	-0.065684766
64	0x3dab5390	0.08365548
65	0x3e87403d	0.26416197
66	0x3e27d20f	0.16388725
67	0xbcbccdb3	-0.023047304
68	0x3e008f9d	0.12554784
69	0x3ebb3f9d	0.3657197
70	0x3e14aa66	0.14518127
71	0xbdcafcb4	-0.099114805
72	0x3e0e0828	0.13870299
73	0x3ebf14e3	0.37320623
74	0x3e3b82e2	0.18311647
75	0xbd6299cc	-0.055322453
76	0x3d264b8d	0.040599395
77	0x3e42d8d1	0.19028021
78	0x3e0b3ca5	0.13597353
79	0xbc8d6bb4	-0.01726327
80	0x3d14e241	0.036348585
81	0x3e2e57e4	0.17025715
82	0x3db2760a	0.087139204
83	0xbd5d73bc	-0.05406545
84	0x3d7c4fc4	0.061599508
85	0x3e88492a	0.2661832
86	0x3d78294e	0.060586266
87	0xbe1cf868	-0.15329134
88	0x3da53a21	0.08067728
89	0x3e8ba681	0.2727547
90	0x3db86f88	0.09005648
91	0xbddf1518	-0.10892695
92	0x3a1b2f28	0.00059198076
93	0x3dd5720e	0.10422145
94	0x3d6e6dd2	0.0582102
95	0xbd4ce0d6	-0.050019108
96	0xbc1cf5a0	-0.009580046
97	0x3da7531e	0.0817015
98	0x3e677695	0.22603829
99	0x3e14d647	0.14534865
100	0x3c215706	0.009847408
101	0x3e280b01	0.16410448
102	0x3ec748f1	0.38922837
103	0x3e7c1a8d	0.24619503
104	0xbcf59f4d	-0.029983187
105	0xbce6fc99	-0.02819662
106	0x3e24797f	0.16061972
107	0x3e27610e	0.16345617
108	0xbd6dce2b	-0.058057945
109	0xbe00a9fe	-0.12564847
110	0xbd27f338	-0.041003436
111	0x3cf6c903	0.030125147
112	0x3bfc3653	0.0076969056
113	0xbac8173b	-0.0015265712
114	0x3ded436d	0.11585126
115	0x3e0c226a	0.13685003
116	0xbd274cf0	-0.040844858
117	0xbafbeb6f	-0.0019219945
118	0x3e4e3d89	0.20140661
119	0x3e304e9a	0.17217484
120	0xbde24119	-0.11047573
121	0xbe67a6c3	-0.22622208
122	0xbd70d384	-0.058795467
123	0x3d75b45e	0.059986465
124	0xbd86471e	-0.06556533
125	0xbe6f1cb0	-0.23350787
126	0xbe32032e	-0.17384025
127	0xbbac0fbe	-0.0052509
128	0x3ca45782	0.020061258
129	0x3b78680b	0.0037903811
130	0x3db820c4	0.089906245
131	0x3df49474	0.11942378
132	0xbd224c55	-0.039623577
133	0xbc893725	-0.016749928
134	0x3e17607f	0.14782904
135	0x3e0de13b	0.1385545
136	0xbdad34b9	-0.08457322
137	0xbe61d27a	-0.22052947
138	0xbdb75b8e	-0.089530095
139	0x3d4b0bfc	0.049571976
140	0xbd0780d0	-0.03308183
141	0xbe5ac933	-0.21365814
142	0xbe3a35e3	-0.18184619
143	0x3a6a9a13	0.00089493504
144	0xbd001d00	-0.031277657
145	0xbd08d0ae	-0.033402137
146	0xbf209841	-0.6273232
147	0x3d4826c6	0.048865102
148	0xbcce9cf6	-0.02522133
149	0x3cc3fb10	0.023923427
150	0xbfb40771	-1.4064771
151	0x3daa64a8	0.0831998
152	0x3cb0cd46	0.021582257
153	0x3e3262ae	0.17420456
154	0xbf2b5e1a	-0.6694046
155	0x3df4b766	0.11949043
156	0x3c92cd99	0.017920302
157	0x3dffa162	0.12481953
158	0x3e351e8e	0.17687437
159	0x3daa89b1	0.08327044
160	0xbd0c1049	-0.03419522
161	0xbc81cf64	-0.015845962
162	0xbf1e7f76	-0.6191324
163	0x3d26fc77	0.040768113
164	0xbcd291a5	-0.025704214
165	0x3ca66500	0.020311832
166	0xbfbdaa3a	-1.4817574
167	0x3daebd93	0.08532252
168	0x3c4b2f02	0.012401344
169	0x3e1df681	0.15426065
170	0xbf2b2a70	-0.6686163
171	0x3dfcd457	0.12345188
172	0x3ba49096	0.005022119
173	0x3dfa5443	0.12223103
174	0x3e487ac8	0.19578087
175	0x3d9e1de5	0.07720546
176	0xbcf80917	-0.030277772
177	0xbb299541	-0.0025876316
178	0xbf13827a	-0.57620966
179	0x3ce469eb	0.027882537
180	0xbcc5b097	-0.024132056
181	0x3cea1a8d	0.028577114
182	0xbfb59a62	-1.4187739
183	0x3db82609	0.0899163
184	0x3c28793a	0.010282809
185	0x3e105e43	0.14098458
186	0xbf2879fb	-0.6581113
187	0x3e03e949	0.1288196
188	0x3b968a48	0.004594121
189	0x3de8d95a	0.113695815
190	0x3e1f1696	0.1553596
191	0x3d873a15	0.06602875
192	0x3cbfc8c8	0.02341117
193	0xbf08f270	-0.5349493
194	0xbd7cba40	-0.06170106
195	0xbd9796f9	-0.074018426
196	0x3d953d34	0.07287064
197	0xbf7ccb81	-0.9874802
198	0x3c312242	0.01081139
199	0xbe08c4bf	-0.13356303
200	0x3d7525e3	0.059850585
201	0xbf019d6e	-0.50630844
202	0x3cdfe089	0.027328746
203	0xbdbb9677	-0.09159558
204	0x3bb117ae	0.005404434
205	0xbc15c306	-0.0091407355
206	0xbc707459	-0.014676177
207	0xbbc548fc	-0.0060206633
208	0x3d114bd9	0.035472725
209	0xbee457d0	-0.44598246
210	0xbd5a7ca0	-0.053341508
211	0xbd885f22	-0.0665877
212	0x3d96b118	0.07357997
213	0xbf88ae53	-1.06782
214	0x3cc80ae5	0.024419257
215	0xbe0e408a	-0.13891807
216	0x3d7e13dc	0.062030658
217	0xbf25a9e3	-0.6471235
218	0x3d32127a	0.043474652
219	0xbdafef51	-0.08590568
220	0x3c58499b	0.013201143
221	0xbb945b8a	-0.004527514
222	0xbc67a49b	-0.014138366
223	0x3b6df3da	0.0036308677
224	0x3cfcb584	0.030848272
225	0xbf2c2b2e	-0.67253387
226	0xbdbfb5cf	-0.09360849
227	0xbdbd6161	-0.09247089
228	0x3d417914	0.04723461
229	0xbf94e6dd	-1.1632954
230	0xbd7c8bbc	-0.0616567
231	0xbe484f2f	-0.19561456
232	0x3d47ee8e	0.048811488
233	0xbf089bdb	-0.53362817
234	0xbbf4b0ab	-0.0074673495
235	0xbdf3701e	-0.11886619
236	0x3cb27ecc	0.021788977
237	0x3b279492	0.0025570733
238	0xbc0869a8	-0.008325972
239	0x3afd34d4	0.0019318112
240	0x3c7d13d7	0.015446625
241	0x3cea9543	0.028635627
242	0x3d43fe11	0.04784972
243	0x3cc575df	0.024104057
244	0x3d3d58a6	0.04622712
245	0x3de675f1	0.11252964
246	0x3e1b918b	0.15192239
247	0x3db11ac0	0.0864768
248	0x3cfc8b53	0.030828154
249	0x3de18d75	0.11013309
250	0x3e0d6bc5	0.13810642
251	0x3d72cd33	0.059277724
252	0x3c95d15f	0.018288312
253	0x3d241a55	0.040064175
254	0x3d575dc0	0.05257964
255	0x3cb599ba	0.02216803

decoder.4.bias f4 [3]
0	0xbf8ad89e	-1.0847356
1	0x3e63283e	0.2218332
2	0xbe14faf3	-0.14548855
