code/models weights/Autoencoder_gaussian_0.3_300.pth (torch, 193819 bytes, 12 tensors)

encoder.0.weight f4 [12, 3, 4, 4]
0	0xba8ceb56	-0.0010751288
1	0x3c1c8594	0.009553332
2	0x3c07ec14	0.0082960315
3	0xbd366973	-0.044534158
4	0x3cd581a5	0.026062796
5	0x3d149e0f	0.03628355
6	0x3dfcc7c8	0.12342793
7	0x3d53fe84	0.051756397
8	0xbcacc252	-0.021088753
9	0x3c41a190	0.011818305
10	0x3dfd2c06	0.123619124
11	0x3da37b10	0.07982457
12	0xbc795cd6	-0.015219888
13	0x3d011bd6	0.031520687
14	0x3d7bf37e	0.06151151
15	0x3ca34ebd	0.019935006
16	0xbc6ebc3d	-0.014571247
17	0xbd69d272	-0.057085462
18	0xbda067a0	-0.07832265
19	0xbda52642	-0.08063938
20	0xbd559d11	-0.052151743
21	0xbdd64123	-0.104616426
22	0xbd15916e	-0.036515646
23	0xbd3bb04d	-0.04582243
24	0xbdf8db50	-0.121512055
25	0xbe1de71d	-0.15420194
26	0xbd77d678	-0.060507268
27	0xbd24c9ac	-0.04023139
28	0xbd578677	-0.05261847
29	0xbd7a4abf	-0.06110644
30	0xbd4a94fb	-0.049458485
31	0xbd163f51	-0.036681477
32	0x3cb38c51	0.021917494
33	0x3d1124f9	0.03543565
34	0x3cd007ec	0.025394402
35	0xbd019874	-0.03163953
36	0x3d54f595	0.051992018
37	0x3d861e4f	0.0654875
38	0x3e0d4f55	0.13799794
39	0x3d8a7923	0.06761386
40	0xbcbb557f	-0.022867916
41	0x3c319263	0.010838124
42	0x3dedd7f8	0.116134584
43	0x3d95e49c	0.073189944
44	0xbce23747	-0.027614249
45	0x3cb5ca49	0.022191184
46	0x3d55dbda	0.05221162
47	0x3be4f30f	0.0069869827
48	0xbca809ec	-0.020512544
49	0xbd9e97fc	-0.077438325
50	0xbdb4a8ba	-0.088212445
51	0xbce7793f	-0.028256057
52	0xbda36bbe	-0.079795346
53	0xbe0a50c4	-0.13507372
54	0xbe1205d4	-0.14260036
55	0xbdadce35	-0.084865965
56	0xbd8ad1c8	-0.06778294
57	0xbe01cf65	-0.12676771
58	0xbe09edb5	-0.13469584
59	0xbda3eb4a	-0.08003862
60	0xbc0a561a	-0.00844338
61	0xbd9065c0	-0.07050657
62	0xbda6bd44	-0.08141568
63	0xbcbce55f	-0.023058591
64	0x3d40d429	0.04707733
65	0x3d50b66c	0.05095522
66	0x3d547e69	0.051878367
67	0x3d43e053	0.047821354
68	0x3d831365	0.064001836
69	0x3dab0d6d	0.0835217
70	0x3dabc212	0.08386625
71	0x3d8aa408	0.06769568
72	0x3d8d7c19	0.069084354
73	0x3db9c9b4	0.09071675
74	0x3dc39c00	0.09551239
75	0x3d9425c4	0.07233766
76	0x3d582b99	0.052775953
77	0x3d73adba	0.05949185
78	0x3d8b7d6e	0.06811033
79	0x3d69f7e6	0.05712118
80	0xbaeb78ec	-0.0017965115
81	0x3b793377	0.003802506
82	0x3c4dd417	0.012562773
83	0x3bcc958e	0.0062434142
84	0x3c4d9149	0.012546846
85	0x3cfd7848	0.030941144
86	0x3d2ab65e	0.041677825
87	0x3ce7a445	0.028276572
88	0x3c750ce1	0.014956684
89	0x3d22126c	0.03956835
90	0x3d69bbbd	0.057063807
91	0x3d0a2bf3	0.03373332
92	0x3c066b93	0.008204359
93	0x3c77e767	0.015130854
94	0x3d0008f1	0.031258527
95	0x3ca70687	0.020388855
96	0xbc055f85	-0.008140449
97	0xbd0a090d	-0.033700038
98	0x3cd21e4c	0.025649212
99	0x3bf214fd	0.007387756
100	0x3bdfd23f	0.006830483
101	0xbcef1060	-0.029182613
102	0x3d355557	0.04427084
103	0xbbe6e26c	-0.0070460346
104	0x3d7130b6	0.058884345
105	0x3d3a513c	0.045487627
106	0x3df392f4	0.118932635
107	0x3cb23d41	0.021757724
108	0x3a597371	0.0008295095
109	0xbc5e4af9	-0.01356768
110	0x3d41057b	0.047124367
111	0xbbc8e514	-0.006130824
112	0xbccda2b9	-0.025102006
113	0xbd59115b	-0.052995067
114	0x3c583318	0.013195775
115	0xbb6c0de0	-0.0036019012
116	0xbbacae87	-0.0052698287
117	0xbd4467d2	-0.047950573
118	0x3cf75de7	0.030196143
119	0xbc617ffc	-0.013763424
120	0x3d831ae0	0.064016104
121	0x3d3f2938	0.04667017
122	0x3df25774	0.118330866
123	0x3cc62890	0.024189264
124	0x3b6b3a28	0.0035892818
125	0xbc3ad157	-0.01140245
126	0x3d4a9da3	0.04946674
127	0xbb90e5b1	-0.0044219126
128	0xbd1b6775	-0.03794046
129	0xbddd7eaa	-0.10815175
130	0xbd5f2805	-0.054481525
131	0xbcd734e1	-0.026270332
132	0xbd927cb1	-0.07152689
133	0xbe27cc7d	-0.163866
134	0xbdc30075	-0.095215715
135	0xbdab27c9	-0.08357198
136	0x3b837ef7	0.004012938
137	0xbd6ce8ba	-0.057839133
138	0xbb45afc5	-0.0030164581
139	0xbd3529a6	-0.044229172
140	0xb744d966	-1.1733127e-05
141	0xbd52f9ea	-0.051507868
142	0xbc052a8f	-0.008127823
143	0xbca7e979	-0.02049707
144	0x3ba07b9a	0.004897547
145	0x3d7a62ec	0.061129496
146	0x3e3d1b73	0.18467502
147	0x3d842bf4	0.06453696
148	0x3d6ac658	0.05731806
149	0x3e0a6021	0.13513233
150	0x3ea0a57b	0.31376252
151	0x3e0c180f	0.13681053
152	0x3d071f95	0.032989103
153	0x3d5fce60	0.054640174
154	0x3e258977	0.1616572
155	0x3d23217b	0.03982685
156	0x3b1a489b	0.0023541811
157	0x3c5ed544	0.013600651
158	0x3d87ab0a	0.0662442
159	0xbbe3d520	-0.0069528967
160	0xbcaf36a2	-0.021388356
161	0xbbf9ea19	-0.0076267836
162	0x3dcfe46e	0.101509914
163	0x3ccc32d3	0.024926579
164	0xbc1dcd0e	-0.009631408
165	0x3c42a79c	0.0118807815
166	0x3e303929	0.17209305
167	0x3d4e78dc	0.05040823
168	0xbc69a4b9	-0.014260464
169	0xbd3fbd8d	-0.04681163
170	0x3d25fb0d	0.040522624
171	0xbcde1778	-0.0271108
172	0xba9ad80c	-0.0011813655
173	0xbcf2669d	-0.029589945
174	0x3bb593b5	0.0055412897
175	0xbce154b7	-0.027506215
176	0xbc1e2011	-0.0096512
177	0xbd0bcfef	-0.034133848
178	0x3d7082b8	0.058718413
179	0x3cbeab42	0.023275021
180	0xbcaee868	-0.021351054
181	0xbd47ec7d	-0.048809517
182	0x3db37817	0.0876314
183	0x3ca2cc43	0.01987279
184	0xbcb0f1af	-0.021599619
185	0xbdac090d	-0.08400164
186	0xbc5bc172	-0.01341282
187	0xbd3a493d	-0.04548
188	0x3c8399fa	0.016064633
189	0xbcf94791	-0.030429633
190	0xbb289a14	-0.0025726603
191	0xbc5911bc	-0.013248857
192	0xbd673d18	-0.056454748
193	0xbd18ebf4	-0.037334397
194	0x3d0f7bcd	0.035030175
195	0x3d387761	0.045035724
196	0xbde1514a	-0.11001833
197	0xbd82af97	-0.06381147
198	0x3d967d97	0.07348173
199	0x3dc63b0a	0.096792296
200	0xbdde4d33	-0.10854568
201	0xbd6f6e08	-0.058454543
202	0x3d97ffee	0.074218616
203	0x3dc402b4	0.09570828
204	0xbd61eff6	-0.055160485
205	0xbd0aa200	-0.0338459
206	0x3d168eed	0.0367574
207	0x3d3cf85c	0.04613529
208	0xbd601705	-0.054709453
209	0xbd029600	-0.031881332
210	0x3d2dd3d1	0.042438332
211	0x3d4a68ba	0.04941628
212	0xbddf21d6	-0.108951256
213	0xbd77c922	-0.06049455
214	0x3da2f66c	0.079571575
215	0x3dd0f47d	0.102028824
216	0xbdd55e65	-0.10418395
217	0xbd6b9f42	-0.057524927
218	0x3da06f47	0.078337245
219	0x3dca3787	0.09873872
220	0xbd4f5735	-0.050620276
221	0xbce35f5c	-0.027755432
222	0x3d1819cb	0.037133973
223	0x3d3b0f64	0.045668975
224	0xbd553916	-0.052056395
225	0xbce92d86	-0.02846409
226	0x3d14c7a3	0.0363232
227	0x3d4ad590	0.049520075
228	0xbdd59784	-0.1042929
229	0xbd6a2a6f	-0.057169374
230	0x3d9cbaca	0.07652815
231	0x3dcdce9a	0.10049172
232	0xbdc8b5d4	-0.09800306
233	0xbd5f1849	-0.05446652
234	0x3d96c402	0.07361604
235	0x3dc3459c	0.09534761
236	0xbd49a7ac	-0.04923217
237	0xbcd61d8a	-0.026137132
238	0x3d128b9b	0.03577767
239	0x3d4130db	0.047165733
240	0xbc2ea2a6	-0.010658896
241	0xbd5da3f5	-0.05411144
242	0xbd5b075b	-0.05347381
243	0xbc205ce1	-0.009787769
244	0xbd7d84d2	-0.061894245
245	0xbe0107fa	-0.12600699
246	0xbe05a8f0	-0.13052726
247	0xbd85f1c6	-0.06540255
248	0x3c83a553	0.016070044
249	0x3cfd40cb	0.030914685
250	0x3ce7b188	0.028282896
251	0x3c427305	0.011868243
252	0x3d8472fd	0.06467245
253	0x3e0a0a31	0.1348045
254	0x3e0753fc	0.13215631
255	0x3d821194	0.06351009

encoder.0.bias f4 [12]
0	0x3edbe003	0.42944345
1	0x3e43fcc2	0.19139388
2	0x3ef87436	0.48526162
3	0x3cc3a8ca	0.023884196
4	0x3e18b44e	0.14912531
5	0x3e625670	0.22103286
6	0xbe34e3f9	-0.1766509
7	0x3d72f7d0	0.059318364
8	0xbe46ec49	-0.19426073
9	0x3d022437	0.03177282
10	0x3d8172ab	0.06320699
11	0xbf0727c8	-0.52795076

encoder.2.weight f4 [24, 12, 4, 4]
0	0xbd29bf65	-0.041442294
1	0x3dc1b93d	0.094591595
2	0x3d08fa51	0.033441845
3	0x3d14f2ed	0.036364485
4	0x3dc8841b	0.09790822
5	0x3ec16454	0.37771857
6	0x3de685aa	0.11255963
7	0x3e5775a6	0.21040973
8	0x3dca87fd	0.09889219
9	0x3e75d0b3	0.24005394
10	0x3e610a0f	0.21976493
11	0x3e724e1d	0.2366261
12	0x3abfb4ff	0.0014626085
13	0x3c7b98e4	0.015356276
14	0x3db29c54	0.087212235
15	0x3cf509bb	0.029911866
16	0xbd8e12c7	-0.06937175
17	0xbd20980e	-0.03920751
18	0x3d078566	0.033086203
19	0x3d4b3f5d	0.049620975
20	0xbc707502	-0.014676334
21	0x3d864a05	0.06557087
22	0x3ca96541	0.020678164
23	0x3dd19d95	0.102351345
24	0xbcef259b	-0.029192736
25	0x3c3d7823	0.011564287
26	0x3d134706	0.035956405
27	0x3da3fd61	0.080073126
28	0xbd198a78	-0.03748557
29	0xbe0d7c5f	-0.13816975
30	0xbddcc050	-0.10778868
31	0xbc801c26	-0.015638422
32	0xbd533bf9	-0.051570866
33	0x3d5f549b	0.054524045
34	0xbd37f7f7	-0.044914212
35	0xbbad1fdf	-0.0052833403
36	0xbba08fa2	-0.004899935
37	0x3d14a5e4	0.036291018
38	0xbe9e59f6	-0.3092801
39	0xbd141961	-0.036157016
40	0xbd3d47b0	-0.046210945
41	0xbdbf35e7	-0.09336453
42	0xbe1f3c11	-0.15550257
43	0x3da96171	0.082705386
44	0xbcd577c4	-0.026058085
45	0xbd8cf756	-0.06883113
46	0xbd09e872	-0.033668943
47	0xbd180e2c	-0.03712289
48	0xbbdf2f98	-0.0068110935
49	0xbd8ddde8	-0.06927091
50	0xbdb15cae	-0.08660255
51	0xbb3cd38a	-0.002881261
52	0x39d190ff	0.00039971617
53	0x3e675b14	0.22593337
54	0x3d34f038	0.044174403
55	0x3c00f3ef	0.007870658
56	0x3d1b11db	0.037858825
57	0xbbd05f6c	-0.0063590314
58	0xbe4e4afa	-0.20145789
59	0xbda7b1ac	-0.08188185
60	0x3d4d827d	0.05017327
61	0xbd33e7f1	-0.04392237
62	0xbdd13816	-0.10215776
63	0x3bf8e7bb	0.007595984
64	0x3d74b681	0.05974436
65	0x3c94effc	0.01818084
66	0x3d60a70a	0.0548468
67	0xbdb1fe42	-0.08691074
68	0xbb88b867	-0.004172373
69	0xbea8378a	-0.32854873
70	0x3ef87995	0.4853026
71	0x3e81c608	0.25346398
72	0x3dc5bd62	0.096552625
73	0x3ce4b5fa	0.027918804
74	0x3e6e0c2d	0.23246832
75	0x3cbfc4f4	0.023409344
76	0x3d09085a	0.03345523
77	0x3ce09c07	0.02741815
78	0xbd3e5dd4	-0.0464762
79	0xbd5f59d2	-0.05452902
80	0xba715f85	-0.0009207654
81	0xbd85e4fd	-0.06537817
82	0xbe8a5261	-0.27015975
83	0xbd267d3d	-0.04064678
84	0x3d1c75d6	0.038198315
85	0x3e88f73f	0.26751134
86	0x3e992d34	0.299173
87	0x3e31ece2	0.1737552
88	0x3dc6a1ce	0.096988305
89	0x3d07bf43	0.033141386
90	0x3e32db95	0.17466576
91	0x3d09f2df	0.033678886
92	0xbcd3eef4	-0.025870778
93	0xbe1a5177	-0.15070139
94	0xbdbc7005	-0.092010535
95	0x3ccbbf8e	0.024871614
96	0xbde95fe2	-0.11395241
97	0x3c13a3e6	0.009011244
98	0xbbcc1a34	-0.0062287096
99	0xbe239eeb	-0.15978591
100	0xbae9dcbe	-0.0017842276
101	0x3da3b5b6	0.07993643
102	0x3e87a52a	0.26493198
103	0xbc79cf51	-0.015247182
104	0x3c6c8cd2	0.014437871
105	0xbd98373f	-0.07432412
106	0x3cd8323a	0.026391137
107	0xbdf3bef3	-0.11901655
108	0xbdb60563	-0.08887746
109	0x3ca67073	0.020317292
110	0xbd32574c	-0.043540284
111	0xbe062478	-0.13099849
112	0xbccf4070	-0.02529928
113	0xbd2e3e64	-0.04253997
114	0xbda93065	-0.08261184
115	0xbd6a7208	-0.057237655
116	0x3c973ced	0.018461669
117	0xbdfc981b	-0.12333699
118	0x3ebd45b2	0.36967236
119	0xbc80cfaf	-0.015724031
120	0xbbd50753	-0.0065011173
121	0xbe227fc3	-0.1586905
122	0x3d9f5ba5	0.07781152
123	0xbe2e0be9	-0.16996731
124	0xbda888d5	-0.08229224
125	0xbda85909	-0.08220107
126	0xbd95b07a	-0.07309051
127	0xbca5ae9c	-0.020224862
128	0xbdc0633e	-0.09393929
129	0x3e01e3c9	0.1268455
130	0x3d3191fa	0.043352105
131	0x3d8d886a	0.069107845
132	0x3ddc028c	0.10742673
133	0x3f026dca	0.50948775
134	0xbdf9ab62	-0.12190892
135	0x3d6e2d04	0.0581484
136	0xbd740d19	-0.059582803
137	0x3e5b2c32	0.21403578
138	0x3e1cc29c	0.15308613
139	0x3e08c857	0.13357674
140	0xbda293e5	-0.07938365
141	0x3d8fcdcc	0.070216745
142	0x3e295060	0.16534567
143	0x3dc392c4	0.09549478
144	0x3ab5b22e	0.0013862306
145	0x3d447d98	0.047971338
146	0x3e42cf6e	0.1902444
147	0x3c2394a0	0.009984165
148	0x3d965ba2	0.07341696
149	0x3c5b69c3	0.013391915
150	0x3efd472f	0.4946837
151	0xbde6f455	-0.112770714
152	0x3ca6122a	0.020272333
153	0xbe882b56	-0.26595563
154	0xbd8e14ae	-0.06937538
155	0xbd959ae2	-0.07304932
156	0x3d48d95f	0.049035426
157	0x3dba31a3	0.09091499
158	0x3d82fd43	0.06395962
159	0x3cc5319c	0.024071507
160	0x3ca2581e	0.019817408
161	0xbcbe5101	-0.023231985
162	0xbdf506b8	-0.11964172
163	0x3b34e86d	0.0027604357
164	0x3be0e168	0.006862808
165	0x3e79a626	0.24379787
166	0x3e2fb5ff	0.1715927
167	0xbdb8d8fe	-0.09025763
168	0x3cca1035	0.024665931
169	0xbdae4f91	-0.0851127
170	0xbe0b3326	-0.1359373
171	0xbdd8d55c	-0.1058757
172	0x3ca621d7	0.020279808
173	0x3c48f597	0.012265584
174	0xbc612c3e	-0.013743458
175	0xbbe5398c	-0.0069953855
176	0xbd45b60b	-0.048269313
177	0x3c94c01a	0.018158007
178	0x3c2e1387	0.010624773
179	0xbd78460b	-0.060613673
180	0xbd0e4161	-0.03473032
181	0x3e217481	0.15767099
182	0x3d57a6d0	0.05264932
183	0xbccb7d7c	-0.024840109
184	0xbdbd25f7	-0.09235757
185	0x3de0b65e	0.10972284
186	0x3cba9a1f	0.022778569
187	0xbd4af799	-0.049552534
188	0xbdaa914e	-0.08328496
189	0xbcd71016	-0.026252788
190	0xbc2345c8	-0.009965368
191	0xbdc1e46b	-0.094673954
192	0xbd22285b	-0.039589267
193	0x3da28784	0.07936004
194	0xbd42b738	-0.047538012
195	0xb89499bd	-7.085826e-05
196	0xbd60911a	-0.05482588
197	0x3e6746ed	0.2258565
198	0x3b13be24	0.0022543753
199	0x3dfa1dca	0.12212713
200	0xbd3830e1	-0.04496849
201	0x3d7d8f3c	0.061904177
202	0xbd275e62	-0.040861495
203	0xbcd034bf	-0.025415776
204	0xbdb4e398	-0.088324726
205	0x3cba0cac	0.02271112
206	0xbd200af4	-0.039072946
207	0xbd38620d	-0.045015384
208	0x3a05a244	0.0005097727
209	0x3e1bdd5c	0.1522116
210	0x3dd05aa0	0.10173535
211	0x3b7bbcfc	0.0038412204
212	0x3cc29665	0.023753354
213	0x3e6d7d6a	0.23192373
214	0x3e1fa8c5	0.15591724
215	0x3dfb9e4b	0.12286051
216	0xbd203d60	-0.03912103
217	0x3e363173	0.17792301
218	0x3e1118ff	0.14169692
219	0x3cbeb213	0.023278272
220	0xbe0445ea	-0.12917295
221	0xbd621922	-0.05519975
222	0xbb9084d3	-0.004410365
223	0xbd816ce6	-0.06319599
224	0x3c73bf2e	0.014877124
225	0x3e4dcd2d	0.200978
226	0x3cf64df7	0.030066473
227	0x3d8f25eb	0.06989654
228	0x3d197aae	0.037470512
229	0x3e1d92ec	0.15388077
230	0xbe2553a6	-0.1614519
231	0x3e4bbaeb	0.19895522
232	0xbd93bd6c	-0.07213864
233	0x3e8a2baa	0.26986438
234	0x3df19cbf	0.11797475
235	0x3e0b1d9f	0.13585518
236	0x3c59a66e	0.013284309
237	0x3daa8eb3	0.08327999
238	0xbbbc30a5	-0.0057431036
239	0x3d0b0e4e	0.03394919
240	0xbc3affe5	-0.011413549
241	0x3dc3a2fc	0.09552571
242	0x3de16f52	0.11007561
243	0x3d6f8fbe	0.058486693
244	0x3e0e64bc	0.13905615
245	0x3f047e60	0.5175533
246	0x3e677d26	0.22606334
247	0x3e250f92	0.16119221
248	0x3d2d39d4	0.042291477
249	0x3d895661	0.067059286
250	0xbe0efc59	-0.1396345
251	0x3da281e2	0.079349294
252	0xbd620756	-0.055182777
253	0x3e15e8bd	0.14639564
254	0xbce8ad40	-0.028402925
255	0xbd2b6c20	-0.041851163

encoder.2.bias f4 [24]
0	0x3d4abbdb	0.04949556
1	0x3cdabbc0	0.026700854
2	0xbda24053	-0.07922425
3	0xbcee7883	-0.029110199
4	0x3e4f8ff6	0.2026976
5	0xbe8b8cd1	-0.27255872
6	0xbd891d37	-0.066950254
7	0x3c9a696d	0.018849099
8	0xbdd0ae10	-0.1018945
9	0x3dab9e58	0.08379811
10	0xbee7c1db	-0.45265087
11	0x3f04ecce	0.51923835
12	0x3d2983d0	0.04138547
13	0xbe9658ef	-0.29364726
14	0x3f098f70	0.53734493
15	0x3e976e12	0.29576164
16	0xbea2daef	-0.31807658
17	0x3ebc83b0	0.3681922
18	0xbd278348	-0.040896684
19	0x3ee6f51e	0.45108885
20	0xbda393fc	-0.0798721
21	0x3f209e13	0.627412
22	0xbe959850	-0.29217768
23	0x3ed45e30	0.4147811

encoder.4.weight f4 [48, 24, 4, 4]
0	0x3c956b3a	0.018239606
1	0x3c221b64	0.009894226
2	0x3da16778	0.07881063
3	0x3d5254d7	0.05135044
4	0x3b49004c	0.0030670343
5	0xbe0bdbc9	-0.1365806
6	0xbd8d0d88	-0.068873465
7	0xbd8fbd23	-0.07018497
8	0xbd7aec64	-0.061260596
9	0x3de104b3	0.109872244
10	0xbea487cb	-0.32134852
11	0x3b980663	0.004639433
12	0x3d1fd6f6	0.039023362
13	0x3d05355b	0.032521587
14	0xbbe000e1	-0.0068360423
15	0xbc2dbb8d	-0.010603798
16	0xbc79eb24	-0.015253816
17	0x3cc70414	0.024293937
18	0x3d84cdf9	0.06484599
19	0xbdd8b298	-0.10580939
20	0x3e158982	0.14603236
21	0xbe80e2e4	-0.25173104
22	0x3dd7b1a0	0.10531926
23	0xbc9d2712	-0.01918367
24	0xbdb378b0	-0.08763254
25	0x3d2d2f6f	0.042281564
26	0xbe119829	-0.142182
27	0xbdc2e0b1	-0.09515513
28	0xbdcb69ba	-0.09932275
29	0x3dfed3bf	0.12442731
30	0x3c3da04f	0.011573865
31	0x3d785b64	0.060634032
32	0xbcba0c4a	-0.022710938
33	0x3c2fbccf	0.010726168
34	0xbda6c525	-0.08143071
35	0xbcd32393	-0.025773799
36	0x3dadf624	0.08494213
37	0xbd8401b6	-0.06445639
38	0x3c868550	0.01642099
39	0x3ccaaed8	0.024741575
40	0x3e8f4b29	0.2798703
41	0x3de6ea4f	0.112751596
42	0x3e7ee64f	0.24892543
43	0x3c8bdcce	0.017073061
44	0x3cad78aa	0.021175701
45	0x3e3a5c91	0.18199374
46	0x3d3cc3fa	0.046085335
47	0xbd72abcd	-0.059245873
48	0x3d331b35	0.04372712
49	0x3d2d03a5	0.042239804
50	0x3d76e7d0	0.060279667
51	0x3e0103a2	0.12599042
52	0xbc5c094e	-0.013429953
53	0xbe38e290	-0.18055177
54	0x3d8cb465	0.06870345
55	0xbc051e78	-0.00812494
56	0x3d6e13b1	0.058124248
57	0x3dfe0c24	0.124046594
58	0x3e39c195	0.18140252
59	0x3d8f4479	0.06995482
60	0xbe27200b	-0.16320817
61	0xbca3de69	-0.020003514
62	0x3e002734	0.12514955
63	0x3da04e9a	0.07827492
64	0xbe00cd1a	-0.1257824
65	0xbdb4e80c	-0.08833322
66	0x3c21f7fc	0.009885784
67	0xbdc90b52	-0.09816612
68	0x3d1c98b1	0.038231555
69	0x3d7df934	0.062005237
70	0xbe8f3419	-0.27969435
71	0xbd2c41ac	-0.042054817
72	0xbc89bd22	-0.016813818
73	0x3d3fbd1c	0.046811208
74	0xbea0a8cc	-0.31378782
75	0xbda0981e	-0.07841514
76	0x3b033c29	0.0020024872
77	0xbda70d56	-0.081568405
78	0xbcfd3f17	-0.030913873
79	0xbda6c29b	-0.08142587
80	0x3c2ad552	0.010426836
81	0xbe15bf27	-0.146237
82	0x3d435a5f	0.047693606
83	0xbaa92558	-0.0012904806
84	0x3c10fe3c	0.008849677
85	0xbdba8643	-0.0910764
86	0xbe5bb152	-0.21454361
87	0xbc98de92	-0.018660817
88	0x3e30066c	0.1718995
89	0xbdca2f0f	-0.09872257
90	0x3e9a551d	0.3014306
91	0x3cc14daa	0.023596603
92	0xbd31863d	-0.04334091
93	0xbe71dcdb	-0.23619406
94	0xbd3921d8	-0.04519829
95	0xbdc866fc	-0.09785268
96	0x3dc339f6	0.095325395
97	0xbd4115c1	-0.047139887
98	0x3d2a7886	0.041618846
99	0xbd068957	-0.03284582
100	0xba44e312	-0.0007510643
101	0x3b82747a	0.0039811702
102	0x3c40fc40	0.011778891
103	0x3d0048d8	0.03131947
104	0xbd64866e	-0.055792265
105	0xbe0df2aa	-0.138621
106	0x3d435c46	0.04769542
107	0x3c123093	0.008922714
108	0x3d5cb1c4	0.053880468
109	0xbdf56777	-0.11982625
110	0x3e0ece2b	0.13945834
111	0x3dda453e	0.10657738
112	0x3d6e1add	0.058131088
113	0xbc884f1a	-0.016639281
114	0x3cc1aa79	0.023640858
115	0x3bbf6f65	0.0058421367
116	0x3dc269a7	0.09492808
117	0x3e685ec0	0.22692394
118	0xbf08128e	-0.5315331
119	0x3e1dd618	0.15413702
120	0xbdc54bcf	-0.096336
121	0x3da4d3f8	0.08048242
122	0xbdc7ad43	-0.09749844
123	0xbcc47795	-0.023982802
124	0x3d05f927	0.032708313
125	0xbc9a4f1d	-0.018836552
126	0xbd911f4b	-0.07086047
127	0x3d4e2be7	0.050334837
128	0xbcb25abb	-0.02177178
129	0xbd752e6c	-0.059858724
130	0xbc8b4111	-0.0169988
131	0xbd13bdab	-0.036069553
132	0xbdd1dad7	-0.102468185
133	0x3df18599	0.1179306
134	0x3e5d550a	0.21614471
135	0xbd37ddaf	-0.04488915
136	0xbe302d56	-0.17204794
137	0x3ea9ab12	0.3313833
138	0xbe0e1c71	-0.13878037
139	0xbe65423d	-0.22388549
140	0xbde4c67d	-0.11170671
141	0xbdc79f12	-0.09747137
142	0xbcd6fb6c	-0.026242934
143	0x3cdf8278	0.027283892
144	0xbdc43177	-0.09579747
145	0xbd02b6e1	-0.03191269
146	0xbd607247	-0.054796483
147	0x3da65f01	0.08123589
148	0x3d9f5b77	0.077811174
149	0xbcb4c351	-0.02206579
150	0x3d18b3c2	0.037280805
151	0x3d50f20d	0.051012088
152	0xbda65bb4	-0.0812296
153	0x3da908f6	0.08253662
154	0x3ec63c50	0.3871789
155	0x3d8ca66f	0.06867682
156	0x3df73d4a	0.12072237
157	0x3e510fcf	0.20416187
158	0xbdcbe78c	-0.099562734
159	0xbb0a1194	-0.0021067606
160	0x3cc880c2	0.024475459
161	0x3ddd73ff	0.1081314
162	0x3de78b37	0.1130585
163	0xbc9aa207	-0.018876089
164	0x3cf45e5a	0.029830147
165	0x3e8999f9	0.26875284
166	0xbe31ef8b	-0.17376535
167	0xbbf4d699	-0.007471871
168	0x3b0cfc00	0.0021512508
169	0x3e1e7024	0.15472466
170	0x3d9fa308	0.077947676
171	0x3d68fc57	0.056881275
172	0xbcc7f8e3	-0.02441067
173	0xbd023926	-0.031792782
174	0x3d1e2299	0.038607214
175	0xbb71b529	-0.0036881662
176	0xbb6ebbc7	-0.0036427842
177	0xbdbe239c	-0.09284136
178	0xbc2b2da0	-0.01044789
179	0xbd302a26	-0.043008946
180	0xbc24767b	-0.010038014
181	0x3ddfc533	0.10926285
182	0x3e9acd73	0.3023487
183	0xbdc6a98a	-0.09700306
184	0xbda98168	-0.082766354
185	0xbdcad98c	-0.09904775
186	0xbd8bd736	-0.068281576
187	0xbe04c8e6	-0.12967262
188	0xbd505140	-0.050858736
189	0xbdaca021	-0.0842898
190	0x3d877c95	0.06615559
191	0x3d49b48e	0.049244456
192	0xbd20806e	-0.03918498
193	0x3cbf944d	0.023386145
194	0xbd16723e	-0.036730044
195	0x3b55c71e	0.0032619904
196	0xbc04266f	-0.008065804
197	0xbd993c36	-0.074821874
198	0x3e81d5b1	0.25358346
199	0xbcd2b004	-0.025718696
200	0xbcd04731	-0.025424572
201	0x3d00e354	0.031466797
202	0xbdc98df1	-0.09841526
203	0xbd3eb06b	-0.046554964
204	0xbdab9a1a	-0.08379002
205	0xbde8b446	-0.113625094
206	0x3b807109	0.003919725
207	0xbc7704f2	-0.015076863
208	0xbdcd7136	-0.10031359
209	0xbd6b0e21	-0.05738652
210	0x3bfcd212	0.007715472
211	0x3aa3cc8c	0.0012496873
212	0xbc9316aa	-0.017955143
213	0xbea15aeb	-0.31514677
214	0xbd62671e	-0.05527412
215	0x3d991c41	0.07476092
216	0xbe3a68e3	-0.18204074
217	0xbd39d3d1	-0.04536802
218	0x3d6b7353	0.05748303
219	0xbc950d31	-0.018194767
220	0xbc18346f	-0.009289845
221	0xbce1f1a0	-0.027581036
222	0xbe182ffa	-0.14862052
223	0xbd0fb65c	-0.03508602
224	0xbd1e4f0f	-0.038649615
225	0xbcfc9a9d	-0.030835444
226	0xbc40dfc9	-0.011772105
227	0x3db36e1c	0.08761236
228	0x3d4cd18d	0.05000453
229	0xbdacfe20	-0.08446908
230	0x3e0a4e05	0.13506325
231	0x3c7a0dcb	0.015262078
232	0x3d77a71e	0.06046211
233	0xbcdc381b	-0.026882222
234	0x3e94ac69	0.2903779
235	0x3dc68489	0.09693248
236	0x3d1dbeaf	0.03851193
237	0x3cec77c3	0.0288657
238	0xbd989668	-0.07450563
239	0x3d27f34c	0.04100351
240	0xbd043233	-0.032274436
241	0x3e20afd7	0.15692078
242	0xbe22c88f	-0.1589682
243	0xbd9e5c18	-0.07732409
244	0x3dd8f291	0.10593141
245	0x3e52452d	0.20534201
246	0x3e37028c	0.17872065
247	0xbd6c6674	-0.057714894
248	0x3db719a8	0.089404404
249	0x3d231c22	0.03982175
250	0x3e3327eb	0.17495696
251	0x3cb6e759	0.022327112
252	0x3b2ecd4b	0.0026672657
253	0x3dd8eecc	0.10592422
254	0xbe652682	-0.22377971
255	0xbc51f8f2	-0.012815701

encoder.4.bias f4 [48]
0	0xbe20f3ca	-0.15717998
1	0xbe030572	-0.12795046
2	0x3e598afc	0.21244425
3	0xbc913c09	-0.017728822
4	0x3e8a7218	0.27040172
5	0x3edf2626	0.43583792
6	0xbe906b7e	-0.2820701
7	0x3de6d7ff	0.11271667
8	0xbdb716b1	-0.08939875
9	0xbe72de46	-0.23717603
10	0x3e4ea9b6	0.20181927
11	0xbdda0f3f	-0.10647439
12	0x3e51b615	0.20479615
13	0x3ec50214	0.38478148
14	0xbd63ce30	-0.055616558
15	0x3f0c20d7	0.5473761
16	0x3dc10179	0.09424109
17	0x3e8ac90d	0.27106515
18	0x3ed56912	0.41681725
19	0x3db9aae7	0.090658
20	0xbe6c4e1c	-0.23076671
21	0x3e3f7740	0.18697834
22	0xbeb34751	-0.35015348
23	0xbf01e331	-0.5073729
24	0x3f3d641c	0.7398088
25	0xbe91fa6e	-0.28511375
26	0x3e72f365	0.2372566
27	0x3f2684b3	0.6504623
28	0x3ebbced6	0.3668124
29	0xbd714bc9	-0.058910165
30	0xbe9b43e3	-0.3032523
31	0xbef1c88f	-0.47223327
32	0xbdce4179	-0.10071082
33	0x3ece9fff	0.40356442
34	0x3eb0b071	0.34509614
35	0xbbd0d38f	-0.006372876
36	0x3ede96cc	0.43474424
37	0x3dd32200	0.10309219
38	0x3c85d61c	0.016337447
39	0xbe407d72	-0.18797854
40	0xbeb870f0	-0.36023664
41	0xbecc53d7	-0.39907715
42	0xbcbadf69	-0.022811608
43	0x3e90d37c	0.2828635
44	0xbdb4b01c	-0.08822653
45	0x3ee35351	0.44399503
46	0xbed3c142	-0.41358382
47	0xbd13ea93	-0.03611238

decoder.0.weight f4 [48, 24, 4, 4]
0	0xbccde828	-0.025135115
1	0x3d9f5f03	0.07781794
2	0x3c50b268	0.012737848
3	0x3cfa3734	0.030543901
4	0xbd972a2c	-0.073810905
5	0x3b9c7546	0.0047747223
6	0xbe74e90c	-0.23917025
7	0x3d8e2410	0.06940472
8	0x3d34e59d	0.04416429
9	0x3da9cff3	0.08291616
10	0x3d1b0f2b	0.037856262
11	0x3ce37e5a	0.02777021
12	0xbdab16ef	-0.083539836
13	0x3c9cefef	0.019157378
14	0x3c17a03b	0.0092545105
15	0x3ca7e716	0.020495933
16	0xbe077bdd	-0.13230844
17	0x3f4a5465	0.79035026
18	0xbe65f02d	-0.22454901
19	0xbc451312	-0.0120284725
20	0xbd46e11b	-0.04855452
21	0x3f2b57bb	0.6693074
22	0x3b0176d6	0.001975467
23	0xbe20c14a	-0.15698734
24	0xbe8b949f	-0.27261826
25	0x3dd2c4ee	0.102914676
26	0xbe6f56a6	-0.23372898
27	0xbe83908b	-0.25696215
28	0x3cebcab5	0.028783182
29	0xbc5fcab4	-0.013659168
30	0xbc95ec64	-0.018301196
31	0xbcb9661c	-0.022631697
32	0xbe4e4a59	-0.20145549
33	0x3e5bed5f	0.21477269
34	0x3de77377	0.1130132
35	0xbd8f78b0	-0.07005441
36	0x3c94a91d	0.018147046
37	0xbd8f2f6d	-0.069914676
38	0x3ecf1ebb	0.40453133
39	0x3e368980	0.1782589
40	0xbd75c734	-0.060004428
41	0x3e78119e	0.2422547
42	0x3eaa36f1	0.33245042
43	0x3e9047f0	0.28179884
44	0xbc05c01b	-0.008163477
45	0x3e802d8f	0.25034758
46	0xbd73c14c	-0.059510514
47	0xbcd79624	-0.02631671
48	0xbd2d5cf8	-0.04232499
49	0x3d147521	0.036244515
50	0xbd1c5014	-0.038162306
51	0xbd2fc30e	-0.042910628
52	0xbdd5b32e	-0.104345664
53	0x3ebe197f	0.37128827
54	0x3cf66d0f	0.0300813
55	0x3ea79476	0.32730454
56	0x3cc163e9	0.023607211
57	0xbc25e587	-0.010125524
58	0xbd1e7bba	-0.038692214
59	0x3ccd7f65	0.02508516
60	0x3cd36953	0.025807058
61	0xbe33f484	-0.17573744
62	0x3dff9199	0.124789424
63	0xbdef4bb2	-0.116843596
64	0xbb37d8be	-0.0028052772
65	0x3d05837c	0.032596096
66	0xbcf86009	-0.03031923
67	0xbb757f2e	-0.0037459838
68	0x3cee4c3c	0.029089086
69	0x3e58d2bb	0.21174137
70	0xbcd6e4a2	-0.026232067
71	0xbd94a918	-0.072588146
72	0x3e1a3a50	0.15061307
73	0x3d06308b	0.032761138
74	0xbd423628	-0.04741493
75	0x3c56a15e	0.013099996
76	0x3d293815	0.04131325
77	0x3e197223	0.14984946
78	0x3d47bcba	0.048763968
79	0x3c6e607e	0.014549373
80	0xbd4c9f87	-0.049956825
81	0x3e22a7d9	0.15884341
82	0x3ce49075	0.027900914
83	0x3e350fbe	0.17681786
84	0xbd07e0d1	-0.033173386
85	0x3d255496	0.04036387
86	0xbe1f9442	-0.155839
87	0xba8c3fd3	-0.0010700173
88	0x3e0e5243	0.13898568
89	0xbdfcd070	-0.12344444
90	0x3e5bd87a	0.21469298
91	0x3d9a64cb	0.07538756
92	0xbd8acf86	-0.06777863
93	0xbdf44a66	-0.11928253
94	0xbe18522c	-0.14875096
95	0x3b768eca	0.003762173
96	0x3e59ef49	0.21282686
97	0x3e09aff3	0.13446026
98	0x3cff210b	0.031143686
99	0x3d90d4a7	0.0707181
100	0x3e097ca7	0.13426457
101	0x3cdd7de0	0.027037561
102	0xbe9f7574	-0.31144297
103	0x3df4031c	0.119146556
104	0xbef6e025	-0.48217884
105	0xbd4c1860	-0.049827933
106	0xbd8b550e	-0.06803332
107	0x3d881337	0.0664429
108	0x3d4968a4	0.04917206
109	0x3c95fc0b	0.01830866
110	0xbc826a62	-0.015919868
111	0x3ec399a6	0.38203162
112	0xbd01436a	-0.03155843
113	0xbda36695	-0.0797855
114	0x3d8e8a64	0.0695999
115	0xbd87c12b	-0.06628641
116	0x3db1101b	0.0864565
117	0x3e49e101	0.19714738
118	0xbe9aee00	-0.30259705
119	0x3de59eda	0.11211939
120	0x3c8ecd2f	0.017431824
121	0xbd8f70db	-0.07003947
122	0x3df0a533	0.11750259
123	0x3d94dae0	0.072683096
124	0x3db10d6c	0.08645138
125	0xbe207fc5	-0.1567374
126	0x3a8e0c0c	0.001083733
127	0x3c96b1f8	0.018395409
128	0x3c05bdec	0.008162957
129	0xbd8ace56	-0.06777637
130	0x3b90b00b	0.004415517
131	0x3c53f649	0.012937137
132	0xbdb9af63	-0.090666555
133	0xbc6ff74c	-0.0146463625
134	0x3e8b2ed1	0.27184156
135	0x3dddf552	0.10837807
136	0x3d03a0a1	0.03213561
137	0x3e1f4d6b	0.15556876
138	0x3e720ead	0.23638411
139	0x3b924dac	0.0044648256
140	0x3d17f3f1	0.037097875
141	0xbd3453df	-0.0440253
142	0x3d9831fe	0.0743141
143	0x3d1aecba	0.037823416
144	0xbc5f336b	-0.013623099
145	0xbdb8a010	-0.090149045
146	0x3dd0b203	0.10190203
147	0xbb3f2a39	-0.0029169454
148	0xbe04ee64	-0.12981564
149	0x3d9d9e75	0.07696239
150	0x3e065fae	0.13122436
151	0xbd9656dc	-0.07340786
152	0xbcab0ffc	-0.020881645
153	0xbdd8b1df	-0.10580801
154	0xbdc75faa	-0.09735043
155	0x3cfe0e62	0.031012718
156	0x3d1acde2	0.037794
157	0xbd028443	-0.031864416
158	0x3d0af90e	0.033928923
159	0x3c8616db	0.01636832
160	0x3d00b76e	0.031424932
161	0xbca6d1c0	-0.020363688
162	0xbcb59020	-0.02216345
163	0x3d51bb55	0.051204044
164	0x3dccccb5	0.09999982
165	0xbe6aa07b	-0.22912781
166	0x3ebdbb56	0.37056988
167	0xbc8e231b	-0.017350724
168	0x3d119798	0.03554496
169	0xbce07a76	-0.027402144
170	0x3d596245	0.053072233
171	0xbdbe09a8	-0.092791855
172	0x3d068436	0.03284093
173	0xbdd234f2	-0.10264005
174	0x3ca3f1d3	0.020012772
175	0xbd37b8ce	-0.044853978
176	0x3d8d7ecb	0.069089495
177	0x3ccbcffc	0.024879448
178	0x3e0f6214	0.14002258
179	0xbd41644b	-0.047214787
180	0x3c8f304f	0.01747909
181	0xbb44123c	-0.0029918095
182	0xbe4cc9c7	-0.19998847
183	0xbd286c7a	-0.041119076
184	0x3ded453b	0.1158547
185	0x3d0599a7	0.032617237
186	0xbe0cbc15	-0.13743623
187	0x3d0ed5cd	0.034871865
188	0xbcd0fcf8	-0.02551125
189	0xbde11df6	-0.10992043
190	0x3e69082f	0.22757028
191	0xbd25aa73	-0.040445756
192	0x3d3986ba	0.0452945
193	0x3d7cf2bd	0.06175493
194	0xbc3f767c	-0.011685964
195	0x3de32362	0.11090733
196	0x3dd1c5e3	0.10242822
197	0x3d51a322	0.051180966
198	0xbe49b322	-0.1969724
199	0xbd093c4b	-0.033504765
200	0xbd5f5bb3	-0.05453081
201	0xbd6c1a45	-0.05764224
202	0xbd1d5f0d	-0.038420726
203	0xbd7bc918	-0.061471075
204	0xbe821d39	-0.2541292
205	0xbe99eb06	-0.3006212
206	0x3e18dfea	0.14929166
207	0x3c891029	0.016731339
208	0xbd15c7d7	-0.036567535
209	0x3d8a6c79	0.06758971
210	0xbafc04c4	-0.0019227494
211	0x3dffc900	0.124895096
212	0xbd40d4ca	-0.04707793
213	0xbe1f912f	-0.15582727
214	0x3bbaa98a	0.00569648
215	0xbc4f521c	-0.012653854
216	0x3d633e6c	0.055479452
217	0x3e398154	0.18115741
218	0x3ead3432	0.33828884
219	0x3daaa61d	0.08332465
220	0x3c899251	0.016793402
221	0x3c5a6e95	0.013332029
222	0x3cb7a561	0.022417726
223	0xbd0e3545	-0.03471877
224	0xbc065f8e	-0.008201493
225	0x3d88d6dd	0.06681607
226	0xbd6fe59a	-0.058568574
227	0xbd15ffa9	-0.03662077
228	0xbd17ebfb	-0.037090283
229	0x3e1bfc5a	0.15232983
230	0x3b6cfc6e	0.0036161202
231	0x3cc02242	0.023453835
232	0x3d95d179	0.07315344
233	0x3e4b753d	0.19868942
234	0xbe45d4fd	-0.1931953
235	0x3dd852f8	0.105627
236	0x3c3b8883	0.011446121
237	0x3d9d3cdd	0.076776244
238	0x3c739694	0.014867444
239	0xbb3228d1	-0.0027184973
240	0x3d496fba	0.049178816
241	0x3c8a0e9f	0.016852675
242	0x3dbf09b3	0.09328022
243	0xbd69d8e0	-0.057091594
244	0xbd212761	-0.039344195
245	0x3ec1ede4	0.3787681
246	0xbcd06ac2	-0.025441531
247	0xbd5a8d16	-0.053357206
248	0xbd8c7a8f	-0.06859314
249	0x3e6b3f73	0.22973423
250	0x3d0dafa1	0.03459132
251	0xbe262e67	-0.16228639
252	0xbb893175	-0.004186804
253	0x3e3bd174	0.18341619
254	0xbd664140	-0.05621457
255	0xba65a361	-0.0008760002

decoder.0.bias f4 [24]
0	0xbef7c949	-0.48395756
1	0xbe8b3769	-0.27190712
2	0xbe973555	-0.29532877
3	0x3d6b75f7	0.057485547
4	0x3f405a40	0.7513771
5	0x3e4f7cca	0.20262447
6	0x3e850475	0.25979963
7	0x3f44073b	0.7657353
8	0xbe983d5f	-0.29734322
9	0x3cb8a56e	0.02253982
10	0xbe952129	-0.29126862
11	0x3eb2901b	0.3487557
12	0x3e68bd66	0.227285
13	0xbe934911	-0.28766683
14	0xbed54f66	-0.4166214
15	0xbf6f2442	-0.934147
16	0x3eb7f878	0.35931754
17	0xbf04c70b	-0.51866215
18	0xbe2b1d1a	-0.1671032
19	0xbf0ba9cf	-0.5455598
20	0x3e8f8f89	0.28039196
21	0x3cde268e	0.027117994
22	0xbf0c8352	-0.5488788
23	0x3ea02e1c	0.3128518

decoder.2.weight f4 [24, 12, 4, 4]
0	0xbd0d7060	-0.034530997
1	0x3c0f4bd7	0.008746109
2	0xbb6da7e0	-0.0036263391
3	0xbe18ff12	-0.14941052
4	0x3d04bd8d	0.032407332
5	0x3e228f52	0.15874985
6	0xbd55a9e4	-0.052163973
7	0x3bf1a8d6	0.007374863
8	0xbd301c0c	-0.042995498
9	0x3d8f1c60	0.06987834
10	0x3cb4423e	0.022004243
11	0x3dac3fa3	0.08410575
12	0x3d95022e	0.07275806
13	0x3d46e124	0.048554555
14	0x3d02ee6f	0.03196567
15	0x3a961d94	0.0011452907
16	0xbb7529e4	-0.0037409002
17	0xbc864915	-0.01639227
18	0xbd2ad4ac	-0.041706726
19	0xbc43f8a1	-0.011961133
20	0xbd81220b	-0.06305321
21	0x3dc32c5a	0.09529944
22	0xbd5f7c8f	-0.054562148
23	0xbd9c2435	-0.076240934
24	0x3dbb2b41	0.091391094
25	0x3d65a96b	0.056069773
26	0x3dbbcf0f	0.09170353
27	0xb92abf4c	-0.00016283727
28	0x3cfc83b0	0.030824512
29	0xbc7a5738	-0.015279584
30	0xbd94e996	-0.072711155
31	0x3c194fcb	0.009357403
32	0x3cbcaf3a	0.023032773
33	0x3dbe9d9c	0.09307405
34	0x3dcd050a	0.10010727
35	0xbc7bfdff	-0.015380382
36	0xbcff5476	-0.031168204
37	0x3e8e7397	0.27822563
38	0xbd87c05c	-0.066284865
39	0x3db08605	0.08619312
40	0x3e1f60ee	0.1556432
41	0x3ebce49e	0.3689317
42	0x3ea151e1	0.3150778
43	0x3d731399	0.05934486
44	0x3c335792	0.010946171
45	0x3dc67185	0.09689621
46	0x3b9ae899	0.004727435
47	0xbc12453e	-0.008927641
48	0x3daf7815	0.08567826
49	0xbc575890	-0.013143674
50	0xbe99363b	-0.29924187
51	0x3d343a05	0.044000644
52	0xbde63a98	-0.112416446
53	0xbc52d714	-0.012868661
54	0x3ea83214	0.32850707
55	0xbeaf4665	-0.34233394
56	0x3e2ee9d2	0.17081383
57	0xbd19704b	-0.037460607
58	0xbf1c5664	-0.6106932
59	0xbf10e2be	-0.5659598
60	0x3ec64b1a	0.38729173
61	0xbcba4082	-0.022735838
62	0xbd473fce	-0.048644833
63	0x3ec89d19	0.39182356
64	0x38f512eb	0.00011686034
65	0xbda173f7	-0.07883447
66	0x3e178576	0.14797005
67	0xbe8958ff	-0.2682571
68	0xbcd374ba	-0.025812495
69	0xbdf246f2	-0.11829938
70	0xbd8922d1	-0.06696094
71	0x3d3a672f	0.04550856
72	0xbd0eb082	-0.0348363
73	0xbbd2d088	-0.0064335503
74	0x3e7bf934	0.24606782
75	0x3f101947	0.5628857
76	0x3c66e417	0.014092467
77	0xbef5b948	-0.4799292
78	0xbcaefa08	-0.021359459
79	0x3df104d5	0.117685
80	0xbd1cd8b1	-0.03829259
81	0xbca0cf92	-0.019630227
82	0x3cb0b064	0.021568485
83	0xbc37ffa9	-0.011230388
84	0x3d6d9933	0.05800743
85	0xbdea7f90	-0.11450112
86	0xbda21891	-0.07914842
87	0xbe99d83c	-0.30047786
88	0x3d2b4208	0.04181102
89	0x3dd27c39	0.102776
90	0x3b010ecf	0.0019692665
91	0xbcf4f5ad	-0.029902304
92	0x3c9a1a8e	0.01881149
93	0x3cb69f4a	0.022292752
94	0xbdd13dfe	-0.10216902
95	0xbdce6930	-0.10078657
96	0x3c95f90c	0.018307231
97	0x3d7526f4	0.0598516
98	0xbd807176	-0.06271641
99	0xbe942c63	-0.28940114
100	0xbd974af1	-0.07387341
101	0x3e168cc5	0.14702137
102	0xbda9c9ae	-0.082904205
103	0x3d2294ac	0.039692566
104	0xbd7cb957	-0.06170019
105	0xbe318d7b	-0.17339127
106	0x3d5f0e32	0.054456897
107	0x3e03a754	0.128568
108	0xbc3f2c8d	-0.011668337
109	0xbcd4f358	-0.025994942
110	0xbda9a89d	-0.082841136
111	0x3d0aec97	0.033917036
112	0x3e0383b3	0.12843208
113	0xbe616574	-0.22011358
114	0xbcaf8c96	-0.021429341
115	0x3d34b8cb	0.044121545
116	0x3e219b30	0.15781856
117	0xbf07e13c	-0.53078055
118	0xbd03fc71	-0.03222317
119	0x3ee1e6ad	0.44121304
120	0x3dce0375	0.10059253
121	0x3bc84354	0.0061115418
122	0xbc95d4dd	-0.018289978
123	0x3dac4798	0.08412093
124	0x3e850e01	0.25987247
125	0x3e73cc45	0.23808391
126	0xbbc4aecc	-0.0060022827
127	0x3f555a4b	0.833409
128	0x3cc5690e	0.024097946
129	0xbd98d2a2	-0.0746205
130	0x3b5f0b3d	0.0034033798
131	0xbd4cc6e3	-0.04999436
132	0xbd8d2bbd	-0.06893108
133	0x3d09389c	0.033501253
134	0xbe482d30	-0.19548488
135	0x3d4cd8bc	0.05001138
136	0x3d7a7ba6	0.061153077
137	0xbd503b4a	-0.050837792
138	0x3cca71f7	0.024712546
139	0xbe123af7	-0.14280306
140	0xbd6787f4	-0.05652614
141	0x3c60798c	0.013700854
142	0xbdf41475	-0.11917964
143	0xbd2656e1	-0.040610198
144	0xbbfb8c6c	-0.0076766517
145	0xbcb51625	-0.022105286
146	0x3cacfdab	0.021117052
147	0x3d1f44a4	0.03888382
148	0x3dc27f0c	0.094968885
149	0xbee2d25e	-0.44301122
150	0x3e99a533	0.3000885
151	0x3ca7a2d3	0.020463383
152	0xbcada693	-0.021197593
153	0x3d32e081	0.043671135
154	0x3d54b215	0.051927645
155	0xbcf8d24e	-0.030373719
156	0x3c1ee597	0.009698293
157	0xbe1494ee	-0.14509937
158	0x3cfcbabc	0.03085076
159	0xbf126d56	-0.57198083
160	0x3d9979d0	0.07493937
161	0xbcad4884	-0.021152742
162	0xbc123bd9	-0.008925402
163	0xbced9902	-0.029003624
164	0xbbd1e9e5	-0.006406056
165	0x3e32f3dd	0.17475839
166	0x3e127a0d	0.14304371
167	0x3db70438	0.089363515
168	0x3d821b28	0.06352836
169	0xbd9f1d70	-0.07769287
170	0x3dce310d	0.100679494
171	0x3bfa06f6	0.0076302243
172	0xbc8acd14	-0.016943492
173	0x3cb38f4a	0.021918911
174	0x3d3926ad	0.0452029
175	0x3cc6e5e5	0.024279544
176	0xbcd4ec74	-0.025991656
177	0xbf9c7032	-1.2221739
178	0x3cab9244	0.020943768
179	0xbf17e402	-0.5933229
180	0xbf551ae4	-0.83244157
181	0xbe178658	-0.14797342
182	0x3ce9f2c9	0.028558152
183	0x3c82fae5	0.015988776
184	0x3d502278	0.050814122
185	0xbf2e30fa	-0.6804348
186	0x3e189381	0.14900018
187	0x3ec7321e	0.38905424
188	0xbd937807	-0.07200628
189	0xbd21323e	-0.039354555
190	0xbc5a5ee8	-0.0133282915
191	0xbc010b05	-0.007876162
192	0xbcba28eb	-0.02272459
193	0x3d1ec872	0.03876538
194	0xbd2d1023	-0.042251717
195	0xbac22234	-0.0014811219
196	0xbcc80df0	-0.024420708
197	0xbd2597b4	-0.04042788
198	0x3c9f8354	0.019471802
199	0x3dbbef39	0.091764875
200	0x3ae3f0cd	0.001739049
201	0x3e735182	0.23761562
202	0x3d69e332	0.057101436
203	0x3df97f29	0.12182457
204	0xbe863ade	-0.26216787
205	0x3df27490	0.11838639
206	0x3d7a206a	0.06106607
207	0xbd6e9104	-0.058243766
208	0xbc037143	-0.008022609
209	0x3c664215	0.014053841
210	0x3d681cc0	0.056668043
211	0xbc4f9bc8	-0.0126714185
212	0xbd8288c7	-0.063737445
213	0xbdbe5c62	-0.092949644
214	0xbdb02c68	-0.0860222
215	0xbd8b7961	-0.068102606
216	0x3c8bfad3	0.017087376
217	0xbe260cd0	-0.16215825
218	0x3e272c51	0.16325499
219	0xbc193e27	-0.009353197
220	0x3cca5da0	0.024702847
221	0x3d9c2896	0.07624929
222	0x3aa59a41	0.0012634472
223	0xbddf13f2	-0.10892476
224	0x3c68a977	0.01420056
225	0xbceffaae	-0.029294338
226	0xbc0e08c5	-0.008669083
227	0x3cdbefb6	0.026847702
228	0xbd36bbcb	-0.044612687
229	0x3d8b015b	0.06787368
230	0xbb4efa8d	-0.0031582445
231	0xbdba683d	-0.09101913
232	0xbc6b7df9	-0.014373296
233	0xbda3d19a	-0.07998963
234	0xbbafb8d4	-0.0053626094
235	0xbcb8283d	-0.022480125
236	0xbd832594	-0.06403652
237	0x3e362ab4	0.17789727
238	0xbd98c9aa	-0.07460339
239	0x3b859fcd	0.0040778876
240	0xbeb183f4	-0.34670985
241	0x3aeef749	0.0018231656
242	0x3eb342c4	0.35011876
243	0x3d0fe527	0.035130646
244	0xbe0f5466	-0.13997039
245	0xbd106d9b	-0.035260778
246	0x3f4738ac	0.7782085
247	0x3da90074	0.082520396
248	0xbefd54f9	-0.49478891
249	0xbe0d2c47	-0.13786422
250	0x3f1f220c	0.62161326
251	0xbd1fa226	-0.038972996
252	0xbee0966f	-0.43864772
253	0x3bf901e8	0.007599104
254	0x3f19b31b	0.6003892
255	0xbf729f80	-0.9477463

decoder.2.bias f4 [12]
0	0xbee6d149	-0.45081547
1	0xbe98d08c	-0.2984661
2	0xbf1cf407	-0.61309856
3	0x3ee62f86	0.44958133
4	0x3ee57eab	0.44823202
5	0xbf55f512	-0.8357707
6	0x3e19d4a0	0.15022516
7	0x3e8c8187	0.27442572
8	0xbeadf7fd	-0.33978263
9	0x3f0d7f4e	0.55272377
10	0x3f036b12	0.5133525
11	0x3f313d3d	0.6923407

decoder.4.weight f4 [12, 3, 4, 4]
0	0xba9caf54	-0.0011954107
1	0x3dcad46b	0.09903797
2	0x3e00362f	0.1252067
3	0x3cce3ff4	0.02517698
4	0x3deb8e8c	0.11501798
5	0x3eae615e	0.3405866
6	0x3eb07165	0.34461513
7	0x3df1b20a	0.118015364
8	0x3ddcdd79	0.1078443
9	0x3e94163f	0.28923222
10	0x3e787dae	0.24266693
11	0x3d7276e7	0.059195425
12	0x3cde5525	0.02714021
13	0x3dc772de	0.09738706
14	0x3d932d16	0.07186334
15	0xbb1843d9	-0.00232338
16	0x3ca93ce6	0.020658921
17	0x3dc15f5e	0.09442018
18	0x3dd75290	0.105137944
19	0x3cfa9e01	0.03059292
20	0x3df802a8	0.12109882
21	0x3e9ec682	0.31010824
22	0x3e9226f6	0.2854535
23	0x3dcc2233	0.099674605
24	0x3dd27317	0.10275858
25	0x3e8363f8	0.25662208
26	0x3e44b319	0.19208945
27	0x3d17b0ca	0.037033834
28	0x3d0a2763	0.03372897
29	0x3db596c3	0.08866646
30	0x3d5645be	0.052312605
31	0xbbd4141c	-0.006472124
32	0xbb31becd	-0.0027121783
33	0x3d64dc2c	0.055874035
34	0x3db0e587	0.08637529
35	0x3cdb74d0	0.026789099
36	0x3d7c8f78	0.06166026
37	0x3e7dbb59	0.24778499
38	0x3e8d5036	0.2760026
39	0x3db3da7b	0.08781906
40	0x3d824b91	0.063620694
41	0x3e5397cb	0.20663373
42	0x3e2dfed0	0.16991735
43	0x3cc2151f	0.023691712
44	0x3cd4b303	0.025964266
45	0x3d7db93e	0.06194424
46	0x3ce1f2d9	0.02758162
47	0xbc404cde	-0.011737077
48	0xbc7d3389	-0.0154541815
49	0x3ce5a8c1	0.02803457
50	0xbc8891a9	-0.016671019
51	0xbd766b5e	-0.060160987
52	0x3d757408	0.05992511
53	0x3e51c05b	0.20483534
54	0x3dcc56c4	0.09977487
55	0xbd3990b3	-0.04530401
56	0x3e0a7674	0.13521749
57	0x3ea88cd6	0.3291995
58	0x3e49664a	0.19667926
59	0xba0d6815	-0.00053942326
60	0x3d290a7c	0.041269764
61	0x3dfa1f94	0.12213054
62	0x3d4abf83	0.049499046
63	0xbcf48db0	-0.029852718
64	0x3c94e774	0.018176772
65	0x3dab3d3e	0.083612904
66	0x3d55bda5	0.052182812
67	0xbc6c8944	-0.014437024
68	0x3dd7bd62	0.10534169
69	0x3e8fa829	0.28057984
70	0x3e43089a	0.1904625
71	0x3c3052bc	0.010761913
72	0x3e300547	0.17189513
73	0x3ecd744c	0.4012779
74	0x3e932205	0.28736892
75	0x3d564df7	0.052320447
76	0x3d743936	0.059624873
77	0x3e2b1483	0.16707043
78	0x3de926af	0.113843314
79	0x3ba3626c	0.004986098
80	0xbbf59d9e	-0.007495596
81	0x3d4e8735	0.050421912
82	0x3a649171	0.0008719182
83	0xbd61bd34	-0.05511208
84	0x3d966cd2	0.073449746
85	0x3e733e12	0.23754147
86	0x3e15c5b0	0.14626193
87	0xbc99ba8d	-0.018765712
88	0x3e16467c	0.14675325
89	0x3ebb1e63	0.3654662
90	0x3e77ec5e	0.2421126
91	0x3ca6f984	0.02038265
92	0x3d2091fe	0.03920173
93	0x3e15798f	0.14597152
94	0x3d8b9c9c	0.0681698
95	0xbd1400fe	-0.03613376
96	0x3d10eab9	0.0353801
97	0x3e211832	0.15731886
98	0x3e9a7512	0.30167443
99	0x3e38c191	0.1804259
100	0x3d164168	0.03668347
101	0x3e37bbe5	0.1794277
102	0x3ecacb34	0.39608157
103	0x3e86586e	0.26239341
104	0xbd0b8402	-0.03406144
105	0xbc66c7cc	-0.014085721
106	0x3e38d3ec	0.18049592
107	0x3e2b4962	0.16727212
108	0xbd390d57	-0.045178737
109	0xbd63a2a0	-0.055575013
110	0x3cfd8bd8	0.030950472
111	0x3d1d6adf	0.038432
112	0x3cc646b9	0.024203645
113	0x3d930b1d	0.07179854
114	0x3e2e96f8	0.17049778
115	0x3e02350d	0.1271555
116	0xbd17202f	-0.036895927
117	0x3c9478bc	0.018123977
118	0x3e415b7c	0.18882555
119	0x3e129fa6	0.14318714
120	0xbdf73133	-0.12069931
121	0xbe3515d9	-0.17684115
122	0xbc6cb265	-0.014446829
123	0x3d455a48	0.048181802
124	0xbd85b3b1	-0.06528414
125	0xbe07d82d	-0.13266058
126	0xbdab5c96	-0.08367269
127	0xbc82502e	-0.015907373
128	0x3c956312	0.018235717
129	0x3d5f8ce3	0.05457772
130	0x3e514090	0.20434785
131	0x3e2cd271	0.16877152
132	0xbd52fd28	-0.05151096
133	0xbc4a268a	-0.01233829
134	0x3e44642c	0.19178838
135	0x3e262bf5	0.16227706
136	0xbded39f5	-0.1158332
137	0xbe47bfac	-0.19506711
138	0xbcbb67a3	-0.022876566
139	0x3d84bd62	0.064814344
140	0xbd4b99b8	-0.049707144
141	0xbe1285cd	-0.14308853
142	0xbd808f5d	-0.062773444
143	0x3ce4bcca	0.027922053
144	0xbeaaa4e3	-0.33328924
145	0xbf84195d	-1.032024
146	0xbe8feab4	-0.28108752
147	0x3c9cbdf8	0.019133553
148	0xbe51767a	-0.20455351
149	0xbf88ca9c	-1.0686831
150	0xbe8e028b	-0.27736315
151	0x3d463613	0.048391413
152	0x3c7ac6c0	0.015306175
153	0x3d28c397	0.041202154
154	0x3d4b5b7c	0.049647793
155	0x3cc549cc	0.02408304
156	0xbc1725b9	-0.009225302
157	0xbb5497cc	-0.003243911
158	0x39fa14f2	0.0004769932
159	0xbc007f5d	-0.007842866
160	0xbebf4474	-0.37356913
161	0xbf8fcd2b	-1.1234487
162	0xbe8ba5ae	-0.2727484
163	0x3c8c458c	0.017123006
164	0xbe490e50	-0.19634366
165	0xbf946e68	-1.1596193
166	0xbe958810	-0.2920537
167	0x3d47c3c1	0.04877067
168	0x3c8a2dbc	0.016867511
169	0x3d20c6a7	0.03925195
170	0x3d38f641	0.04515672
171	0x3ccfd205	0.0253687
172	0xbc98375b	-0.018581083
173	0xbac934e6	-0.0015350848
174	0x3bfac479	0.007652816
175	0xbc1b2d67	-0.009471274
176	0xbeb3097e	-0.3496818
177	0xbf9b7b75	-1.2147051
178	0xbe8f6579	-0.28007105
179	0x3bf66d5f	0.0075203623
180	0xbe428661	-0.18996574
181	0xbf9f9f4e	-1.2470491
182	0xbe9627e8	-0.2932732
183	0x3d1c9745	0.0382302
184	0x3c646ad4	0.013941485
185	0x3d0a50ec	0.03376858
186	0x3d1f8138	0.038941592
187	0x3cab3565	0.020899484
188	0xbc9a508a	-0.018837232
189	0xba8d6201	-0.0010786654
190	0x3b98907b	0.0046558953
191	0xbc5397e3	-0.012914631
192	0x3dc9327a	0.09824081
193	0xbf93d877	-1.1550435
194	0x3d92f6f4	0.07176009
195	0xbc9c806c	-0.019104205
196	0x3dd0c4ec	0.1019381
197	0xbf8676db	-1.0505022
198	0x3d543b7f	0.051814552
199	0xbcdcd29f	-0.0269559
200	0x3dc08d5c	0.09401962
201	0xbfba5865	-1.4558226
202	0x3d53ae18	0.0516797
203	0xbc2f2f43	-0.01069242
204	0x3dc07b3d	0.09398506
205	0xbf95ff67	-1.1718568
206	0x3d7f1e91	0.06228501
207	0xbcba2ec9	-0.022727387
208	0x3dd9254d	0.10602818
209	0xbf908be5	-1.1292692
210	0x3d8c56e4	0.068525106
211	0xbc9e1424	-0.019296713
212	0x3dd48d87	0.10378557
213	0xbf8dd7a7	-1.1081437
214	0x3d6bb498	0.057545274
215	0xbcc2e584	-0.023791082
216	0x3dc07a78	0.09398359
217	0xc02b901e	-2.6806712
218	0x3d68cb71	0.05683464
219	0xbbbd4ef8	-0.005777236
220	0x3dc92b45	0.09822706
221	0xbf9b076e	-1.2111642
222	0x3d6b557b	0.057454567
223	0xbcb42ce0	-0.021994054
224	0x3daf16ea	0.085492924
225	0xbfa2d519	-1.2721282
226	0x3d718b33	0.05897064
227	0xbccf8f83	-0.025336986
228	0x3db7105a	0.08938666
229	0xbf92e21c	-1.1475253
230	0x3d280a1e	0.041025274
231	0xbcf55733	-0.029948806
232	0x3da55144	0.08072141
233	0xbf9ef266	-1.2417724
234	0x3d30a3f9	0.043125127
235	0xbc51495c	-0.012773838
236	0x3da102c0	0.07861853
237	0xbf9a33c7	-1.2047051
238	0x3d3f804d	0.046753217
239	0xbcf2b148	-0.02962555
240	0x3d8fc492	0.07019915
241	0x3defdac2	0.117116466
242	0x3e0ef92e	0.13962242
243	0x3db6d28d	0.08926878
244	0x3deb9cee	0.11504541
245	0x3e5086e4	0.20363957
246	0x3e696b3f	0.22794817
247	0x3e10608e	0.14099333
248	0x3e1d69e2	0.15372422
249	0x3e76791e	0.2406964
250	0x3e73db1d	0.23814054
251	0x3e30f33b	0.17280285
252	0x3d7c67b6	0.061622344
253	0x3deaa343	0.11456921
254	0x3dfd95a7	0.123820595
255	0x3d9bfe94	0.07616916

decoder.4.bias f4 [3]
0	0xbf89743a	-1.0738595
1	0x3c224647	0.009904451
2	0xbf16ee2d	-0.5895718
