code/models weights/Autoencoder_gaussian_0.2_300.pth (torch, 193695 bytes, 12 tensors)

encoder.0.weight f4 [12, 3, 4, 4]
00000000: 17b1 6a3b acb6 8d3b 2519 63bc b174 3dbd
00000010: a979 6d3d ee59 da3d 0832 183e 7283 e73c
00000020: 7b0c 9abc 4a58 973c da96 cf3d d80c 8b3c
00000030: 2d5b 623b a1ab 063d e7b1 5d3d 8ce9 e13b
00000040: 85b4 5bbc 380c 8fbd 1dce a4bd e1c7 68bd
00000050: 7d46 06bd ff5c 7abd 6c22 8bbb b388 53bd
00000060: 223f e9bd d28c 2cbe c471 a0bd e908 a1bd
00000070: 8cc6 72bc a324 7dbd dd25 42bd 976e d8bc
00000080: 7498 6e3c 8d03 9a3b 5724 72bb 7196 c4bc
00000090: 3233 1f3d 4267 7f3d 679b ef3d f9b7 9e3c
000000a0: b4c0 76bd fb6a 64bd 0e3b 403d b6b8 70bb
000000b0: e769 51bc fd12 1bbc 744f c63c 6fab 0d3b
000000c0: 74dd 6dbd dece 48bd b0b0 dcbc 361d 3fbc
000000d0: 72c4 69bd ebd9 3bbd fe51 23bd 77b5 51bd
000000e0: 25d1 25bd bbee 723c d1a0 363c 0d38 a6bc
000000f0: cd77 8bbd a511 10bd eb57 d9bc b378 24bc
00000100: 921c 19ba dc1d 973c 7319 e83c cc0c 9e3c
00000110: 7496 e53c 2b5c 383d 65bb 9b3c 6423 3cbc
00000120: 0d60 1f3d a4c2 cf3d f764 543d 2891 353a
00000130: 9cde 81bc 0f0e af3c e076 233c b003 4c3c
00000140: a782 dd3a 66bd 5cbb 1a4b 953c 0d2b d73c
00000150: a261 81bc c6f6 2bbd 5627 3ebd 1aad 38bd
00000160: eea1 b03c fb7f 09bc afd6 91bd 608c 24bd
00000170: 639c b53c ba69 c1bc 019a 72bd 4ed7 373c
00000180: 4856 003c 672c 96bd 41eb e4bd 765a 09bd
00000190: 1f9a 8fbd ebd3 33be d833 65be 1dc3 f4bd
000001a0: 234d edbc 4be4 1fbe 62ad 3bbe 9192 a4bd
000001b0: 078a 403d 5b57 5abd 5c6e 92bd 5ebb 483b
000001c0: c4db 103d ef7c 653d 9db2 853d b8cf 513d
000001d0: d872 803d 3190 bb3d a903 cf3d fa29 aa3d
000001e0: 1ad4 913d 3dbf ae3d 2e07 d63d 6699 ae3d
000001f0: 6b22 0d3d c351 483d 655d 933d 447d 493d
00000200: d770 ebbc 4de5 9a3c c71f 3a3d 9386 b03b
00000210: 2492 3e3c ec10 953d e29b cf3d 520b 653d
00000220: 8812 783c 57b2 7f3d 9c84 c13d f922 183d
00000230: e9ff efbc c7d4 273c 4b95 2a3d 8033 3ebc
00000240: c1a7 8fbc 9a81 8d3d 7f51 533e 5b6a c33d
00000250: 0378 a93c 17b3 cb3d 1281 973e 2f1e 0e3e
00000260: c913 a5bc 5b23 d23c 0818 0a3e 2e81 103d
00000270: 6ae5 93bd 7301 a1bc abfc 043d e2fc c7bc
00000280: 2746 a3bc 18b4 703c 5275 cf3d cca3 ea3c
00000290: 1e77 9abc a763 83bc db19 003e 65f1 f83c
000002a0: 49b8 8fbc b7ab 31bd b23a a23c 9f9e adbc
000002b0: 7bee f3bc 854b babc bd87 c4bb 8716 e7bc
000002c0: 1f3e cc3b 081c 82bb 0b7a 193d fb1c 8d3b
000002d0: 75f5 133c 755c 4fbd 9ed1 ca3c ef20 4ebc
000002e0: a0c1 373d 8824 bdbc f8f5 96bc 0bed f1bc
000002f0: 3289 2e3d c60b d93c daad fd39 392e 2ebc
00000300: 31e8 2c3d 24c2 853c c337 703d dfef 293d
00000310: ee58 483c b0d6 48bd 7bf0 333d 1a37 403d
00000320: a90f 7b3d ae4b 9e3c a15b 833d 52b2 0f3d
00000330: 40df 443d c3c8 173d 47b4 f03c 6992 693c
00000340: 14b3 1dbb ff39 f1bc 1b04 963c 3598 be3b
00000350: 4804 23bd d146 d7bd 2fe5 a8b9 6c4c 1a3c
00000360: fa88 893c 6ca9 c8bc 5f2f f23c 4018 f33b
00000370: 6bc9 803c 8f68 de3b ad16 a93b 27cd efbb
00000380: f03c 18bd 47eb 98bd 0874 c6bc c4e8 b8bc
00000390: 997c c7bd e728 35be 1d85 93bd ebc8 39bd
000003a0: 4886 24bd bbf2 bebd 2665 21bd 48d0 28bd
000003b0: 4fd3 b5bc d44f 1ebd e35d 25bd 9bdf 17bd
000003c0: 4651 9e3c 1c66 d1bb d48f 60bc 1817 6a3c
000003d0: 74c1 3fbd 019f e4bd e7c0 03be 2a7b 73bd
000003e0: 9094 5ebc 8136 e4bb 19cc 85bc 780c 2cbc
000003f0: aea2 383d e87d fa3d f674 063e 3145 7b3d
0.003581112 0.0043247547 -0.013860975 -0.046253864 0.057977352 0.10661684 0.14862835 0.02826092
-0.01880478 0.018474717 0.101361945 0.016973898 0.0034539208 0.03287852 0.05412474 0.006894296
-0.013409738 -0.069847524 -0.080471255 -0.056831244 -0.032782067 -0.061123844 -0.0042460468 -0.05164404
-0.11388995 -0.16850594 -0.07834199 -0.078630276 -0.014817845 -0.061802518 -0.04739939 -0.02641992
0.014562715 0.0047001303 -0.003694793 -0.023997517 0.038867183 0.062354334 0.116995625 0.019374834
-0.06024237 -0.055766087 0.04693132 -0.003673119 -0.012781597 -0.009464976 0.024207808 0.0021617075
-0.058072522 -0.04902541 -0.02693972 -0.011664679 -0.05707211 -0.04586212 -0.039873116 -0.05119845
-0.04048266 0.014827426 0.01114674 -0.020290399 -0.068099596 -0.035173077 -0.02653118 -0.010038543
-0.0005840744 0.018446855 0.028332448 0.019293211 0.028025843 0.045009773 0.019010255 -0.011483047
0.03890996 0.10144547 0.0518541 0.0006926232 -0.015853219 0.021369008 0.0099770725 0.012452051
0.0016899899 -0.0033682226 0.018224288 0.026265645 -0.015793625 -0.04198339 -0.046424232 -0.045086958
0.02156159 -0.008392329 -0.07121026 -0.040172935 0.022169298 -0.023609985 -0.0592289 0.011220766
0.007833071 -0.07332688 -0.111776836 -0.033533536 -0.07011818 -0.17561309 -0.22383058 -0.119512774
-0.028967446 -0.1561443 -0.18327859 -0.08035768 0.047006633 -0.053305965 -0.07149956 0.0030629258
0.035365835 0.05602735 0.065282084 0.051223487 0.06271905 0.09158362 0.1010812 0.08308788
0.07120533 0.085325696 0.10450588 0.08525352 0.03445665 0.0489061 0.07195548 0.04919173
-0.02874033 0.018908167 0.04544046 0.0053871362 0.011631522 0.07278618 0.10137154 0.055919
0.015141137 0.062425938 0.09449121 0.037142728 -0.029296832 0.010243601 0.041646283 -0.011608958
-0.017536046 0.06909485 0.20636557 0.0954177 0.020687109 0.09946268 0.2959066 0.13878702
-0.020151036 0.025651624 0.1348573 0.035279445 -0.07221492 -0.019654011 0.032467525 -0.024412576
-0.019930912 0.014691375 0.10129799 0.028642558 -0.018855628 -0.016038729 0.12509863 0.030388543
-0.017543929 -0.04337665 0.019803379 -0.0211938 -0.029776802 -0.022741089 -0.0059976266 -0.028208984
0.0062329913 -0.0039706267 0.037469905 0.0043064333 0.0090306895 -0.050625283 0.024758156 -0.012581094
0.04486239 -0.023088709 -0.018427834 -0.029531976 0.04261131 0.026494872 0.0004838545 -0.0106311375
0.042213622 0.016327925 0.05864693 0.041488525 0.012228234 -0.049032867 0.043930512 0.04692755
0.06129423 0.019323196 0.06413961 0.03508217 0.04806447 0.037056696 0.029382838 0.014256098
-0.0024063038 -0.0294466 0.018312505 0.0058164843 -0.039799005 -0.10511554 -0.00032214212 0.009417634
0.016788948 -0.02449485 0.029563604 0.0074186623 0.015721044 0.0067873667 0.005160174 -0.0073181572
-0.03716749 -0.074667506 -0.02422525 -0.022571929 -0.09740562 -0.17691384 -0.07203124 -0.045357626
-0.040167123 -0.09323641 -0.039403103 -0.041214257 -0.022195486 -0.03865035 -0.04037274 -0.03707848
0.019325864 -0.006390346 -0.013706166 0.014287733 -0.04681535 -0.1116314 -0.12866555 -0.05944363
-0.013585225 -0.006964505 -0.016332673 -0.01050102 0.04507702 0.12231046 0.13130555 0.061345283

encoder.0.bias f4 [12]
00000000: 2be2 063f ad5e ec3e fad5 0f3e eb4f 933a
00000010: b266 ff3e 978c 4a3e 9f03 633c a9bd 2f3d
00000020: f774 48bd 0d09 1ebd 2133 f3bc 36d6 f9be
0.52688855 0.46165982 0.1404647 0.0011239027 0.49883038 0.19780193 0.013855844 0.042905483
-0.04893967 -0.03858285 -0.029687466 -0.48796242

encoder.2.weight f4 [24, 12, 4, 4]
00000000: b4f6 f4bd 4209 67bd 1c97 853d f9e2 6ebd
00000010: 2e15 1a3e d001 383e c03d 4d3e d888 9e3d
00000020: 0955 b13d 83e3 323e ff13 843e 2780 d23c
00000030: dc97 33bd f5ca 673d e198 963d 5511 98bd
00000040: e76b a2bd 049c fbbb 1bdd 683d 6de7 ac3c
00000050: a450 b53c 8766 a03b 5955 d3bd dfd0 38bd
00000060: bcb3 33bc 5c80 c33b c293 a03d 781a eabc
00000070: 5663 29bc 96be 1f3c ad3a f4b8 0fd5 1cbd
00000080: 33d7 a2bd 6061 3fbd e1ef c8bb 8c57 1ebd
00000090: e6df 70bd 7073 623d f23d 48bc 8d32 5fbc
000000a0: 9cfc 143d df7a b23c 8922 11bd 3be1 01bc
000000b0: 0143 90bd 59b8 c7bd b09e c4bd ea4a 7ebd
000000c0: c216 60bd e324 88bc 60b4 413d c2c5 6cbc
000000d0: 46b9 cb3d de9e bf3e 3511 1ebd 93ed bb3d
000000e0: 4934 be3c 9ece 093d 5c50 0ebe 02e7 10bd
000000f0: 7a7d 93bb a611 98bd 9cb9 febc 2184 ffbc
00000100: 0afb 68bd 4b12 013d def5 f63d 51fb 94bd
00000110: 1284 283d a7fc eabd 9b23 8dbd cc5a 303d
00000120: dcf3 093e c847 15be 98ee 823e b768 8d3d
00000130: c8b7 1bbc 14dd 69be c90a e33c e6d1 dbbd
00000140: 7e38 ffbd 7a30 c5be d972 e4bd 8a8b 533b
00000150: a2ad b8bc d2ef 3f3e 4585 203e 2ece cfbc
00000160: 91f8 69be 071d 9e3d 23d8 39be 5d1f 03bd
00000170: 27dc 1bbd 45d3 d93c 581b a4bc e7ac 23bc
00000180: bc6e 4bbd b065 efbd fed5 62bc 1d88 013b
00000190: e85e 0e3e 1e42 1d3f ee91 063b bb91 5b3d
000001a0: 300a f3bc d4cc 173e bb39 2ebc 3987 57bc
000001b0: e994 df3d c4a7 043e e32e 0d3e c657 043d
000001c0: a041 713c 04f4 62bd 88d5 85bd df11 f53c
000001d0: 7e2a d43c 5cfb 933e 6eb6 50bc 6b12 2d3d
000001e0: 7358 5fbd db8a 70bd ee46 6bbe 3d0c 81bd
000001f0: e58e bd3c 8a17 c8bb bafe 45bd 7e4c df3d
00000200: 3c77 df3c 516f 0b3e 6df2 1e3a f426 a53c
00000210: 8b59 103d be3b 123f 2029 23be 3570 a53b
00000220: 066b e33b 3f22 b83d 2c13 d93d e4fa 4fbd
00000230: 2458 373d 46b3 023d 2c26 13bc 9642 59bc
00000240: 95e8 5abd 53d0 263d 3ffd fa3d 183f af3c
00000250: 2217 06be eb78 063f 9848 e93d a800 593d
00000260: 4583 08bd e91a 6e3e 2348 693a 6618 883d
00000270: f7f6 45bd 4322 433d 481f b3bc 27f9 d4bb
00000280: c52f 35bd a300 38be 1366 ebbd 46e1 1ebc
00000290: af3c aa3b 9d01 1e3f 2a96 e33d 3fbd 043d
000002a0: e4c5 53be 906b 84bb 0b16 73be fb07 2cbd
000002b0: 4db8 0e3d 814e 013c 4074 ce3c 4ebc 273d
000002c0: 4f1a e33b ef71 fabc b178 60bc af03 91bc
000002d0: 849a 3bbe c653 02bf ec3c 83be 6db9 5fbd
000002e0: 8b69 aa3b e2ac 9bbe b470 133d 9105 823d
000002f0: b8e2 bfbd bc0f 48be 31a4 d7bd a9b0 cdbc
00000300: 67a0 bbbb 3ae0 583d 25e1 3fbd 1dbf a6bd
00000310: 4b6c ad3c 72da c63e 87c8 843e bfd7 c33c
00000320: 4fc4 9439 e4ae a63e fe8b bc3d c0fb 6d3d
00000330: 76a5 8b3b 169e f73c 45e5 d7bc c00b 91bd
00000340: bcb8 903d 36be 763d 9643 2bbd 0e46 9bbd
00000350: de41 7d3d 1245 063e a88b edbd 7db4 6fbd
00000360: de7b aabd 8430 9d3d e277 6b3c 3d8b cc3d
00000370: 4a8e 6d3d b0b0 6c3d 6695 f5bc 614f 173d
00000380: 7ddf 09bd 8bf7 613d 2719 fc3c 0c0c 9abc
00000390: ca41 e03c c4fb 753e 4c24 383e 8e76 c13c
000003a0: 1f86 863d bc6d 823e 3e94 2d3e 4572 c63c
000003b0: db37 183d 56ad b33d fbd5 163d 7cf8 60bd
000003c0: 4f9f 51bc 6b37 8c3d e358 253d 2a6d ad3d
000003d0: 8042 3c3d b1fc d83e 92aa 9a3e d4dd de3d
000003e0: 17be 5c3d 97e9 5b3e e09f f2bc f9fb f03d
000003f0: d970 34bc 2476 0f3e 18be 1e3c 0f29 afbc
-0.119611174 -0.056405313 0.065229625 -0.058321927 0.15047142 0.17969441 0.20043087 0.077409446
0.08658797 0.17469601 0.25796506 0.025695873 -0.043845996 0.05659004 0.07353378 -0.07425181
-0.07930737 -0.0076785106 0.056851488 0.021106446 0.022133179 0.0048950347 -0.10319013 -0.04512107
-0.010968145 0.0059662294 0.078406826 -0.028577074 -0.010338625 0.009750029 -0.00011645756 -0.038289126
-0.07951202 -0.046723723 -0.0061321114 -0.03865771 -0.058807276 0.05528587 -0.0122218 -0.013622892
0.03637372 0.021787105 -0.035433326 -0.007927234 -0.0704403 -0.097519584 -0.0960058 -0.062083162
-0.054709204 -0.016619151 0.04729116 -0.014451446 0.099474475 0.37425894 -0.03859063 0.09176173
0.02321829 0.03364431 -0.13897842 -0.035376556 -0.004501042 -0.07425241 -0.031094365 -0.031190934
-0.056880035 0.031511586 0.12058614 -0.07274497 0.041141577 -0.11473971 -0.06891557 0.04305534
0.13471931 -0.14578164 0.25572658 0.069047384 -0.009504266 -0.22838241 0.027715104 -0.10733394
-0.12461947 -0.38513547 -0.11154718 0.0032279217 -0.022543732 0.18743828 0.15675838 -0.025366869
-0.22848727 0.0772038 -0.18148856 -0.032012332 -0.03805175 0.026589999 -0.02003257 -0.009989954
-0.04966615 -0.11689317 -0.013844965 0.0019764968 0.13903391 0.6142901 0.0020533758 0.053605776
-0.029667944 0.1482423 -0.010633881 -0.013154798 0.10917074 0.12954623 0.13787417 0.03231027
0.014725119 -0.055408493 -0.065348685 0.029915748 0.025899168 0.2890271 -0.012738807 0.042253893
-0.05452771 -0.058726173 -0.22976276 -0.063011624 0.023139426 -0.0061063217 -0.04833863 0.109032616
0.027278535 0.13616683 0.0006063346 0.020160176 0.035241645 0.5712241 -0.15933657 0.0050487765
0.0069402484 0.08990907 0.1059936 -0.050776377 0.04476179 0.03190925 -0.008981269 -0.013260504
-0.053444464 0.040726017 0.12255334 0.02139239 -0.13094762 0.52528256 0.11390799 0.05297914
-0.033328313 0.23252453 0.0008898994 0.06645279 -0.048331227 0.047640096 -0.021865502 -0.006499428
-0.04423501 -0.17968993 -0.114940785 -0.009697264 0.0051952223 0.6172121 0.11112626 0.03240704
-0.20680958 -0.0040411428 -0.23738877 -0.0419998 0.03484373 0.007892252 0.025201917 0.040951066
0.0069306265 -0.030571906 -0.01370065 -0.017701952 -0.18320662 -0.5090908 -0.25632417 -0.054620195
0.00520057 -0.30405337 0.035996154 0.06348718 -0.09369415 -0.19537252 -0.10529364 -0.025108652
-0.0057259086 0.052948214 -0.046845574 -0.08141921 0.021169802 0.38838536 0.2593424 0.023906587
0.0002837502 0.32555306 0.09206389 0.058101416 0.004261668 0.030226748 -0.026354441 -0.07082319
0.07066485 0.060239993 -0.0418125 -0.07581721 0.061830394 0.13112286 -0.11598903 -0.058521736
-0.08324407 0.07675269 0.014371844 0.09987495 0.057997026 0.05778569 -0.029978465 0.036940936
-0.0336604 0.055167716 0.030773712 -0.018804573 0.02737512 0.24021822 0.17982596 0.023616102
0.0656855 0.25474346 0.16951081 0.02422441 0.037162643 0.087732956 0.03682516 -0.054924473
-0.01279433 0.06846508 0.040367972 0.08468087 0.045961857 0.42380288 0.3020826 0.10882154
0.05389222 0.21475826 -0.02961725 0.1176681 -0.011013233 0.14009911 0.009688877 -0.021381883

encoder.2.bias f4 [24]
00000000: 43b4 b13d 989c 3c3e d1e3 e83d 483f b83d
00000010: d4e3 b4bd d5cf 8fbe dadc d7be fedc 7e3e
00000020: 8d84 4fbe c669 d73e 89f4 0bbe 5f66 b83e
00000030: ce85 8d3d 37db d9be d8dc e23e 46fd ae3e
00000040: 9e0a a8be f8f9 053f ddf7 593e d12b c03e
00000050: e6af 6dbe fcce b03e 6bff 86be 7960 0f3f
0.0867696 0.18419111 0.113715775 0.08996445 -0.08832517 -0.2808825 -0.42160684 0.2488899
-0.20265408 0.42072886 -0.13667502 0.36015603 0.06910287 -0.4255006 0.44309115 0.34177607
-0.328206 0.5233455 0.21285959 0.3753343 -0.23211631 0.34532917 -0.26366743 0.5600658

encoder.4.weight f4 [48, 24, 4, 4]
00000000: 72b8 153b 05aa 1cbd 71ce c73d a0cd 8cbd
00000010: 6bac 953c e670 23be 7984 efbc eb34 58bd
00000020: d184 f3bc a0e6 253e 7b60 3c3d b3da 2b3d
00000030: 3a67 51bc 3186 483c ac8d 3d3d f71b b1bc
00000040: 69c7 073d e972 603b 146d 74bd 5d93 b63c
00000050: dafd dcbc 1b20 423d 0a59 87be e2e4 073e
00000060: 1de3 5ebb 684f 4c3d 86e6 80ba 8502 a6bb
00000070: 785d 033b 1b15 2abd 06ff 6bbb e821 e13b
00000080: 795c 36bc ca11 093e 5bbd 633e a281 263c
00000090: 6c5c 923d 8dd0 543c bd72 24bd 971c 5d3d
000000a0: 532b 183d 92f0 06be 09aa 4fbd a8d9 12bd
000000b0: 330a 243d 5eb0 973c 1857 793d ea4b 833b
000000c0: c4ac c2ba 4524 6abd 74db 9ebc ac08 35bc
000000d0: ff09 bf3d 4ded 103e dc11 8b3e 33c1 673c
000000e0: 095a 79bd 789d 62bc 325f cf3c 572c f0bc
000000f0: 6980 863d 7063 933d 2eb5 94bd 2906 cfbb
00000100: fc63 87bc edbe 15bd e356 f43b 5d5b 99bc
00000110: 4dcc 1fbd 50e5 b0ba 63e4 4c3c 4981 193c
00000120: e117 ef3c 6845 46bc 6a21 70bc 313c 1ebc
00000130: 8776 0bbd 097d 2b3b 00f5 98bc 021c b6bb
00000140: 0f08 bebc 322e 3fbd 6cf2 97bc d32e 683b
00000150: aefe 9dbd 11ec 143e a53f 9f3e 3341 483d
00000160: ea04 55bd f66a dbbc 02ef 8d3e 8ed7 7ebd
00000170: ebcd 45bd d3d1 bc3c ccca 663b 2df1 f8bc
00000180: 0e68 75bd b20c 45bd cb67 07bd 770f 7dbd
00000190: 662e d03c bfab dd3d 8fe5 3c3d ae36 a43b
000001a0: ed90 b6bc 3006 40bc adb9 613d aedc a4bc
000001b0: deb3 80bd a2b6 7e3d 1b29 9e3c 1d83 72bc
000001c0: 4aa2 c0bc daa0 ce3c 7f3b 9cbd bd77 b3bc
000001d0: 1303 1fbc dd6e 5cbd 2407 923d 0005 da3c
000001e0: 4c8d da3b b423 09be 6978 883a f344 71bd
000001f0: dfc4 98bc c062 263d cfb0 bfbd 42e5 79bd
00000200: d005 7ebd d47e a13b 37d8 db3c 11f3 d9bb
00000210: 513e 833d 2b16 7c3d aae1 a53e 87c7 a43d
00000220: ba07 353d 7500 943d 7935 1d3e 0a69 89bd
00000230: 9a15 343d 9554 303c 391b 7b3c ead2 1dbd
00000240: 75a3 0c3d ce14 a43d 88dd 0bbe ad96 fd3c
00000250: f2a3 6abc 1202 9cbd ad49 46be a659 71bc
00000260: 1a68 1c3c 0880 2c3d 22ca ebbd f5d3 92bc
00000270: fbdb 8f3d fe90 3d3b 8957 07bd 1915 653c
00000280: 4f6f 6ebc 7ff8 7abb 6d91 933b dc18 593d
00000290: 6f82 6ebd 3d00 8b3d 49b1 d2bc 3cc5 8dbd
000002a0: 75cf 7a3c cfe2 c43d 6aec 6f3c 78a0 41bd
000002b0: 8154 7abd ed04 dabc ef90 2cbd 4043 8f3b
000002c0: e58a aabb 2b83 3cba 4d10 453b d466 95bb
000002d0: 2022 013d 844a 053e aead 1c3e 56aa b4bc
000002e0: a1d7 77bc 9136 d03c 3299 f03d cff8 21bd
000002f0: aa57 7c3b dd27 99bb dcbd 7c3c e14a c23d
00000300: d9ba 7f3d 3ad8 20bd 484f 4cbc c577 5d3b
00000310: c065 a3bc f425 77bd 0c3f 613e 1ffc 1d3c
00000320: d82e 26bc 4eeb 573d b180 363d fb49 30bd
00000330: 1dd8 82bc b9b3 dbbd d212 34bd 8edc d0bc
00000340: 6c5a 1dbd db34 9abd 98e7 adbd 8ce4 023e
00000350: 6f97 143d fefd 10be 026c 053e b8f1 42bd
00000360: b77d 65bc 2f81 d33b 38db 313c 77e4 ef3c
00000370: 7538 eabc cda6 74bb 5fb9 983c 4a67 403d
00000380: 5485 23bc 6cbf 2dbd 09b4 37bc 66ef a4ba
00000390: 1d63 433d 136f 133e 0a6c 57bd abd0 2c3d
000003a0: d7cf 76bd e896 08be 8f5c 43bd 413d 1dbd
000003b0: 2316 91bd 16fb 1cbd a698 19bc 1b79 33bc
000003c0: e439 d4bc feb8 81bd 3bae 98bc 6e44 37bd
000003d0: f063 e5bd 20ee 253d 4a6e 033e 86a4 a33c
000003e0: e06b 2dbd 2882 543d 5291 a3bd fe65 18bd
000003f0: 1553 4f3d 3fe3 2c3d 4d7e 6ebc fb32 ff3c
0.0022845534 -0.03824808 0.097561724 -0.06875157 0.018270692 -0.15961036 -0.029237973 -0.05278484
-0.029726418 0.16201258 0.04599045 0.041956615 -0.012780959 0.012239025 0.046277687 -0.02161978
0.033149157 0.003424818 -0.059674338 0.022287065 -0.026976515 0.0473939 -0.2643512 0.13270906
-0.0034009882 0.049880415 -0.0009834326 -0.0050662183 0.0020044725 -0.041524034 -0.003601016 0.006870497
-0.011130446 0.13385692 0.22240202 0.010162743 0.07146534 0.0129891755 -0.040148485 0.053982344
0.037150692 -0.13177708 -0.050699268 -0.035852104 0.04004879 0.018516716 0.060874075 0.0040068524
-0.0014852514 -0.057163496 -0.019391753 -0.011049431 0.093280785 0.14153023 0.27162063 0.014145183
-0.06087688 -0.013831489 0.025313947 -0.029318018 0.06567461 0.071967006 -0.0726112 -0.006317873
-0.016527168 -0.036559034 0.0074566468 -0.018720323 -0.039013196 -0.0013496075 0.0125056235 0.009369203
0.029186191 -0.012101509 -0.014656404 -0.009657905 -0.034048583 0.0026167056 -0.018671513 -0.005557538
-0.023197202 -0.046674915 -0.018548213 0.00354283 -0.07714592 0.14543177 0.31103244 0.048890304
-0.05200664 -0.026784401 0.2772141 -0.062217288 -0.04829208 0.02304927 0.0035216091 -0.03038844
-0.059913687 -0.04810781 -0.03305797 -0.061782327 0.02541275 0.108237736 0.04611736 0.005011401
-0.022285903 -0.011720225 0.055108715 -0.02012476 -0.06284307 0.06218589 0.01930671 -0.014801768
-0.023514885 0.025223184 -0.076285355 -0.021907682 -0.009705323 -0.053816665 0.07130268 0.026613712
0.006669676 -0.13392526 0.0010411862 -0.058903646 -0.018648563 0.04062152 -0.093598954 -0.061009653
-0.062017262 0.004928449 0.026836498 -0.00665129 0.0640837 0.06154458 0.3239873 0.08045869
0.04419682 0.0722665 0.1535243 -0.06709488 0.043965913 0.010762353 0.015326315 -0.03853122
0.034335572 0.08011781 -0.13658726 0.030955637 -0.014321314 -0.076175824 -0.19364043 -0.0147308465
0.009546304 0.042114288 -0.11513163 -0.017923335 0.0702438 0.0028925533 -0.033042464 0.013982081
-0.014552905 -0.0038295088 0.00450342 0.053002223 -0.05822986 0.06787155 -0.025719302 -0.06922385
0.015308251 0.09613573 0.014643768 -0.047272176 -0.061115745 -0.026613677 -0.042130407 0.0043720305
-0.005204546 -0.00071911764 0.003006953 -0.004559377 0.031526685 0.13016707 0.15300629 -0.022053879
-0.0151270935 0.025416644 0.1174797 -0.039543923 0.00385044 -0.0046739415 0.015426125 0.09486938
0.06243405 -0.03926871 -0.012470074 0.0033793312 -0.01994598 -0.06033893 0.21996707 0.00964263
-0.010143004 0.05271464 0.044556323 -0.043039303 -0.015972191 -0.10727639 -0.04396326 -0.025495794
-0.03841631 -0.07529613 -0.084914386 0.12782496 0.03627723 -0.1415939 0.13029483 -0.047593802
-0.014007024 0.006454609 0.0108554885 0.029283745 -0.028591374 -0.0037330866 0.01864308 0.046973504
-0.009980518 -0.042418882 -0.011212357 -0.0012583553 0.047701944 0.1439784 -0.05259327 0.04219119
-0.060256805 -0.13338816 -0.047695693 -0.038388494 -0.070843 -0.03832539 -0.009374773 -0.010954167
-0.02590651 -0.063341126 -0.018637767 -0.044742994 -0.11200702 0.040510297 0.1283504 0.019975912
-0.042339206 0.05188194 -0.07986702 -0.037206642 0.050616343 0.042208906 -0.01455648 0.03115224

encoder.4.bias f4 [48]
00000000: 0426 b6be 6edd 9e3d e518 f13e 3968 e4ba
00000010: 5b48 ab3e 2fd6 ff3e db5b 9dbe c15d a03e
00000020: 23dd d8be 20e6 31be 1b2f 8f3e 2a29 6ebe
00000030: ba93 783e b058 19bd 25bc 213e bd96 fd3e
00000040: 22b4 cdbc d389 cd3e 4cc5 d73e c5b4 353e
00000050: d32f 81be de63 a43e d83e b5be aa04 cabe
00000060: fa1b ee3e 9039 b6be 0663 c43e b49b 023f
00000070: c353 d43d 1f0b f73d 5622 7ebe b9bf edbe
00000080: 59f4 c93d 3bc6 b33e 61de 303e 9860 983d
00000090: 836d 7a3e 68f7 07be 4ed8 dd3c b137 80be
000000a0: ae4d a8be 6405 d7be 0b3b 2d3d 6acb 7a3c
000000b0: adc2 11be c5e2 ea3e 3da7 bbbe b0ce 05bd
-0.3557588 0.07757078 0.47089306 -0.001742608 0.3345364 0.49968097 -0.30734143 0.3132153
-0.42356214 -0.17372942 0.27965626 -0.2325789 0.24275103 -0.037438095 0.15794428 0.49529067
-0.025110308 0.40144214 0.42142713 0.1774474 -0.252318 0.32107443 -0.35399508 -0.39456683
0.4650572 -0.35590792 0.383568 0.51018834 0.10367539 0.12062668 -0.24817786 -0.46435335
0.09861059 0.35112175 0.17272331 0.07440299 0.24455838 -0.13277972 0.027080681 -0.2504249
-0.32871765 -0.419963 0.042292636 0.015307287 -0.14234419 0.45876136 -0.3665103 -0.032667816

decoder.0.weight f4 [48, 24, 4, 4]
00000000: d846 b6bc 654a 0bbd c325 2c3c c926 d0bc
00000010: 343c afbc 519b c7bd 3c93 533e 5673 13bc
00000020: d6d6 373d 9c6c 583e cc1b 253d 1276 d13d
00000030: 4e15 ef3b d55d f8bc 3345 923d bd4b f3bc
00000040: bad0 cfbd e66f 13be 8866 35bf bb00 3f3d
00000050: ed83 7f3d 59bb 8b3e b5b5 a5bf efde babb
00000060: 5f34 eebe 1fc4 0d3d 60a1 e6be 3839 ac3d
00000070: 60bf db3c 4924 ddbd 46ec e1bd da80 673c
00000080: 2a55 8a3d ce4e b83c 71bb 04bd 0f6f 5ebd
00000090: 152c 5e3e 1611 413d bef7 0b3e 8adc 96bd
000000a0: 5ba3 3cbe abcd b4be d172 0fbe 880c 0cbe
000000b0: 2a3a a7bc 9069 503e c124 a9bd 196b cbbc
000000c0: c327 34bd 7a82 fa3c 655d 1fbd 6c52 47bd
000000d0: af99 123d 958e 28bd e1f1 fa3e 28e4 6f3c
000000e0: 5f53 be3c 3a89 21bc 98cb 21bd ed6f a23c
000000f0: 78c3 eebc f324 2abd fef8 20be 21e7 fbbc
00000100: 9a40 c4bc 7ef1 8bbd 12b3 47bd b6f4 153c
00000110: 5520 ac3d 8e5f 1c3e 5c1b 0fbd b042 443d
00000120: bd6a 143d b298 03be 5756 65be 0e4b 52bd
00000130: c181 2d3c 463e 29bc 3871 23bd f2aa 2ebd
00000140: 907d dc3d 7534 9aba 37fb c2bd 468f 983a
00000150: 4a3f d53d 39e5 183e e00d 1d3e 0142 11bb
00000160: c491 c03d 18e8 ccbd 841e 7bbe 3e1b 66bd
00000170: 7e38 933c 2133 13bd 7e91 9abd 98fc 8bbc
00000180: a1a7 74bc 6d96 7c3d ed79 09bd 291e 193b
00000190: 455b 54bd 1020 67bd 0ec2 cfbd 4c2e 623d
000001a0: 20b2 bb3c 6d7e 23be f5d3 32be 6b76 35bd
000001b0: 77a1 b43c bebc abbd 230b 1f3b 35f2 06bd
000001c0: b857 593d 06cb 243e 0eb6 95bb ba28 0b3d
000001d0: f9b7 4c3c 2e1a 053e fec6 7bbe 4b0a 03bd
000001e0: 9c79 ebbc ab7b 25be 38c7 9e3b a94b f6bd
000001f0: c68f 05bc 8680 d3bc 0193 163d 0663 84bb
00000200: 0d4b aabc 5883 463d bd0d 7f3d 6300 eb3b
00000210: ce8a 39bd 63b3 773c 1ac6 e13e 5f51 e53d
00000220: 31c1 dcbb 8364 113e ff53 b23e 8ac3 533d
00000230: d91d 073b 32b4 de3b 365f 893d 186c 43bd
00000240: 6b88 0c3c d59c 7bbc d4e8 d43d be72 453d
00000250: f862 a23c 4424 e03e c71b 4d3e 5ce7 97be
00000260: aa84 cebc e446 52bd 52a9 20bd d6b9 92bd
00000270: bf13 42bd 882c bbbd 89e1 b3bc 88c1 cb3c
00000280: 53ae e53c 35cf 9cbd 6ea8 c2bc ab73 db3c
00000290: 17ff 763c 38b6 36bd 6637 24bb ccf2 6dbc
000002a0: 445d bd3c e9c4 813e 9c7b e13d 93a9 2b3d
000002b0: 9a59 edbc a847 3c3c d19f aa3d ada0 473d
000002c0: 6268 0f3d 5d52 f33c 2857 3d3e e1e0 4cbd
000002d0: 93bc 33bd 9fb2 99bd 74da 663d 20a7 2a3d
000002e0: 1534 e03d 4e78 0e3d 36e9 843e 82ab f33c
000002f0: ac41 153d ec22 bf3d 02d5 b73d 09d6 f93c
00000300: 6d73 ad3b 4a99 b83d e523 54bd eecd d8bc
00000310: 1f21 68bc 5cd7 23bd e2db d3be ef01 613d
00000320: 996d 503d 86f4 56be 100e acbd 5e61 c1bd
00000330: dcef 00bd 34c4 ee3c 4d71 fb3c 8a84 a73c
00000340: f0a3 d6bc cb06 653d d894 623d c667 8bbc
00000350: 9a3f 4ebd afc6 94bc a8bd f7bb bd44 00be
00000360: c976 3ebd ef51 d93d 6dc7 7f3e b2b9 5abd
00000370: 1e51 053c e711 edbc 3e3b 373c 4a30 36bb
00000380: 20ee 2c3a 90a7 10bd ab16 063e 1d0c 153e
00000390: 7890 21bd 41a8 673d 7a96 e93b d36c f13b
000003a0: 9bcd 47bb 1eaa 583c 26c2 2b3e 2db8 c7bb
000003b0: 7b56 143c cf08 a639 801e 4e3c 487f a23b
000003c0: 4b31 ca3d db05 1a3d ac14 e53d 651f 18bd
000003d0: 9eca 213e 6a4e fc3d 170b 8dbe 1a5e 52bd
000003e0: d0eb 4dbe edb3 90ba 22df f3be b1f2 073d
000003f0: 2c54 7bbd fbe4 e9bc e0a7 c2be 0ddb 4fbd
-0.022250578 -0.034006495 0.01050705 -0.02540912 -0.021391012 -0.09746421 0.20661634 -0.008999666
0.044882618 0.21135181 0.040309712 0.10227598 0.007296241 -0.03031818 0.07142105 -0.0296992
-0.10147233 -0.14398155 -0.70859575 0.046631556 0.062381674 0.27291372 -1.2946078 -0.0057028453
-0.4652433 0.034610864 -0.45044994 0.08409351 0.026824653 -0.107979365 -0.11031394 0.014129842
0.06754525 0.022498515 -0.03240532 -0.054305132 0.21696503 0.047135435 0.13668725 -0.07366283
-0.1842169 -0.35313162 -0.14008643 -0.13676655 -0.020413477 0.20352769 -0.082589634 -0.024831342
-0.043983232 0.030579794 -0.038907427 -0.048662588 0.035791095 -0.0411516 0.49012664 0.014641799
0.023233114 -0.0098593775 -0.039500803 0.019828761 -0.029145941 -0.041539144 -0.15719983 -0.03074986
-0.023956586 -0.0683317 -0.04875476 0.009152582 0.08404604 0.15270826 -0.0349382 0.04791516
0.036234606 -0.12851217 -0.22396217 -0.05134111 0.010590018 -0.010329789 -0.039902896 -0.042643495
0.10766137 -0.0011764901 -0.09520572 0.0011639378 0.10412462 0.14931192 0.15337324 -0.0022164586
0.094028026 -0.10005206 -0.2452336 -0.056178324 0.017971274 -0.035937432 -0.07547282 -0.01708822
-0.014932544 0.061666895 -0.033563543 0.0023363924 -0.051844854 -0.05642706 -0.10144435 0.055219933
0.022912085 -0.15966196 -0.17463668 -0.044302385 0.022049649 -0.08385609 0.0024268113 -0.03294583
0.05306217 0.16093072 -0.0045688218 0.033974387 0.012495034 0.12998268 -0.24587628 -0.031992238
-0.028744511 -0.16160457 0.004845526 -0.1202615 -0.008151954 -0.02581812 0.036761288 -0.004040125
-0.02078774 0.048465103 0.06226896 0.007171677 -0.04529839 0.015118453 0.44096452 0.11197161
-0.0067368974 0.14198498 0.3482971 0.051700152 0.0020617156 0.0067963833 0.06707613 -0.047710508
0.008577446 -0.015357216 0.10395971 0.04820513 0.019822583 0.43777668 0.20030127 -0.296687
-0.025209744 -0.051337138 -0.039223976 -0.07164352 -0.047382113 -0.09139353 -0.02195813 0.024872556
0.028037226 -0.07656709 -0.023761954 0.026788553 0.015075467 -0.04460737 -0.0025057434 -0.014523219
0.023115762 0.25345543 0.11009905 0.041909765 -0.02897339 0.011491694 0.08331264 0.048737217
0.035011657 0.02970236 0.18490279 -0.05001915 -0.04388101 -0.075047724 0.056360677 0.04166329
0.10947434 0.0347827 0.25959176 0.029744867 0.036439583 0.09332833 0.08976175 0.030497568
0.005293301 0.090136126 -0.051792044 -0.026465382 -0.014168053 -0.040000305 -0.41378695 0.054933485
0.05088577 -0.20991716 -0.0840112 -0.094423994 -0.031478748 0.029146291 0.030693674 0.020448942
-0.026201218 0.05591468 0.05531773 -0.017017256 -0.050353624 -0.018161146 -0.0075604506 -0.12526222
-0.0465 0.10611331 0.24978419 -0.05339975 0.008137016 -0.0289392 0.011183558 -0.0027799779
0.00065967627 -0.03531605 0.13094585 0.14555402 -0.039444417 0.056556944 0.007128534 0.007367709
-0.003048754 0.013224153 0.1677328 -0.0060949535 0.009053822 0.0003166855 0.012580514 0.0049590208
0.09872683 0.03760324 0.111855835 -0.037139315 0.15799949 0.12319644 -0.27547523 -0.051359273
-0.20109487 -0.001103995 -0.47631174 0.033190433 -0.06135957 -0.02855157 -0.38018703 -0.050746012

decoder.0.bias f4 [24]
00000000: b3d5 0b3b 0246 bb3d d9c9 03bf cfa6 0bbf
00000010: 6874 143f 9037 113f f624 f83e 76a6 583f
00000020: 79ff afbe 722b d23d 6a9b 98be 1a65 ae3e
00000030: 35a9 933e 6df3 69be 5267 05bf eb66 bc3d
00000040: 2c3f c53e 1cb9 05bf ac53 e1be 71b5 16bf
00000050: 9e09 f93d 20ed 80bb dec3 dfbe 7374 e1be
0.0021337091 0.09144212 -0.5147987 -0.54551405 0.5799012 0.56725407 0.484657 0.84629
-0.34374598 0.10262193 -0.29806072 0.3406151 0.28840032 -0.22846766 -0.5211078 0.091993175
0.3852476 -0.5223558 -0.4400915 -0.5887061 0.121600375 -0.0039345175 -0.43704122 -0.44034156

decoder.2.weight f4 [24, 12, 4, 4]
00000000: 8c62 ed3e 7b02 873d c3fe 7d3d 8fdd b23c
00000010: d7d8 0c3d 369c 7d3d 2d30 633d 0d09 623b
00000020: 5262 08bd 3793 3b3e f163 733d 06fd b13d
00000030: 03e7 ee3c 4e12 983d 7c8e 0f3e 3ff3 393d
00000040: cbe1 90bc 2d40 0fb7 cd49 b4bb 0f13 96bc
00000050: 4f56 7ebd 2318 ad3a 8f7c 5fbd 559a 5d3b
00000060: 6b12 c8bd 6651 6f3c f575 82bd dfc3 72bb
00000070: 7220 333d 4213 2abd c38d d7bd e7dc 8cbd
00000080: eda0 243c 2750 00bd 6352 d5bc 413d bebc
00000090: 51e9 f4bc 6818 893c 45d2 83bd d4dd 163d
000000a0: e0f3 d7bc 2501 49bd 1632 42bd 14c2 4ebd
000000b0: 71c2 003c 3500 2cbb 2e70 6b3b 2560 ba3c
000000c0: 10e1 a3bd 9199 17bd 170e 88bd 2e6f 883d
000000d0: 3c94 14bd cef8 86ba 610d 453e 35be a03b
000000e0: b0a6 34be 2aef 8ebf 0b8b 52be 4b10 e2be
000000f0: 14e2 093d 5b17 34bd 0163 a7bd 76ac fdbc
00000100: e4f7 9bbc 850e b63d 7684 0cbd 73e5 e73d
00000110: 1fc3 23bd 22ae 87bc 4eb2 42bd 2701 003e
00000120: b1e4 a4bc 80ae ab3d 7087 71bd ef61 ebbd
00000130: 21c1 433c dfd2 583e f9a7 fcbc 3b8a a3bd
00000140: 4fef 05bc 8a17 9a3c 5b18 b2bd d323 45bd
00000150: 09e4 093e c7cd 113e 225b ab3e 58da a83d
00000160: 0aa5 db3b 0928 793e d2b3 f23d 3aa6 4d3d
00000170: c4fc 91bb e636 623d 0dc8 96bd b6be c3bc
00000180: 1120 ab3c 4f8f 29bd c6fc a9bd b743 5dbd
00000190: 6a94 77bc 9dd9 95bd a067 dcba c2de b3bd
000001a0: 0a40 acbd e3ac fb3b 6273 a9bc 53ff b8bc
000001b0: cc4f 4ebd 8a3b 84bd d45e 02be 412c 54bd
000001c0: f3ef 613d 8323 7fbb bcec ed3d 88b8 8a3c
000001d0: 1414 edbb ac11 04be 0fdb 183d a489 623c
000001e0: 762f d53d 6b43 313d b5dd 913e e124 4fbb
000001f0: 122d 9a3c 805a 283d 5a30 a63c a844 423c
00000200: 13cf 4e3c 5a13 a5bb ee0d aa3d 9d71 aa3c
00000210: 1485 05bc e62c 703e 41b1 16bc 8f72 c7bd
00000220: 4412 d43d e7c6 243d 0087 a03e cb26 5d3d
00000230: bbfc 5a3c 6351 dbbd c2ee 753c 57a5 c53c
00000240: c5d8 193d 7af6 d13a 5d71 2f3d be03 c63c
00000250: 5134 013d e1b0 bbbe f2cb 3a3c 9b4e cbbc
00000260: b03d 213d 509f e23d a891 c93d 82d9 dc39
00000270: 202b 733c 7154 3cba 735b a63c bacd f1bc
00000280: d535 4b3c da34 183c 4312 053c cae9 0abb
00000290: 1aeb 893c dcf8 9cbd d3c8 2f3e 6530 91bd
000002a0: e5df ec3b b930 373d 567e bebc b9e6 1ebd
000002b0: 7923 aebc 5d83 f7bb cb32 423c d8d8 c1bc
000002c0: 400a d0be 0b4d 80be 8d8a 1dbe 9b00 0f3c
000002d0: 8c84 26bf c3de bbbe 7a66 373e 0b0f 3d3d
000002e0: de90 54be c80a 3dbd a777 03be 55e2 fabd
000002f0: ce7a 323b 1b8b 833e b064 4a3d 3bf9 ebbd
00000300: c00d 06be c24b 1abd 91de 163b 271e 00bc
00000310: 1d48 dcba 8b19 febb 08fb e3bc 4bd7 4bba
00000320: 5a9e d53e c5c4 0b3f 542e 0a3f 64fc 103e
00000330: 2211 bb3d 7d4e f73c 7f69 9c3c 63c5 183d
00000340: 7c6e 2c3c 8998 a2ba a16c 123d 6b32 283c
00000350: bd00 56bd 43a7 023e 3f69 a9bd ff65 cd3d
00000360: e6ea 6b3e d770 373e c086 963e d4b0 af3d
00000370: 6cec fb3c 1a4a 1d3e 2267 443a d750 ebbc
00000380: 8e44 08bd 63d0 733a 7dbc 593c 392a 7ab7
00000390: b086 3cbd bffc 52bd 886c 1cbb 91a1 7bbc
000003a0: a284 0dbd 08fd 1e3d 5a24 2b3d 8d4d 523c
000003b0: ab2f 89bd 23ff 013d 434c 9cbd e069 5a3c
000003c0: d83c 0a3e 381f 7e3e 2f21 a23d db31 403c
000003d0: d045 2a3d 4a62 aebd 64cb a8bc 1813 7ebd
000003e0: cd37 1d3e 19ab 2c3f 27f6 d73d a55d 9b3e
000003f0: b71d 7cbc be99 42bc ca52 f73b af87 a3bd
0.46364248 0.0659227 0.062010538 0.021834163 0.034386482 0.061916552 0.055465866 0.0034490258
-0.03329689 0.18317877 0.059421483 0.086908385 0.02916289 0.07425366 0.14019197 0.045397993
-0.017685791 -8.538406e-06 -0.005501962 -0.018319635 -0.06209403 0.0013206046 -0.054562148 0.0033813913
-0.09769138 0.014606809 -0.06370155 -0.0037043018 0.043732114 -0.041522272 -0.10525086 -0.06878071
0.010048133 -0.03132644 -0.026040262 -0.023222568 -0.02989641 0.01673527 -0.0643659 0.036832646
-0.026361406 -0.049073357 -0.047411047 -0.050478056 0.007858858 -0.002624524 0.0035925019 0.022750923
-0.08001912 -0.037011687 -0.066433124 0.06661831 -0.03627418 -0.0010297538 0.19243385 0.004905487
-0.17641711 -1.1166737 -0.20560853 -0.44153056 0.03366287 -0.043967586 -0.0817318 -0.030966025
-0.019039102 0.08889488 -0.034306012 0.11323061 -0.039981004 -0.016562525 -0.047533326 0.1250044
-0.02012858 0.083828926 -0.058967054 -0.11493289 0.011947901 0.21174191 -0.030841814 -0.0798535
-0.008174731 0.018810052 -0.08696052 -0.048129868 0.13465895 0.14238654 0.33467966 0.08244771
0.006703024 0.24331678 0.11850704 0.050207354 -0.004455181 0.055228136 -0.073623754 -0.023894649
0.020889314 -0.041396435 -0.08300166 -0.054019656 -0.015111068 -0.07316897 -0.0016815551 -0.08782722
-0.08410652 0.007680522 -0.020684902 -0.022582686 -0.05036907 -0.06456669 -0.12731487 -0.051800016
0.055160474 -0.0038931079 0.11617419 0.016933694 -0.0072350595 -0.12897366 0.037318286 0.013826761
0.10409443 0.043277185 0.28489462 -0.0031607675 0.01882032 0.041101933 0.020286728 0.011857189
0.0126226125 -0.0050377073 0.08303438 0.020806128 -0.008149404 0.23454627 -0.009197534 -0.09738647
0.103550464 0.04022875 0.31352997 0.053992074 0.01336592 -0.10708883 0.015010538 0.024126692
0.037560243 0.001601889 0.04283272 0.024171706 0.031544033 -0.36658385 0.011401163 -0.024817755
0.03936547 0.11065543 0.09842235 0.00042123726 0.014841825 -0.00071842136 0.020307278 -0.029517043
0.012402971 0.009289945 0.00812203 -0.0021196478 0.016835738 -0.07664654 0.17166452 -0.07089309
0.0072288387 0.0447242 -0.023253601 -0.038794253 -0.021257149 -0.0075535015 0.01185293 -0.02366297
-0.4063282 -0.2505878 -0.15384884 0.008728172 -0.65046 -0.3669339 0.17910185 0.046156924
-0.20758387 -0.04615286 -0.12838612 -0.12250201 0.0027233842 0.25692067 0.04941243 -0.11522146
-0.13091183 -0.037669905 0.0023020844 -0.007819689 -0.0016806159 -0.00775451 -0.027829662 -0.00077759166
0.41722375 0.5459712 0.5397694 0.1415878 0.09134127 0.030188793 0.019093273 0.037297618
0.010524388 -0.0012405078 0.035748128 0.010265927 -0.052246798 0.12759118 -0.08272027 0.1002922
0.23038825 0.17914139 0.2939968 0.08578649 0.030752383 0.15360299 0.00074921746 -0.02872507
-0.033268504 0.00093007664 0.013289568 -1.4910992e-05 -0.046026886 -0.05151057 -0.00238684 -0.015358345
-0.034550317 0.03881553 0.041782714 0.012835872 -0.06698545 0.031737458 -0.07631733 0.013330907
0.13499773 0.24816597 0.079164855 0.0117306365 0.041570485 -0.08514841 -0.020604797 -0.062029928
0.15353318 0.67448574 0.10544997 0.30344883 -0.015387944 -0.011877475 0.007547711 -0.07984864

decoder.2.bias f4 [12]
00000000: acd0 bcbe 2044 12bd 98c7 22bf 97e1 3cbe
00000010: 79e6 cabe 3ef2 abbe 1e1b 1ebf 45e0 043f
00000020: 2e29 b1be 8b4c f43e face 203f 74cd 9c3e
-0.36877954 -0.0357095 -0.63585806 -0.1844543 -0.39628962 -0.33583254 -0.6176013 0.5190471
-0.3460173 0.47714648 0.6281582 0.30625498

decoder.4.weight f4 [12, 3, 4, 4]
00000000: 5d68 a0bb 2d6b 9a3d 21d2 af3d fdbf 5eba
00000010: bed1 723d fdcf 883e 04d0 833e a3f2 2e3d
00000020: f6a4 2ebc c8c1 203d 42b3 3fbd 179b d4bd
00000030: b650 a6bc 43f1 8abd ac29 b3bd f68d 3fbd
00000040: f52e 953c 93c8 d53d 902d 8c3d 5ec5 b6bc
00000050: 63aa b33d 224e 933e 8035 693e dc6f d23c
00000060: c601 8c3b 1761 8f3d 9caf e6bc 029d cdbd
00000070: c3c4 debb 3f50 11bd 2f62 89bd 9fb0 37bd
00000080: ab7e 923c 005e 2f3e 6f9a f73d 3c34 03bd
00000090: eefe 113e cb87 d93e 3af9 af3e f910 7b3d
000000a0: d77a db3c e2cf 373e 13c7 a53d f420 8ebd
000000b0: c678 1dbd eab6 5f3b 976e 8ebc 0ed8 6bbd
000000c0: 072c 3fbd 9013 65bc 3415 e0bc 9426 77bd
000000d0: ebe7 a63b 684a b03c 4315 b2bb 37da acbc
000000e0: d21c b8bc fcd0 a73c 4383 4c3b 053b 27bd
000000f0: 3cc8 39bd 3605 35bb c43e 9bbc 509a 84bd
00000100: 366c 2d3d 9fba a23d 8de3 983d 4497 213d
00000110: 6cbc d53d 8533 013e 9255 fa3d 9425 cf3d
00000120: d135 923d cc9c cc3d 2f59 cf3d cf7f 983d
00000130: 075e 213d 21c0 943d 9b75 913d 27e7 1c3d
00000140: 5ee5 1abd 894d 6dbd 3db7 84bd a349 28bd
00000150: 4859 6cbd d6fd c5bd cb1a dabd 6aa3 87bd
00000160: 8129 8abd 58eb e0bd 4011 f2bd e3b6 9cbd
00000170: 5a08 51bc ba7d 4cbd b0ca 83bd 452f e0bc
00000180: 5a49 e6bc eb9d 103e 8aca 893e 773f c43d
00000190: 5043 cebd eeda 803d 1a4f aa3e 734a 303e
000001a0: 660d 80ba 4126 1a3e 18ac 843e 39d3 db3d
000001b0: f0a8 11be 1f5a 26bc 5e27 713e 9708 ce3d
000001c0: 6524 4cbc 642d 043d 105f a03d 78f3 203d
000001d0: 8fcb 39be 6803 18be 2c93 e93d 8a6a b33d
000001e0: b745 d2bd d2d8 b5bd cd96 eb3c 06b7 9e3c
000001f0: 60eb ffbd 7885 f9bd 5a87 393d 6103 3d3d
00000200: c497 a43d d15e d03d 760b bf3c 83dc b53b
00000210: b586 96bd 7d11 85bd 7a4b 3e3d 3c49 2c3d
00000220: 6e4b 19bb dc9b f239 257f 0fbd f0b5 04bd
00000230: 1d6e aabc e2b5 0ebd cae0 3ebc 5739 d03b
00000240: 3b0b 113c d496 56bf 6dc4 46bf 5e5b cc3c
00000250: f697 863d 551e 86bf 1c43 88bf 63b2 5f3d
00000260: 2cec 053e f465 48bd 9152 d6bd 1592 a43d
00000270: 4ef8 133d 7177 02bd fe07 3fbd e189 e63c
00000280: 3e91 d03c 5264 5cbf 45c3 52bf 31ee de3c
00000290: caed 9e3d 19ee 89bf d85a 92bf c116 783d
000002a0: 06dc 033e 7779 73bd 0689 d4bd 3f7f b23d
000002b0: 2600 153d 2a23 4fbd 6ddc 79bd 3f7e e83c
000002c0: 6c32 d33c 0e5b 60bf ac65 58bf e27d 023d
000002d0: 7e60 913d f84d 93bf 5c76 9bbf 0e03 4d3d
000002e0: 5b5c 0e3e 9c75 41bd 2a16 debd 1888 9b3d
000002f0: 8554 5b3d 0785 26bd d206 6ebd 422f 193d
00000300: 2d48 9ebc 16b1 19bd 82b2 2dbd bbf5 bebc
00000310: d98f be3d 2a46 cdbf b389 543a ce25 673d
00000320: cee7 153e b3f5 c1bf 7625 2e3e af11 523c
00000330: cc65 0a3d 247b 8b3d 6b67 e23d 1af1 a9bd
00000340: d35a 9bbc d710 dbbc 63c1 07bd 32eb b5bc
00000350: 5d13 a83d b65e d5bf 6c15 283c 75f9 613d
00000360: 72ed 123e 8e3c c1bf ae69 493e 67b4 fc3c
00000370: 8938 273d f12d eb3d 6850 053e f560 86bd
00000380: 8479 e6bc b1ee 73bc 9067 f4bc f8d5 0fbd
00000390: 49ae c13d 2677 d3bf f6fc 9abb 70a2 023d
000003a0: fd87 203e 9266 c5bf 72b9 163e 79be 2c3c
000003b0: 7a83 113d 14b8 d83d 6053 d63d 84b1 91bd
000003c0: 4755 02bc d496 ccbc a444 1dbc 0cac f43b
000003d0: c6d2 39bd 257d e6bc 5252 5fbc d6f6 febc
000003e0: b163 5cbc 8a5b 31bc 91f9 4dbc 0d01 95bc
000003f0: 7cf6 61bb a0fd d3bc 0245 97bc c084 433b
-0.0048952536 0.075399734 0.08585001 -0.00084972364 0.059282057 0.26721182 0.2574464 0.042711865
-0.010659447 0.039247304 -0.046801813 -0.103811435 -0.020302158 -0.06784298 -0.08748183 -0.046766244
0.018210867 0.10438647 0.06844628 -0.022310909 0.08772733 0.28770548 0.22774315 0.025688104
0.0042726723 0.0700094 -0.028159909 -0.100397125 -0.006798358 -0.03547692 -0.0670818 -0.044846173
0.017882666 0.17125702 0.12090003 -0.032032236 0.14257404 0.42486414 0.34369832 0.061295483
0.026791973 0.17950395 0.08094611 -0.06939879 -0.038445257 0.0034136125 -0.017386718 -0.057579093
-0.046672847 -0.013981715 -0.02735386 -0.060339525 0.0050935647 0.021519855 -0.0054346635 -0.021100147
-0.02247468 0.020485394 0.0031206168 -0.04082777 -0.045356974 -0.0027621514 -0.018950827 -0.06474745
0.042339526 0.079457514 0.07465277 0.0394509 0.10436329 0.1261731 0.122233525 0.10114589
0.07139171 0.09990844 0.10124432 0.074462526 0.039396312 0.07263208 0.071025096 0.03830638
-0.037816398 -0.05793527 -0.064802624 -0.04108585 -0.057702333 -0.09667556 -0.106496416 -0.06622966
-0.067461975 -0.10982388 -0.118196964 -0.076520704 -0.012758339 -0.04992459 -0.06435144 -0.02736629
-0.028111149 0.14122741 0.26912338 0.095824175 -0.100714326 0.062917575 0.33263475 0.172159
-0.0009769618 0.15053655 0.25912547 0.10733647 -0.14224601 -0.0101533225 0.23550174 0.10060232
-0.012459849 0.03226985 0.07830632 0.03929469 -0.18144058 -0.1484505 0.11405024 0.08760555
-0.10267203 -0.08879246 0.02875843 0.019374382 -0.12496066 -0.1218366 0.045295097 0.0461458
0.080367595 0.10174335 0.023320895 0.0055499687 -0.07349912 -0.06497476 0.0464587 0.04206203
-0.0023390907 0.0004627396 -0.035033364 -0.03240007 -0.02080446 -0.034841426 -0.011650274 0.0063544917
0.008852775 -0.83823895 -0.7764347 0.024945911 0.06571953 -1.0478007 -1.064548 0.054613482
0.13078374 -0.048925355 -0.10464967 0.080356754 0.036125474 -0.03185219 -0.04663848 0.028141918
0.025459882 -0.86090577 -0.8232921 0.027213188 0.077601984 -1.0775787 -1.1433973 0.060568575
0.12876901 -0.05944201 -0.10377698 0.087156765 0.036377095 -0.050570644 -0.06100123 0.028380511
0.025780879 -0.8763894 -0.8453014 0.031858332 0.070984825 -1.1508169 -1.2145495 0.05005174
0.13902418 -0.0472313 -0.10844071 0.07594317 0.0535474 -0.04065421 -0.058111973 0.037398584
-0.019321525 -0.037522398 -0.042406566 -0.023310533 0.093047805 -1.6037037 0.0008107677 0.056432538
0.14639208 -1.5153106 0.17006478 0.012821599 0.033788487 0.068105966 0.11054882 -0.082979396
-0.018964207 -0.026741428 -0.033143412 -0.022206876 0.08206818 -1.6669528 0.010259014 0.05516954
0.1434839 -1.5096605 0.1966922 0.030847741 0.0408254 0.11483372 0.13018954 -0.06561462
-0.028134115 -0.014888451 -0.029834539 -0.035116166 0.094570704 -1.6520736 -0.0047298623 0.031893194
0.15676875 -1.5421927 0.1471918 0.010543459 0.035525776 0.10581985 0.10465121 -0.071139365
-0.007954902 -0.024974264 -0.009598885 0.0074667986 -0.045367025 -0.028135845 -0.013630467 -0.03112356
-0.013451503 -0.010825047 -0.012571708 -0.018188978 -0.0034479192 -0.025877774 -0.018465523 0.0029833764

decoder.4.bias f4 [3]
00000000: 4156 3cbf 5dcc 213e 72e5 18bf
-0.73569113 0.15800615 -0.59725106
