code/models weights/Autoencoder_s_p_300.pth (torch, 193695 bytes, 12 tensors)

encoder.0.weight f4 [12, 3, 4, 4]
0	0xbcee27c8	-0.029071704
1	0x3d16e06f	0.03683513
2	0xbc85ef51	-0.016349467
3	0xbcf14f84	-0.029456861
4	0x3d1b90b5	0.0379798
5	0x3db8648b	0.09003552
6	0x3d310caa	0.043224968
7	0x3c6fe028	0.014640845
8	0xbca968fd	-0.020679945
9	0x3d4e522c	0.050371334
10	0xbcb5debb	-0.022200933
11	0xbcbe1d86	-0.023207437
12	0xbce7d43f	-0.028299449
13	0x3c30b524	0.010785375
14	0xbc9e4488	-0.019319788
15	0xbbea11ef	-0.007143251
16	0x3c28e5d7	0.010308704
17	0x3d83fc6d	0.06444631
18	0x3c9bb1ff	0.019005774
19	0x3b968a09	0.004594092
20	0x3d81252e	0.063059196
21	0xbf8774be	-1.0582502
22	0x3d82d8ca	0.063890055
23	0x3d417b01	0.047236446
24	0x3c9b4464	0.01895351
25	0x3d95a7cb	0.073073946
26	0x3cb37138	0.021904573
27	0x3bd4d3e3	0.0064949854
28	0x3ba9da4b	0.0051834933
29	0x3d25968d	0.04042678
30	0x3c19d43d	0.00938898
31	0x3c9fbf1a	0.019500304
32	0xbcfabc3f	-0.03060734
33	0x3d125242	0.03572298
34	0xbc955beb	-0.018232306
35	0xbcf779bb	-0.030209413
36	0x3d1a2c0e	0.03763967
37	0x3db5b1ba	0.08871789
38	0x3d21cda4	0.039502755
39	0x3c3438da	0.010999883
40	0xbc6e3bb0	-0.014540598
41	0x3d3aadc1	0.04557586
42	0xbc3afe10	-0.011413112
43	0xbcbf03bb	-0.023317209
44	0xbcda5139	-0.026650058
45	0x3bfc993c	0.0077086966
46	0xbcba3b29	-0.022733288
47	0xbc111d45	-0.008857076
48	0x3ba5e3a4	0.0050625373
49	0xbdf8dceb	-0.12151512
50	0xbcbfbf0b	-0.023406526
51	0xbc096247	-0.008385248
52	0xbd3562f1	-0.04428381
53	0xbe16f29f	-0.1474099
54	0xbce705d1	-0.028201016
55	0xbd293112	-0.041306563
56	0x3d32643a	0.043552615
57	0xbd587c2b	-0.05285279
58	0xbdd2825e	-0.10278772
59	0xbcbc1589	-0.022959488
60	0xbce57b83	-0.028012997
61	0xbca7c4a0	-0.0204795
62	0x3cfb3bfe	0.030668255
63	0x3c2cf7ca	0.010557124
64	0x3c8f08eb	0.017460307
65	0xbd31b000	-0.043380737
66	0x3d007c6f	0.03136867
67	0x3cbebd70	0.02328369
68	0x3ce67615	0.028132478
69	0x3e38f787	0.18063174
70	0x3d8db488	0.06919199
71	0xbd010329	-0.031497154
72	0x3c75c11f	0.014999657
73	0x3c7f1980	0.0155700445
74	0x3d4eed9b	0.050519567
75	0xbd03733a	-0.03209231
76	0xbd215952	-0.039391823
77	0xbc7336a5	-0.014844571
78	0x3d053ee6	0.032530688
79	0x3da50341	0.08057261
80	0xbab84e08	-0.0014061341
81	0xbd21eb77	-0.039531197
82	0x3d2d726d	0.042345453
83	0x3c1ee32d	0.009697718
84	0xbcb5784c	-0.022152089
85	0xbd4a1743	-0.04933859
86	0x3d87be33	0.066280745
87	0xbd0836eb	-0.0332555
88	0x3ccc7122	0.02495629
89	0xbd173558	-0.036916107
90	0xbbda2618	-0.006657373
91	0xbcfef416	-0.031122249
92	0x3bee953c	0.0072809737
93	0xbd3a8ac6	-0.0455425
94	0xbd119e3c	-0.035551295
95	0xbb6ffbbc	-0.0036618551
96	0x3ce8a5a2	0.028399292
97	0xbd1ddc2c	-0.03854005
98	0x3c8af11b	0.016960671
99	0x3cf4b921	0.029873433
100	0xbd18898f	-0.03724056
101	0xbd9d327b	-0.07675644
102	0xbd2242b0	-0.03961438
103	0xbc0c675c	-0.008569565
104	0x3c510003	0.01275635
105	0xbd1b246d	-0.037876535
106	0x3b540fa2	0.003235795
107	0x3cb8295a	0.022480655
108	0x3ce89941	0.02839339
109	0xbbe53ca9	-0.0069957566
110	0x3cc611c0	0.024178386
111	0x3c25e187	0.010124571
112	0xbcd0c16a	-0.025482852
113	0xbd7fb230	-0.062425792
114	0xbcfcc837	-0.030857189
115	0xbc58eb3f	-0.013239681
116	0xbd7ae481	-0.061253075
117	0x3f9bdd1a	1.217685
118	0xbd78d5c9	-0.060750756
119	0xbd1f87cb	-0.03894786
120	0xbce3d006	-0.027809154
121	0xbd745d75	-0.05965944
122	0xbcff3f58	-0.031158134
123	0xbc7d42e1	-0.01545784
124	0xbc4886b0	-0.012239143
125	0xbd1693cb	-0.03676204
126	0xbc5b30db	-0.013378347
127	0xbca2b862	-0.019863311
128	0x3ca5e7b6	0.02025209
129	0xbd0258b9	-0.031822894
130	0x3c216c29	0.009852448
131	0x3ce3057a	0.027712572
132	0xbd05b939	-0.032647345
133	0xbd8c1c67	-0.06841355
134	0xbd0ca3b5	-0.03433581
135	0xbbdb0dd2	-0.006684997
136	0x3c0d09e4	0.008608315
137	0xbd0ac4ff	-0.033879276
138	0x3b24bf3c	0.0025138399
139	0x3c99fbbd	0.018796796
140	0x3cccfce8	0.025022939
141	0xbbb80a84	-0.005616488
142	0x3caea947	0.021320952
143	0x3c1a0c39	0.009402328
144	0x3c7813a9	0.015141406
145	0x3dae06d9	0.084974
146	0x3c216d08	0.009852655
147	0x3cacdd8f	0.021101741
148	0x3c318711	0.010835425
149	0x3de2b918	0.1107046
150	0x3e1406e3	0.14455752
151	0x3d316a12	0.043314047
152	0x3d05826e	0.03259509
153	0x3be8a1ce	0.0070993667
154	0xbd940695	-0.07227818
155	0x3d317939	0.043328498
156	0x3b1fb08a	0.00243667
157	0x3d103f1e	0.035216443
158	0x3d48b13d	0.048997153
159	0x3c0c3e2f	0.008559748
160	0xbc7a8118	-0.015289567
161	0x3d1481d6	0.036256634
162	0x3d2f2e74	0.04276891
163	0xbb8fd230	-0.00438907
164	0xbd325e82	-0.04354716
165	0xbda35681	-0.07975484
166	0x3d372d01	0.044720653
167	0xbc227ea1	-0.009917886
168	0xbd6bcef4	-0.057570413
169	0xbd84abaf	-0.064780585
170	0xbbc46dec	-0.005994549
171	0x3b06b85f	0.002055667
172	0xbc0463d3	-0.008080441
173	0x3d0321be	0.0320146
174	0x3c30eede	0.010799138
175	0xbbfca398	-0.0077099316
176	0xbca8b488	-0.020593897
177	0x3ca46807	0.020069135
178	0x3ca8fc84	0.020628221
179	0xbc9613d8	-0.01832001
180	0xbd3898a3	-0.04506744
181	0xbc1d3705	-0.009595637
182	0x3baeef36	0.0053385748
183	0xbd3bf70e	-0.045889907
184	0xbd85cf70	-0.06533706
185	0xbd9e5db0	-0.07732713
186	0xbce6109c	-0.028084092
187	0xbcc34a3a	-0.023839105
188	0xbc2bfa62	-0.010496708
189	0x3a46754d	0.000757058
190	0x3c43c033	0.011947679
191	0xbcb05609	-0.0215254
192	0x3d5a8019	0.05334482
193	0xbc5c6521	-0.013451845
194	0x3da10ba6	0.0786355
195	0x3da6b174	0.08139315
196	0x3c68e0dc	0.014213767
197	0xbd43d1c6	-0.047807477
198	0x3d871abf	0.06596898
199	0x3d160edf	0.036635276
200	0x3c84077f	0.016116856
201	0x3dd0fbf0	0.10204303
202	0xbdb0e0f1	-0.08636654
203	0x3daef76c	0.08543286
204	0x3d102091	0.035187308
205	0xbbe676d9	-0.0070332107
206	0x3d22a416	0.039707266
207	0x3cbf1cea	0.023329217
208	0xbd11509a	-0.03547726
209	0xbde6134a	-0.11234148
210	0x3aa79ac2	0.001278721
211	0xbc60985a	-0.013708198
212	0xbdaee338	-0.08539432
213	0x3f821568	1.0162783
214	0xbd720bae	-0.05909317
215	0xbd41c573	-0.047307443
216	0x3cf458ca	0.029827494
217	0x3b8c870e	0.0042885607
218	0x3d151292	0.036394663
219	0x3b3eddcd	0.0029123903
220	0xbcfa4e54	-0.030554928
221	0xbd58e994	-0.052957132
222	0xbcd3f5dc	-0.02587407
223	0xbd1b73be	-0.037952177
224	0x3ce9b638	0.028529271
225	0xbdbd47a5	-0.09242181
226	0x3c964c06	0.018346798
227	0x3d00fd4b	0.03149156
228	0xbd275647	-0.040853765
229	0xbe387a87	-0.1801549
230	0xbd9dd6ee	-0.0770701
231	0xbd441416	-0.047870718
232	0x3d6516fa	0.055930115
233	0x3be5ccf4	0.0070129577
234	0x3d700c23	0.058605324
235	0x3cd04809	0.025424974
236	0xb9488f59	-0.00019126887
237	0xbd2b38ea	-0.041802324
238	0x3ca10cb2	0.019659374
239	0xbc1ec612	-0.009690778
240	0xba9866b1	-0.0011627284
241	0xbca8bd42	-0.020598058
242	0xbcadad98	-0.02120094
243	0x3bc2aca5	0.005940991
244	0xbc0ec300	-0.008713484
245	0x3d605b3c	0.054774508
246	0xbdf2c752	-0.118544236
247	0xbcb9f810	-0.022701293
248	0xbd6e339a	-0.05815468
249	0x3c1a7535	0.009427358
250	0xbb27e841	-0.0025620612
251	0x3a1abd6b	0.0005902859
252	0xbcd1e371	-0.025621148
253	0xbbaf9a4e	-0.0053589707
254	0x3d9d4f70	0.07681167
255	0x3d10fe9c	0.035399064

encoder.0.bias f4 [12]
0	0x3efa3082	0.48865134
1	0x3eece016	0.46264714
2	0x3d54bcfc	0.051938042
3	0x3e91ca6a	0.28474742
4	0x3eaf8ae5	0.34285656
5	0x3eb9b889	0.36273602
6	0x3d0362e5	0.032076735
7	0x3dcb036d	0.09912763
8	0x3e28a3d8	0.16468751
9	0x3faf26f1	1.3683759
10	0x3ec5bb33	0.38619384
11	0x3e5db090	0.21649384

encoder.2.weight f4 [24, 12, 4, 4]
0	0x3d64e4de	0.055882327
1	0x3da0b621	0.07847238
2	0x3e84ee8b	0.25963244
3	0x3def9aac	0.11699423
4	0x3d90499a	0.070452884
5	0xbfc514d6	-1.5396984
6	0xbf1ec879	-0.62024647
7	0xbdb55436	-0.088539526
8	0x3e8df859	0.27728537
9	0xbe467a00	-0.19382477
10	0x3e462155	0.19348653
11	0x3e864a5e	0.26228613
12	0x3d88404e	0.0665289
13	0xbe0efc42	-0.13963416
14	0x3e0b532a	0.13605943
15	0xbd9b091d	-0.075700976
16	0x3b35c946	0.0027738377
17	0xbd935077	-0.07193082
18	0x3dd404ed	0.10352502
19	0x3dc45698	0.09586829
20	0xbaa850a0	-0.0012841411
21	0xbec70459	-0.38870504
22	0xbde72786	-0.11286835
23	0x3d7028e8	0.05863276
24	0x3d791990	0.060815394
25	0x3e11dc9a	0.14244309
26	0x3e7b877e	0.24563405
27	0x3e6215a1	0.22078563
28	0x3d0e8e1c	0.034803495
29	0xbda3a07b	-0.079895936
30	0x3e0d947e	0.13826177
31	0x3d449d31	0.048001472
32	0xbd81372d	-0.06309352
33	0xbded1e9c	-0.11578104
34	0xbe805e71	-0.25072053
35	0xbdd48f69	-0.10378916
36	0xbd8b9b5a	-0.0681674
37	0x3fb732f4	1.4312425
38	0x3f09a11b	0.5376145
39	0x3d5d4b60	0.05402696
40	0xbe87bb16	-0.26509923
41	0x3e35973d	0.17733474
42	0xbe5fcb9a	-0.21855012
43	0xbe4d59a7	-0.20053731
44	0xbd764ebf	-0.060133692
45	0x3dff40fe	0.12463568
46	0xbe023a06	-0.12717447
47	0x3d5ca556	0.053868614
48	0x3dc2a2d3	0.095037125
49	0xbdda69ad	-0.10664687
50	0x3cdd1a28	0.026990011
51	0x3e1d8fb9	0.15386857
52	0x3e38e57c	0.18056291
53	0xbd415a46	-0.047205232
54	0xbeb32fae	-0.34997314
55	0xbb66e831	-0.0035233612
56	0xbd52eb59	-0.051493976
57	0xbe412042	-0.18859962
58	0xbe8d1937	-0.275583
59	0xbd29144b	-0.04127912
60	0x3d8141f3	0.06311407
61	0x3d0d4170	0.034486234
62	0x3cde0586	0.027102243
63	0x3d2b4422	0.041813023
64	0xbd8a4633	-0.06751671
65	0xbb3ae703	-0.0028519041
66	0x3d91f28b	0.071263395
67	0xbccdc8fd	-0.025120253
68	0x3cbed89b	0.023296645
69	0xbf4c6e03	-0.79855365
70	0xbe289130	-0.16461635
71	0x3d29a677	0.04141852
72	0x3e33881a	0.17532387
73	0xbd8804f4	-0.0664157
74	0x3e22bee9	0.15893139
75	0x3e283fa3	0.16430525
76	0x3d0fc5b2	0.035100646
77	0xbe5239aa	-0.2052981
78	0x3d1b27de	0.037879817
79	0xbd36b617	-0.04460725
80	0x3bda38da	0.0066596093
81	0x3e23c787	0.15994082
82	0x3d6276bb	0.05528901
83	0x3c97738b	0.018487712
84	0x3c34c048	0.011032172
85	0xbe3a0105	-0.18164451
86	0xbdb02715	-0.08601204
87	0xbd9d40ce	-0.07678376
88	0x3cd932a7	0.02651341
89	0x3d50f89c	0.051018342
90	0x3d94537f	0.07242488
91	0xbd360860	-0.04444158
92	0xbd2cebdd	-0.042217124
93	0x3d8f051e	0.06983398
94	0xbd164262	-0.0366844
95	0xbde8ad5e	-0.11361192
96	0xbdebe4bf	-0.11518239
97	0xbe468816	-0.1938785
98	0xbd4981d1	-0.04919607
99	0xbd90b486	-0.07065682
100	0x3ced6b73	0.0289819
101	0x3e90f8d4	0.2831484
102	0x3e368947	0.17825805
103	0xbb9e3548	-0.004828129
104	0xbdb33840	-0.08750963
105	0x3dfd5cfd	0.12371252
106	0x3d95f803	0.07322695
107	0xbd93e632	-0.07221641
108	0xbcb554be	-0.022135135
109	0xbd2bbccc	-0.041928098
110	0xbd0b1ef0	-0.03396505
111	0xbcab01dd	-0.020874912
112	0xbd7f14e3	-0.06227578
113	0x3b12557d	0.0022328787
114	0xbd89ef9d	-0.06735156
115	0xbd7d53e1	-0.06184757
116	0xbc867eb6	-0.016417842
117	0x3eece833	0.46270904
118	0x3e7e4968	0.2483269
119	0x3da340c5	0.07971338
120	0xbdca3442	-0.09873249
121	0x3dd3d2c5	0.103429355
122	0x3bf87be4	0.0075831283
123	0xbdc53355	-0.096289314
124	0xbd30e953	-0.043191265
125	0x3d7d6c1c	0.06187068
126	0x3a953114	0.0011382424
127	0x3d0a4995	0.03376158
128	0x395647a9	0.00020435326
129	0x3da350ba	0.07974382
130	0xb98ee5a6	-0.00027255452
131	0x3bcf6487	0.0063291225
132	0x3dbd62c1	0.092473514
133	0x3f0c7aca	0.5487486
134	0x3de5b67f	0.11216449
135	0x3a778d26	0.0009443335
136	0xbd6b6155	-0.05746587
137	0x3cf4bc54	0.029874958
138	0xbdd712c3	-0.105016254
139	0x3aab311f	0.0013060904
140	0x3c9e83b4	0.01934991
141	0xbcc199a4	-0.023632832
142	0x3d3439c5	0.044000406
143	0x3c401926	0.011724746
144	0xbdc0df38	-0.094175756
145	0xbd5d3bda	-0.054012157
146	0xbe5594ef	-0.20857595
147	0xbe0178f1	-0.12643792
148	0xbdf1a488	-0.1179896
149	0x3f540503	0.8282015
150	0x3eca360a	0.39494354
151	0x3d94c82a	0.07264741
152	0xbdd58a3f	-0.10426759
153	0x3e46676d	0.19375391
154	0xbd12c500	-0.035832405
155	0xbdc8fbe2	-0.09813668
156	0xbd8f8c7e	-0.07009219
157	0x3c9d7eea	0.019225556
158	0xbe0c56e2	-0.13705018
159	0xbb976306	-0.004619959
160	0xbd8ba210	-0.0681802
161	0xbd3be07a	-0.045868374
162	0xbdf4fa09	-0.11961753
163	0xbd6a190d	-0.057152797
164	0x3c760c45	0.015017574
165	0x3f233802	0.63757336
166	0x3e83a376	0.25710648
167	0x3cbf6512	0.023363624
168	0xbe435bfd	-0.1907806
169	0x3b94d25f	0.0045416798
170	0xbe085c42	-0.13316444
171	0xbda32f0c	-0.07967958
172	0xbbe5d742	-0.007014186
173	0xbd318a24	-0.04334463
174	0xbafb5f51	-0.0019178187
175	0xbc867b58	-0.016416237
176	0x3c9daae8	0.019246534
177	0xbc1a3d59	-0.0094140405
178	0x3d4e0623	0.05029882
179	0xbc905ca1	-0.017622294
180	0x3bb3777b	0.0054768897
181	0xbeaf9b97	-0.34298393
182	0xbcf6caab	-0.030125936
183	0xbd63b5b1	-0.055593196
184	0xbceda8ee	-0.029011216
185	0xbcaf5a79	-0.021405445
186	0x3d11d6f0	0.03560537
187	0xbd63eaa1	-0.05564368
188	0x3a6a1d74	0.00089307805
189	0x3dd4f157	0.103975944
190	0xbd479b20	-0.048731923
191	0xbd0ca29f	-0.034334775
192	0xbd42e0b0	-0.04757756
193	0x3e41640c	0.18885821
194	0xbd1244c7	-0.035710122
195	0x3c7cb23b	0.015423353
196	0xbdafa85d	-0.085770346
197	0x3e8de472	0.27713352
198	0xbef15aaa	-0.47139484
199	0xbd98834e	-0.074469194
200	0xbecce4ae	-0.4001822
201	0x3ee551c1	0.44788936
202	0x3edc79b3	0.430616
203	0x3e385a73	0.18003254
204	0xbe46e835	-0.19424517
205	0x3d76ebbe	0.060283415
206	0xbe0819fd	-0.13291164
207	0xbddea467	-0.10871201
208	0x3c8bf216	0.017083209
209	0x3e0ae042	0.1356211
210	0xbc6597fe	-0.014013289
211	0x3d8bb60c	0.06821832
212	0xbcc9ab37	-0.024617774
213	0x3ebb03da	0.36526376
214	0xbdebe867	-0.115189366
215	0x3d16b2d1	0.036791626
216	0x3bc1bfce	0.0059127575
217	0x3e8b7edc	0.27245224
218	0x3dde547f	0.1085596
219	0x3df07dc4	0.11742738
220	0xbc08155c	-0.008305874
221	0x3dc65864	0.09684828
222	0xbcd0cc52	-0.025488053
223	0xbd6c31f7	-0.057664838
224	0x3d2deafc	0.042460427
225	0xbe37b508	-0.17940152
226	0x3d127d1e	0.035763852
227	0x3b2ef03e	0.0026693488
228	0x3d8c4dee	0.068508014
229	0xbe9182b8	-0.28420043
230	0x3eea8e5a	0.4581173
231	0x3d85fd01	0.06542397
232	0x3ebd682c	0.3699354
233	0xbeec1498	-0.46109462
234	0xbed58ab2	-0.4170738
235	0xbe22771e	-0.15865752
236	0x3e37ef83	0.1796246
237	0xbd7ea46f	-0.062168535
238	0x3dde7194	0.10861507
239	0x3db4ef1a	0.088346675
240	0xbd8ab306	-0.06772427
241	0xbbdfe4da	-0.006832701
242	0x3cc1e223	0.0236674
243	0x3c778123	0.015106472
244	0xbda35b7c	-0.07976434
245	0x3cca8d2e	0.024725523
246	0x3d3d873e	0.046271555
247	0x3e44e2e0	0.19227171
248	0xbd9b0d48	-0.075708926
249	0x3d6b602d	0.057464767
250	0xbe44159a	-0.19148865
251	0x3d6c33e8	0.05766669
252	0xbd9490c6	-0.07254176
253	0xbde0eced	-0.1098269
254	0xbc6bf9ab	-0.014402787
255	0xbd825626	-0.06364088

encoder.2.bias f4 [24]
0	0x3d4191c1	0.047258142
1	0x3e4f4b2a	0.20243517
2	0xbdbb8e04	-0.09157947
3	0x3ebe83aa	0.37209827
4	0xbdd1b79b	-0.10240098
5	0xbec7c855	-0.3902003
6	0xbe937fa9	-0.28808334
7	0x3e82f647	0.2557852
8	0xbed53f41	-0.4164982
9	0xbcd78583	-0.02630878
10	0xbb487c95	-0.0030591835
11	0x3eb5ee8e	0.35533565
12	0x3d31c481	0.04340029
13	0xbe57b9da	-0.2106699
14	0x3ec5dcdc	0.38645065
15	0x3df98774	0.12184039
16	0xbe60e09f	-0.21960686
17	0x3e3b4a4b	0.1829006
18	0xbd9d98ca	-0.07695158
19	0x3e9cf401	0.3065491
20	0xbe30849a	-0.17238083
21	0x3e8b16da	0.27165872
22	0xbe9358f7	-0.28778812
23	0x3ed76eff	0.4207687

encoder.4.weight f4 [48, 24, 4, 4]
0	0xbcccbe88	-0.024993196
1	0xbc021d92	-0.00794162
2	0x3d5f897b	0.05457447
3	0xbd80f4e0	-0.06296706
4	0x3d956b7d	0.072958924
5	0xbda82f07	-0.08212095
6	0x3d34e712	0.04416568
7	0xbd75cc3c	-0.060009226
8	0xbbfc88c6	-0.0077067344
9	0x3e7fe18b	0.24988382
10	0x3daa9ad6	0.08330314
11	0x3c9851f0	0.018593758
12	0x3d0e0c08	0.034679443
13	0xbcb90307	-0.022584451
14	0xbca988f7	-0.020695193
15	0xbd3b280a	-0.04569248
16	0x3c1dd55c	0.009633388
17	0x3d38125a	0.044939376
18	0x3d9939cb	0.07481726
19	0x3ccba9ed	0.0248613
20	0x3c96c258	0.018403217
21	0xbe84c0fb	-0.25928482
22	0xbd2f1c01	-0.042751316
23	0x3d84a605	0.06476978
24	0xbc5b79e1	-0.013395757
25	0x3e082667	0.132959
26	0xbd8824a5	-0.066476144
27	0xbcd759f7	-0.026288016
28	0x3b2af3b1	0.0026085193
29	0xbd790954	-0.06079991
30	0xbd4c9743	-0.049948942
31	0xbc0e7a84	-0.008696202
32	0xbe0b50bf	-0.13605021
33	0x3dedc617	0.11610048
34	0xbdb08bfe	-0.086204514
35	0x3e42d1d1	0.19025351
36	0xbdaf5358	-0.085608184
37	0xbe311a16	-0.17295107
38	0xbe83d146	-0.257456
39	0xbc233548	-0.009961434
40	0x3df89314	0.12137428
41	0xbc2f7e9f	-0.010711341
42	0x3ed3c80a	0.41363555
43	0x3e9a687a	0.30157834
44	0x3ce2f0a0	0.02770263
45	0x3db26c5e	0.08712076
46	0x3e33c7be	0.17556664
47	0x3e58655f	0.2113242
48	0x3c8002ce	0.015626337
49	0x3d2487ad	0.040168453
50	0x3d95db0a	0.07317169
51	0xbcbba4e3	-0.022905773
52	0xbb5ad70b	-0.0033392336
53	0x3ea5f8a9	0.32416275
54	0x3df59480	0.11991215
55	0x3d6cada5	0.057782788
56	0xbd8c4780	-0.06849575
57	0xbd549898	-0.051903337
58	0xbdb781bc	-0.08960292
59	0xbd9acd0f	-0.07558643
60	0xbba8acee	-0.005147568
61	0xbcba271e	-0.02272373
62	0xbd17c46a	-0.03705255
63	0xbcb352e3	-0.02189011
64	0xbc2da4ca	-0.010598371
65	0xbc0b3c2c	-0.008498233
66	0x3ba2e9c6	0.0049717156
67	0xbc695619	-0.014241719
68	0xbcb2173e	-0.021739598
69	0xbc675f83	-0.014121893
70	0x3d1e45eb	0.038640898
71	0x3d553942	0.05205656
72	0x3d0e0ade	0.034678333
73	0x3c860eef	0.016364543
74	0xbd00831d	-0.03137504
75	0x3b9d31fd	0.004797219
76	0xbca3dc51	-0.020002516
77	0x3cc4dcba	0.024031032
78	0xbd23d4db	-0.039997917
79	0x3bccf63f	0.0062549408
80	0x3ccfad35	0.025351146
81	0xbcaf3bef	-0.021390883
82	0x3d5aecc8	0.05344847
83	0xbb8a767c	-0.00422555
84	0xbdde19ba	-0.10844751
85	0x3e421b95	0.18955834
86	0x3e27af56	0.16375479
87	0xbd715071	-0.058914606
88	0xbd85f5dd	-0.06541035
89	0x3dc13d35	0.094355024
90	0xbde7ec4b	-0.11324366
91	0x3bd62d88	0.0065361895
92	0xbbf30407	-0.0074162516
93	0xba1450ea	-0.0005657809
94	0xbda86dbc	-0.08224055
95	0xbd830743	-0.063978694
96	0xbd6ce290	-0.057833254
97	0xbd039e37	-0.032133307
98	0x3c268576	0.0101636555
99	0x3c7d0661	0.015443415
100	0xbd8552ac	-0.06509909
101	0x3cd533b3	0.026025629
102	0x3e6cc6f7	0.23122774
103	0x3d89f1fa	0.067356065
104	0xbdaecef9	-0.08535571
105	0x3c41664f	0.011804177
106	0x3dbb00d1	0.09131015
107	0x3cb4a56b	0.022051534
108	0x3ccf1f00	0.025283337
109	0x3d22ecb9	0.039776538
110	0xbcd85688	-0.026408449
111	0xbcb2b7f9	-0.02181624
112	0x3d8d6ad6	0.06905143
113	0xbd9b266a	-0.07575686
114	0x3ceb00da	0.02868693
115	0xbcfeca0d	-0.031102205
116	0xbca14183	-0.019684559
117	0x3b901c5a	0.004397911
118	0xbdb6bfa7	-0.089232735
119	0xbd3288db	-0.043587547
120	0x3cbd58ba	0.023113597
121	0xbcae8f94	-0.021308698
122	0x3c24950d	0.010045302
123	0x3cad1bec	0.021131478
124	0x3ca843dd	0.020540172
125	0xbdab83ed	-0.08374772
126	0x3c64133d	0.013920602
127	0xbc139c4a	-0.00900943
128	0xbd8003e0	-0.06250739
129	0xbd6adda8	-0.057340294
130	0xbcc99afc	-0.024610035
131	0xbd42e816	-0.047584616
132	0xbda7fc15	-0.08202378
133	0x3e6b2de6	0.22966728
134	0xbd0cace7	-0.03434458
135	0x3d7929bd	0.06083082
136	0xbc2ac78c	-0.010423552
137	0x3e5a69dd	0.21329446
138	0xbdef0275	-0.116703905
139	0xbd96e4d8	-0.07367867
140	0xbcda0873	-0.026615357
141	0x3cb36028	0.021896437
142	0xbdc86f0b	-0.09786805
143	0xbd50cfd0	-0.050979435
144	0xba27bf1b	-0.00063990214
145	0x3d4aae2e	0.049482517
146	0x3d900750	0.07032645
147	0x3ce9e252	0.0285503
148	0x3d3a95fa	0.045553185
149	0xbdeca6bb	-0.11555239
150	0xbe854b2a	-0.26033908
151	0x3d761fa9	0.060088787
152	0x3c67e67a	0.014154071
153	0x3d2f31e3	0.042772185
154	0xbd446835	-0.047950942
155	0x3d086a86	0.033304714
156	0x3b00abc3	0.0019633628
157	0x3daae198	0.0834381
158	0xbd7b889c	-0.061409578
159	0xbca88b9d	-0.020574385
160	0x3c309960	0.010778755
161	0xbd602041	-0.05471826
162	0x3c6ba277	0.014381996
163	0x3c344e26	0.01100496
164	0x3cd8225f	0.026383577
165	0x3e20df3b	0.15710156
166	0x3e3d9579	0.1851405
167	0xbd3aa3f0	-0.0455665
168	0x3cdab21e	0.026696261
169	0x3e7dc9e7	0.24784051
170	0x3d5b8a8d	0.05359893
171	0xbdaafda3	-0.083491586
172	0x3d2aeca2	0.041729577
173	0xbd1e110d	-0.03859048
174	0xbd10bef8	-0.035338372
175	0xbd5ed79a	-0.054404832
176	0x3d2c6a57	0.0420936
177	0xbd4f6a34	-0.050638393
178	0x3c85d0e8	0.016334966
179	0x3d05447c	0.032536015
180	0x3d9afd54	0.0756785
181	0x3e8ce04a	0.2751487
182	0x3e1e5562	0.15462258
183	0xbcf52d31	-0.029928776
184	0x3d4552c8	0.04817465
185	0x3c5d5ad4	0.013510425
186	0xbd2352cd	-0.039873887
187	0xbd23c615	-0.039983828
188	0x3daf1f58	0.085509
189	0xbda35a4c	-0.07976207
190	0xbce272af	-0.027642576
191	0xbce979ab	-0.028500399
192	0x3db50a4c	0.088398546
193	0xbd227ec4	-0.039671674
194	0xbd738eb7	-0.059462275
195	0x3cd73ab5	0.02627311
196	0xbda4e0fb	-0.08050724
197	0x3ce8b807	0.028408064
198	0x3dc61d85	0.09673599
199	0xbc1b9575	-0.009496083
200	0xbc13988a	-0.009008536
201	0x3e3d04e8	0.18458903
202	0x3d8a0e6f	0.06741034
203	0xbc54089d	-0.012941507
204	0xbd20700a	-0.03916935
205	0x395cbf1f	0.00021052033
206	0x3999e96f	0.00029356356
207	0x3bc369eb	0.005963554
208	0x3d01984e	0.03163939
209	0x3d722253	0.059114765
210	0x3ddd950a	0.108194426
211	0xbd8e9d55	-0.069636025
212	0xbcfdca57	-0.030980272
213	0xbddeb85c	-0.108750075
214	0x3dd3248d	0.10309706
215	0x3dbfaff5	0.09359733
216	0xbab607c9	-0.0013887818
217	0x3d0a4d14	0.033764914
218	0xbda51ae6	-0.08061771
219	0x3e1a686e	0.150789
220	0xbd5eabcb	-0.054363053
221	0x3dc4d022	0.09610011
222	0x3be46bad	0.0069708438
223	0x3d91ca0e	0.07118617
224	0xbd03ec2a	-0.032207645
225	0xbd854aca	-0.065084055
226	0xbe1c001c	-0.15234417
227	0xbc6fb3c7	-0.014630265
228	0x3bca6a1d	0.0061772005
229	0x3c7fc141	0.01561004
230	0x3d16152a	0.036641277
231	0xbcea9610	-0.028636009
232	0xbd429736	-0.047507487
233	0xbde8bb37	-0.113638334
234	0xbdb979f3	-0.09056463
235	0xbdad3c84	-0.08458808
236	0xbbfd71be	-0.0077345064
237	0x3c789093	0.015171188
238	0xbd7680f8	-0.060181588
239	0xbd5c9862	-0.05385626
240	0x39cf9a21	0.00039596952
241	0x3bae77f6	0.005324359
242	0xbdabab79	-0.08382315
243	0x3d4032e5	0.046923537
244	0xbda4f5be	-0.08054684
245	0x3c174f96	0.009235283
246	0x3e286d5e	0.1644797
247	0x3d8f6d25	0.070032395
248	0xbdc81260	-0.0976913
249	0xbd4b950c	-0.04970269
250	0xbe75ac18	-0.2399143
251	0xbe060e31	-0.13091351
252	0xbd335743	-0.04378439
253	0x3e23ba56	0.1598905
254	0x3d9fb92a	0.07798989
255	0x3d539706	0.0516577

encoder.4.bias f4 [48]
0	0xbe8e73e5	-0.27822796
1	0xbdfe420c	-0.12414941
2	0x3ef3c2b1	0.47609475
3	0x38bc889a	8.9899826e-05
4	0x3e87af87	0.26501104
5	0x3f04ba0d	0.5184639
6	0xbeacc33b	-0.337427
7	0x3ed1b56d	0.4095873
8	0xbee87d8c	-0.45408285
9	0xbdf96fca	-0.12179525
10	0xbda9f913	-0.0829946
11	0xbe83cb4f	-0.2574105
12	0x3db3aed3	0.087735794
13	0x3e72349e	0.23652884
14	0x3e1f156a	0.15535513
15	0x3ec05f13	0.37572536
16	0x3e456382	0.1927624
17	0x3eac91ac	0.3370489
18	0x3e8fb0e1	0.28064635
19	0x3e80e948	0.2517798
20	0xbe6ebc55	-0.2331403
21	0x3eb7070a	0.35747558
22	0xbe318023	-0.17334037
23	0xbed7733c	-0.42080104
24	0x3edda304	0.43288434
25	0xbe87bf31	-0.26513055
26	0x3d442652	0.047888108
27	0x3ee9a594	0.4563414
28	0x3e6f780b	0.23385637
29	0x3e3ac0a0	0.18237543
30	0x3c522f67	0.012828684
31	0xbeb9f671	-0.36320832
32	0x3d6bf398	0.057605356
33	0x3efdb18e	0.49549526
34	0x3eb20cfd	0.34775534
35	0x3e1348dc	0.14383262
36	0xbe1916f8	-0.14950168
37	0xbe65badd	-0.22434564
38	0xbe24524c	-0.16047019
39	0xbe6ac8e1	-0.22928192
40	0xbe967bee	-0.29391426
41	0xbeb410dd	-0.35169116
42	0x3e12238e	0.14271376
43	0x3e899538	0.26871657
44	0xbe8ddff2	-0.2770992
45	0x3ec6ac6b	0.3880342
46	0xbec3c721	-0.3823786
47	0xbd55ffbd	-0.052245844

decoder.0.weight f4 [48, 24, 4, 4]
0	0xbcd6a3a6	-0.02620108
1	0x3d95bf15	0.07311837
2	0x3c048a57	0.008089623
3	0x3c98863d	0.018618697
4	0x3d19b2a2	0.037523873
5	0xbe993f3a	-0.2993105
6	0x3dc22e24	0.09481457
7	0xbd922df7	-0.07137673
8	0x3d2f7a56	0.042841278
9	0x3da0a547	0.07844024
10	0x3c82e4b3	0.015978193
11	0xbdad6f9d	-0.08468554
12	0x3d0c88f7	0.034310307
13	0x3d8a75dd	0.06760762
14	0xbd45cc4e	-0.048290543
15	0xbc6b191a	-0.014349246
16	0xbd769b2c	-0.060206577
17	0xbf147b4b	-0.5800063
18	0xbcc7cd3b	-0.024389854
19	0x3c06e7d3	0.008233982
20	0xbe520273	-0.20508747
21	0x3e212513	0.15736799
22	0xbdfd64a1	-0.12372709
23	0x3ecbfa61	0.3983946
24	0x3e49f28c	0.1972143
25	0x3f15bbe8	0.5848985
26	0x3ed437a8	0.41448712
27	0xbd3dfae5	-0.04638185
28	0x3cf56bd3	0.029958641
29	0xbc94278b	-0.018085262
30	0xbe36e809	-0.17861952
31	0xbce55704	-0.027995594
32	0xbe099854	-0.13437015
33	0xbd45faf2	-0.048335023
34	0xbd061163	-0.032731425
35	0xbbb0407f	-0.0053787823
36	0x3d1a3b19	0.037654016
37	0xbe3675cb	-0.17818372
38	0x3e90932a	0.28237277
39	0x3ed64c00	0.41854858
40	0x3e08562b	0.1331412
41	0x3e3ba97c	0.18326372
42	0x3d45916d	0.048234392
43	0xbda8748e	-0.08225356
44	0xbb4306f6	-0.0029758788
45	0xbdde98a9	-0.10868961
46	0xbd840209	-0.06445701
47	0x3d8966b9	0.06709046
48	0xbd32bcaf	-0.043636974
49	0x3c4f6254	0.012657721
50	0xbd1fcbf4	-0.039012864
51	0xbd7722d2	-0.06033594
52	0x3b92ecfe	0.004483818
53	0xbd4dc914	-0.05024059
54	0xbd5c9e94	-0.05386217
55	0xbde2fd53	-0.11083474
56	0x3cbdd101	0.02317095
57	0xbccf2119	-0.025284337
58	0xbd20dc8c	-0.03927283
59	0x3c9ca928	0.019123629
60	0xbd1abffa	-0.03778074
61	0xbddea740	-0.10871744
62	0xbd9f4f2f	-0.07778775
63	0xbdebf70b	-0.11521729
64	0xbb5542fc	-0.0032541147
65	0xbaa30b35	-0.0012439253
66	0xbd1b400e	-0.037902884
67	0x3cfa95ae	0.030588951
68	0xbd0c9704	-0.034323707
69	0x3df169df	0.117877714
70	0xbe0e2b8d	-0.13883801
71	0x3bfda4f2	0.0077406103
72	0xbda4d841	-0.0804906
73	0xbe2a546c	-0.16633767
74	0xbe3960f4	-0.18103391
75	0xbd1204d3	-0.035649132
76	0xbc9a25f5	-0.018816927
77	0xbdabe0f2	-0.08392514
78	0xbb441149	-0.002991753
79	0xbc6a2bbb	-0.014292653
80	0xbd0bdc18	-0.034145445
81	0x3c572394	0.013131041
82	0xbd5991eb	-0.053117674
83	0xbd1f0bd0	-0.038829625
84	0xbc965f1e	-0.018355902
85	0xbd9370c6	-0.07199244
86	0xbdc3b552	-0.095560685
87	0x3d895c0f	0.06707012
88	0xbbbfa0fa	-0.0058480473
89	0xbe3cb60b	-0.18428819
90	0xbe6aeaf4	-0.2294119
91	0xbd0f920f	-0.0350514
92	0xbcc93897	-0.024563117
93	0x3b8fb825	0.0043859654
94	0xbd3c5d33	-0.04598732
95	0xbaa6946b	-0.0012709027
96	0xbc339252	-0.010960178
97	0x392735ff	0.00015946476
98	0xbd93b08d	-0.07211409
99	0x3d12bba8	0.035823494
100	0xbd3f9421	-0.046772126
101	0xbd415cfc	-0.047207817
102	0xbdf6ff3d	-0.120604016
103	0x3d1036d7	0.03520855
104	0x3ca1334f	0.019677786
105	0xbe407dc4	-0.18797976
106	0xbe2bbe01	-0.167717
107	0x3d25e45a	0.040500976
108	0xbd1bd1d7	-0.038041916
109	0x3c9ec617	0.019381566
110	0xbd386f3d	-0.04502796
111	0x3c98d101	0.018654348
112	0x3c79f9fc	0.015257355
113	0xbd470a48	-0.04859379
114	0xbd88513b	-0.066561185
115	0xbca43138	-0.020043
116	0xbcb2e01e	-0.021835383
117	0x3eecef65	0.46276394
118	0x3e92d88c	0.28680837
119	0xbcb46691	-0.022021564
120	0xb9e70345	-0.0004406219
121	0xbe10289e	-0.14077994
122	0x3d1360f5	0.035981137
123	0xbd8702cd	-0.06592331
124	0xbc7067fe	-0.014673231
125	0xbdd1b242	-0.10239078
126	0xbc2f8fa2	-0.010715397
127	0xbddaea46	-0.10689215
128	0xbcce62ec	-0.025193654
129	0xbd4b5556	-0.04964193
130	0x3dcf6012	0.10125746
131	0xbd51f3f3	-0.05125804
132	0x3c11efcc	0.00890727
133	0x3dfa5104	0.12222484
134	0x3e5d1091	0.21588351
135	0x3e019b40	0.1265688
136	0x3d0bd48c	0.034138247
137	0x3e7fa964	0.24966961
138	0x3e9c68cd	0.30548707
139	0x3de6f6c2	0.11277534
140	0x3cc9bd10	0.024626285
141	0xbbee0de1	-0.007264838
142	0x3db042a7	0.08606463
143	0xbca23ac6	-0.019803416
144	0x3d4c3fa1	0.04986537
145	0x3bbd67b3	0.005780184
146	0xbd177d20	-0.036984563
147	0x3af39ebd	0.0018586736
148	0xbc19ff9b	-0.00939932
149	0xbf0fcb45	-0.5616954
150	0x3e3b9977	0.18320261
151	0xbe84dfae	-0.25951904
152	0x3cfa90f0	0.03058669
153	0x3d8d0e3c	0.068874806
154	0xbcbed5e6	-0.023295354
155	0xbd62a6c0	-0.055334806
156	0xbcbc36ed	-0.02297541
157	0xbf323e86	-0.69626653
158	0xbd32660f	-0.043554362
159	0xbe432ac9	-0.1905929
160	0x3ccb9db8	0.02485548
161	0x3d5402d9	0.05176053
162	0x3d0859ca	0.033288755
163	0x3cd597fd	0.02607345
164	0x3d586afa	0.052836396
165	0xbc3a65f0	-0.011376843
166	0x3e15da9d	0.14634176
167	0xbc8289cf	-0.015934853
168	0x3d9386e1	0.072034605
169	0x3ea5be69	0.32371834
170	0x3e32c707	0.17458735
171	0xbcfd10c6	-0.030891787
172	0xbccbfe30	-0.02490148
173	0x3d8fa821	0.0701449
174	0x3a0ac8a0	0.00052941777
175	0xbcdb5a0b	-0.026776334
176	0x3c13f5c3	0.009030762
177	0x3e069b78	0.13145244
178	0xbbe5fc4b	-0.007018601
179	0xbe195452	-0.14973572
180	0x3cadeb36	0.021230321
181	0xbe6eb021	-0.23309375
182	0x3da58ea8	0.0808385
183	0xbc712722	-0.014718803
184	0xbd492d79	-0.04911563
185	0x3d66fffc	0.05639647
186	0xbe200a7f	-0.15629004
187	0xbd6d68fd	-0.057961453
188	0x3be6edd0	0.0070473924
189	0x3da2438a	0.07923038
190	0xbd0b4de0	-0.034009814
191	0xbdb48f5e	-0.088164076
192	0x3dad171a	0.08451672
193	0x393ba6fc	0.00017895916
194	0x3d1b23e9	0.037876043
195	0xbc270d85	-0.010196094
196	0xbdd08b61	-0.101828344
197	0x3e024b6e	0.12724087
198	0xbda7f660	-0.08201289
199	0xbd1e827a	-0.03869865
200	0x3ea5ff93	0.3242155
201	0xbe1edab9	-0.15513124
202	0x3d79cd17	0.060986605
203	0xbd0a6c00	-0.033794403
204	0xbdc0c1f2	-0.09411992
205	0xbd7bc693	-0.061468672
206	0xbe92dd65	-0.28684536
207	0xbd2c3b34	-0.042048648
208	0x3d850000	0.064941406
209	0x3dabfa86	0.08397393
210	0xbd890a79	-0.066914506
211	0x3d1aa444	0.037754312
212	0xbd4834b2	-0.04887838
213	0xbed41059	-0.41418722
214	0xbb53af29	-0.0032300449
215	0xbe2971d8	-0.16547334
216	0x3d84bbd0	0.06481135
217	0x3c89db0e	0.016828086
218	0x3d890ca1	0.06691862
219	0xbe04241e	-0.12904403
220	0x3c649c4b	0.013953279
221	0x3c8f167c	0.017466776
222	0x3c8bc056	0.017059486
223	0xbcc9c616	-0.024630588
224	0x3d8aef46	0.06783919
225	0x3c38def2	0.011283623
226	0x3e10284b	0.1407787
227	0xbcddf2d5	-0.02709333
228	0xbd2c05c8	-0.0419977
229	0xbc9db35d	-0.019250566
230	0x3bcc3ffe	0.0062332144
231	0xbcb38405	-0.021913538
232	0x3d9afb70	0.07567489
233	0x3e444a43	0.19168954
234	0x3dd6720d	0.10470972
235	0xbd5f649b	-0.054539304
236	0x3b94233e	0.0045208028
237	0xbd1d9042	-0.038467653
238	0x3c6efee1	0.014587135
239	0x3beefdd6	0.007293443
240	0x3c852c74	0.016256548
241	0x3d1217ff	0.035667416
242	0xbd7b4aaa	-0.061350502
243	0xbd5e3fad	-0.054259945
244	0xbc8ba285	-0.017045269
245	0x3dc41c33	0.09575691
246	0xbc6772a8	-0.014126457
247	0xbdaa1a93	-0.0830585
248	0x3d2f11b9	0.04274151
249	0xbb545d9c	-0.0032404428
250	0x3e0a9c1e	0.13536116
251	0x3c7b6d13	0.01534583
252	0x3c9c39eb	0.019070586
253	0x3d59c22a	0.053163685
254	0xbd0a1fb6	-0.03372165
255	0xbc7f74a2	-0.015591772

decoder.0.bias f4 [24]
0	0xbdb417f7	-0.087936334
1	0xbea02df8	-0.3128507
2	0xbd9d484c	-0.07679805
3	0xbee284e1	-0.44242004
4	0x3f1559ef	0.5834035
5	0x3e0a3ed3	0.13500528
6	0x3ec4a3f6	0.38406342
7	0x3f38f1ab	0.72243756
8	0xbe5d5ac8	-0.21616662
9	0xbd255a1d	-0.04036914
10	0xbe16a8ce	-0.14712831
11	0x3e07a56a	0.13246694
12	0x3f032112	0.51222336
13	0xbe5bd3bd	-0.2146749
14	0xbed162da	-0.4089573
15	0xbe4c2164	-0.19934613
16	0x3e88f76c	0.26751268
17	0xbefbfeb7	-0.4921777
18	0xbec01a4b	-0.3752006
19	0xbf06259c	-0.5240114
20	0x3f133cb3	0.57514495
21	0xbea1cecb	-0.31603083
22	0xbf06ef2b	-0.5270869
23	0x3e445dbd	0.19176383

decoder.2.weight f4 [24, 12, 4, 4]
0	0x3e08fbcd	0.13377304
1	0xbc9ad28b	-0.018899223
2	0x3c29db4d	0.010367227
3	0xbd5ffe78	-0.05468604
4	0xbb314fc4	-0.00270556
5	0x3db7b9d3	0.0897099
6	0xbd864b34	-0.065573126
7	0xbdf8c596	-0.121470615
8	0x3e38ece1	0.18059112
9	0x3da33c14	0.07970443
10	0x3d181798	0.037131876
11	0x3d92c711	0.07166875
12	0x3c82d365	0.015969941
13	0xbd1192e7	-0.035540488
14	0xbc81f5ca	-0.015864272
15	0xbd05c817	-0.032661524
16	0x3d939cd7	0.07207649
17	0x3cb32b8a	0.021871347
18	0xbd8baffb	-0.06820675
19	0x3d5bc6a4	0.053656235
20	0xbd8d7f0e	-0.069089994
21	0x3de707aa	0.11280759
22	0xbd5f7c8f	-0.054562148
23	0xbd9dba56	-0.077015564
24	0x3e16ff0e	0.14745733
25	0xbdf191ec	-0.117954105
26	0xbc8309fc	-0.015995972
27	0xbc1f51e4	-0.009724114
28	0x3d226768	0.039649397
29	0xbda113e8	-0.07865125
30	0xbd927ba9	-0.071524926
31	0xbd8d5d97	-0.069026165
32	0xbcae76eb	-0.021296939
33	0x3822193f	3.8647322e-05
34	0xbceabaf0	-0.028653592
35	0x3cfbaac0	0.030721068
36	0xbcf00a0f	-0.029301671
37	0xbd42af94	-0.047530726
38	0xbd7e96ba	-0.062155463
39	0x3df75e9f	0.120785944
40	0xbcce0908	-0.02515079
41	0xbd4e7b99	-0.05041084
42	0xbd8c0ae7	-0.06838017
43	0xbdb499ae	-0.088183746
44	0x3c710bde	0.014712302
45	0x3c7e0505	0.015504126
46	0x3b50eff3	0.0031881302
47	0x3cd00f37	0.02539788
48	0xbd857210	-0.06515896
49	0xbd9d04b8	-0.07666916
50	0xbde76269	-0.11298067
51	0xbd745376	-0.059649907
52	0xbcc6adfa	-0.02425288
53	0x3c114bf0	0.008868203
54	0xbd285de7	-0.041105177
55	0x3c74338b	0.014904867
56	0xbef51766	-0.47869414
57	0xbf607b84	-0.8768847
58	0xbea91f83	-0.33031854
59	0xbed1b919	-0.4096153
60	0xbca1986a	-0.019725997
61	0xbd058964	-0.03260173
62	0xbc585973	-0.01320492
63	0xbcd6de72	-0.026229117
64	0xbc8a99cc	-0.01691904
65	0x3c8fb78c	0.017543577
66	0x3cc2aa86	0.023762953
67	0x3e997ccb	0.29978022
68	0xbf134337	-0.57524437
69	0xbc144a9f	-0.009050994
70	0x3e7406ba	0.23830691
71	0xbd08b9ce	-0.033380322
72	0xbcd4f64c	-0.02599635
73	0x3daaae04	0.08333972
74	0xbc1910ac	-0.009342354
75	0x3c060183	0.008179071
76	0xbd667f9d	-0.056274045
77	0x3d41f3cc	0.047351643
78	0x3e902714	0.28154814
79	0x3ee696af	0.45036837
80	0xbc8773f9	-0.016534792
81	0xbd4fa187	-0.050691154
82	0xba000260	-0.00048831664
83	0xbcd8221c	-0.026383452
84	0x3d2c529c	0.04207097
85	0x3dfe6be0	0.12422919
86	0x3eab7f85	0.33495727
87	0x3ca31452	0.01990715
88	0xbd74bd29	-0.05975071
89	0x3d45b3ea	0.048267283
90	0xbc2b2ddf	-0.010447948
91	0x3d2df4a8	0.04246965
92	0xbe39e62e	-0.18154213
93	0xbd200437	-0.03906652
94	0xbe148e5f	-0.14507435
95	0xbc31e215	-0.010857125
96	0xbd6ffcf5	-0.058590848
97	0xbcc5340b	-0.024072668
98	0xbdfa4530	-0.12220228
99	0x3d311bd5	0.043239433
100	0xbda2e72e	-0.0795425
101	0x3d9d2591	0.07673181
102	0x3d2506f5	0.040289838
103	0xbbdf7bfd	-0.0068202005
104	0xbd0b49b7	-0.034005847
105	0xbc0fa8fa	-0.0087683145
106	0xbd18afdf	-0.0372771
107	0xbc458310	-0.0120551735
108	0xbd548bbf	-0.051891085
109	0x3c5a611c	0.013328817
110	0xbd3b9930	-0.045800388
111	0xbcceced6	-0.025245111
112	0x3dab2b19	0.083578296
113	0xbb0c0210	-0.0021363534
114	0xbc17002e	-0.009216351
115	0x3b984250	0.004646577
116	0x3d000169	0.031251345
117	0xbe917005	-0.28405777
118	0xbe106869	-0.1410233
119	0xbd64bbc7	-0.05584314
120	0x3de5a622	0.11213328
121	0x3d827149	0.06369264
122	0x3e9a312d	0.30115643
123	0x3b93d364	0.0045112837
124	0x3b3d634d	0.00288983
125	0xbca5d2a0	-0.020242035
126	0x3cb97ecb	0.022643467
127	0x3c0f5451	0.00874813
128	0x3db61067	0.08889847
129	0x3cf98950	0.030460984
130	0x3da8a12e	0.082338676
131	0xbcd5fc4f	-0.026121287
132	0x3e03b267	0.12861024
133	0x3ee05088	0.4381144
134	0x3e8d9f97	0.2766082
135	0x3e136d7c	0.14397234
136	0x3e3a1a7b	0.18174164
137	0x3e40d893	0.18832617
138	0x3e87c76f	0.26519343
139	0xbda5bcca	-0.08092649
140	0x3d146bf2	0.036235757
141	0x3de9ea55	0.114216484
142	0x3d434ec0	0.047682524
143	0x3d0c6a6a	0.03428117
144	0x3d2c3bb7	0.042049136
145	0x3d4b17cb	0.049583238
146	0xbe7b0ea1	-0.24517299
147	0x3d487e9b	0.048948865
148	0xbc9760b8	-0.018478736
149	0xbea827bf	-0.32842824
150	0xbc1a01ef	-0.009399875
151	0x3c24791e	0.010038642
152	0x3eb29064	0.34875786
153	0x3e552a36	0.20816883
154	0x3f3efd72	0.74605477
155	0x3d29b891	0.041435782
156	0xbc72f1c2	-0.014828147
157	0xbd1457c7	-0.036216523
158	0xbd22571e	-0.039633863
159	0x3b4bd86b	0.0031104337
160	0x3c0bb7df	0.008527725
161	0x3b723112	0.0036955518
162	0x3c87079b	0.016483119
163	0xb936ee69	-0.00017445687
164	0x3d23b784	0.039969936
165	0x3b3921db	0.002824894
166	0x3cc58378	0.02411054
167	0x3c9b02c1	0.018922212
168	0x3b5c3c82	0.0033605401
169	0xbdac5ab9	-0.084157415
170	0xbdc0a098	-0.09405631
171	0xbd0f9e37	-0.035062995
172	0xbcbe6839	-0.023243057
173	0x3a787da4	0.0009479171
174	0x3c366ecc	0.0111348145
175	0xb86008ad	-5.341384e-05
176	0x3e4fb379	0.20283307
177	0x3c7ac867	0.015306569
178	0xbdb83be1	-0.08995796
179	0xbd955318	-0.072912395
180	0xbe945265	-0.28969112
181	0xbeb2cf16	-0.3492362
182	0xbe4dbfa4	-0.20092636
183	0xbe5b2cc3	-0.21403794
184	0x3ea50f70	0.3223834
185	0x3e9a6ab8	0.30159545
186	0x3e8c957b	0.27457795
187	0x3df85952	0.121264115
188	0x3c857d07	0.01629497
189	0xbe1e5b4c	-0.15464514
190	0xbd85f019	-0.065399356
191	0xbd0effa9	-0.034911785
192	0xbe79fd45	-0.24413021
193	0xbc700e66	-0.01465187
194	0x3d58fd95	0.05297621
195	0x3ce12c64	0.027486987
196	0x3d42a91c	0.047524557
197	0x3d37c209	0.04486278
198	0x3cf09711	0.02936891
199	0x3cb72065	0.022354314
200	0x3d028984	0.031869426
201	0x3d529f7f	0.05142164
202	0x3da0cc62	0.07851483
203	0x3d842423	0.06452205
204	0xbdba6f4f	-0.09103262
205	0x3d8ce7ac	0.068801254
206	0xbe01994b	-0.12656133
207	0xbc53468e	-0.0128952395
208	0x3c22aab3	0.009928393
209	0xbd0f6d21	-0.035016183
210	0xbdc217df	-0.09477209
211	0xbdb92862	-0.090409055
212	0xbd692b8e	-0.056926303
213	0xbe74b23c	-0.23896116
214	0xbdb0ccbe	-0.086328015
215	0x3d0af0ef	0.03392118
216	0xbd824931	-0.063616164
217	0xbde8b6b0	-0.1136297
218	0xbe8af891	-0.27142766
219	0xbe0fd7b5	-0.1404713
220	0x3cf95f0f	0.030440835
221	0xbffaefae	-1.9604394
222	0x3a55886c	0.00081456336
223	0xbb67337b	-0.0035278487
224	0x3bbe4e61	0.0058076833
225	0x3c3d37d8	0.011548959
226	0x3d3b1f13	0.04568393
227	0xbbf9b3d4	-0.007620314
228	0xbd3c1849	-0.045921598
229	0x3c7d41f3	0.015457618
230	0xbb0c81fb	-0.002143978
231	0x3d82549c	0.06363794
232	0xbcb8989d	-0.02253371
233	0xbd9dc932	-0.077043906
234	0xbd1f82d5	-0.03894313
235	0xbd5f0dfd	-0.0544567
236	0xbd89f0e8	-0.06735402
237	0xbd5e5601	-0.05428124
238	0xbd9e33a7	-0.07724696
239	0x38c0fd22	9.202423e-05
240	0x3defdc2a	0.11711915
241	0x3ed452ff	0.4146957
242	0x3ed1014a	0.40821296
243	0xbea26a19	-0.3172157
244	0xbe3c7872	-0.18405321
245	0xbdaf0af0	-0.08547008
246	0x3eacd9d8	0.33759952
247	0xbd82e0d0	-0.06390536
248	0x3e2c47e2	0.16824296
249	0x4008a836	2.1352668
250	0x3f8f4b3e	1.1194837
251	0x3f436c60	0.7633724
252	0x3dabea6d	0.083943225
253	0xbc85ff2e	-0.01635703
254	0x3e82cf4f	0.2554879
255	0xbda7968b	-0.08183011

decoder.2.bias f4 [12]
0	0xbeb7e59c	-0.35917366
1	0xbe4f3b38	-0.20237434
2	0xbf4bd347	-0.7961926
3	0xbecac782	-0.39605337
4	0x3f4e0aae	0.80485046
5	0xbf1886e6	-0.5958084
6	0xbea0ff16	-0.31444615
7	0x3ecaefd4	0.396361
8	0xbe6daece	-0.23211214
9	0x3ef0d5dd	0.47038165
10	0x3ec84e16	0.39122075
11	0x3e3d2240	0.18470097

decoder.4.weight f4 [12, 3, 4, 4]
0	0x3d503939	0.05083582
1	0x3e5ec3b6	0.21754345
2	0x3df976d0	0.12180865
3	0xbd14eefb	-0.036360722
4	0x3e5fb71d	0.21847196
5	0x3f269ebd	0.65085965
6	0x3ed95c36	0.42453164
7	0xb964fa08	-0.00021836918
8	0x3db35e70	0.08758247
9	0x3e7dfc10	0.24803185
10	0x3de8bcf0	0.11364162
11	0xbd367d70	-0.04455322
12	0x3bee99b2	0.0072815055
13	0xbc68e6d9	-0.014215195
14	0xbc009f9d	-0.007850555
15	0x3c6f090c	0.014589559
16	0x3d97bacf	0.07408678
17	0x3e3fd28e	0.18732664
18	0x3d866b09	0.06563384
19	0xbd2b547a	-0.04182861
20	0x3e3cc1db	0.18433325
21	0x3f07c3e7	0.530333
22	0x3e81308e	0.25232357
23	0xbd9d84e4	-0.076913625
24	0x3d304a4f	0.043039616
25	0x3de07bc0	0.109611034
26	0xbd722a0b	-0.059122127
27	0xbdf537ad	-0.1197351
28	0x3c9626cc	0.018329047
29	0xbd85047d	-0.06494997
30	0xbd9660a8	-0.073426545
31	0x3c80c4f5	0.015718916
32	0x3d92edd4	0.07174268
33	0x3e5250a6	0.20538577
34	0x3d8ff505	0.07029156
35	0xbd38e2a4	-0.045138016
36	0x3e5c5043	0.21514992
37	0x3f18b116	0.5964521
38	0x3e89fb2d	0.26949444
39	0xbda8c56e	-0.08240782
40	0x3d9bf68a	0.07615383
41	0x3e2adf69	0.16686787
42	0xbd5f9954	-0.054589584
43	0xbdee7a5e	-0.116444334
44	0x3c1ce98e	0.009577168
45	0xbd2a4d66	-0.04157772
46	0xbd883bf9	-0.06652064
47	0x3c352092	0.011055129
48	0x3d618ac5	0.05506398
49	0x3e6f523b	0.23371212
50	0x3d6ba69e	0.057531945
51	0xbdf44c0a	-0.11928566
52	0x3e460685	0.19338425
53	0x3ef8b528	0.4857571
54	0x3e3196a6	0.17342624
55	0xbdf83ac2	-0.12120582
56	0x3da1ae4b	0.07894572
57	0x3e6eab34	0.23307496
58	0xbbe36fef	-0.0069408338
59	0xbe27a72d	-0.16372366
60	0xbd6b0123	-0.05737413
61	0x3aa0e2db	0.001227464
62	0xbdb21a20	-0.08696389
63	0xbe141626	-0.14461574
64	0x3d9c18ad	0.07621894
65	0x3e9c4a51	0.3052545
66	0x3e1587ad	0.14602537
67	0xbda851a4	-0.08218697
68	0x3e56621e	0.20935866
69	0x3f0f5721	0.55992323
70	0x3e8b6367	0.27224275
71	0xbd9acacd	-0.075582124
72	0x3db22ab0	0.08699548
73	0x3e94fd3b	0.2909945
74	0x3db4d694	0.0882999
75	0xbdece35a	-0.11566801
76	0xbd1e788d	-0.038689185
77	0x3d90cd17	0.07070368
78	0x3b9f9422	0.0048699537
79	0xbdcdef48	-0.10055405
80	0x3cc17e44	0.023619778
81	0x3e53899a	0.2065796
82	0x3d56111f	0.05226242
83	0xbdedfe23	-0.11620738
84	0x3db173bd	0.086646535
85	0x3ec784c7	0.3896849
86	0x3e2ab138	0.16669166
87	0xbdfc0c40	-0.12307024
88	0xbcb1db1d	-0.021710927
89	0x3e034d2a	0.12822405
90	0xbca430bc	-0.02004277
91	0xbe215c45	-0.15757854
92	0xbd928c19	-0.07155628
93	0xbc887c1e	-0.016660746
94	0xbdbafe56	-0.09130542
95	0xbe0ab741	-0.13546468
96	0x3c2fd328	0.010731496
97	0x3e310dd2	0.17290428
98	0x3ebe386b	0.37152418
99	0x3e563dda	0.20922032
100	0xbd22f974	-0.03978868
101	0x3e2e6b89	0.17033209
102	0x3ed24bd0	0.41073465
103	0x3e4e6f4f	0.20159648
104	0x3ced39f5	0.0289583
105	0x3e035700	0.12826157
106	0x3eb3bce3	0.35105047
107	0x3e7bd7d4	0.2459405
108	0xbd264cfe	-0.04060077
109	0xbe0a89db	-0.1352915
110	0x3c83bb5a	0.016080547
111	0x3dd9244e	0.10602628
112	0x3cfad9c4	0.030621417
113	0x3d064dfd	0.03278922
114	0x3e372a57	0.17887245
115	0x3e24909b	0.16070788
116	0xbdf9ebca	-0.12203176
117	0xbded335e	-0.11582063
118	0x3d845ee7	0.06463414
119	0x3d1f3988	0.038873225
120	0xbd9bb4a1	-0.076028116
121	0xbe34c31f	-0.17652558
122	0xbb9549da	-0.004555923
123	0x3daa5084	0.083161384
124	0xbd273662	-0.040823348
125	0xbe97a43e	-0.29617494
126	0xbe357ae0	-0.17722654
127	0x3d60ed3d	0.054913748
128	0x3d635ac2	0.055506475
129	0x3d5ffb17	0.054682817
130	0x3e4d9265	0.20075376
131	0x3e240299	0.16016616
132	0xbd1798f3	-0.037011098
133	0xbcffb025	-0.031211922
134	0x3c57cfff	0.013172149
135	0xbd0a8300	-0.033816338
136	0x3c5f1ba5	0.013617431
137	0xbdb349cb	-0.08754309
138	0xbd642a7b	-0.055704575
139	0x3c9d7c58	0.01922433
140	0xbc83095f	-0.01599568
141	0xbe941599	-0.28922728
142	0xbe1d77d5	-0.15377744
143	0x3da32bae	0.079673156
144	0x3cc481e4	0.023987718
145	0xbf8f660d	-1.1203018
146	0xbf80e4f8	-1.0069876
147	0x3d5c7344	0.053820863
148	0x3dd93241	0.10605288
149	0xbf99eb95	-1.2025019
150	0xbf9b10b5	-1.2114474
151	0x3d3d7ff0	0.04626459
152	0x3e407822	0.18795827
153	0xbdec9c21	-0.11553217
154	0xbe81394e	-0.25239033
155	0x3d5b0269	0.053469095
156	0x3dcd538c	0.10025701
157	0xbdaea888	-0.085282385
158	0xbe10407a	-0.14087096
159	0x3d480612	0.048833914
160	0x3d8b92cc	0.06815109
161	0xbf8c5773	-1.0964187
162	0xbf91263c	-1.1339793
163	0x3d4a3185	0.04936363
164	0x3e1516c3	0.14559464
165	0xbfa0d3d9	-1.2564651
166	0xbfaf26ee	-1.3683755
167	0x3d579619	0.05263338
168	0x3e2c10aa	0.16803232
169	0xbe1405ae	-0.14455292
170	0xbe85e5cb	-0.2615188
171	0x3d6e15b4	0.058126166
172	0x3dc05012	0.09390272
173	0xbdafdcd3	-0.08587041
174	0xbe103f71	-0.14086701
175	0x3d387593	0.045034003
176	0x3d4ab328	0.049487263
177	0xbf89000f	-1.0703143
178	0xbf863f82	-1.0488131
179	0x3d236933	0.039895248
180	0x3dcb066f	0.099133365
181	0xbfa165ea	-1.2609227
182	0xbfa445c2	-1.2833788
183	0x3d48ccc6	0.049023412
184	0x3e051e89	0.1299993
185	0xbe42cfea	-0.19024625
186	0xbe8df9fe	-0.2772979
187	0x3d4f7cb7	0.050656047
188	0x3db4ec49	0.0883413
189	0xbdd08ece	-0.10183488
190	0xbe28e993	-0.16495351
191	0x3cf6964a	0.03010096
192	0x3d5a3bee	0.05327981
193	0xbe60e100	-0.2196083
194	0xbc047671	-0.008084879
195	0x3c504f5c	0.012714233
196	0x3de09b6e	0.10967146
197	0xbf35756d	-0.708823
198	0xbcd68d0c	-0.026190303
199	0x3d090f2e	0.033461742
200	0x3d7a4b3f	0.061106917
201	0xbf1a1b29	-0.60197693
202	0x3c7969cf	0.015222981
203	0xbb439ae0	-0.0029846951
204	0x3c9984ea	0.018740136
205	0xbdba32a3	-0.090916894
206	0x3d865366	0.06558876
207	0xbbeccbb7	-0.007226433
208	0x3d804f4f	0.06265127
209	0xbe5c2947	-0.21500121
210	0x3c03019a	0.007995987
211	0x3c7ba13e	0.015358267
212	0x3ded6688	0.11591822
213	0xbf7a9ca6	-0.97895277
214	0xbd2a5a55	-0.041590054
215	0x3d039755	0.032126743
216	0x3d89070e	0.06690799
217	0xbf520fc1	-0.8205529
218	0x3b7e42c0	0.003879711
219	0xbb71ae88	-0.003687771
220	0x3ccf3601	0.025294306
221	0xbd17a081	-0.037018303
222	0x3da1fa08	0.07909018
223	0xbbd64ecc	-0.006540155
224	0x3d27a74f	0.040931042
225	0xbe5243de	-0.20533702
226	0x3977164f	0.00023564066
227	0x3c0c8baf	0.008578225
228	0x3da53d0a	0.08068283
229	0xbf67ab38	-0.90495634
230	0xbcb4527c	-0.022011988
231	0x3cb07303	0.021539217
232	0x3d352384	0.044223323
233	0xbf3e05b7	-0.7422747
234	0x3c169512	0.009190815
235	0xbc1d375e	-0.00959572
236	0x3c801053	0.015632784
237	0xbc970e6c	-0.018439494
238	0x3d733a48	0.059381753
239	0xbc12d3de	-0.008961646
240	0x3d23e2d8	0.040011257
241	0x3e29a20a	0.16565719
242	0x3e3b0a66	0.18265685
243	0x3d8ac83d	0.06776474
244	0x3e41c078	0.18921077
245	0x3efe76da	0.49700052
246	0x3f004777	0.50109047
247	0x3e558687	0.208521
248	0x3e743998	0.23850095
249	0x3f06d33f	0.52666086
250	0x3efbe594	0.49198592
251	0x3e77c253	0.24195223
252	0x3d80d914	0.06291404
253	0x3e3507d5	0.17678769
254	0x3e53ee87	0.2069646
255	0x3dc983a1	0.09839559

decoder.4.bias f4 [3]
0	0xbfa717e4	-1.3054166
1	0x3f0a99a8	0.5414071
2	0xbe42b58b	-0.19014566
