code/models weights/Lambda_speckle_50.pth (torch, 47544 bytes, 28 tensors)

embedding f4 [16, 1, 1, 23, 23]
00000000: c80c ccba fbe7 c5ba 500b 03bb 3384 11bb
00000010: 5817 f7ba 83d6 eeba 5c47 f8ba 3649 e4ba
00000020: 6616 eeba af06 f8ba 8a32 23bb 0828 8fbb
00000030: dfeb 57bb 2ddb 22bb 7945 64bb efcf 5bbb
00000040: ce65 53bb 3d37 7dbb 0931 5cbb d2b6 32bb
00000050: 73a0 41bb cc34 80bb 8bc5 6fbb 50e7 aaba
00000060: 749b 6dba ce58 c6ba e8c4 03bb 0240 eeba
00000070: 2e78 ccba 194d c5ba 7c74 9cba 5ebc afba
00000080: 8aed daba 66e7 fbba 1c57 84bb e20c 16bb
00000090: b086 06bb 47c4 25bb e0f2 3bbb e7a5 36bb
000000a0: c4a9 5bbb b579 48bb 19a0 32bb e0e3 3cbb
000000b0: d267 57bb cf11 55bb 12f8 e6ba df2f dfba
000000c0: c00b faba 668a 04bb bd1a ecba 3204 aeba
000000d0: b22d 92ba 0c7f 7fba 410b 59ba 5de8 e0ba
000000e0: 2eff dbba 656d 73bb 6aeb 1abb 4ce0 deba
000000f0: 386e 22bb 9f16 2ebb 7638 34bb 420c 3bbb
00000100: c300 5cbb 1ba2 36bb 6bcc 2cbb 58b1 52bb
00000110: e02d 53bb 0336 0dbb 5e44 03bb 71e3 12bb
00000120: fcf3 fbba 3c11 c4ba aad2 bfba 62e9 b2ba
00000130: e98c 32ba b93b 2838 99f1 3bba 406a d4ba
00000140: 1cc1 62bb 92cd 05bb fc4b b1ba 34ed 0ebb
00000150: f4ef 1fbb 44d1 0ebb 1c81 3fbb 1ab2 58bb
00000160: 98ee 3dbb 0efb 35bb d310 38bb 9ae6 33bb
00000170: f074 1fbb 2660 14bb fae8 deba 4418 00bb
00000180: 1cd0 efba dd2c d7ba 7537 dfba e4fd 3cba
00000190: 6137 9838 f8e2 04ba 4271 ceba 44e4 54bb
000001a0: 842c e8ba be86 9dba 6176 f0ba ca8a edba
000001b0: c67d f9ba 5a8c 28bb de2d 4ebb 674b 42bb
000001c0: 958e 33bb 5bd5 58bb 7595 4cbb 44f5 29bb
000001d0: 928d 1bbb 6a5c d3ba 952d 02bb e35b 0abb
000001e0: 187a e3ba 0eb1 cdba 1565 d9b9 6073 d5b7
000001f0: a5c9 eab9 aa3a bdba ef4f 49bb a175 04bb
00000200: f23e 10bb 1f1e 05bb 5912 f8ba 79b1 21bb
00000210: 6c8d 42bb 1796 6bbb 2d33 2bbb 403b 2fbb
00000220: ff2c 5ebb ff14 66bb adfb 33bb 01b4 00bb
00000230: 8787 88ba b756 05bb a15f cbba 0a22 ddba
00000240: 509a beba cc40 e2b9 47e3 dcb9 f382 9bba
00000250: 55df eaba 13b4 36bb 0440 04bb bafa 09bb
00000260: 9853 edba ba3d bdba 4ff8 0cbb de39 2fbb
00000270: 0122 3cbb 27cd 1bbb 5952 1abb e396 41bb
00000280: 3208 65bb 4378 05bb 2131 eeba 1612 94ba
00000290: 7f02 efba 7975 ddba 0dc2 fdba 33c4 0fbb
000002a0: 5963 9cba 038c 9fba 1c43 b1ba f1e4 e7ba
000002b0: 0f5a 12bb a92a e3ba 7f75 bbba bc95 05bb
000002c0: 430a efba 5161 c6ba 52ba feba 08ff 0cbb
000002d0: 76e2 f1ba 26f8 cdba 220c 1bbb 533f 49bb
000002e0: c0e1 d9ba 5dc5 bfba 1d61 aeba 0220 dbba
000002f0: 6c60 dfba b7ab b7ba 3945 06bb a379 eeba
00000300: 2357 02bb 4c29 f1ba 3636 07bb 9a18 9dba
00000310: 4239 bcba dc86 9cba 9cce 05bb 32c7 e9ba
00000320: afdf b1ba 7757 feba 7881 08bb 09c6 b7ba
00000330: 9ec5 afba ff88 04bb b317 06bb 070b 93ba
00000340: ebc2 b7ba 48db e7ba b62d 9bba 0290 c5ba
00000350: 415a ddba 3608 03bb 293b 00bb 7841 dcba
00000360: f9a9 f2ba 4d6c 46bb 2e08 21bb c288 1ebb
00000370: 7efa b2ba 83c5 edba f7a5 ccba 68f8 8eba
00000380: 1fbe f4ba 8dff fbba c8c5 54ba 0d98 86ba
00000390: 95ce b4ba ba71 18bb 0597 b9ba f103 aaba
000003a0: 0ae8 80ba 81df a9ba d496 ecba a260 04bb
000003b0: a743 00bb 4177 cdba a171 bdba c243 10bb
000003c0: d283 70bb b1ba bfb9 1e67 58bb d53b dbba
000003d0: 3dd8 baba eca0 a9ba acf2 a9ba 4570 caba
000003e0: 5c59 ebba e019 88ba 0a0c a2ba 2b35 e8ba
000003f0: 0bb9 2cbb 30e4 2fbb e2fe 1fbb 6f49 17bb
-0.0015567774 -0.0015099043 -0.0019995756 -0.002220404 -0.0018851561 -0.0018221888 -0.0018942165 -0.0017416838
-0.0018164634 -0.001892289 -0.002490195 -0.004368786 -0.0032946987 -0.0024849877 -0.0034831448 -0.0033540686
-0.0032256725 -0.003863766 -0.0033598563 -0.0027269614 -0.0029545098 -0.003912544 -0.003658625 -0.0013038907
-0.0009063997 -0.0015132667 -0.002010638 -0.0018177035 -0.0015599781 -0.0015052884 -0.001193657 -0.0013407578
-0.0016702872 -0.0019218742 -0.0040387046 -0.0022895862 -0.0020527057 -0.0025293992 -0.00286787 -0.0027869882
-0.0033517936 -0.0030590121 -0.002725607 -0.0028822348 -0.0032868278 -0.0032511835 -0.0017621538 -0.0017027817
-0.0019076988 -0.0020224093 -0.001801334 -0.0013276397 -0.0011152534 -0.00097464095 -0.000827957 -0.0017159093
-0.0016784423 -0.0037144062 -0.0023638853 -0.0017004102 -0.0024784934 -0.0026563776 -0.0027499474 -0.0028541242
-0.003356979 -0.0027867618 -0.002636696 -0.0032149162 -0.0032223389 -0.0021547086 -0.0020029764 -0.0022413398
-0.0019222493 -0.001495875 -0.0014634926 -0.0013649876 -0.00068111584 4.0109942e-05 -0.0007169485 -0.0016205981
-0.0034599965 -0.002041672 -0.0013526673 -0.0021808865 -0.0024404498 -0.0021792213 -0.0029221242 -0.0033065141
-0.0028981324 -0.0027768048 -0.00280862 -0.0027450682 -0.0024331175 -0.0022640317 -0.0017006688 -0.0019545713
-0.0018296274 -0.0016416569 -0.0017030077 -0.00072094635 7.25824e-05 -0.00050692214 -0.0015750306 -0.003248469
-0.0017713462 -0.0012018306 -0.0018345827 -0.0018123027 -0.0019034676 -0.0025718422 -0.0031460444 -0.0029646994
-0.0027398218 -0.0033086154 -0.0031217013 -0.0025933543 -0.0023735506 -0.0016125564 -0.0019863595 -0.0021111898
-0.0017355112 -0.0015693025 -0.00041464777 -2.5445304e-05 -0.00044782195 -0.0014437039 -0.003071781 -0.0020211714
-0.0022010175 -0.0020312143 -0.0018926366 -0.0024672432 -0.0029686345 -0.0035947615 -0.0026123032 -0.0026738197
-0.0033901331 -0.003510773 -0.0027463243 -0.001963854 -0.0010416367 -0.0020345876 -0.001551617 -0.0016871106
-0.0014541838 -0.00043154357 -0.00042131005 -0.0011864587 -0.0017919341 -0.0027878329 -0.0020179758 -0.0021053986
-0.0018106578 -0.0014437952 -0.0021510308 -0.0026737372 -0.0028706791 -0.0023773403 -0.0023547618 -0.0029539398
-0.0034947512 -0.002036587 -0.00181726 -0.0011296894 -0.0018234997 -0.0016895971 -0.00193602 -0.0021937012
-0.0011931463 -0.0012172464 -0.0013524028 -0.0017692131 -0.002233151 -0.0017331439 -0.0014301984 -0.0020383438
-0.0018237311 -0.0015135204 -0.001943419 -0.0021514315 -0.0018454331 -0.0015714213 -0.0023658355 -0.003070791
-0.0016623065 -0.0014630962 -0.0013304088 -0.0016717913 -0.0017042286 -0.0014012967 -0.0020488037 -0.001819421
-0.0019888363 -0.0018399148 -0.0020631677 -0.0011985481 -0.0014360326 -0.0011942047 -0.0020417338 -0.0017835854
-0.0013570691 -0.0019404729 -0.0020829123 -0.0014020811 -0.0013410335 -0.0020223258 -0.0020460903 -0.0011218496
-0.0014019882 -0.0017689252 -0.0011839184 -0.0015072825 -0.001688786 -0.0019993908 -0.0019566512 -0.0016804179
-0.001851379 -0.0030276955 -0.0024571526 -0.00241904 -0.0013654975 -0.0018140528 -0.0015613426 -0.0010907771
-0.0018672383 -0.001922594 -0.000811663 -0.0010268703 -0.0013794476 -0.0023261146 -0.0014159387 -0.0012971145
-0.0009834778 -0.0012960286 -0.0018050321 -0.00201992 -0.0019571574 -0.0015675799 -0.001445342 -0.0022013043
-0.0036699665 -0.00036569455 -0.0033020447 -0.0016726205 -0.0014255118 -0.0012941635 -0.0012965999 -0.0015444836
-0.0017955708 -0.0010383688 -0.0012363207 -0.0017716041 -0.0026355411 -0.0026838891 -0.0024413397 -0.0023084541

queries.0.weight f4 [64, 3, 1, 1]
00000000: f21f 0abb ad07 f33a a6c3 76b8 37ce 373d
00000010: 1a62 513d b424 dc3b cb59 a43b 24ce 343c
00000020: 0bf1 003c 52fb 9ebc 0765 a1bd de75 95bd
00000030: ba53 643c 54af 5e3d cd49 8d3c eebf f43c
00000040: 4240 4e3d 00e5 cdbc b74d 153b cfef 29bd
00000050: acaa b9bb c99c 063d ff22 e73c 1869 bb3c
00000060: 5bf0 8fbc d97b 17bd ac0e 1abd b6db 86bd
00000070: 0b72 80bd 9643 98bb 69b1 583a 4483 2e3b
00000080: 5c5c 17ba c18c 41bb 0e75 d43b 606c 13bd
00000090: 3731 cd3c 70af da3c fa15 e73c ea1a bcbc
000000a0: 0211 afbc c128 23bb 8870 bdbb 1790 a93c
000000b0: 8c19 133d 757b 083c f02b 9c3c 17cb 433d
000000c0: d539 833a 2fbc 06ba a7d6 6cb9 9157 e93c
000000d0: 2ad2 8e3d 5e7d 643b f9ea 233d b793 2ebd
000000e0: 2bea d63c 57c1 40bd dc63 9ebd 0cb8 71bd
000000f0: 2a10 e33b b6b1 1bbd 3f94 b23d 6ecb 233d
00000100: 32de 453d 75d8 9c3d f614 9cbd 9642 f13d
00000110: 6fbe 5ebc f0cf 533c ad28 c4bc 3465 323c
00000120: 100f 553c de40 bc3d 6b6b 4bbb 6553 8bbd
00000130: ba63 c5bd 1b54 edbd 4f63 853d 4621 a9bd
00000140: 9cd7 3e3d 21e8 313d be4c 7ebd 15c3 323d
00000150: 4ca7 16bd c62f a03d bed6 c13b 75f9 73bd
00000160: 8cf1 b43d e548 93bd 158a 8c3d 6402 9bbc
00000170: 9dde 6c3c 209c 1bbd ad5d 823d 40be 56bd
00000180: a009 f2bb 74f6 8abc e579 e63b bac8 8f3c
00000190: 7f05 a03d bb98 3a3d fdee d63b 3280 24bd
000001a0: f414 463d b5a5 74bd 8d39 a4bd 2dcd 17bd
000001b0: 6d89 b43d 8d67 00bd 96de b43c 0627 7bbc
000001c0: 2d2e a2bd f176 30bd 9c73 b2bd cf72 033e
000001d0: 21ee 99bd 4624 12bd 3239 eabc 7010 f7bc
000001e0: feb5 853d dab8 b73d e768 223d 257f a5bd
000001f0: 6f92 89bd f135 8bbd 04d9 343d d2bd 91bd
00000200: eb30 7e3d 931c e93c 4bd8 2ebd 1131 153d
00000210: 24cc debc 306d 6a3d 760c cd3c 3689 4cbc
00000220: 3400 e53d cccb 89bd e527 ff3c 098e 86bb
00000230: 12dc 423d fb9a 5cbd ad28 143d a648 eebc
00000240: 422c 3bbc c13a 83bc fc32 64bc 5ae7 8b3d
00000250: 3c44 2b3c 73ae b93c e2fb 7ebb c39b 113c
00000260: 9874 25b9 bdc6 ebbb 11ae 9bbd eb85 39bd
00000270: 62e7 d2bd b5e8 8c3c d87e 813d 061a 583c
00000280: 6b6f 823d 4734 7d3d 7f61 013b f0ae ae3d
00000290: 70b9 bc3c 59ce c53b 3747 133d 5b41 4c3d
000002a0: 5673 9dbc 5ff2 44bd 8491 8ebd 2877 58bd
000002b0: 6fd5 93bd fabb 88bd b62f 3a3d 6ff4 8ebd
000002c0: fea8 52bc 53dd 3b3a b0fe 2cbb b7db 2e3a
000002d0: a7fc 16ba 509c 41ba 05be 9f39 8e08 40bd
000002e0: a6c5 6ebc 6f83 63bd 82ab 443d 628a f0bc
000002f0: c108 213c e6f5 993c dd57 5e3d 4cef a6ba
-0.002107617 0.0018541716 -5.8833182e-05 0.044874396 0.051118948 0.0067182425 0.005015587 0.011035476
0.007869969 -0.019406948 -0.078805976 -0.07297872 0.013935978 0.054366425 0.017247105 0.029876675
0.05035425 -0.02513361 0.0022781917 -0.041488465 -0.0056660976 0.032864366 0.02821493 0.022877261
-0.017570665 -0.036983345 -0.03761165 -0.06584875 -0.06271752 -0.0046467287 0.0008266182 0.0026628533
-0.00057739555 -0.0029533359 0.0064836806 -0.035992026 0.025047882 0.026694983 0.028208721 -0.022962052
-0.021370415 -0.0024896117 -0.005781237 0.02069859 0.035913035 0.008330216 0.01906392 0.047801103
0.0010011742 -0.0005139736 -0.00022586678 0.028484138 0.06973679 0.0034864764 0.04001901 -0.04262134
0.026234707 -0.047059383 -0.077338904 -0.05901341 0.006929417 -0.038011275 0.08719682 0.039988928
0.048307605 0.076584734 -0.076211855 0.117802784 -0.013595208 0.012927994 -0.023945177 0.0108883865
0.013004079 0.0919206 -0.0031039368 -0.068030156 -0.09638162 -0.115883075 0.06513082 -0.082582995
0.04659234 0.043434266 -0.062084906 0.043643076 -0.03678064 0.07821612 0.005915492 -0.059564073
0.08835134 -0.07191638 0.068622746 -0.018922038 0.014457372 -0.03799069 0.063655235 -0.05242753
-0.0073864013 -0.016963221 0.007033574 0.017551769 0.07813548 0.04555581 0.0065592513 -0.04016132
0.048359826 -0.059728343 -0.080187894 -0.037060905 0.088152744 -0.031348754 0.022078793 -0.015329128
-0.079189636 -0.04308218 -0.08713457 0.12836765 -0.075161226 -0.035679124 -0.028591726 -0.030159205
0.06528853 0.089708045 0.039650824 -0.080808915 -0.06717383 -0.06797398 0.044152275 -0.071162835
0.06205837 0.028456008 -0.04268674 0.036423746 -0.027196951 0.057233036 0.025030356 -0.0124838855
0.11181679 -0.06728324 0.031146953 -0.0041062874 0.047573157 -0.05385874 0.036171604 -0.029087376
-0.011424126 -0.016019227 -0.013928171 0.06831236 0.01045328 0.022666192 -0.0038907458 0.008887234
-0.00015779061 -0.0071953223 -0.0760156 -0.04529373 -0.10298039 0.017200807 0.06323022 0.013189798
0.063689075 0.061817434 0.001974195 0.085294604 0.023037642 0.0060365614 0.035956588 0.049867015
-0.019220036 -0.048082706 -0.06961349 -0.05284801 -0.072184436 -0.06676479 0.045455657 -0.06980216
-0.012857674 0.0007166464 -0.0026396923 0.00066703133 -0.0005759694 -0.0007385658 0.0003046842 -0.04688316
-0.01457349 -0.055545267 0.048015125 -0.029362861 0.009828747 0.018794011 0.05428301 -0.0012736111

queries.1.weight f4 [64]
00000000: 0076 dcb9 5c3b c13d e744 8f3b ba62 773e
00000010: cf81 e93d 05ec 7c3d 3b99 0b3d 478d ef3d
00000020: 07bb 863d 30c8 2f3e 6d43 98ba 85a1 b13c
00000030: 12ff 6f3d dca8 0f3d ad94 373d 6b93 ee3d
00000040: df26 52b8 21cf 983d 508e 3e3c 5a71 553e
00000050: 4efe 073e 7823 f53e efce 023e a3d9 583a
00000060: ee66 e13d c44d 153f 0f32 1d3e 4fb0 1a3d
00000070: 3fba 193d 12fd df3d 4e2d a33d 9aac 913d
00000080: aaad 8138 42ce 663e 70b7 cb3c 4b6f 3f3e
00000090: 39f7 4f3e cdf2 943e 0a8a d63d 8f1a 083e
000000a0: e5f1 ec3e 7c5d cf3e 136d 1b3e db69 153d
000000b0: d1a8 8a3d 5fa6 dd3d ee00 b13d f019 da3d
000000c0: c78a 32bb 4626 8f3d d4aa b33a 655d f43d
000000d0: 42d7 743d 1034 9b3e 8200 223e 348a 113e
000000e0: 6bf5 073e d0b2 683e 931c b53d c47c b039
000000f0: c93e 4bb9 1b15 2b3e 7777 e13c d612 ed3d
-0.00042049587 0.0943515 0.0043722275 0.24158755 0.11401712 0.061748523 0.03408168 0.116968684
0.065786414 0.17166209 -0.0011616774 0.021683464 0.058592863 0.035073146 0.044819523 0.116492115
-5.0104103e-05 0.07461382 0.01163061 0.20844021 0.13280603 0.47878623 0.12774251 0.00082721765
0.110059604 0.58321786 0.15351127 0.037765797 0.037531134 0.10936941 0.079676256 0.07112999
6.183547e-05 0.22539619 0.024867743 0.18694799 0.20309152 0.29091492 0.104755476 0.13291381
0.462783 0.4050101 0.15178327 0.036477905 0.067704804 0.108227484 0.086427554 0.106494784
-0.0027243362 0.06989722 0.0013707527 0.11931876 0.0597756 0.30313158 0.15820506 0.14212877
0.13277213 0.22724462 0.08843341 0.00033662294 -0.00019382978 0.1670727 0.027522786 0.11575858

queries.1.bias f4 [64]
00000000: af73 053b bdb0 6b3d 97d4 d03b 099a 5fbe
00000010: 934f 143e c3c6 fe3c 990f a93d 3369 a3bd
00000020: d00a 8ebe 4076 b13b a6ff 283e eac0 803d
00000030: 1dca 61bc 6475 9abd 8826 3d3e 507f abbd
00000040: ece2 93bb 8c96 2c3e 0869 5fbc c257 253e
00000050: bb85 b13d a355 853e 5fbe 8f3c 736b 4abe
00000060: d41f cf3d 617c abbe c631 aebb 8536 41bc
00000070: 36a8 3a3d 1a1f e8bc 2f69 c53d 760a 13be
00000080: d570 dcba 08ca e5bd b184 22bc 2bbb 07be
00000090: e021 2f3d 2c5b 5e3d 054b b53d f577 23be
000000a0: 0cb1 0ebe 2e5b a83e 2814 393d d6e4 3739
000000b0: 0d56 013d 362d 32bd a2c1 c53d 29a0 30be
000000c0: 2862 ddba 788f 98be 6656 38bb 91c9 c93e
000000d0: e6fb 7ebd f90d 31bc 42b4 6d3e 0a82 4fbc
000000e0: c398 5ebe 25f7 813e a808 80bd b9ff fdbc
000000f0: 92b8 963b 03df b33d 430a 41bd 5efb 9aba
0.0020363142 0.057541598 0.006372999 -0.21836103 0.1448348 0.031100636 0.08254928 -0.079790495
-0.27742624 0.005415708 0.16503772 0.062867954 -0.013781098 -0.07541922 0.1847173 -0.08373892
-0.004513135 0.16854304 -0.013635881 0.16146758 0.08668085 0.26041898 0.01754683 -0.19767551
0.101134926 -0.3349333 -0.005315992 -0.011792784 0.045570575 -0.028335143 0.09639203 -0.1435946
-0.0016818295 -0.11220175 -0.009919331 -0.13254993 0.042756915 0.054286167 0.088521995 -0.15963729
-0.13934726 0.32882065 0.045185238 0.00017537488 0.031576205 -0.043500148 0.09656073 -0.17248596
-0.0016890215 -0.29796958 -0.002812767 0.39411595 -0.062251948 -0.010806554 0.23213294 -0.012665281
-0.21737961 0.2538387 -0.06251651 -0.031005727 0.004599639 0.087827705 -0.047128927 -0.0011824181

queries.1.running_mean f4 [64]
00000000: 498e 16ba f2cf 353d 0253 2a3c 3b9f 92bd
00000010: 371e 163d 1c86 c73c 0c39 9abc 9b92 143d
00000020: ad72 1ebd 32d8 6dbd 9c52 463a dde6 42bc
00000030: f003 0b3d f4e9 a6bc 47e2 af3c cf36 003d
00000040: 8783 973a 2ff3 353d 353b 1f3c f393 9fbd
00000050: 28fc ae3c 9995 8c3d 4460 3c3c 738d c7b9
00000060: a680 373d 6c39 f1bd 83fa 403c d990 1e3c
00000070: 9212 a53c c716 86bc 5ccb de3c 3752 22bc
00000080: 8a30 0abc a463 743d 7f49 893b 7d81 9bbd
00000090: ce64 0c3d 3f7d 6ebd 13dd 53bc 334a 25bd
000000a0: c601 ab3d 4353 bcbd 2535 463c 1806 033c
000000b0: 1ad6 b63c 5867 813c 85e9 fb3c 94cd a9bc
000000c0: 4010 92bc a5a7 323d c52b ea3a 55b4 5bbd
000000d0: 4027 55bc dc2b 6e3d 12fe 3f3d 12f1 1b3d
000000e0: 4846 69bd 997a a6bd cee7 6cbc 7c4d 0dba
000000f0: 8da7 9db9 f4f5 48bd 3bbb 4b3c e522 013d
-0.0005743248 0.044387765 0.010395767 -0.07159277 0.03664991 0.02435594 -0.01882603 0.036272626
-0.038683582 -0.058067508 0.00075654103 -0.011895862 0.033939302 -0.02037523 0.021470202 0.03130227
0.0011559584 0.04442137 0.009718706 -0.07791891 0.021360472 0.06864471 0.011497561 -0.00038061626
0.044800423 -0.117785305 0.011778477 0.009678089 0.020150457 -0.016368283 0.027196579 -0.009907297
-0.008434424 0.059665337 0.0041896696 -0.07593057 0.034275822 -0.058224913 -0.012931126 -0.040353965
0.08349948 -0.091955684 0.012097632 0.007997058 0.022318888 0.015796348 0.030751 -0.02072791
-0.017830014 0.04361691 0.0017865828 -0.053638775 -0.013009846 0.058147296 0.04687316 0.0380717
-0.05695179 -0.081288524 -0.014459563 -0.0005390269 -0.0003007021 -0.049062684 0.012434776 0.03152742

queries.1.running_var f4 [64]
00000000: 9d96 e734 ef85 623a f39a 4938 acac 1a3b
00000010: 9134 1f3a b4e0 a739 71ff 3d39 5096 153a
00000020: 71d7 303a f376 c23a 792a 1335 7353 ce38
00000030: b520 043a 918b 3e39 d652 7d39 527b f739
00000040: ddcb 6e35 6fb5 693a 0fb2 0c39 951c 2f3b
00000050: 2cb8 e839 be48 0b3b 955b 0f3a 6175 ab37
00000060: 1d03 803a 899c ca3b 7920 c039 9818 6439
00000070: 2a74 ba39 fc76 023a 65cb d639 8118 7639
00000080: f0a2 1938 2dd5 d43a e343 e738 4c53 243b
00000090: b8b5 2f3a e144 cb3a 93b1 483a b5fc 393a
000000a0: 76e5 463b 65fe 703b a790 a639 6b28 fb38
000000b0: 5983 ae39 2e99 013a acff f139 3bca 9539
000000c0: c792 1239 b57d 603a cc3c 7f36 baad b03a
000000d0: dc0d 073a e354 cd3a 08d5 8a3a dfd8 353a
000000e0: 9852 c53a c745 3e3b 55da 9039 b4a1 bb34
000000f0: 505d 7733 a516 8e3a 6924 1239 1226 f039
4.3136689e-07 0.00086411735 4.8066442e-05 0.0023601456 0.00060732017 0.0003202014 0.00018119604 0.0005706297
0.00067459705 0.0014836475 5.4823573e-07 9.838389e-05 0.0005040274 0.00018171805 0.00024158819 0.00047203392
8.895857e-07 0.00089152803 0.00013417772 0.0026719917 0.00044387707 0.0021253075 0.0005468664 2.0439447e-05
0.0009766553 0.006183211 0.00036645288 0.00021752936 0.00035563234 0.00049768365 0.00040968801 0.00023469517
3.662979e-05 0.0016237848 0.00011027583 0.0025074063 0.00067027984 0.0015508198 0.0007655855 0.0007094846
0.0030349172 0.0036772725 0.00031769762 0.00011976141 0.00033285728 0.0004943785 0.00046157592 0.00028570168
0.00013978324 0.00085636537 3.803335e-06 0.0013479509 0.00051519065 0.0015665557 0.0010592053 0.00069369184
0.0015054522 0.002903329 0.0002762849 3.494912e-07 5.7594036e-08 0.0010840489 0.00013937209 0.00045804732

keys.0.weight f4 [16, 3, 1, 1]
00000000: db16 9f3a 1bd9 b23a e6ad 5e39 0ae7 9b3d
00000010: d0bf c63c 2dcb 44bd b8c3 da3c 88dc 3d3c
00000020: 2b63 b0bb d86f 2dbd a7ce 37bc bec9 3bbd
00000030: e55a 80be 82e0 493b 6afd 413e 6604 233f
00000040: b6e4 7a3f 2bce 643f b797 37bd 0d77 ec3d
00000050: cb01 a43d d44a b43d 952c 173e 9c0e 0a3e
00000060: af33 37be 8754 8dbe 308e 63be 86e0 de3d
00000070: 7d5a 0bbe de38 59bd 337f 923d be17 82bd
00000080: 57d9 74bd 5de5 ab3b a345 34bb 8502 06bc
00000090: 956a f23c d490 ac3b 8742 49bc 96e5 efbd
000000a0: 8712 cfbd 5ee7 8ebd d03b 823d fbdc 6c3c
000000b0: 8dcc c5bc 158e f53d 727a 0d3e b114 623d
0.0012137549 0.0013645025 0.00021236352 0.076124266 0.024261385 -0.048045326 0.026704654 0.011588223
-0.0053829155 -0.04234299 -0.011218703 -0.045846693 -0.25069347 0.0030803983 0.18944326 0.63678586
0.98005235 0.8937709 -0.04482242 0.11546145 0.080081545 0.08803335 0.147631 0.13482136
-0.1789081 -0.27603552 -0.22222209 0.10882668 -0.13608737 -0.05303275 0.071531676 -0.06352185
-0.059777584 0.005245848 -0.0027507327 -0.008179312 0.029591838 0.0052662883 -0.012283928 -0.11713712
-0.10110956 -0.069777235 0.063590646 0.014456983 -0.024145389 0.119899906 0.1381624 0.055195514

values.0.weight f4 [4, 3, 1, 1]
00000000: 608a 833e a68e c8bd 2d92 47bd fb91 6c3b
00000010: 4241 11be d703 9e3e 0943 6fbe 4ca3 1ebe
00000020: e6ef 273e 2988 393c 551b 4dbe dec3 e0bb
0.2569151 -0.09792833 -0.04872339 0.0036097753 -0.1418505 0.30862305 -0.23365416 -0.1549198
0.16400108 0.011323967 -0.20029958 -0.0068592867

values.1.weight f4 [4]
00000000: 54b3 f93e 31a4 ff3e 27e4 013f 171f 103f
0.4876963 0.49929956 0.5073876 0.5629744

values.1.bias f4 [4]
00000000: 6e11 a6be cc84 093d cc13 46be 7e10 c53e
-0.32435173 0.03357391 -0.1934349 0.38489145

values.1.running_mean f4 [4]
00000000: 06f8 533d 36ed 813d 35d3 d7bd 8001 aebd
0.051750205 0.063440725 -0.105383314 -0.0849638

values.1.running_var f4 [4]
00000000: 6461 4c3b d4b2 a23b f0c4 e23b f448 783b
0.003118598 0.0049651656 0.0069204494 0.003788528

conv.0.weight f4 [8, 16, 1, 1]
00000000: 73c0 9ebd b79c f13c 4037 6abe 0713 903d
00000010: 7088 eb3d 525b 5e3d 73fa 6e3d 1a45 9fbe
00000020: e9b2 38bd cead 1a3c e12c 1fbd 0a65 dc3d
00000030: 3eb1 06bd ce5a 75bd 3c04 bdbc 9cc4 3d3e
00000040: c93f 17be 41d6 20bd c774 0ebe e186 5c3e
00000050: d792 ee3d 16b1 a6bb 2da6 cb3d 89fc 18be
00000060: 7ac4 12bd b22a 943a 6363 14bc 6e2a 363d
00000070: 5504 223c 0d29 02bc 2fa0 0fbd 37f9 e2bc
00000080: e422 87bc 6870 b53d 6d4e 44bc ad36 0cbd
00000090: e4fd c83d a91e b23d eef6 173e f83c 63be
000000a0: 67f1 bc3c 13d3 d1bd 8353 26bc 2753 703d
000000b0: 6865 4c3c 5236 2b3b b377 333e 9cab e3ba
000000c0: 3cfa 1ebd 14dd a6bd 5eea f13d 502b f0bc
000000d0: 0b82 11be 0b4c a6bd a3ec 383d cc3e 513e
000000e0: 5c9c 8e3c c678 c53c 89e4 7abd 2905 8c3d
000000f0: 2026 27be 795f 763d b03a 37be 02c8 26be
00000100: 10c1 05bc effb a2ba 21ff 8d3d 864f 063c
00000110: d32b 753e 3c0c 88bd 1164 873e 2255 a1be
00000120: 84c1 243d 958d d9bc 3fc8 fc3b b60d 16bc
00000130: 0b62 c1bd 4a60 8f3c 7779 f3bd f974 093e
00000140: 9102 c2bd 8216 093e 229e 22be 5b07 2c3d
00000150: 68b5 8b3d fb49 d3bd 75cc 733d cdc7 12bd
00000160: 4072 4ebd c948 bd3d 9ebb 3dbd ad71 593b
00000170: 4be1 a13c e52b 483c 1513 ba3d db02 9fbb
00000180: 39df b13d 47b6 fc39 f94b 1c3e 67c2 73bd
00000190: 1996 223d 195a 84ba c777 2dbd cfe2 253c
000001a0: 8fd6 49bd 4b65 3d3d 1233 5d3d 41a6 45bd
000001b0: 8810 6a3e 9abe 42be f6fb b03d 864b cfbc
000001c0: 7d77 913d 9bae df3d 5850 f0bc e368 51be
000001d0: 61e0 953d e7fb da3c 04b6 633d 02c9 f2bd
000001e0: 7954 043c eed4 84bc c1ad 753d 35b8 c83c
000001f0: ee37 1e3c 32ce e0bd ef69 e63d e690 883d
-0.077515505 0.029493673 -0.22872639 0.07034879 0.11500633 0.05428631 0.058344316 -0.31107408
-0.045092497 0.009440852 -0.03886116 0.10761459 -0.032883875 -0.05990105 -0.023073308 0.18532032
-0.14770426 -0.03926683 -0.13911735 0.21535827 0.11649101 -0.0050870283 0.09943805 -0.14940085
-0.035831906 0.0011304228 -0.009056899 0.044474058 0.009888728 -0.007944358 -0.035064872 -0.027706726
-0.01649613 0.088593304 -0.011981589 -0.03423183 0.09814051 0.08697254 0.1484029 -0.22191226
0.023064328 -0.10245337 -0.010151747 0.05867305 0.012475349 0.0026124907 0.1752613 -0.0017369869
-0.03881286 -0.08147636 0.1181228 -0.029317528 -0.14209764 -0.08119973 0.04514755 0.20434111
0.017408542 0.02410544 -0.061253104 0.06836922 -0.16323137 0.060149644 -0.17893481 -0.16287234
-0.0081637055 -0.0012434701 0.069334276 0.008197671 0.23942499 -0.066429585 0.26443532 -0.31510264
0.040223613 -0.02655677 0.007714301 -0.009158542 -0.09442528 0.017501969 -0.11888402 0.13423528
-0.09473146 0.13387492 -0.15880635 0.041999202 0.0682171 -0.10316845 0.059521157 -0.035835076
-0.050401926 0.09242398 -0.046321504 0.0033179328 0.019760748 0.0122174965 0.09085671 -0.0048526353
0.086851545 0.00048200993 0.15263356 -0.05951157 0.039693926 -0.0010097652 -0.042350557 0.010124876
-0.049276885 0.04623918 0.054003783 -0.048254255 0.22857869 -0.19018021 0.08641808 -0.025304567
0.07102869 0.10921975 -0.029335186 -0.20450167 0.073181875 0.026731445 0.055593506 -0.118547454
0.0080767805 -0.016214814 0.059980158 0.0245019 0.009656889 -0.10976829 0.11250674 0.06668262

conv.1.weight f4 [8]
00000000: 006b eb3e f602 8f3e 18a6 af3e dbd3 643e
00000010: 9cb5 343f de20 a33e cd34 093e e4fa 933e
0.45980072 0.27931947 0.34306407 0.22346441 0.70589614 0.31861013 0.13399048 0.28902352

conv.1.bias f4 [8]
00000000: f26a c03d e8a9 d8be 169c a3be 2c98 103e
00000010: 9251 5cbf 7c8d 4bbe 8598 b83c 24c2 05be
0.09395398 -0.42317128 -0.31955022 0.14120549 -0.86061966 -0.19878191 0.022533664 -0.1306234

conv.1.running_mean f4 [8]
00000000: 4f03 9ebe 0df5 99be 6934 51be 91e4 aabc
00000010: f768 a2be aed4 32be 4707 e13d 6792 40bd
-0.308619 -0.3006977 -0.20430149 -0.020860942 -0.31720707 -0.17463943 0.10987716 -0.04701462

conv.1.running_var f4 [8]
00000000: f2bd 8d3d aac0 4f3c 8cbc 353c 58e7 183d
00000010: dd95 023d b6c6 0b3d 449f ea3b 4061 bd3b
0.06920995 0.012680212 0.011092316 0.03733 0.031881202 0.034125052 0.007160099 0.0057794154

conv.3.weight f4 [3, 8, 1, 1]
00000000: e6e4 ab3d 41e1 833e 048a 85bc 354e d93d
00000010: d56b c1be e088 043d 0303 ba3d f925 8f3d
00000020: 222d 9e3d d157 803e 4e0c 853c 150b b93d
00000030: 3df7 a7be bd50 d2bc 4b84 6b3d 4507 843d
00000040: 7e74 6c3d 801f 3f3e 7954 153e db97 b93c
00000050: e1f4 9cbe ae83 72be f23d 803d 1c56 8a3d
0.08393268 0.25757793 -0.016301163 0.1061062 -0.37777582 0.032357097 0.09082606 0.069896646
0.07723452 0.25067 0.016241219 0.09035317 -0.32805815 -0.025673265 0.05749921 0.06446699
0.057728283 0.1866436 0.14583005 0.022655418 -0.30655578 -0.23683044 0.06261815 0.06754705

conv.4.weight f4 [3]
00000000: a756 773f 15c5 803f a41f 863f
0.96616596 1.0060145 1.0478406

conv.4.bias f4 [3]
00000000: a363 89be aff3 97be 36d4 bfbe
-0.2683383 -0.29678103 -0.37466592

conv.4.running_mean f4 [3]
00000000: 7baa cd3c 2359 a83c a415 c03a
0.025105705 0.020550316 0.0014654887

conv.4.running_var f4 [3]
00000000: b288 e53b cd1b cd3b 8ccd 093c
0.0070048207 0.0062594176 0.008410823

shortcut.0.weight f4 [3, 16, 1, 1]
00000000: 751a 113d 93d8 babc cf5a 083d b5d5 ef3d
00000010: 69e0 463e 44b5 913d 2126 1bbe 9fc4 583d
00000020: 6b4f 2ebe 370a cdbd 55e5 0a3e 7d39 293c
00000030: dab5 e83d c72c 09bd 7bad 993d e4b8 3a3e
00000040: 24c4 bdbd 504e fabd b384 163d d8e8 a7bc
00000050: 98f9 58bd a89e 9dbc e339 c6bd c443 18be
00000060: 5553 0f3e 9997 013d 787c dc3d 359d 8b3e
00000070: 2f8a c7bd 3896 1cbe 3cb8 953d 73a1 59bc
00000080: 6867 00bb cdf8 99bd a45c cb3d 1422 d23d
00000090: a89f 5cbd 263e 6d3e facc af3b b511 ae3c
000000a0: a4d1 863c 3d7e 81be 6e1e 99bd 0f0d 223e
000000b0: 0d79 5bbd 00c5 843d a41f f73d ce78 823d
0.035425622 -0.022808349 0.033289727 0.11710683 0.19421543 0.07114652 -0.15151264 0.052921887
-0.17022483 -0.10011714 0.13564046 0.010328648 0.113628104 -0.03348997 0.07503792 0.18234593
-0.092659265 -0.12221968 0.036747646 -0.02049677 -0.052972406 -0.019240692 -0.0967901 -0.148696
0.13996632 0.031638715 0.10765928 0.27268377 -0.09743153 -0.15291679 0.073105305 -0.013283121
-0.0019592885 -0.07518158 0.09929779 0.10260406 -0.053863198 0.23168239 0.0053650113 0.021248678
0.016457386 -0.25291625 -0.07476507 0.15825294 -0.05358224 0.06482887 0.12066582 0.06370698

shortcut.0.bias f4 [3]
00000000: a622 c9b6 85a6 6cb7 82c8 a236
-5.9943004e-06 -1.4105467e-05 4.8513184e-06

shortcut.1.weight f4 [3]
00000000: ed4c 9d3f 8843 943f 7764 8f3f
1.2289101 1.1583109 1.1202534

shortcut.1.bias f4 [3]
00000000: a363 89be aff3 97be 36d4 bfbe
-0.2683383 -0.29678103 -0.37466592

shortcut.1.running_mean f4 [3]
00000000: 7a24 07be b1e2 21be 3e97 0ebe
-0.13197508 -0.15809132 -0.13924882

shortcut.1.running_var f4 [3]
00000000: 1e34 583e d9c1 3a3e f5c2 783e
0.21113631 0.1823801 0.2429312
