code/models weights/Lambda_gaussian_0.2_50.pth (torch, 47544 bytes, 28 tensors)

embedding f4 [16, 1, 1, 23, 23]
0	0xbbcb5584	-0.0062052626
1	0xbbc8f626	-0.006132859
2	0xbbc5a5af	-0.006031714
3	0xbbde5077	-0.0067844945
4	0xbbc94d59	-0.0061432538
5	0xbbdb9054	-0.006700555
6	0xbc0b7298	-0.008511208
7	0xbc088c05	-0.0083341645
8	0xbbbce03f	-0.005764037
9	0xbb046d29	-0.0020206666
10	0x3c3f3fb4	0.011672903
11	0xbd09171d	-0.03346931
12	0x3c400d4e	0.011721922
13	0xbb68c635	-0.0035518531
14	0xbb51909f	-0.003197707
15	0xbbeda13f	-0.007251888
16	0xbc10887e	-0.008821605
17	0xbbd83503	-0.0065981164
18	0xbbbec6c6	-0.0058220355
19	0xbbd25650	-0.0064189807
20	0xbbc7164a	-0.006075655
21	0xbbc37b39	-0.005965617
22	0xbbf627d0	-0.0075120702
23	0xbbc4b4a3	-0.006002979
24	0xbba89284	-0.005144419
25	0xbbbc5d80	-0.0057484508
26	0xbb982ccd	-0.0046440125
27	0xbb982781	-0.004643381
28	0xbba79e33	-0.0051152944
29	0xbbd7aadd	-0.006581648
30	0xbc004a33	-0.0078301905
31	0xbba0e456	-0.0049100323
32	0xbb8c2b02	-0.004277588
33	0x3c608289	0.013702997
34	0xbce89184	-0.0283897
35	0x3c52ea06	0.012873178
36	0x3afe6bda	0.0019410804
37	0xbb92f0a7	-0.0044842544
38	0xbc0278fd	-0.007963416
39	0xbbc83eb1	-0.006110989
40	0xbb9de14a	-0.0048181163
41	0xbbaec6e7	-0.0053337696
42	0xbb910dd0	-0.0044266954
43	0xbb73fb30	-0.0037228577
44	0xbb96a56a	-0.0045973556
45	0xbbb55964	-0.005534338
46	0xbb9ff395	-0.004881332
47	0xbb31e527	-0.0027144642
48	0xbb8d2c5d	-0.004308267
49	0xbb8949ec	-0.0041897204
50	0xbb9b445b	-0.004738373
51	0xbb89e1c6	-0.0042078225
52	0xbbb81f63	-0.005618976
53	0xbbb8e4e2	-0.0056425193
54	0xbb9d67f6	-0.004803653
55	0xbb70d08e	-0.0036745402
56	0x3c55e305	0.013054614
57	0xbce64f65	-0.02811403
58	0x3c60879d	0.013704208
59	0xbb483468	-0.0030548815
60	0xbb5c4ea3	-0.0033616207
61	0xbbc7c1a1	-0.0060960804
62	0xbbc78630	-0.0060889944
63	0xbb689e92	-0.0035494906
64	0xbb9cab1a	-0.004781139
65	0xbb8392c0	-0.0040152967
66	0xbb845aef	-0.0040391604
67	0xbb907197	-0.004408072
68	0xbb9a9310	-0.0047172382
69	0xbbb2de57	-0.005458634
70	0xbb88e8ed	-0.0041781575
71	0xbba4ea98	-0.0050328486
72	0xbb8d4d74	-0.0043122116
73	0xbbb3f8e3	-0.005492316
74	0xbb746b86	-0.0037295534
75	0xbc12f5ed	-0.008969766
76	0xbbe56520	-0.0070005804
77	0xbb4bdd25	-0.0031107154
78	0xbbaef1b0	-0.00533887
79	0x3c84801e	0.016174372
80	0xbcfabb53	-0.030606901
81	0x3c767311	0.015042082
82	0xbb43bde1	-0.0029867815
83	0xbb23d921	-0.0025001245
84	0xbba5c4b9	-0.0050588516
85	0xbbd9e62f	-0.0066497545
86	0xbb7599ec	-0.0037475778
87	0xbaf66dc0	-0.0018801019
88	0xbb85ff9c	-0.004089309
89	0xbb849d29	-0.0040470553
90	0xbbd3dff0	-0.0064659044
91	0xbbbbd3cb	-0.005732035
92	0xbba072a3	-0.0048964783
93	0xbb8f9f21	-0.0043829833
94	0xbb716db5	-0.0036839072
95	0xbba5c0c3	-0.0050583794
96	0xbb826e35	-0.003980423
97	0xbb9447c0	-0.004525155
98	0xbbbc284b	-0.005742108
99	0xbbc26733	-0.0059327125
100	0xbb57b275	-0.0032912765
101	0xb9ea18ce	-0.0004465044
102	0x3c8d94ca	0.017282862
103	0xbcf278bd	-0.029598588
104	0x3c87ee58	0.016593143
105	0xbad9d575	-0.0016619401
106	0xbbbace6d	-0.0057008774
107	0xbbd42d12	-0.0064750994
108	0xbbbe7683	-0.0058124675
109	0xbb9a798a	-0.0047141956
110	0xbb7f80ef	-0.0038986763
111	0xbb9e522a	-0.004831572
112	0xbb67f906	-0.0035396232
113	0xbb9fdf7a	-0.0048789354
114	0xbbd5f93c	-0.006529955
115	0xbb95bc6d	-0.0045695812
116	0xbb8de68a	-0.004330461
117	0xbbe37185	-0.006941023
118	0xbbd2cd37	-0.006433155
119	0xbba1649c	-0.0049253237
120	0xbb52f998	-0.0032192226
121	0xbc1a2a1d	-0.009409455
122	0xbbdd4300	-0.006752372
123	0xba907d2d	-0.0011023633
124	0x3b9276d4	0.004469732
125	0x3ca07f95	0.019592086
126	0xbd1caaa1	-0.038248662
127	0x3cd7def0	0.026351422
128	0xba66daf3	-0.00088064297
129	0xbb2e7fbe	-0.0026626433
130	0xbbc868ce	-0.0061160093
131	0xbc0c9082	-0.008579375
132	0xbb9f9ed9	-0.004871231
133	0xbbc635e8	-0.0060489066
134	0xbb84b25f	-0.004049584
135	0xbb254fa2	-0.0025224467
136	0xbba8c35f	-0.005150243
137	0xbbbe3791	-0.005804964
138	0xbbe6f65e	-0.007048412
139	0xbbe0f68e	-0.006865329
140	0xbbc014b2	-0.005861842
141	0xbba5793f	-0.005049854
142	0xbb8ea804	-0.004353525
143	0xbbf18015	-0.007370005
144	0xbbeeace7	-0.007283795
145	0xbba4a3d7	-0.005024414
146	0xbb4a8f3d	-0.003090813
147	0xbaa39fc9	-0.0012483533
148	0x3cb7cbda	0.022436071
149	0xbd145ff9	-0.03622434
150	0x3cb390da	0.021919657
151	0xba075c57	-0.0005163601
152	0xbbbbd204	-0.005731823
153	0xbc15b034	-0.009136248
154	0xbc148e02	-0.00906706
155	0xbbd0c4c8	-0.0063711144
156	0xbbd8d0ae	-0.0066166734
157	0xbbbc0358	-0.0057377033
158	0xbbd458c3	-0.006480308
159	0xbbe2135c	-0.0068992805
160	0xbbdf5736	-0.0068158163
161	0xbbcd4c2b	-0.0062651834
162	0xbc018fcb	-0.007907818
163	0xbc05d514	-0.008168478
164	0xbbca4d3c	-0.006173758
165	0xbbf36428	-0.007427711
166	0xbbebc1b9	-0.0071947244
167	0xbc1c0992	-0.009523766
168	0xbc13016a	-0.008972505
169	0xbb3bba0b	-0.0028644826
170	0xba37de77	-0.0007014046
171	0x3cb967c7	0.022632493
172	0xbd205144	-0.03914
173	0x3d00aa70	0.031412542
174	0x3b08c003	0.00208664
175	0xbaca0203	-0.0015411976
176	0xbc4f48a4	-0.012651596
177	0xbc108a1a	-0.0088219885
178	0xbba606ec	-0.005066743
179	0xbbb37463	-0.005476521
180	0xbbdd964e	-0.0067623025
181	0xbb92fc47	-0.00448564
182	0xbbd494bf	-0.0064874585
183	0xbbc5f06c	-0.0060406234
184	0xb98bf5ff	-0.00026695427
185	0xbb331953	-0.0027328327
186	0xbb2eb5fc	-0.0026658764
187	0xbadff5a3	-0.0017086755
188	0xba8ce287	-0.0010748663
189	0xbbb3d603	-0.0054881587
190	0xbb3935e3	-0.0028260879
191	0xbb92db9e	-0.004481747
192	0x3bf6bfa3	0.007530169
193	0x3c93c37c	0.01803755
194	0x3d5c6152	0.05380375
195	0xbd2f250d	-0.042759944
196	0x3d2a54f9	0.041584942
197	0x3c94c79f	0.018161593
198	0x3c0e412a	0.0086825285
199	0xbab21bf1	-0.001358865
200	0x3bc76d18	0.006086003
201	0xba4e1b3f	-0.00078623364
202	0xbb15b768	-0.0022844914
203	0xbb72c178	-0.0037041586
204	0xbb299808	-0.0025877971
205	0xbab2209c	-0.0013590041
206	0xba32baa9	-0.00068179757
207	0x3a652e59	0.0008742563
208	0xba262297	-0.0006337552
209	0xb82ba217	-4.0920535e-05
210	0x3a9de4dd	0.0012046356
211	0x3b0ebad0	0.002177883
212	0x3aa96f6e	0.0012926885
213	0x3b282194	0.002565478
214	0x3c3bcf4b	0.011462997
215	0x3c7bde5e	0.015372841
216	0x3d37bc71	0.044857446
217	0x3d9101a6	0.070803925
218	0xbd351398	-0.04420814
219	0x3d952c84	0.07283881
220	0x3d396509	0.04526237
221	0x3cbf470e	0.023349311
222	0x3c3cd16a	0.011524538
223	0x3c031394	0.008000273
224	0x3b7138cc	0.0036807535
225	0x3a48ea20	0.0007664282
226	0x3a78bfba	0.00094890187
227	0xba085294	-0.00052002934
228	0xba2f9d65	-0.0006699174
229	0x3ac87ad1	0.0015295391
230	0x3cb8deab	0.022567114
231	0x3cba7784	0.022762068
232	0x3cb90304	0.022584446
233	0x3cc7beb0	0.02438292
234	0x3ce13b7e	0.027494188
235	0x3cfac216	0.030610126
236	0x3d0b4145	0.033997793
237	0x3d14e456	0.03635057
238	0x3d4ed0b7	0.050492015
239	0x3d9ad761	0.075606115
240	0xbca84201	-0.020539286
241	0xbe9e5181	-0.30921558
242	0xbca0f254	-0.019646801
243	0x3d96c573	0.07361879
244	0x3d4de722	0.050269254
245	0x3cf6a848	0.03010954
246	0x3ce655de	0.028117117
247	0x3cfedc57	0.031110926
248	0x3cde13d0	0.027109057
249	0x3ccac8b2	0.024753902
250	0x3cbc5393	0.02298907
251	0x3cbe4991	0.023228439
252	0x3cbe6e5b	0.023245981
253	0xbd09d447	-0.03364971
254	0xbce091f9	-0.027413355
255	0xbcd4bf4c	-0.025970124

queries.0.weight f4 [64, 3, 1, 1]
0	0xbb1e272c	-0.0024132235
1	0xbcf300f1	-0.029663535
2	0x3af8c973	0.0018980935
3	0x3dde25c4	0.10847047
4	0x3d25f7af	0.040519413
5	0xbb510893	-0.003189598
6	0xbc2e8669	-0.010652163
7	0xba561ce1	-0.00081677554
8	0x3d383aa4	0.0449778
9	0xbd2c21e0	-0.042024493
10	0xbd1fcd58	-0.03901419
11	0xbd59ff86	-0.0532222
12	0xbda16922	-0.078813806
13	0x3d3ec716	0.046576582
14	0x3dc93ffe	0.09826659
15	0xbd8fe253	-0.0702559
16	0xbd77e810	-0.060524046
17	0xbd71c47a	-0.059025265
18	0xbb77c5ea	-0.0037807175
19	0xbd79e513	-0.061009478
20	0xbda1e8f3	-0.0790576
21	0xbc4ddff0	-0.012565598
22	0xbc5be99e	-0.013422398
23	0x3b68207c	0.0035419753
24	0x3ad48199	0.001621294
25	0xbc9fe3de	-0.019517835
26	0xbd4f7542	-0.050648935
27	0x3c03dcff	0.008048295
28	0xbb6b8860	-0.003593944
29	0x3d4947d2	0.04914076
30	0xbb469268	-0.0030299667
31	0x3aa2fc9b	0.0012434901
32	0x3be138f8	0.0068732463
33	0xbb68b888	-0.003551038
34	0xbc03a39b	-0.008034612
35	0xba89f7d9	-0.0010526135
36	0x3d265288	0.04060605
37	0x3d7cd19f	0.061723348
38	0x3cf807ed	0.030277217
39	0xbd580e59	-0.052748058
40	0xbd4401bb	-0.047853213
41	0x3bfa4948	0.0076381303
42	0x3cbfc47b	0.023409119
43	0x3ccee8a4	0.025257416
44	0x3d0731f3	0.03300662
45	0xbd37dbbc	-0.04488729
46	0xbc5deb62	-0.013544889
47	0x3c2f4b95	0.0106991725
48	0xbd417cd0	-0.04723817
49	0xbd5cc18e	-0.053895526
50	0xbc5208fd	-0.012819526
51	0x3da0c110	0.07849324
52	0x3db51b33	0.088430785
53	0x3d9cc673	0.07655039
54	0x3d3efd42	0.046628244
55	0x3cb4a71d	0.022052342
56	0x3d056c22	0.032573827
57	0xbd31fe2a	-0.04345528
58	0xbd92c0bd	-0.07165668
59	0xbd807a31	-0.06273306
60	0x3c5a87f0	0.013338074
61	0x3d824166	0.0636013
62	0x3db7abaa	0.08968289
63	0xbd97130b	-0.07376679
64	0xbdde90f2	-0.1086749
65	0xbdb46807	-0.08808904
66	0xbd29dab2	-0.04146833
67	0xbd8dc4a0	-0.06922269
68	0xbd52eec5	-0.05149724
69	0xb9ae7cb0	-0.00033280766
70	0x3a48dcae	0.00076622784
71	0x3aa36cb2	0.0012468307
72	0x3d33354a	0.043751992
73	0x3da7f492	0.08200945
74	0x3d16c64f	0.036810216
75	0xbd472023	-0.048614632
76	0xbd6cacf2	-0.05778212
77	0xbcf61d6a	-0.030043323
78	0x3c1c837e	0.009552835
79	0x3b3679bc	0.0027843555
80	0x3b8776aa	0.004134019
81	0x3d13ed40	0.03611493
82	0x3c7c23ff	0.0153894415
83	0x3a021e21	0.0004963596
84	0x3d42d4c1	0.04756618
85	0x3d88704f	0.06662046
86	0x3d5beaf1	0.053690854
87	0xbd33965e	-0.043844573
88	0xbd80a16d	-0.062807895
89	0xbd2eef01	-0.0427084
90	0x3d5788fb	0.05262087
91	0x3d239a93	0.039942335
92	0x3cbf70fc	0.023369305
93	0xbcb4b61b	-0.02205949
94	0xbd21ba3c	-0.039484248
95	0xbd0061ae	-0.031343155
96	0xbd1f7e2d	-0.03893869
97	0xbd8aa9dd	-0.0677068
98	0x3c2a9369	0.010411122
99	0x3d093ccf	0.033505257
100	0x3da30b81	0.079611786
101	0x3da7efe4	0.082000524
102	0x3d9cfb1e	0.07665084
103	0x3c591e8c	0.013251912
104	0xbce16822	-0.027515475
105	0xbcfd8dd5	-0.03095142
106	0xbd54434d	-0.051821996
107	0xbd8b30c2	-0.06796409
108	0x3de2cca0	0.11074185
109	0xbba8ebb0	-0.0051550493
110	0x3c46dec0	0.012138069
111	0xbba9b13d	-0.005178599
112	0xbdae91a4	-0.085238725
113	0xbdf82739	-0.12116856
114	0xbdc5aea7	-0.09652453
115	0xbd228b9a	-0.039683916
116	0xbce27765	-0.027644822
117	0x3cbebbcb	0.023282906
118	0xbcd63f26	-0.026153158
119	0x39d21d9e	0.00040076388
120	0xbd4df226	-0.05027976
121	0x3d513d4e	0.051083855
122	0x3ddc81dd	0.10766957
123	0x3c8b3715	0.016994039
124	0xbcdfdb3e	-0.027326223
125	0x3c4a843c	0.012360629
126	0x3be16649	0.0068786484
127	0xbb13fbed	-0.002258058
128	0xbace0ffe	-0.0015721319
129	0x3d2e8231	0.04260463
130	0x3ba58c99	0.005052161
131	0xba970f0f	-0.0011524874
132	0xbd12428d	-0.035708
133	0xbcdc652e	-0.026903715
134	0xbd9a9528	-0.075479805
135	0x3d67f9bb	0.056634646
136	0x3cc3a95a	0.023884464
137	0x3d48c722	0.049018033
138	0xbd46a17c	-0.048493847
139	0x3d214a52	0.039377518
140	0x3d80d171	0.06289948
141	0x3d5d1f64	0.053985015
142	0xbd0acf45	-0.033889074
143	0xbdb18e12	-0.08669676
144	0x3c089dd5	0.008338411
145	0xbce4dc99	-0.02793722
146	0xbd648e59	-0.055799816
147	0x3b89556a	0.0041910904
148	0xbd8f1d42	-0.06988002
149	0xbd97cf8a	-0.07412632
150	0x3b495e7a	0.0030726478
151	0xbcac6e99	-0.02104883
152	0xbd069350	-0.032855332
153	0x3c557e40	0.013030589
154	0x3cbddf44	0.02317775
155	0x3d54fd4b	0.05199937
156	0xbdf0b7c2	-0.11753799
157	0x3e1e39a7	0.1545168
158	0x3dca165c	0.09867546
159	0xbcbc4c01	-0.02298546
160	0xbd89bf75	-0.06725971
161	0xbd8eda8b	-0.069752775
162	0x3d4ec394	0.050479487
163	0x3d27bd6d	0.040952135
164	0x3d88d594	0.06681362
165	0x3cd53a55	0.026028791
166	0x3b3e3ded	0.002902861
167	0x3c249379	0.010044926
168	0x3c8ca680	0.017169237
169	0xbc92a602	-0.017901424
170	0x3ba65736	0.0050763143
171	0xbcf2fa92	-0.029660497
172	0xbd33b343	-0.04387213
173	0xbc8bbda1	-0.017058196
174	0x3c42b97d	0.011885044
175	0x3c4ab1b4	0.012371469
176	0xbac5b449	-0.0015083636
177	0xbc79672e	-0.015222354
178	0xbbfd3dc1	-0.007728309
179	0xbbf8d497	-0.007593702
180	0xbc85d02c	-0.016334616
181	0x3adb1818	0.0016715555
182	0xbc9a1fff	-0.018814085
183	0xbd006fa1	-0.031356458
184	0xbd3e31f7	-0.04643437
185	0xbd3c42bd	-0.045962084
186	0x3c6143b8	0.013749056
187	0x3cbb479e	0.022861298
188	0x3d29107f	0.041275498
189	0x3d5f3097	0.0544897
190	0x3d0453a4	0.03230633
191	0x3c03dffb	0.008049007

queries.1.weight f4 [64]
0	0x3c2f51ac	0.010700624
1	0x3ef8cb7f	0.48592755
2	0x3d262516	0.04056271
3	0x3e9a9ddf	0.3019857
4	0x3e808b34	0.25106204
5	0x3eab5f04	0.3347093
6	0x3ef3cf6f	0.47619197
7	0x3c2e96f9	0.010656112
8	0x3d865912	0.065599576
9	0x3d6c8ea9	0.05775324
10	0x39f0cbf2	0.00045928318
11	0x3a5bc4a9	0.00083834917
12	0x3eefa5c0	0.46806145
13	0x3e19b724	0.15011269
14	0x3df1148e	0.117714986
15	0x3da7dbd4	0.08196226
16	0x3e126460	0.14296103
17	0x3f1995d5	0.5999425
18	0x3dde518a	0.10855396
19	0x3ef801f0	0.48438978
20	0x3ec12b16	0.37728184
21	0x3f21c43d	0.6319006
22	0x3eaaa2e6	0.33327407
23	0x396fcaef	0.00022868415
24	0x3ec02087	0.37524816
25	0x3e7fad79	0.24968518
26	0x3b2d6393	0.0026457056
27	0x3cee1d7e	0.029066797
28	0x3f0a5f3e	0.5405158
29	0x3e7fe4e2	0.24989656
30	0x3e3609d2	0.17777184
31	0x3e0703a4	0.13184983
32	0x3db24b28	0.08705741
33	0x3ef4661e	0.4773416
34	0x3dba671f	0.091017
35	0x3e664bcf	0.22489856
36	0x3e4277e8	0.18991053
37	0x3e658175	0.22412665
38	0x3e8bcabc	0.27303112
39	0x3bb1a2b4	0.005421007
40	0x3e95a97c	0.2923087
41	0xba784d33	-0.0009471953
42	0x3a857092	0.0010180643
43	0x3cd8e964	0.026478477
44	0x3ea1ace9	0.31577232
45	0x3e09ee55	0.13469823
46	0x3d9536e9	0.07285864
47	0x3e161f0c	0.14660281
48	0x3d8768c7	0.066117816
49	0x3dd86054	0.10565248
50	0x3d0e1a56	0.034693085
51	0x3ddb202d	0.106994964
52	0x3e01a725	0.12661417
53	0x3e0f6621	0.14003803
54	0x3e86844a	0.26272804
55	0x3ca9e3fa	0.02073859
56	0x39eaa555	0.0004475514
57	0x3daa9b78	0.083304346
58	0x3c1c2965	0.009531354
59	0xbc0773b9	-0.0082673365
60	0x3c09d096	0.008411547
61	0x3e490a84	0.19632918
62	0x3dafd342	0.08585216
63	0x3e038a69	0.12845768

queries.1.bias f4 [64]
0	0x3eacf611	0.33781484
1	0xbe233ab6	-0.15940365
2	0xbbcdf8d6	-0.006285767
3	0xbda734be	-0.08164357
4	0x3c148174	0.009064067
5	0x3f025df5	0.5092462
6	0x3e0522bd	0.13001533
7	0x3bbcd478	0.005762633
8	0xbdb4c0d6	-0.08825843
9	0x3dba031a	0.09082623
10	0x3bb16611	0.0054137786
11	0x3d524818	0.051338285
12	0x3de30763	0.11085393
13	0x3e242e8a	0.16033378
14	0x3c78b2bd	0.015179333
15	0xbe857006	-0.2606203
16	0xbec21890	-0.37909365
17	0x3e45b69c	0.19307941
18	0xbead70ff	-0.33875272
19	0xbd229e2d	-0.03970163
20	0x3defa4d7	0.117013626
21	0x3ce37ce0	0.027769506
22	0xbb01c5c3	-0.0019801713
23	0x3daf32dd	0.08554623
24	0x3db24557	0.08704632
25	0x3caaec07	0.0208645
26	0x3d42b844	0.04753901
27	0x3dcc6efb	0.09982105
28	0x3dd6b6ba	0.10484071
29	0xbde0d12d	-0.10977397
30	0x3e1eafcf	0.15496753
31	0x3e9cdead	0.30638638
32	0x3dff2124	0.12457493
33	0xbe64c923	-0.22342353
34	0xbd79b9d8	-0.06096825
35	0xbe8b2897	-0.27179405
36	0xbdb640ec	-0.088991016
37	0xbec88b2e	-0.39168686
38	0x3e8ae3d3	0.2712694
39	0x3d5be22e	0.0536825
40	0x3c005651	0.007833079
41	0x3e430488	0.19044697
42	0x3d01d998	0.031701654
43	0x3d8a3ffd	0.06750486
44	0x3bb36163	0.005474256
45	0x3e800a2f	0.2500777
46	0xbdcc180c	-0.09965524
47	0x3e05adfe	0.13054654
48	0x3e425831	0.18978955
49	0x3e0732c8	0.13202965
50	0xbe4e543a	-0.20149317
51	0xbea3353e	-0.31876558
52	0x3e074970	0.13211608
53	0xbdd4de08	-0.103939116
54	0xbba596bc	-0.0050533693
55	0x39882779	0.0002596935
56	0xbe69ff17	-0.22851215
57	0xbcb91f42	-0.022597913
58	0xbb239fc4	-0.0024967054
59	0xbb0f450b	-0.0021861221
60	0x3d33e494	0.04391916
61	0x3e1dc32b	0.15406482
62	0x3ead3993	0.33832988
63	0x3b900e50	0.0043962374

queries.1.running_mean f4 [64]
0	0xbc5d9007	-0.013523108
1	0x3d866f82	0.06564237
2	0x3c35c647	0.011094636
3	0xbd6d3aad	-0.057917286
4	0x3cca5a37	0.02470122
5	0xbda8d9aa	-0.08244641
6	0xbd7734c1	-0.060353044
7	0xbc1c6420	-0.009545356
8	0xbce942fd	-0.028474325
9	0x3cb6eed7	0.022330685
10	0x3b457b28	0.0030133221
11	0xbbd03346	-0.0063537685
12	0x3d6cddb0	0.057828605
13	0xbd2ca0fe	-0.04214572
14	0x3d0fea78	0.035135716
15	0xbcab3c41	-0.020902755
16	0xbd4dec40	-0.050274134
17	0x3dd83d35	0.10558549
18	0x3d357a5c	0.044306144
19	0xbd9ce94e	-0.07661687
20	0x3d90d047	0.07070976
21	0xbdef3c88	-0.11681467
22	0xbd8fd046	-0.07022147
23	0x3927f069	0.00016015921
24	0x3d913436	0.070900366
25	0xbd73d69b	-0.059530836
26	0x3beab2ff	0.0071624513
27	0x3cbbc12a	0.022919256
28	0x3d95590c	0.07292375
29	0xbd84a67b	-0.06477066
30	0x3d5020a1	0.050812367
31	0xbd24584b	-0.040123265
32	0xbd2e2922	-0.042519696
33	0x3daae1a4	0.08343819
34	0x3cf4bcbd	0.029875154
35	0xbd83f288	-0.064427435
36	0x3d58575f	0.0528177
37	0xbdb70d6f	-0.08938109
38	0xbd93f66e	-0.07224737
39	0xba0eaa6b	-0.00054422644
40	0x3d316a3d	0.043314207
41	0x3a27792c	0.00063886005
42	0x3b03d6c3	0.0020117022
43	0x3cb08893	0.021549499
44	0xbd7150d4	-0.058914974
45	0x3d648b2a	0.05579678
46	0x3cafff3f	0.021484016
47	0xbcced573	-0.025248265
48	0xbd00190f	-0.031273898
49	0xbd716e7f	-0.058943268
50	0xbcb0d0f8	-0.021584019
51	0x3d17f564	0.037099257
52	0x3d642045	0.055694837
53	0xbd8bfd0f	-0.068353765
54	0x3d8b9e06	0.0681725
55	0x3c8e155d	0.017344171
56	0x3a80526f	0.0009790192
57	0xbd225bb4	-0.039638236
58	0x3c3b84ab	0.011445205
59	0xbc635fde	-0.013877837
60	0xbc70d163	-0.014698359
61	0xbd5a1d60	-0.05325067
62	0x3d07ef1a	0.03318701
63	0x3d2e1489	0.042500053

queries.1.running_var f4 [64]
0	0x38ee3fa7	0.000113605805
1	0x3b1a1149	0.0023508838
2	0x392f72bc	0.00016732042
3	0x3aded08e	0.001699941
4	0x3aa94093	0.0012912921
5	0x3b5e2b87	0.0033900456
6	0x3b08e7bb	0.0020890075
7	0x385909f3	5.1746098e-05
8	0x3a05ab47	0.00050990697
9	0x39b6795d	0.00034804168
10	0x3708599a	8.127094e-06
11	0x37b1df48	2.1204018e-05
12	0x3adc033a	0.001678563
13	0x3a7902ba	0.00094990025
14	0x3a25391b	0.000630276
15	0x399166f5	0.00027733264
16	0x3aa6c08a	0.0012722176
17	0x3bb6c823	0.0055780574
18	0x3a812563	0.0009853061
19	0x3b43d7ad	0.0029883191
20	0x3b35df92	0.0027751666
21	0x3be1b7e3	0.006888376
22	0x3b2382c4	0.0024949769
23	0x3461cd65	2.102948e-07
24	0x3b26ea6b	0.0025469314
25	0x3ae79599	0.0017668485
26	0x37de10a3	2.647221e-05
27	0x399482c7	0.00028326196
28	0x3b2f6722	0.0026764353
29	0x3b0a1798	0.0021071192
30	0x3aa88498	0.0012856899
31	0x3a5703da	0.0008202173
32	0x3a83b061	0.0010047072
33	0x3b6f2223	0.0036488853
34	0x3a32db3b	0.0006822829
35	0x3b0deb1e	0.0021655033
36	0x3add784a	0.0016896811
37	0x3b9694e1	0.0045953845
38	0x3b2e59d3	0.0026603832
39	0x386b21be	5.605979e-05
40	0x3ae929f9	0.0017788998
41	0x3859cb9f	5.192647e-05
42	0x36a07f5f	4.7831995e-06
43	0x398e01ec	0.00027085782
44	0x3af3e23a	0.001860685
45	0x3acfdae2	0.0015858079
46	0x3a29b964	0.0006474464
47	0x3a7801f5	0.0009460741
48	0x3a2a2633	0.00064906775
49	0x3b05518e	0.00203428
50	0x3994b467	0.0002836317
51	0x3a48d554	0.0007661183
52	0x3b79526c	0.0038043512
53	0x3b2248eb	0.00247627
54	0x3b1b9bc3	0.0023743964
55	0x3925493e	0.00015762911
56	0x38008dbf	3.064959e-05
57	0x3a4eecfb	0.0007893589
58	0x388fb1a1	6.851857e-05
59	0x38ca24fc	9.6389995e-05
60	0x38fc0d3c	0.000120187615
61	0x3abcdebf	0.0014409645
62	0x3a1bbb85	0.00059407233
63	0x3a70c009	0.0009183889

keys.0.weight f4 [16, 3, 1, 1]
0	0x3ce74f8b	0.028236171
1	0x3d3e2dae	0.046430282
2	0x3c50286b	0.012704949
3	0x3b58ffe5	0.003311151
4	0xbdb7c26f	-0.08972632
5	0xbdf3e857	-0.1190955
6	0xbdabd623	-0.08390453
7	0xbd085807	-0.033287074
8	0x3d49a0fe	0.0492258
9	0xbe3ca2ba	-0.1842145
10	0xbe2bf79d	-0.16793676
11	0xbe364f21	-0.17803623
12	0xbda2806d	-0.079346515
13	0x3e1720fc	0.14758676
14	0x3e7ef0bc	0.2489652
15	0xbe98a201	-0.298111
16	0xbddb8800	-0.10719299
17	0xbdb7070c	-0.08936891
18	0x3e0f334f	0.13984416
19	0xbcab7e16	-0.020934146
20	0xbdfc6a54	-0.12324968
21	0xbb13a54d	-0.0022528947
22	0x3b9b0e10	0.004731901
23	0x3c1620c2	0.0091630835
24	0x3e864918	0.2622764
25	0x3d3ed5b0	0.046590507
26	0xbe00b78d	-0.12570019
27	0xbe034737	-0.12820135
28	0xbe119217	-0.14215885
29	0xbdcd4c53	-0.10024323
30	0x3acb9d5e	0.001553457
31	0x3b6f4c56	0.0036514006
32	0x3bd53824	0.0065069366
33	0xbba53aa9	-0.005042393
34	0x3c3c06aa	0.011476198
35	0x3c8d9d12	0.017286811
36	0x3f26e636	0.65195024
37	0x3f409746	0.75230825
38	0x3f3bc03b	0.73340195
39	0xbe1c4d5b	-0.15263884
40	0xbe1c750d	-0.15279026
41	0xbe0a5d63	-0.13512187
42	0x3e1fcc90	0.15605378
43	0x3dfc72c0	0.12326574
44	0x3d58baf8	0.052912682
45	0xbe195b9d	-0.14976354
46	0xbd3ed37e	-0.046588413
47	0x3dc798c3	0.09745934

values.0.weight f4 [4, 3, 1, 1]
0	0x3e5b9adb	0.21445791
1	0xbe18f9a7	-0.14938985
2	0xbe7655c0	-0.24056149
3	0x3d8beb9a	0.06832047
4	0xbe947cf0	-0.2900157
5	0x3e301866	0.17196807
6	0xbe89c6cf	-0.2690949
7	0xbda9bd0b	-0.0828801
8	0x3e06facd	0.1318161
9	0xbe5ec875	-0.21756156
10	0xbcef1c20	-0.029188216
11	0xbe068e2e	-0.13140175

values.1.weight f4 [4]
0	0x3efa59e0	0.48896694
1	0x3ed0c020	0.4077158
2	0x3ef98f93	0.4874235
3	0x3f119f81	0.5688401

values.1.bias f4 [4]
0	0xbe92afb9	-0.2864969
1	0x3e39651a	0.18104973
2	0xbe8bdb78	-0.2731588
3	0x3ec11dfe	0.37718195

values.1.running_mean f4 [4]
0	0xbd88372f	-0.066511504
1	0xbce38588	-0.027773634
2	0xbdd3ebdd	-0.10347722
3	0xbe287abc	-0.1645307

values.1.running_var f4 [4]
0	0x3c136877	0.008997074
1	0x3bb15fbe	0.0054130247
2	0x3c11b283	0.008892658
3	0x3c6803d3	0.014161068

conv.0.weight f4 [8, 16, 1, 1]
0	0x3da43ed7	0.08019798
1	0xbd687503	-0.056752216
2	0x3d3927ca	0.04520396
3	0xbdb999a7	-0.0906251
4	0x3cb04a1e	0.021519717
5	0xbd953952	-0.072863236
6	0x3d556c3a	0.052105166
7	0xbe430d24	-0.19047982
8	0xbd683098	-0.056686968
9	0x3d2dc0ad	0.042420078
10	0xbce195e2	-0.02753729
11	0x3d9cf1c0	0.07663298
12	0xbd70d1fb	-0.058794003
13	0x3dbab3f0	0.091163516
14	0xbe15de28	-0.14635527
15	0x3e596f5c	0.21233886
16	0x3db65ce7	0.089044385
17	0xbd801236	-0.062534735
18	0x3cff4d1d	0.0311647
19	0x3d5900c1	0.052979235
20	0x3c565c2e	0.013083501
21	0xbd70e3a8	-0.05881086
22	0xb75c2f99	-1.3124104e-05
23	0xbd720176	-0.059083425
24	0xbe23abac	-0.15983456
25	0x3dce835d	0.10083649
26	0xbddeb357	-0.1087405
27	0xbc80d358	-0.015725777
28	0x3d8d5f5e	0.069029555
29	0xbcd5c0ab	-0.026092848
30	0xbc55f6fc	-0.013059374
31	0x3d5fbf53	0.05462582
32	0x3d173061	0.036911372
33	0xbd258e41	-0.040418867
34	0x3e2ce198	0.16882932
35	0xbe0cdc00	-0.13755798
36	0xbcf19872	-0.029491637
37	0xbd286427	-0.041111138
38	0x3da5b0a2	0.08090331
39	0xbe2f1222	-0.17096761
40	0xba8411e9	-0.0010076138
41	0x3afa7f36	0.0019111398
42	0xbe0de3f5	-0.1385649
43	0x3dd77c93	0.105218075
44	0xbc68c659	-0.014207446
45	0x3d730743	0.059333097
46	0xbd688379	-0.056766007
47	0x3e0266a8	0.12734473
48	0x3d365143	0.04451109
49	0xbd409238	-0.047014445
50	0xbe02e01c	-0.12780803
51	0x3db75c99	0.089532085
52	0x3cac4619	0.021029519
53	0xbd80a63d	-0.062817074
54	0xbcf139ad	-0.029446447
55	0xbd028548	-0.03186539
56	0x3e194b1f	0.14970063
57	0x3e1dadc8	0.15398324
58	0xbd0b2a3b	-0.03397582
59	0xbd20bcde	-0.039242618
60	0x3db334d6	0.08750312
61	0x3c7ab00a	0.01530076
62	0xbd54df16	-0.051970564
63	0x3c97aaa9	0.018513994
64	0xbdb28daa	-0.087184265
65	0xbb843946	-0.004035148
66	0xbdb01469	-0.08597643
67	0xbd86eb0b	-0.065878
68	0x3e29ca49	0.16581072
69	0xbde346a4	-0.11097458
70	0x3e7b39da	0.24533787
71	0xbe0207b9	-0.12698258
72	0xbe282d30	-0.16423488
73	0x3dbf2bcd	0.09334526
74	0xbe7dc43a	-0.24781886
75	0x3de136c3	0.10996773
76	0x3d1dbe54	0.03851159
77	0xbc50a84e	-0.012735439
78	0x3d769eaa	0.060209908
79	0xbab78ef1	-0.0014004392
80	0xbdb0d024	-0.0863345
81	0x3ba66e8b	0.0050790957
82	0xbc8db036	-0.017295938
83	0x3ca7a26f	0.020463197
84	0xbd8df01c	-0.06930563
85	0x3c83bb25	0.016080448
86	0x3d9c9ad3	0.07646718
87	0x3d8d1f38	0.0689072
88	0x3ddbd714	0.10734382
89	0x3d88a4aa	0.06672032
90	0x3db799f6	0.089649126
91	0xbdf3ee55	-0.119106926
92	0x3dafd8de	0.08586286
93	0xbcb6af9c	-0.022300534
94	0xbe589d0c	-0.21153659
95	0x3d5c3da3	0.05376972
96	0x3d379216	0.044817053
97	0x3ca2911b	0.019844582
98	0x3d3cd45a	0.04610095
99	0xbc6acdd3	-0.014331299
100	0x3cada833	0.021198368
101	0x3ca976c0	0.020686507
102	0x3c946216	0.018113177
103	0x3cbd513d	0.023110026
104	0xbe02ace0	-0.12761259
105	0x3cc74c21	0.024328293
106	0xbe354ebc	-0.17705816
107	0x3d1bd910	0.038048804
108	0xbdb06cc7	-0.08614498
109	0x3d189c76	0.037258588
110	0xbdcd6f6d	-0.100310184
111	0x3b087c4e	0.0020826044
112	0xbe388170	-0.18018126
113	0x3c0cc94a	0.008592913
114	0xbe2b186d	-0.16708536
115	0xbe1903b4	-0.14942819
116	0x3db8fd43	0.09032681
117	0x3d142303	0.036166202
118	0x3db5837e	0.08862971
119	0x3e2f33c1	0.17109586
120	0x3cc8a73e	0.02449381
121	0xbbd2b493	-0.0064302175
122	0x3c6045f4	0.013688553
123	0x3c265f7d	0.010154602
124	0x3b8cf5df	0.004301771
125	0x3dec63a5	0.11542443
126	0xbd871280	-0.065953255
127	0x3ea0c69b	0.31401524

conv.1.weight f4 [8]
0	0x3ecb5663	0.39714345
1	0x3e484a14	0.19559509
2	0x3ea7b54c	0.32755506
3	0x3e0eb83d	0.13937469
4	0x3f3a88cf	0.72865003
5	0x3df96321	0.121771105
6	0x3ecc7cae	0.39938873
7	0x3e811042	0.25207716

conv.1.bias f4 [8]
0	0xbeb1528d	-0.34633294
1	0xbd9bb258	-0.07602376
2	0xbe7dfa3e	-0.24802491
3	0x3e2ed253	0.1707242
4	0xbf2f0f18	-0.68382406
5	0x3de6d646	0.11271338
6	0xbe8a9056	-0.27063245
7	0x3e4256ef	0.18978475

conv.1.running_mean f4 [8]
0	0xbed54819	-0.4165657
1	0xbe9a0a95	-0.30086198
2	0xbef03b05	-0.46920028
3	0x3dd47c9d	0.103753306
4	0xbf2903d1	-0.6602145
5	0x3e95313e	0.2913913
6	0xbeb3933c	-0.35073268
7	0x3d39ec1e	0.045391195

conv.1.running_var f4 [8]
0	0x3ca8a0af	0.020584432
1	0x3cfd108f	0.030891685
2	0x3d0989b3	0.033578586
3	0x3cefabb8	0.029256687
4	0x3d1ab620	0.037771344
5	0x3d0fcd1a	0.03510771
6	0x3d73d484	0.059528843
7	0x3d890720	0.06690812

conv.3.weight f4 [3, 8, 1, 1]
0	0x3ded8f31	0.11599577
1	0xbcbfad31	-0.023398014
2	0xbd37f327	-0.044909623
3	0x3e05f4bd	0.13081641
4	0xbe9c488b	-0.30524096
5	0x3d9aec12	0.07564558
6	0xbe19e6d1	-0.15029456
7	0x3deae3d8	0.11469239
8	0x3da82bf0	0.082115054
9	0xbd0fdae8	-0.035120875
10	0x3c9b23b7	0.018937929
11	0xbd4a58f4	-0.04940124
12	0xbe918b7c	-0.2842673
13	0xbd914cde	-0.070947394
14	0xbe210727	-0.15725385
15	0x3ddc1ca5	0.10747651
16	0x3bbac490	0.0056997016
17	0xbe2b1b59	-0.16709651
18	0x3e29abec	0.16569489
19	0xbd03297c	-0.032021984
20	0xbe901dd4	-0.28147757
21	0xbdae330d	-0.08505831
22	0xbdd4cb72	-0.103903666
23	0x3df414c3	0.119180225

conv.4.weight f4 [3]
0	0x3f9a14ba	1.2037575
1	0x3f966a4a	1.1751187
2	0x3f92aa73	1.1458267

conv.4.bias f4 [3]
0	0xbe979e71	-0.2961307
1	0xbea7a370	-0.3274188
2	0xbeca4d09	-0.39511898

conv.4.running_mean f4 [3]
0	0x3c74b5fb	0.014935966
1	0xbd09ba68	-0.033625036
2	0xbcf13527	-0.02944429

conv.4.running_var f4 [3]
0	0x3c558913	0.013033169
1	0x3c2c5075	0.010517229
2	0x3c388b28	0.011263646

shortcut.0.weight f4 [3, 16, 1, 1]
0	0x3e2932c5	0.16523273
1	0x3da33ac0	0.0797019
2	0x3d9cb265	0.076512136
3	0x3d0ba537	0.034093108
4	0xbd59e5c7	-0.05319765
5	0x3c97c6d1	0.01852742
6	0xbdce5774	-0.10075274
7	0xbe3fa5e2	-0.18715623
8	0xbe2d9b32	-0.16953734
9	0xbdc5a9c2	-0.09651519
10	0x3df9ff02	0.12206842
11	0x3e696132	0.22790983
12	0x3cd407e5	0.02588267
13	0xbd2c13df	-0.042011138
14	0x3e405c8d	0.18785305
15	0xbd6f9fe0	-0.058502078
16	0x3d82a3be	0.063788876
17	0xbe168124	-0.146977
18	0x3d58a68e	0.052893214
19	0x3e221f5b	0.15832274
20	0xbde0c551	-0.10975135
21	0xbdca593c	-0.09880301
22	0xbd859159	-0.065218635
23	0xbe33209a	-0.17492905
24	0x3e1264bc	0.1429624
25	0x3e89c124	0.26905167
26	0x3ce5fef5	0.028075675
27	0x3dd61c2a	0.104545906
28	0x3df70097	0.120606594
29	0xbdc02931	-0.09382857
30	0x3d96585e	0.073410735
31	0xbc8eb21e	-0.017418917
32	0x3d0a2c7a	0.033733822
33	0x3dd5367c	0.10410783
34	0x3e0e7e2c	0.13915318
35	0x3debb4ba	0.1150908
36	0xbe0de313	-0.13856153
37	0xbc0aebd9	-0.008479082
38	0xbd0d20d2	-0.034455128
39	0xbe748986	-0.23880586
40	0x3e6183b4	0.22022897
41	0xbce2d2c6	-0.027688395
42	0xbdd4deff	-0.10394096
43	0x3e62a7f5	0.22134383
44	0x3e1cbb85	0.15305908
45	0xbd83ace4	-0.06429461
46	0x3d8a7175	0.067599215
47	0xbd06f8b9	-0.032952044

shortcut.0.bias f4 [3]
0	0xb651c3f2	-3.1257482e-06
1	0xb70e6b6b	-8.48887e-06
2	0xb60fa2b1	-2.140336e-06

shortcut.1.weight f4 [3]
0	0x3fa4fd16	1.2889736
1	0x3f9eed89	1.241624
2	0x3fa1c500	1.2638245

shortcut.1.bias f4 [3]
0	0xbe979e71	-0.2961307
1	0xbea7a370	-0.3274188
2	0xbeca4d09	-0.39511898

shortcut.1.running_mean f4 [3]
0	0xbe93b0d5	-0.2884585
1	0xbe02c133	-0.12769012
2	0xbe048e91	-0.1294501

shortcut.1.running_var f4 [3]
0	0x3ea99d52	0.33127838
1	0x3eb0e07d	0.3454627
2	0x3ef22bd1	0.47299054
