code/models weights/Lambda_gaussian_0.1_25.pth (torch, 47544 bytes, 28 tensors)

embedding f4 [16, 1, 1, 23, 23]
000000 fc 8c 20 3b 6e 45 e4 ba 10 83 6d 3b fe 49 4a ba
       0.0024498096 -0.0017415711 0.003624145 -0.0007716714
000010 2f fd 22 bb 41 9f a5 39 00 a4 7c ba 9b 70 c8 ba
       -0.0024870147 0.00031589906 -0.0009637475 -0.0015292348
000020 f9 84 a6 bb 67 a6 5a 3b 63 e1 88 3c e1 76 02 3d
       -0.0050817695 0.0033363344 0.016709035 0.031851653
000030 48 89 a1 3c f5 1b b7 bb 6a 60 11 3a f1 63 a2 3a
       0.019718781 -0.0055880495 0.0005545678 0.0012389404
000040 c4 08 e1 bb 7c ef 1d bb 66 d4 5d 3b 30 af eb ba
       -0.0068675 -0.0024099043 0.0033848523 -0.0017981287
000050 b9 53 85 bb 67 0e 06 3b c4 db 11 3c f9 0e d5 ba
       -0.0040688184 0.0020455362 0.008902494 -0.0016255073
000060 7c 10 1c ba a0 8b 39 bb ab c6 73 bb 28 6f e2 3a
       -0.0005953384 -0.0028311983 -0.0037197273 0.0017275559
000070 03 97 1e 3a 94 a7 01 bc 1f 88 97 bb 85 b8 91 ba
       0.0006049724 -0.007913489 -0.004624381 -0.0011117613
000080 5e e6 f8 bb 45 c9 54 3c f9 39 4c 3c c7 70 5d 3c
       -0.0075958213 0.0129874395 0.012464994 0.013515658
000090 8f e4 0f 3d 27 ce dc bb 1e 85 10 bc 06 4c 07 bb
       0.03513008 -0.0067384425 -0.0088208 -0.0020644679
0000a0 47 69 ac 39 1e af 97 bb 4d fb 9f 3b 1d bc 20 3b
       0.00032884834 -0.00462903 0.0048822523 0.0024526187
0000b0 78 42 6e bb cc b7 95 bb c8 7f 3f bb 60 db 2c 3c
       -0.0036355536 -0.0045690294 -0.002922045 0.01055035
0000c0 aa a9 15 ba 3b 4d 3e ba d4 b9 18 3b e3 38 f0 ba
       -0.0005709181 -0.0007259433 0.0023304122 -0.00183275
0000d0 ae 4d b3 ba 6d 43 1c b9 07 73 37 bb 94 6a 3e bc
       -0.0013679767 -0.00014902437 -0.0027992146 -0.01162209
0000e0 4a 01 56 3c 4c 94 24 3c 1b a2 39 3c de c3 b0 b9
       0.013061831 0.010045122 0.011330153 -0.00033715268
0000f0 05 ab 29 3b 13 1f bd bb c3 99 df bb 2e 8e e4 bb
       0.002588929 -0.0057715266 -0.0068237497 -0.006974957
000100 f0 30 d7 bb 5d 62 30 ba 08 91 93 b9 5a 0d 07 3b
       -0.006567113 -0.00067285245 -0.00028146082 0.0020607323
000110 5f 83 1e bb 58 5a ef b9 da fe 1d bc fb 5d 4e bc
       -0.002418719 -0.00045652944 -0.009643281 -0.012595649
000120 ec 98 a0 3b f7 71 c9 bb 93 2b 94 3b fa 93 c1 bc
       0.004901042 -0.006147619 0.004521796 -0.023630131
000130 c2 9d f2 bb ef f8 05 3a 7f 4b 95 bc 5b 14 5e 3c
       -0.00740406 0.00051106414 -0.018224476 0.013554658
000140 67 36 49 3a 69 0e 29 3c d6 bf e5 bb 5b b0 45 3c
       0.0007675648 0.010318377 -0.007011394 0.012065972
000150 57 38 c1 38 56 0f 0b bc c6 c2 06 b7 a7 e2 8a 3b
       9.213451e-05 -0.008487543 -8.032372e-06 0.004238445
000160 36 eb 6b bb 54 9a 48 bb c4 e3 7e bc f3 dd 27 bb
       -0.003599835 -0.0030609565 -0.015557233 -0.002561447
000170 bf 6a b3 bb 98 51 5c bb 65 00 77 3b 5d ec 43 bb
       -0.0054753716 -0.003361797 0.0037689444 -0.0029895522
000180 24 54 00 b9 45 b0 59 ba ba 18 87 3b 27 62 e0 bb
       -0.00012238376 -0.0008304159 0.0041228207 -0.006847638
000190 42 52 1c bb 3f 0c ca 38 49 e7 0e 3c b1 2f 09 3c
       -0.002385274 9.6343916e-05 0.008722135 0.008373187
0001a0 b6 04 42 3c f9 0a 02 bc 88 fc 7c bc 87 ec 0d bc
       0.0118419435 -0.007937186 -0.0154410675 -0.00866235
0001b0 8c 5a f3 3b ef fb ff bb bf 9b 1f bb 2b 35 bf bb
       0.0074265655 -0.0078120152 -0.0024354307 -0.0058351955
0001c0 74 48 4d 3a 81 dd bb bb 11 e0 0e bb 88 1c 8d bb
       0.0007830926 -0.0057331924 -0.0021801034 -0.0043063797
0001d0 43 58 99 ba a3 f6 d8 bc 68 37 9c bc be ef 18 bb
       -0.0011699278 -0.026484793 -0.019069389 -0.0023336257
0001e0 86 9a 40 3c ad fb 57 bc 0d e9 1d bc 69 22 70 39
       0.011755591 -0.013182563 -0.009638083 0.00022901002
0001f0 39 76 62 3c 04 9a f1 3b 11 8a 0c bd 70 49 bb 3c
       0.013822132 0.0073730964 -0.034311358 0.022862166
000200 e7 08 06 bc 0b 39 b0 3b e5 08 0d bc 07 ba 55 bc
       -0.008180833 0.005377894 -0.008608078 -0.013044841
000210 1e 1e 72 bc ac 72 65 bc 94 ab 8b bb e1 61 7b 3c
       -0.014777688 -0.014004391 -0.004262397 0.01534316
000220 3e af 8d bb c1 77 8b bb 67 a7 01 bc a4 53 06 bc
       -0.004323869 -0.004256219 -0.007913447 -0.008198652
000230 d0 a8 86 ba 4d 0c 20 ba 6e ad 9e 3b 4c c7 af bc
       -0.0010273699 -0.00061053486 0.004842452 -0.021457337
000240 f8 77 83 3b 67 de 62 3c 21 c0 34 bc dc d6 9b bc
       0.004012104 0.01384697 -0.011032135 -0.019023351
000250 ad b8 60 3b 45 b3 d8 b9 9c 8f 30 bb 26 f6 37 bc
       0.0034289763 -0.00041332297 -0.0026941067 -0.01122812
000260 55 9c 7f bc d6 4a 62 bc 47 ab 10 bc 72 05 c8 bb
       -0.015601237 -0.013811788 -0.008829898 -0.0061041648
000270 a1 82 dd bb 05 cb cd bb d1 b2 1c bc 48 44 27 bc
       -0.006759957 -0.0062803053 -0.0095641175 -0.010209151
000280 ff 9a 0d bc 14 c6 3f bc f2 0d 3e bc 3a 62 4a bc
       -0.008642911 -0.01170494 -0.0116000045 -0.012352521
000290 40 ba a1 bb 52 f7 db bb a1 40 49 bc a4 b2 98 bc
       -0.004935533 -0.0067128325 -0.012283475 -0.01863987
0002a0 f0 9a 94 bc ef 3e 74 bc 2a de 1f bd 4c 4a f1 bc
       -0.018140286 -0.014907583 -0.03903023 -0.029454373
0002b0 98 e8 90 bb be a5 93 ba 9b e6 88 bc f3 46 85 bc
       -0.0044222586 -0.0011264605 -0.016711524 -0.016269183
0002c0 1b f5 0e bd 8f db 6a bc c2 18 4c bb 47 8e 73 bb
       -0.03490172 -0.014334573 -0.0031142686 -0.0037163661
0002d0 fe 47 53 bc 7d 4b 10 3c 78 10 3c bc 89 48 50 bc
       -0.012895582 0.00880706 -0.011478536 -0.012712606
0002e0 6d ee bd bb ab 4d 99 bb bd 80 10 bb 01 c4 e2 bb
       -0.005796245 -0.004678448 -0.002204939 -0.006920338
0002f0 d0 82 f8 ba f0 7a d2 bc 1e 82 ae bb 3b 6e fa bc
       -0.0018959884 -0.025693387 -0.00532557 -0.03057014
000300 7d 7f 82 bc 47 c6 9f bc c4 58 03 3d 47 39 c6 bc
       -0.015929932 -0.019503726 0.032067075 -0.024197234
000310 5d e7 47 bb 18 4e 20 bc ac b9 01 3c 89 e6 9a bc
       -0.0030502893 -0.009784244 0.007917803 -0.018908756
000320 b5 2d bf 3c e4 4b 96 bb 94 1c 8f bc 8a 46 33 bc
       0.023337224 -0.0045866836 -0.017469682 -0.010942111
000330 66 f0 dc bb 3b 89 1f bb 08 d9 8d ba 6e 1f 8e bb
       -0.006742525 -0.002434327 -0.0010822127 -0.004337243
000340 f7 86 28 bc ff 8c 0d bc 12 ab 98 bb c2 97 cb ba
       -0.010286084 -0.008639573 -0.004659065 -0.0015532898
000350 11 da 5c bc 87 7f bc bc f7 b3 3f bc b4 a3 2a bd
       -0.013479725 -0.023010029 -0.011700622 -0.041660026
000360 8f 05 be bc 1b 33 70 3d 07 f9 a7 3d 83 c0 95 3d
       -0.02319601 0.058642488 0.08201795 0.07312109
000370 dc aa 12 bc ff a3 5f bc 7e 64 9a bc cf 40 05 bc
       -0.008951869 -0.01364994 -0.018846747 -0.008133127
000380 ec a5 72 bb aa 5d 3b bc 84 c4 42 39 ed 50 10 bc
       -0.0037025167 -0.0114359055 0.0001857449 -0.008808357
000390 13 3a 34 bc b9 5e 37 bc 21 91 a9 3c 14 c1 7d 3c
       -0.011000174 -0.011192017 0.020699086 0.015487928
0003a0 fe 40 08 3c 69 d1 4d 3c 91 25 3d 3c 97 38 2a 3c
       0.008316277 0.012562134 0.011544601 0.010389469
0003b0 2b 23 2e 3c b1 8a 87 bb 56 5c 94 bb f4 0a 85 3d
       0.010628502 -0.0041364064 -0.004527609 0.0649623
0003c0 6d 6f d0 3c 5f 6b 63 be 09 5c e0 3c a3 3c 83 3d
       0.025443757 -0.22208928 0.027387636 0.0640805
0003d0 51 de d5 b8 15 4f 16 bd 37 06 b4 bc 3c 64 8a 3c
       -0.00010198041 -0.036696512 -0.02197562 0.016893499
0003e0 b7 7b 9b 3c 0e 9c 46 3c 90 74 47 3c 81 99 7d 3c
       0.01897989 0.012122167 0.012173787 0.015478493
0003f0 fe 9c a2 3c 79 c3 85 3c 89 db f5 3b a8 20 f7 3b
       0.01985025 0.01632856 0.0075029773 0.0075417347

queries.0.weight f4 [64, 3, 1, 1]
000000 de 37 4e bb 06 5e ea 3a d5 4b 6b 3a 24 db f0 3d
       -0.0031466405 0.0017880804 0.00089758384 0.11760548
000010 39 6f f4 3c b5 80 e0 3c bc 1f a4 bc ad bd ca 3b
       0.029838191 0.027405122 -0.020034663 0.006187162
000020 02 0e c4 3c 66 fc e4 bc a8 99 30 bd 9c 7b 8a bd
       0.02393246 -0.027952384 -0.043115288 -0.06761858
000030 df 45 a2 bd 72 71 d2 3d c3 35 e3 3d 80 c1 8f bd
       -0.07923483 0.10275544 0.110942386 -0.07019329
000040 94 c3 a5 bd 05 57 d3 bd 69 1f 7a bd 70 4d 53 bd
       -0.08093944 -0.10319332 -0.06106511 -0.051587522
000050 51 80 44 bd 70 49 2c bd 94 7c 2e 3d 8c f7 6d 3d
       -0.047973935 -0.042062223 0.042599276 0.058097407
000060 20 81 63 3d 49 3e 19 bd 5b c4 c4 bd 5d ea 7a bc
       0.055543065 -0.037412915 -0.09607764 -0.015314666
000070 29 a2 bb bd db 9c d5 3c f6 05 89 3b 2f 19 5f 3d
       -0.09161789 0.026075771 0.004181619 0.054467376
000080 f6 cc ec 3b 51 75 06 3d 7c b6 d0 3c bb af 4f bc
       0.0072265817 0.032826725 0.02547764 -0.012676175
000090 4f d3 86 3d 88 1f 4e 3d 80 ac 84 3c 22 ac 9e bd
       0.06583273 0.05032304 0.016195536 -0.077476755
0000a0 60 11 02 bb 75 7c 1f bd dc e1 2b 3c 81 51 f5 3c
       -0.0019846782 -0.03893705 0.010490861 0.02994609
0000b0 2a 2f 7c 3c f3 02 97 bd 1b 6f 1f bb 55 14 97 bb
       0.015392104 -0.073736094 -0.0024327699 -0.004610578
0000c0 1c b2 50 bc fa c4 0b bd 4b ad 1c bd 30 79 2f 3e
       -0.012737777 -0.0341234 -0.038251203 0.17136073
0000d0 d4 62 d8 3d 02 19 02 3e ca 2b c2 bb ba be 0f bd
       0.10565725 0.12704852 -0.00592563 -0.035094
0000e0 6b 0c ae bb 15 67 29 bd 82 07 98 bd 3c 33 a5 bd
       -0.005311539 -0.041358072 -0.07423307 -0.08066413
0000f0 e7 51 78 bd 8a 06 67 3e ce 0d 56 3e 20 e3 8e bd
       -0.060624983 0.22561088 0.20903704 -0.069769144
000100 0e 61 f4 bd aa 82 01 be 72 f6 ac bd b2 49 84 bc
       -0.11932574 -0.126475 -0.08445443 -0.016148422
000110 85 18 f5 bd be f1 23 bc e3 11 81 bc 2f 3f 53 bc
       -0.11967567 -0.010006366 -0.0157556 -0.012893482
000120 5a 7a 9b 3d c3 c3 b0 3d 28 52 01 3d d9 51 93 bc
       0.07591696 0.086310886 0.03157249 -0.017983364
000130 8c e8 89 bd 7a fc 66 3b 88 43 95 3c 4d 16 31 3d
       -0.06733808 0.0035245703 0.018220678 0.04323416
000140 d9 9c 4f 3c c4 e1 b3 39 ec 49 24 3d ac 0b 2d bb
       0.012671673 0.0003430975 0.04010956 -0.0026404662
000150 0b 7c ae 3d 88 e8 d2 3d 18 bf dc 3d 47 86 57 bd
       0.08519753 0.10298258 0.10778636 -0.05261829
000160 e3 fa ac bb 22 b4 8c bd 06 7f 09 3d b0 db 3e 3c
       -0.0052789315 -0.06870295 0.033568405 0.011649057
000170 13 0d 42 3c c1 a5 18 bd 1b cb b6 bd 25 7d 52 bd
       0.011843937 -0.03726745 -0.08925458 -0.05138888
000180 21 21 90 3c 50 32 39 bd 0a 8b 39 bd 1f 25 f2 3c
       0.017593922 -0.045213997 -0.045298614 0.029558716
000190 5c 9a b8 3d a2 b3 a1 3d f1 06 bb 3c 20 f0 74 bd
       0.09013817 0.0789559 0.022830458 -0.059799314
0001a0 f0 e9 55 bb f7 f7 a6 bd 68 6a b9 bc b4 72 34 bd
       -0.0032640658 -0.08152764 -0.022633746 -0.044054702
0001b0 e2 49 89 3d 30 d4 12 bd ac a0 79 3d c8 69 20 bd
       0.06703545 -0.03584689 0.060944244 -0.03916338
0001c0 49 3b d3 bd 8e 45 d4 bd 50 05 de bd b1 f8 70 3d
       -0.10314042 -0.10364829 -0.10840857 0.05883092
0001d0 39 46 1b be 44 92 b6 bc f6 15 25 bc 01 f6 44 bd
       -0.15163507 -0.022286542 -0.010076037 -0.04808617
0001e0 c6 c5 03 3d 43 71 a5 3d ef 8f 0d 3d d1 15 37 bc
       0.032171033 0.080782436 0.034561094 -0.011174635
0001f0 8d 3e 98 bd fd 73 35 bc b8 50 3b 3d e1 b5 be 3c
       -0.074338056 -0.011075017 0.045731276 0.023280086
000200 e7 57 b6 3b d8 82 2f 3c bd 37 c9 bb 98 f4 09 3d
       0.005564678 0.010712348 -0.0061406777 0.03368053
000210 69 f6 87 3d ee 69 83 3d c9 9e c3 3d 3b 59 92 3d
       0.06638796 0.06416689 0.0955177 0.071459256
000220 33 fe c0 3d 33 7d b8 bd c6 8c 83 3c f4 2a f1 bc
       0.09423485 -0.09008255 0.016058337 -0.029439427
000230 c3 97 16 bc 2c 50 1b bb 8f 1f b5 bd 65 fa d6 bc
       -0.009191456 -0.002369891 -0.0884391 -0.026242444
000240 a5 95 ff 3c 38 d7 26 3d 02 26 be 3b fd 1b 94 3e
       0.031199286 0.040732592 0.0058028707 0.28927603
000250 a3 71 13 be 2c 2e 27 3c 26 48 c3 bb 86 3a a1 bb
       -0.14398818 0.010203879 -0.0059595285 -0.0049203066
000260 d3 7c 47 3c 3f 95 69 bd 5f d9 47 bd fb c1 c9 3d
       0.0121757565 -0.057027098 -0.048791286 0.09851452
000270 37 f1 a3 be e5 a6 3c 3e ba d9 c6 3d 93 b3 d7 bc
       -0.3201997 0.1842304 0.09709497 -0.026330745
000280 01 5f 7c bd e1 ea ab bd b2 17 de ba 92 fb 32 3b
       -0.06161404 -0.08394409 -0.0016944318 0.0027310592
000290 1e a5 b1 3d f3 2a ad 3c a2 b5 ee 3b 69 c3 54 3d
       0.08674072 0.021138644 0.007284836 0.05194417
0002a0 c0 6d 6f 3d 48 f0 9e bd 5c 54 59 bd 88 5c 16 bd
       0.058454275 -0.07760674 -0.053058967 -0.03670934
0002b0 e8 ca 29 bd b4 c3 bc 3c b2 4f 20 3d 52 80 5d 3d
       -0.041453272 0.023042537 0.039138503 0.054077454
0002c0 b7 f1 40 bd 4c 20 73 bb 1f f3 79 3c fb 1d 28 bd
       -0.047105517 -0.0037098108 0.0152557185 -0.041044217
0002d0 6c 40 00 bc a4 5f e9 ba 66 8b c0 bd f9 5c 09 bc
       -0.007827859 -0.0017804992 -0.09401588 -0.008383983
0002e0 8f 85 0f bd ab 7b 26 bd a0 7f 23 3d a7 6b 13 3d
       -0.03503948 -0.040645283 0.039916635 0.035991337
0002f0 c4 04 7f 3a d7 53 cb 3c 23 0d 50 3d 7f 36 75 3c
       0.0009728188 0.024820251 0.05079378 0.014966606

queries.1.weight f4 [64]
000000 ee dc 92 b6 1a 51 0c 3f 64 07 21 3c f3 47 a9 3e
       -4.3768587e-06 0.5481125 0.009828422 0.33062705
000010 cb b0 c8 3e 97 3e 01 3f 1a d9 0b 3f 8a 01 32 3d
       0.39197382 0.5048613 0.54628146 0.0434585
000020 53 89 f1 3d 1d 53 2a 3e 9d 87 81 3e 6d 19 f0 3d
       0.11793771 0.16633268 0.25298777 0.117235996
000030 32 61 99 3e 09 f9 50 3e 95 e6 bd 3d 89 df 4e 3e
       0.29956967 0.204075 0.09272496 0.2020246
000040 6d d6 a9 3d df e3 43 3f 03 13 af 3d b1 23 09 3f
       0.082928516 0.7651958 0.08548548 0.53570086
000050 8e 41 00 3f 3c f4 46 3f 9c bf f6 3e a6 d1 44 3d
       0.5010003 0.7771642 0.4819306 0.0480515
000060 b9 b2 ea 3e 72 10 a4 3e fb 9b 72 3e 03 d3 ad 3d
       0.4583948 0.32043797 0.23692314 0.08487513
000070 41 93 30 3f 3c 08 19 3e 3d c3 92 3d 7f cb 15 3f
       0.6897469 0.14944547 0.07166145 0.58513635
000080 af dd dd 3d 3a c4 01 3f 18 fe a3 3d a1 57 94 3e
       0.108332984 0.5069004 0.08007449 0.28973106
000090 d1 63 16 3e 99 b7 db 3e 3b c4 ab 3e 49 ec 44 3e
       0.14686514 0.4291351 0.3354815 0.1923076
0000a0 a5 4d 13 3f cb 7e a1 3e ba 43 50 3e a5 67 13 3d
       0.5754035 0.31542048 0.20338336 0.035987515
0000b0 ff 76 13 3f 41 74 e9 3d 26 43 83 3c a7 ef f1 3e
       0.5760345 0.11399127 0.01602323 0.47253153
0000c0 c4 13 1d be e6 f9 53 3e fd e8 55 b9 0d ec e8 3d
       -0.15339571 0.20700797 -0.00020400058 0.11373148
0000d0 4f 19 71 3e e3 d0 9a 3e 66 13 8d 3e 88 b3 5d 3e
       0.2354481 0.30237493 0.27553862 0.21650517
0000e0 ad 14 aa 3d e4 8d 34 3e 41 e8 21 3e 4b e0 28 3d
       0.08304725 0.17632252 0.15811254 0.041229527
0000f0 b0 29 41 3e 53 b2 2d 3e b4 cb 2d 3e 59 87 68 3e
       0.18863559 0.16962557 0.16972238 0.22707881

queries.1.bias f4 [64]
000000 76 67 56 3e 15 e9 14 be a0 47 77 3d c6 1d 1d 3e
       0.20937905 -0.14542039 0.06037104 0.15343389
000010 3d 1c 99 3d 83 5d 35 3f b5 f6 01 3e 82 4d 39 be
       0.07476089 0.7084581 0.12691768 -0.18095973
000020 d0 ec 63 be 95 73 87 3e 48 92 eb bd 07 21 bd bd
       -0.22258306 0.2645537 -0.1150251 -0.09234815
000030 2a 24 e3 bc 6c 42 fa 3d 97 a1 33 3d 8f 13 5d be
       -0.027727205 0.122197 0.043855276 -0.21589492
000040 fc 30 a8 be 0f 29 a7 3e 42 1f c4 bc e3 3f bd 3d
       -0.32849872 0.32648513 -0.023940686 0.09240701
000050 e1 75 23 3e a1 7e b7 bd bf ce 7f be d6 40 02 bd
       0.15962936 -0.089596994 -0.24981211 -0.031800114
000060 33 62 96 3e ea 42 22 be b7 55 64 3d 60 dd ab 3d
       0.29371795 -0.15845838 0.055745807 0.08391833
000070 d1 d3 20 3e bf 81 ab bd c4 38 fa 3c d8 87 53 3d
       0.15705802 -0.083743565 0.030544646 0.051643223
000080 f9 cd 14 3e f9 b1 d9 be a1 f5 b2 3d a9 5e 75 be
       0.14531697 -0.42518595 0.08738256 -0.23961891
000090 2d 66 55 be a6 6b c0 be 41 9a d3 3e cb 01 f1 3d
       -0.20839758 -0.3758213 0.41328624 0.1176792
0000a0 b6 da 6f be 11 53 7d 3e fa 7a bf bd e8 24 bb 3d
       -0.23423275 0.24738719 -0.09349628 0.09137899
0000b0 02 c1 66 be 76 e8 72 3e 7c 0c 89 bc f8 e1 72 3e
       -0.22534564 0.2372149 -0.016729586 0.23719013
0000c0 c2 04 b3 3b 86 22 73 bc 5a ac 9a 3d 8e 22 4c be
       0.0054632137 -0.014839774 0.07552405 -0.19935057
0000d0 23 9f 84 bc b8 08 8e bd f8 88 90 bd 6a 2f 4f be
       -0.016189164 -0.06935257 -0.07057375 -0.20232931
0000e0 45 f8 52 be 46 5e 19 bc ed b2 9d 3d c0 05 95 bd
       -0.2060252 -0.009360855 0.07700143 -0.07276487
0000f0 b4 7a af 3d 3d 95 92 3e 10 ac 6f 3e 94 c3 b1 3b
       0.08568326 0.28629485 0.2340548 0.005424926

queries.1.running_mean f4 [64]
000000 19 52 6a b9 d2 29 9f 3d 04 e1 94 3a 21 f8 74 bd
       -0.00022346563 0.077716485 0.0011358564 -0.059806947
000010 3d d8 5c 3d 55 ab e1 bd 23 a4 8f bd bc 8e be 3c
       0.05391716 -0.11019007 -0.070137285 0.02326142
000020 d9 a3 fb bc 51 18 19 bd 91 64 f1 3c eb 9e b6 3c
       -0.030717777 -0.037376706 0.0294669 0.022292575
000030 14 3f 71 3d 0e 88 57 bd a0 e5 c5 3c f0 58 17 bd
       0.058898047 -0.052619986 0.024157345 -0.03695005
000040 40 70 14 bd fd af 34 3e f0 31 a0 bc 98 0b ad bd
       -0.036239862 0.17645259 -0.019555062 -0.08449477
000050 5c 84 21 3e bd 36 0b be 70 5e c0 bd 1a ca 8a bc
       0.15773147 -0.135951 -0.093930125 -0.016942073
000060 63 43 af 3d 88 09 15 bd 46 1a 06 3d c6 bb 76 3c
       0.08557775 -0.036386043 0.0327399 0.015059417
000070 1a 5a 03 3e 0e 8e 5a bd 33 c5 d4 3c 6a aa 9e bd
       0.1282734 -0.05335813 0.025972938 -0.07747348
000080 65 a3 f6 bc 20 14 ae 3d 6e ff 92 bc 73 05 85 bd
       -0.03010721 0.08499932 -0.017944064 -0.0649518
000090 a9 41 20 3d ba 6b d9 bd ab 3b af bd 87 64 0e bd
       0.03912512 -0.1061625 -0.08556303 -0.03476384
0000a0 da 0c 84 3d 02 48 2f bd ed be 0b 3d da 3f 80 3c
       0.06447764 -0.04279328 0.034117628 0.015655447
0000b0 10 1a c7 3d e5 22 19 3d eb 39 24 bc 3e 2f 4f bd
       0.09721768 0.037386794 -0.010023574 -0.050582163
0000c0 af 62 0e 3d c1 52 93 3d 0e 99 88 b8 80 13 de bb
       0.03476208 0.071935184 -6.513494e-05 -0.006777227
0000d0 ab 83 c0 bc 3e 84 95 bd 21 2e 0f 3d 25 96 0b 3d
       -0.023500284 -0.07300614 0.0349561 0.034078736
0000e0 ab 94 ef bc 3b d5 d9 bc a7 c3 be 3c 00 a2 40 bc
       -0.029245695 -0.026590934 0.023286654 -0.011757374
0000f0 17 ad 2b bd b6 66 11 bd 42 6f 0d 3d 19 8d 22 3d
       -0.04191312 -0.035498343 0.03452993 0.039685342

queries.1.running_var f4 [64]
000000 d1 5f b6 34 74 9b 2e 3b c4 26 eb 37 7f c3 d7 3a
       3.3969857e-07 0.002664295 2.8032235e-05 0.0016461461
000010 e7 46 00 3b c0 d8 b2 3b 00 07 0e 3b 01 ad d8 39
       0.001957351 0.0054579675 0.0021671653 0.00041327628
000020 55 b7 4d 3a ce be 32 3a 2d 1e d3 39 be 74 6e 39
       0.0007847448 0.0006818593 0.0004026754 0.00022740939
000030 27 0a c6 3a 68 be a2 3a 46 f2 89 39 60 8e 24 3a
       0.0015109227 0.0012416365 0.00026311184 0.0006277319
000040 6d 29 1f 3a ce cc 60 3c 73 93 36 39 cd a2 54 3b
       0.00060715416 0.013720704 0.00017411802 0.003244567
000050 25 d4 51 3c 23 33 09 3c 64 e7 85 3b 75 33 06 39
       0.012806927 0.008374008 0.004086422 0.00012798405
000060 f6 9c 51 3b c0 74 1d 3a ea 2a f9 39 54 3c ee 38
       0.0031984425 0.0006006472 0.00047524954 0.00011359961
000070 2f 07 f1 3b f9 09 ad 3a d6 16 9b 39 d4 11 30 3b
       0.0073555927 0.0013201825 0.00029580918 0.0026866095
000080 16 7c 00 3a 42 85 59 3b 05 3a 4d 39 f4 19 f4 3a
       0.0004901303 0.0033191 0.00019571937 0.0018623457
000090 10 97 4b 3a 74 2f a9 3b 66 80 73 3b 01 c6 14 3a
       0.00077663455 0.0051631276 0.003715539 0.0005675257
0000a0 32 81 f3 3a 1e ac 5b 3a 44 71 05 3a fc 45 0a 39
       0.0018577932 0.00083798345 0.0005090425 0.00013186777
0000b0 e0 f2 8b 3b b4 5e 6f 3a c2 a3 86 38 20 15 9d 3a
       0.0042708963 0.00091312383 6.42012e-05 0.0011984445
0000c0 26 b8 0a 3a 7c 65 6c 3b 47 9d a1 36 0e 92 b3 39
       0.00052917225 0.0036071232 4.8164834e-06 0.0003425036
0000d0 97 37 3a 3b dd eb 22 3b 67 72 3c 3a db 52 12 3a
       0.0028414482 0.0024859824 0.0007188678 0.00055818044
0000e0 87 3c 26 3a 80 bf af 39 d2 ed a7 39 d4 3b d5 38
       0.0006341417 0.0003352128 0.00032029912 0.00010167775
0000f0 af 5a 7f 3a 5e cc 1b 3a 2a d3 08 3a 45 bd 36 3a
       0.0009740991 0.0005943234 0.0005219454 0.00069709524

keys.0.weight f4 [16, 3, 1, 1]
000000 55 49 17 bc 44 2a 26 3b da d4 35 3c 2f 36 bd bc
       -0.009233792 0.0025354782 0.011098111 -0.023097126
000010 3d 61 ab bc ce 87 4d bc e4 a6 92 bc 8a db e0 ba
       -0.02092039 -0.012544585 -0.017901845 -0.0017155271
000020 14 72 89 bb b3 f8 a5 bd 78 a1 05 be b4 6c 2d be
       -0.0041945074 -0.08104076 -0.13049877 -0.16935998
000030 c9 91 0f 3e db bb 4a 3e fe b9 3c 3e 6f db df bd
       0.14020456 0.19798224 0.18430325 -0.109305255
000040 bb 72 8a bd f6 5c 9a bd 7b e7 00 3e af 49 80 3d
       -0.06760164 -0.07537262 0.12588303 0.06264054
000050 67 b6 23 3d 64 e2 40 3d bf 6f 59 3d 21 02 62 3d
       0.039968874 0.047090903 0.053085085 0.05517781
000060 a8 d3 0a 3d bc d6 fc 3c ca 62 3c 3d ea c3 58 3d
       0.033893257 0.030864112 0.04599265 0.052921213
000070 ae 5c 4f 3d bb 40 26 3d f6 12 c8 bd 49 b7 50 bd
       0.050625496 0.040589076 -0.097692415 -0.050956044
000080 ad f0 ee bc 75 60 11 bc 7f 0f 0f bb 9c 1c 5b bb
       -0.029167498 -0.008873095 -0.0021829305 -0.00334338
000090 47 4b 5f 3d 8b 2d 9e 3d d6 05 b7 3d 7a 5f b7 bc
       0.05451515 0.077235304 0.0893666 -0.022384394
0000a0 da 81 0a bc 96 32 da 3c b5 f5 86 3d 49 d8 8a 3d
       -0.008453811 0.02663545 0.06589834 0.06779534
0000b0 15 ac 5f 3d e4 c4 84 bd b9 38 53 bd 4d 39 8b bd
       0.05460747 -0.064828664 -0.051567767 -0.06798039

values.0.weight f4 [4, 3, 1, 1]
000000 92 18 c9 3e b3 b2 0d bd 1a 4a 25 be 2c 66 7b bd
       0.39276558 -0.03459425 -0.16141549 -0.061376736
000010 48 00 cd be 50 42 aa 3e 63 a0 ad be fa a1 81 be
       -0.40039277 0.33253717 -0.33911428 -0.2531889
000020 1a 3f 14 3e e7 d2 1e be fb a4 56 be 06 f8 2d be
       0.14477196 -0.1551014 -0.20961373 -0.16989145

values.1.weight f4 [4]
000000 80 e7 31 3f 06 02 0c 3f 45 43 5b 3f 5c de 53 3f
       0.69493866 0.5469059 0.8564952 0.8276117

values.1.bias f4 [4]
000000 54 4d 48 be 53 d1 86 3e ff 0a 88 be 6b ca 8d 3e
       -0.19560748 0.26331577 -0.2657089 0.27693495

values.1.running_mean f4 [4]
000000 7d e4 c6 3d 5a 46 8f bd 9b 0d 54 be f3 d2 6d be
       0.097115494 -0.0699584 -0.20708315 -0.23225002

values.1.running_var f4 [4]
000000 b0 e7 e6 3b a2 a0 c5 3b 8d 8a a4 3c 4f 48 c4 3c
       0.0070466623 0.006031112 0.020085597 0.02396026

conv.0.weight f4 [8, 16, 1, 1]
000000 b3 49 eb 3c ab 50 46 bc 57 64 29 3d c4 a9 f8 bb
       0.028721666 -0.012104194 0.041355457 -0.007588597
000010 90 7f 33 3d 16 ce da bb a0 a6 25 3c c3 24 17 be
       0.043822825 -0.0066773994 0.010110527 -0.14760117
000020 81 2b 35 bd 0b 31 09 3b b4 9e 91 3c 16 e5 40 bc
       -0.04423094 0.0020933773 0.01777587 -0.011773368
000030 83 fb 2d be ae 43 c8 3d 4a d1 6d be c1 ea 22 3e
       -0.16990475 0.09778534 -0.23224369 0.15909864
000040 b9 d5 12 3d 83 80 38 bd 13 38 0c 3e 8e 01 b3 3d
       0.035848353 -0.045044433 0.13693266 0.08740531
000050 3d 35 ac bb 13 8f 0a 3d aa 48 f8 bd 6d 36 e8 bd
       -0.00525537 0.033827852 -0.121232346 -0.11338506
000060 eb b2 60 bd 83 ec 85 3d 8b ed 01 be c6 cf 16 bc
       -0.05485813 0.06539252 -0.12688272 -0.0092048105
000070 f1 0a 93 3c 07 a8 e5 bc f8 5d b0 bd e4 53 95 be
       0.017949553 -0.028034223 -0.08611673 -0.29165566
000080 ab ea fa 3d 98 e9 8d bd d4 8c 4c 3e fa a3 f5 bd
       0.122517906 -0.0692932 0.19975597 -0.11994167
000090 3b 08 1c bd 71 88 cd 3b c7 21 85 3d 00 ce 61 be
       -0.038093787 0.0062723686 0.06500583 -0.22051239
0000a0 fe 27 02 3c 3a 4a 02 3c 09 46 19 be 7b 75 d7 3d
       0.007944105 0.007952267 -0.14968123 0.105204545
0000b0 4b cf 01 3d 27 d2 67 3b cd 8d f8 bd cd 88 42 3e
       0.03169183 0.0035373063 -0.12136421 0.18997498
0000c0 a5 4d e4 bd 15 48 83 bd bc 58 36 be 7c 34 be 3d
       -0.11147622 -0.06410233 -0.17807287 0.09287354
0000d0 9a ad 1e bd 83 95 b0 3c e0 63 f1 bd 2d 4d 80 3c
       -0.038739778 0.021555668 -0.11786628 0.0156618
0000e0 06 f2 df 3c 83 da 7b 3e 41 2e f3 bd 90 11 6c 3e
       0.027337085 0.24595074 -0.118740566 0.23053575
0000f0 60 97 81 3c 7b 0f 84 3d c5 34 63 3b 63 a4 1f 3e
       0.015819252 0.06448265 0.0034668904 0.15590052
000100 31 72 23 bc 5c e1 3b 3d 53 fa 2c bd 01 c1 1d be
       -0.009975956 0.045869216 -0.042230915 -0.15405656
000110 f0 20 ea 3d 8d aa fd bd 8f 51 9e 3e 29 d2 b3 bd
       0.114320636 -0.123860456 0.309216 -0.08780319
000120 b1 b7 b4 bd 27 18 b6 3d 1c b7 83 be b9 ac 35 ba
       -0.08824099 0.088913254 -0.2572564 -0.000693034
000130 e6 e7 bf 3d 7c 49 fa bd db cc 87 3e e2 59 9d bd
       0.09370403 -0.12221047 0.2652348 -0.076831594
000140 31 14 8d 3d df f5 9a bd 2a c4 e8 3d 49 67 9e bd
       0.06888617 -0.075664274 0.1136554 -0.07734544
000150 7f 7e 01 3e 89 34 e1 bd 67 2b 70 3d 0e 10 96 3d
       0.1264591 -0.109963484 0.05863514 0.07327281
000160 cb 63 f2 bd ef c1 00 3e 31 b8 22 be 41 fd 57 be
       -0.1183544 0.1257398 -0.15890576 -0.21092702
000170 7e c1 c0 3d 11 c3 fc bc 7b 45 b8 bc 21 b9 1b 3c
       0.09411906 -0.030854734 -0.022494068 0.009504587
000180 28 4c 84 bd 57 b6 3e 3b 21 67 9b bd 88 c0 1e 3d
       -0.06459838 0.0029100382 -0.0758803 0.03875783
000190 15 07 cd 3d 3d 59 97 bd 53 24 85 bd c5 09 0f 3e
       0.100111164 -0.07390068 -0.06501069 0.1396857
0001a0 a9 c0 62 3d dd ca 2b bc 78 84 52 3e 33 ee a3 3d
       0.055359516 -0.010485378 0.20558345 0.08004417
0001b0 62 65 07 be e3 40 e7 3d a1 89 48 bd 9c 00 13 be
       -0.13222268 0.11291673 -0.04895938 -0.14355701
0001c0 64 fd 7e bd 75 71 18 3c 51 d7 dc bc e1 bb b2 3d
       -0.06225337 0.009304394 -0.02695814 0.08727241
0001d0 12 3d 8a bd 28 49 27 3d 80 a6 38 be b2 7f 3d 3e
       -0.067499295 0.04084125 -0.18032265 0.18505743
0001e0 58 1c b8 bd c3 e0 b6 3d 2b ba 62 be 5c 2a 5a 3d
       -0.08989781 0.08929589 -0.2214133 0.053263053
0001f0 c6 e7 84 3c e1 90 0c bc c4 90 7e bc 3c f5 03 3e
       0.0162238 -0.008579464 -0.0155374445 0.12886518

conv.1.weight f4 [8]
000000 b3 36 17 3f 93 46 d4 3e b7 62 1c 3f 9b c8 7d 3e
       0.5906784 0.41460094 0.61088127 0.24783556
000010 04 98 60 3f a4 5d 11 3f c3 8c e3 3e 1c 64 9c 3e
       0.8773196 0.5678351 0.4444333 0.30545127

conv.1.bias f4 [8]
000000 96 99 c0 be f7 bd c1 bd d9 a0 3d be c9 ec cc 3e
       -0.37617177 -0.09460061 -0.1851839 0.40024403
000010 08 a8 47 bf 6d 26 88 bd 78 b7 90 3d 9a 80 c4 3d
       -0.7799077 -0.06647954 0.07066244 0.09594841

conv.1.running_mean f4 [8]
000000 6e f8 83 3d 08 4e 33 be 24 af c5 be 53 a0 e2 be
       0.064438686 -0.17510235 -0.38610184 -0.44262943
000010 d2 02 03 bf c2 c6 df bd e6 d6 d4 bd 63 78 66 be
       -0.5117618 -0.10926582 -0.10392551 -0.22506861

conv.1.running_var f4 [8]
000000 f5 23 06 3e 89 4f dd 3d b0 4b b7 3e be 23 b4 3f
       0.13099654 0.10806186 0.35799932 1.4073408
000010 12 27 cd 3e d0 8e 78 3f 86 eb 46 3f 66 1a b8 3d
       0.4006887 0.97092915 0.7770313 0.0898941

conv.3.weight f4 [3, 8, 1, 1]
000000 28 81 46 3e 76 d9 9d 3d 46 cc 98 bc 1d 59 0b 3e
       0.19385207 0.07707493 -0.018652093 0.13608213
000010 95 b4 d2 be 23 b2 be bc 0e 60 b6 bd 64 c8 ad bd
       -0.41153398 -0.023278302 -0.0890504 -0.08485487
000020 d3 5f b6 3d 1e fa 87 3d 1b fd 9c 3d 5a 7e 8e 3e
       0.08904996 0.06639503 0.076654635 0.27830774
000030 b1 d3 c4 be 15 34 44 bd 05 2b ea bd 32 3f 95 bd
       -0.38442758 -0.04790123 -0.114339866 -0.07287444
000040 51 df 63 3c 36 f0 41 3d a7 ce 52 3e 84 91 a5 3d
       0.013908223 0.047348224 0.20586644 0.080843955
000050 3d 82 da be 3d 24 2b be 32 11 be bb 29 8f 7b bd
       -0.4267749 -0.16713043 -0.0058003897 -0.061415825

conv.4.weight f4 [3]
000000 f9 c5 80 3f bd e7 92 3f c1 63 8d 3f
       1.0060416 1.1476971 1.1046067

conv.4.bias f4 [3]
000000 61 3e 8c be ab e9 98 be cc fc be be
       -0.2739134 -0.29865775 -0.37302244

conv.4.running_mean f4 [3]
000000 eb 60 cb bc 64 14 0b 3d c0 a5 1b bd
       -0.024826488 0.033954993 -0.03799987

conv.4.running_var f4 [3]
000000 b0 6f 07 3d 14 55 14 3d 81 08 1c 3d
       0.033065498 0.03621395 0.038094047

shortcut.0.weight f4 [3, 16, 1, 1]
000000 4e 38 5e 3d cf 42 1c 3d ca 7e 17 3d 55 0e 4c 3e
       0.054252915 0.03814965 0.03698615 0.19927342
000010 64 09 36 bc cd f2 cc 3d 9c 75 af be c6 10 93 3d
       -0.011110637 0.10007248 -0.34269416 0.07180934
000020 b1 56 82 be 45 d1 34 bd eb 64 f1 bc de 82 07 3e
       -0.25456765 -0.044144887 -0.029467067 0.13233516
000030 ee be 65 bd 2d 2d d7 bc 02 e8 b0 3d b1 bd e2 ba
       -0.056090288 -0.026266659 0.08638002 -0.0017298964
000040 3e 33 d8 bd 8d c8 d5 bd 74 f9 c3 3c 9a a7 73 3e
       -0.10556649 -0.10438643 0.02392266 0.23794404
000050 75 a6 e9 bd 7c d2 a9 3b 26 6f a4 be a9 e2 a4 bb
       -0.11408702 0.0051825624 -0.3211605 -0.005031903
000060 4c ed 9f 3d 99 00 f6 3d 56 bf 34 3d 1e 7b 6b 3e
       0.07808933 0.12011833 0.044127785 0.22996184
000070 ec ab 09 3d d0 b6 b6 bc 13 aa 17 3e cf 6c 1e bd
       0.033611223 -0.022303969 0.14810972 -0.038677987
000080 6b ca 0c bd 89 5a a3 3d 45 9e ef bb 5c b4 24 3e
       -0.03437273 0.079762526 -0.0073125684 0.16084427
000090 a8 8e d6 bd ae 5e ea 3d f9 31 12 be 62 d7 3a be
       -0.10476428 0.1144384 -0.14276876 -0.18246225
0000a0 b0 28 17 3a c5 dd c1 bd 51 b8 0e be 03 9a ad 3e
       0.0005766256 -0.09466127 -0.13937499 0.33906564
0000b0 b7 e7 ff 3d 2d c8 fa bd bf ad 16 3e 22 47 8b 3d
       0.12495368 -0.12245212 0.14714716 0.06800677

shortcut.0.bias f4 [3]
000000 46 0a a9 35 e1 88 bb 35 3f ba 8e 36
       1.2594471e-06 1.3972423e-06 4.2536117e-06

shortcut.1.weight f4 [3]
000000 c6 13 a6 3f 60 1b 86 3f 16 2a 97 3f
       1.2974784 1.0477104 1.1809719

shortcut.1.bias f4 [3]
000000 61 3e 8c be ab e9 98 be cc fc be be
       -0.2739134 -0.29865775 -0.37302244

shortcut.1.running_mean f4 [3]
000000 df d1 b9 bd ff a3 22 be cc 8c 61 be
       -0.09073233 -0.15882872 -0.22026366

shortcut.1.running_var f4 [3]
000000 b0 94 19 40 27 bb 19 40 7e 22 df 3f
       2.3997002 2.4020479 1.7432401
