code/models weights/Lambda_gaussian_0.1_25_Conv.pth (torch, 45209 bytes, 22 tensors)

embedding f4 [16, 1, 1, 23, 23]
000000 59 29 b9 3b 7d c1 ae ba 10 bb 72 3b b6 cb d0 ba
       0.005650681 -0.001333281 0.0037037767 -0.0015929851
000010 23 45 59 bb 5c 0b 11 ba b8 8d 15 bb cb d2 94 3b
       -0.003315278 -0.0005533004 -0.0022820067 0.00454173
000020 8f 46 1f bc d2 03 0b 39 cf 4e 50 3b 45 7b 09 bc
       -0.009721412 0.00013257496 0.0031785255 -0.008391206
000030 ab 2c 3d 3c 73 5f ee bb 2e 35 20 bb 09 29 fc 3b
       0.011546294 -0.007274562 -0.002444576 0.0076953215
000040 00 d7 87 bb cc 01 61 bb a0 47 59 3a d7 aa 05 bb
       -0.004145503 -0.0034333346 0.0008288566 -0.0020396018
000050 f2 c8 54 3b 05 98 46 b9 5b 15 a1 3c 53 ea fa ba
       0.0032468406 -0.00018939383 0.019663503 -0.001914332
000060 69 d0 88 ba d0 0b 83 bb 2c 11 ed ba 21 60 79 3b
       -0.0010438088 -0.003999211 -0.0018086783 0.0038051682
000070 7e af 06 3b ea dd 9f bb 1e bb 37 3a c3 5a 42 bb
       0.002055138 -0.004878749 0.00070087786 -0.002965615
000080 c3 d0 4d bc 17 b3 ff 3b 1c f1 7f bc 5a 2f b7 3b
       -0.01256198 0.0078033316 -0.01562145 0.0055903615
000090 60 df 6d 3d 12 e3 50 ba 71 f8 7c bb dd d2 54 bb
       0.058074355 -0.00079684064 -0.003860023 -0.0032474317
0000a0 8e 32 6d 3a fc 12 ac bb 42 87 f5 3b 36 b6 c3 3b
       0.0009048366 -0.0052512866 0.0074929306 0.005972649
0000b0 e6 8c 96 bb 13 aa fc ba 8d 79 99 b9 2d 7c b9 3c
       -0.004594433 -0.001927676 -0.00029272996 0.02264222
0000c0 43 bb 22 bb 91 e2 67 3a 34 08 81 3b bf 38 ac ba
       -0.0024830855 0.0008845712 0.0039377455 -0.001313947
0000d0 fc cd 48 bb cf cf 6c 3b 1d 16 10 bc cb f4 b0 bc
       -0.0030640354 0.0036134606 -0.008794335 -0.021601101
0000e0 7e 9f ed 3b 51 1a 6c bc 1a 40 13 3c 00 b7 05 39
       0.007251679 -0.014410571 0.008987451 0.00012752041
0000f0 a6 77 16 bb da c5 1e bb a5 7c 84 bb c6 a2 68 bb
       -0.00229595 -0.0024226815 -0.004043179 -0.003549741
000100 ce 2b f2 bb 1c 93 2f bb 61 e5 20 ba 3e 93 44 3b
       -0.007390476 -0.0026790565 -0.0006137696 0.002999499
000110 de 52 f8 ba 17 d9 03 3b a0 91 2f bc db 55 d9 bc
       -0.0018945595 0.002011841 -0.010715872 -0.026530197
000120 2b db be 3b c2 1e 1b bc 93 83 bc 3a c5 74 22 bc
       0.0058244667 -0.009467782 0.0014382474 -0.009915535
000130 b9 ad 1d bb 4c b5 ff ba 7a 0e 03 bd 6c 17 1d 3c
       -0.0024059846 -0.0019508987 -0.031996228 0.009588104
000140 70 f2 a2 bc 69 73 25 3c 01 13 83 bc dd 6e c0 3b
       -0.019890994 0.010098317 -0.016000273 0.005872591
000150 07 fd 28 3a 67 1d 12 bc 99 14 c1 ba c2 e7 1e 3b
       0.00064463954 -0.008918143 -0.001473087 0.0024247025
000160 48 1b fb bb c8 38 9a bb 95 9a d4 bc 77 8d 06 b9
       -0.0076631643 -0.004706476 -0.025952617 -0.00012831936
000170 d6 73 51 bb 69 ba e4 b9 84 4e aa 3a f6 b9 8e bb
       -0.0031959913 -0.00043626435 0.001299337 -0.0043556644
000180 2b d7 94 ba 48 2e 2b b8 18 85 b1 3a 9b 87 6e bb
       -0.0011355629 -4.081268e-05 0.0013543693 -0.0036396745
000190 0c 05 0f 3a e9 2d 15 ba 40 e6 84 3c 82 60 10 bc
       0.0005455769 -0.000569074 0.016223073 -0.008812072
0001a0 0e 3c b9 3b 26 0b 67 bb 9e de cb 3a 36 16 9e ba
       0.005652911 -0.0035254448 0.0015554016 -0.0012061063
0001b0 01 26 bc 3b e9 94 bf bb 01 b1 05 bb 73 c6 12 bc
       0.005741835 -0.005846609 -0.0020399692 -0.008958447
0001c0 45 e3 08 bb 7d 6c 89 bb 22 1c a8 ba dc e3 8f bb
       -0.0020887416 -0.004193841 -0.0012825767 -0.0043911766
0001d0 a1 d9 86 b9 48 04 1f bd 9d c0 be bc 17 b1 cc 3b
       -0.00025720618 -0.038822442 -0.023285205 0.0062466967
0001e0 2f 34 9b 3c 4f 69 44 bc 94 de 01 3b d6 f5 d3 3b
       0.018945782 -0.011987998 0.0019816505 0.006468515
0001f0 74 89 dd 3c 9d 0d cf 3b e6 27 6a bd ff 49 bb 3c
       0.027043082 0.0063187615 -0.057166956 0.022862433
000200 1f 98 13 bb 09 12 ed 3a 67 2b a8 3a 16 55 c3 b9
       -0.002252109 0.001808704 0.0012830318 -0.00037256692
000210 68 a8 d2 bb 1d 0f 8b bb 91 9d 6f bb 5c 9f bb 3c
       -0.006428767 -0.004243745 -0.0036562423 0.022903137
000220 40 63 d8 ba 47 86 e9 39 f2 47 14 bb d7 54 dd bb
       -0.0016509071 0.00044541268 -0.002262589 -0.0067544985
000230 b4 90 ee 3a 2d ed 60 3a 9e 6a 18 3c 1b e5 2e bc
       0.0018201084 0.0008580264 0.009302763 -0.01067474
000240 23 76 0c 3c 15 5c c1 3c e4 c2 74 3b 69 a8 38 bc
       0.008573088 0.023603478 0.003734761 -0.011270621
000250 85 b9 4a 3c a4 7b 74 bc de c2 57 3c a9 90 ed 39
       0.012373333 -0.014922056 0.013169019 0.00045311943
000260 16 68 a8 3b be 20 b0 ba 83 2f 38 bb 39 9b b6 ba
       0.005139361 -0.0013437492 -0.002810449 -0.0013931758
000270 a4 eb bc 3a a0 55 81 bb a8 7f 73 bb b7 0f 21 bb
       0.0014413488 -0.003946975 -0.0037154946 -0.0024576017
000280 5b bb b6 ba 01 72 a0 bb bb 59 07 3a cb a6 a6 3a
       -0.0013941334 -0.004896403 0.0005163212 0.0012714503
000290 d1 c6 5c 3b 41 78 91 3b 21 0f 25 3b 76 36 38 b9
       0.003368784 0.004439384 0.002518602 -0.00017567896
0002a0 06 c6 8d 3b 25 44 e9 3b 51 f1 9a bb e7 3c 52 3c
       0.0043265847 0.007118719 -0.004728474 0.012831903
0002b0 de 7e 8b bb 67 b4 85 3c 73 dc 1e bb 95 39 24 3c
       -0.004257067 0.016321374 -0.0024240285 0.010023494
0002c0 8d 2d de bc 15 a4 74 ba 04 19 ec 3b 6a 65 8b 3a
       -0.02712133 -0.00093323115 0.0072051305 0.0010635082
0002d0 ec d0 c0 ba a8 2c d0 3c 8a 73 91 3a e9 ad 41 ba
       -0.0014710701 0.025411919 0.0011097055 -0.00073882804
0002e0 3c 19 40 b9 61 10 b6 3a a9 1d 02 3c e7 c5 d4 3a
       -0.00018319947 0.0013890379 0.007941642 0.0016233296
0002f0 8a 6b 8f 3b 66 26 37 bc a3 d5 03 3b 2a 97 91 ba
       0.0043768333 -0.0111785885 0.002011635 -0.0011107672
000300 83 4a da 3b ac f1 f5 3b 04 d9 a0 3d 43 7c b2 bc
       0.0066617145 0.007505616 0.078538924 -0.021787768
000310 06 c8 3b 3c af 62 89 3b de 6a 51 3c 9e 42 c5 3b
       0.0114612635 0.004192672 0.012781827 0.0060199043
000320 6a 1c 48 3d 36 9d 55 bb 06 93 6c bc df 81 04 bb
       0.048855223 -0.0032594926 -0.01443935 -0.002021901
000330 c3 8f 95 ba 4e 7e d1 3b 2a 06 ce 3b 75 30 a9 bb
       -0.0011410642 0.0063932305 0.006287356 -0.005163247
000340 13 ba 2c bc e8 4b cb bb 82 a9 46 bb 3d fd f3 3b
       -0.01054241 -0.006204117 -0.0030313437 0.00744596
000350 7a 90 3c bc 5e 3d 10 bc 51 9c a7 3b 72 03 68 bc
       -0.011509055 -0.008803694 0.00511507 -0.014160978
000360 e5 26 4f bb 8b 21 00 3d 37 45 bd 3b 3c 78 40 3d
       -0.0031608876 0.03128199 0.0057760733 0.046989664
000370 67 73 3d 3c 5c ed b5 3b 93 2d 99 3a 90 58 93 3b
       0.011563159 0.005551977 0.0011686556 0.0044966415
000380 e8 a9 38 ba b2 aa a7 bb 2f aa 8a 3b 44 eb ba bb
       -0.0007044361 -0.005116784 0.0042317132 -0.0057043154
000390 dd da c9 bb 5b 97 03 bc 03 50 c3 3b 97 56 22 3c
       -0.0061601237 -0.008031691 0.005960466 0.00990834
0003a0 9a fb fb 3a f7 9d 94 3c 6d 2c f6 3b b0 9d 02 3c
       0.0019224763 0.01814173 0.00751262 0.007972166
0003b0 04 d5 72 3c 71 2b 81 3c b6 24 e2 3b b7 49 4f 3d
       0.014821295 0.015767785 0.006901349 0.05060741
0003c0 9c 8b b7 bc 84 ef 5f be ed 33 38 bc e5 cf 22 3d
       -0.022405438 -0.21868712 -0.011242849 0.039749045
0003d0 20 6a 88 3c 64 cb 8f bc 83 ea 78 bc 1e fb 7c 3c
       0.016652167 -0.017553039 -0.015192631 0.01544073
0003e0 bf 40 96 3c 78 34 bd 3b a3 a6 9c 3b ca 35 ec 3b
       0.01834142 0.005774077 0.004780607 0.0072085606
0003f0 13 ac 9c 3b 09 cc 94 bc 27 77 da ba 4d 6e 21 bb
       0.004781255 -0.018163698 -0.001666759 -0.0024632395

queries.0.weight f4 [64, 3, 1, 1]
000000 6e 9a 36 bd f0 62 12 3b 9d ea a8 bc bc ca b7 3d
       -0.04458087 0.0022336803 -0.020619685 0.089742154
000010 cd 1c 27 3d 35 0f 4b 3c 4c 74 43 3d da 88 11 3c
       0.04079895 0.012393762 0.04771833 0.008882726
000020 e1 94 1c bc ae a6 7d bd 25 75 28 bd 40 df 9a bc
       -0.00955698 -0.061926536 -0.041127343 -0.018905282
000030 3c 76 23 3d 7a ad 6b 3d e0 11 af 3c 96 b6 b7 bd
       0.03990768 0.057538487 0.021370828 -0.089703724
000040 07 d7 32 bd 63 15 d4 bc f1 71 ca 3a d2 26 f0 bc
       -0.043662097 -0.025889104 0.0015445334 -0.029315386
000050 1b 80 ab bd b8 b2 6e bb 80 78 2c 3c 39 c0 81 bd
       -0.083740436 -0.0036422443 0.010526776 -0.06335492
000060 7c 5b d6 bc f8 b9 8c bd 8b dc 45 bd ab bd 8e bd
       -0.02616667 -0.06871408 -0.04830603 -0.0696977
000070 0a a0 8d bc f9 32 b4 3c d0 39 70 3d c5 f8 32 3d
       -0.017288227 0.021996962 0.058648884 0.043694276
000080 e5 ea 3b bd 06 63 1d bd 91 50 14 bd 02 db 08 bd
       -0.04587831 -0.038424514 -0.036209647 -0.033411987
000090 b7 0b 7b 3d 97 92 59 3d 98 f9 2d 3c c7 47 27 bd
       0.06129047 0.053118315 0.01061859 -0.040839937
0000a0 47 dc 8f bc ea 2e 5e bd 80 2d 55 3d b3 10 2f 3d
       -0.017561091 -0.05424396 0.052045345 0.042740535
0000b0 15 78 03 bd ba 04 79 bd 9c 4b 53 bc de 90 a2 3c
       -0.03209694 -0.060795523 -0.012896445 0.019844469
0000c0 3a 2f 19 bd eb 4d e4 bc 34 57 11 bd ac 8b f2 3d
       -0.037398554 -0.027869185 -0.035483554 0.118430465
0000d0 24 95 b3 3d 30 d6 9c 3d 7b 17 2b 3d 30 70 63 bc
       0.08768681 0.076580405 0.04177044 -0.013881728
0000e0 7b cd 28 bd 05 5d 8b bd 54 35 a1 bd da 68 aa bc
       -0.041211586 -0.068048514 -0.078715 -0.02080195
0000f0 38 38 63 bc 52 6a f0 3d 5d 3b 03 3e 4a e8 49 bc
       -0.013868384 0.11739029 0.12815614 -0.012323448
000100 a9 05 90 bd 77 69 8a bd 6e ae 64 bc 76 36 44 bd
       -0.070323296 -0.06758397 -0.013957603 -0.0479035
000110 78 11 74 bd 4d 35 d2 bc ff 16 ec bc e2 47 f3 bc
       -0.059586972 -0.025660181 -0.02881956 -0.029697362
000120 31 39 ac 3d 87 d1 cd 3d 2d 2f 7c 3d 26 16 82 bd
       0.08409346 0.1004973 0.061568428 -0.06351881
000130 59 c5 1b bd 9a f2 8f bc 4f fa 6d 3d 3b 54 02 3d
       -0.038030002 -0.017571736 0.05810004 0.03181861
000140 fc 8f e0 bc e7 83 87 bd 96 d8 b7 3b 2d c6 51 bc
       -0.027412407 -0.06616955 0.005610536 -0.012803596
000150 2d 5e ae 3d 82 aa 96 3d cc 83 4a 3d 55 0f f1 bc
       0.08514056 0.073567405 0.049442098 -0.029426256
000160 f1 24 de bc 0b 00 34 bd 6e 38 0b 3d 57 2e 1d 3d
       -0.027117224 -0.043945353 0.033989362 0.03837427
000170 ad f6 e9 bb cc c6 96 bc a8 ce dd bc 1e c1 d8 bc
       -0.0071400017 -0.01840534 -0.02707608 -0.026459273
000180 11 64 a3 bc 81 41 19 bd 12 44 cf bc c8 40 1e 3d
       -0.019945176 -0.037415985 -0.025301013 0.038636
000190 16 d6 53 3d d1 8f 55 3d 1e 14 13 bd e8 38 9e bc
       0.05171784 0.052139107 -0.035907857 -0.019314244
0001a0 94 c9 51 3d 5b f2 83 bd ec 0a 33 bd c0 17 1d bd
       0.05121763 -0.0644271 -0.043711588 -0.038352728
0001b0 6a 71 56 3d 8f 19 41 3c 7e ad af 3d 06 00 68 3d
       0.052354254 0.011785879 0.08578013 0.056640647
0001c0 ba 79 71 3c 35 7b 99 3d 98 f4 83 bc ed 32 23 3d
       0.0147384945 0.07494203 -0.016107842 0.03984349
0001d0 ca d3 60 3d 3c 3b e8 bb 5d c3 3e bd ed 49 18 bd
       0.054889478 -0.0070871394 -0.04657303 -0.037179876
0001e0 cf e6 0b 3d b7 c0 ee 3d 17 7f 39 3c 0a 75 0c bd
       0.034155663 0.11657851 0.0113218045 -0.034291305
0001f0 9e 2b 19 bd c8 a8 0c bd 9f 04 e7 bc 23 b4 32 bd
       -0.037395112 -0.03434065 -0.028200446 -0.043628823
000200 5d 5a f8 3c 1d fb 92 3d aa 6a 8b bc 34 20 0a 3d
       0.030316526 0.07176802 -0.017018635 0.033722118
000210 c6 c1 8a 3d cf 25 a8 3c 14 e6 93 3d 76 29 9d 3c
       0.067752406 0.020525841 0.07221618 0.01918481
000220 22 91 b0 3c 58 1f cb 3b 8e a6 23 bd 83 66 86 bc
       0.02155358 0.006198805 -0.03995376 -0.016406303
000230 c9 2a 9e 3b ac 2a ec bc 24 90 7b bd 80 24 77 bc
       0.0048268777 -0.028828941 -0.06141676 -0.015084386
000240 cc 14 aa 3c b4 1b 95 bc 9c 48 c8 bc 23 3b 04 3e
       0.02076187 -0.018201686 -0.024448685 0.12913184
000250 60 15 62 bd 9f 33 63 3d 09 61 75 bc 73 7e b9 3c
       -0.055196166 0.05546915 -0.014976748 0.022643303
000260 e7 19 cc 3c 97 4f 92 bd a6 15 48 bd 87 be c8 bc
       0.024914695 -0.07144087 -0.04884877 -0.024504913
000270 3e 07 76 bd 14 5c 2e 3d 53 32 91 bd 1a 16 c8 bd
       -0.0600655 0.04256828 -0.07089677 -0.097698405
000280 67 a4 ea bb 27 db d3 bc c3 cf 01 bc d6 f0 49 bd
       -0.0071607116 -0.025861336 -0.007923069 -0.049301945
000290 8a e0 af bc 30 c8 f0 3c 06 1d 81 3a 2f d5 01 bd
       -0.021469373 0.029392332 0.0009850569 -0.03169745
0002a0 c4 a3 ed 3d 10 5a d5 bd bb 24 ac 3d 94 16 a2 bc
       0.116035014 -0.10417569 0.08405443 -0.019786157
0002b0 ad 91 fb bc ba 32 0b 3c a1 bd 2a 3d a9 78 80 3c
       -0.030709112 0.008495981 0.04168475 0.015682535
0002c0 37 f2 d6 3b 3a 40 ff bc 5b 26 67 3a 73 87 94 bd
       0.006559636 -0.031158555 0.0008817666 -0.072523974
0002d0 06 6e bf bd 15 c1 f7 3d 2e db 61 bd 74 77 d3 3b
       -0.09347157 0.12097374 -0.055140667 0.006453449
0002e0 0b 77 f0 bc 62 66 e9 bc 95 b1 9f 3d 83 ba 92 3b
       -0.02935364 -0.028491203 0.07797543 0.0044778003
0002f0 f9 44 c1 bc 17 37 37 3d 06 dc ac 3c 8c c7 37 bd
       -0.023592459 0.044730272 0.02110101 -0.044868037

queries.1.weight f4 [64]
000000 1d 67 30 3e 5d 8d c9 3e 84 13 ad 3d fb 1a 78 3e
       0.17226835 0.39365664 0.08450988 0.24229042
000010 c6 4d b6 3e bb f9 ae 3e 7e cc de 3e a6 04 42 3e
       0.3560621 0.34174904 0.4351539 0.18947086
000020 91 7b d2 3e 9c c0 76 3e f1 50 84 3e 63 dc 9a 3e
       0.411099 0.24096912 0.25843003 0.30246267
000030 f2 f2 de 3e e6 84 ab 3e ff 5c 4d 3e 4b d5 b8 3d
       0.43544728 0.3349983 0.20055006 0.090250574
000040 d1 6f b2 3e 56 2f 0e 3f 1e f6 5f 3d 6e f1 f4 3e
       0.34850934 0.5554098 0.054678075 0.47840446
000050 c0 8b c8 3e 2b c8 bd 3e 08 6f 94 3e 0b 7d 60 3e
       0.3916912 0.3706678 0.2899096 0.219227
000060 8b 5a 1a 3f bd 07 0e 3f 8e 04 60 3e 20 27 20 3e
       0.6029441 0.5548056 0.21876737 0.15639925
000070 e4 68 31 3f 2f 93 6e 3e f7 ae f9 3d 0c 2e 39 3e
       0.69300675 0.23298334 0.12191575 0.18083972
000080 8f bc 3f 3e c8 46 76 3e 30 12 8f 3d 2a 9a 8c 3e
       0.18724273 0.24050438 0.06985891 0.27461368
000090 fe 54 cf 3e be 1b aa 3e 90 28 1e 3e 80 a7 64 3e
       0.4049453 0.3322429 0.15445161 0.22329521
0000a0 40 1d 3b 3f b9 da a1 3e e3 d1 da 3d bc 9a 8b 3e
       0.73091507 0.31612185 0.10684564 0.2726649
0000b0 e7 6d e8 3e 21 18 61 3d e0 a5 9f 3d 46 8c c4 3e
       0.4539635 0.05495465 0.0779531 0.3838827
0000c0 ee 05 d5 3c 04 b4 fa 3d c5 f2 6d 3d b6 b1 5b 3e
       0.026003804 0.122413665 0.05809285 0.2145451
0000d0 c8 dd 6d 3e 6e 2d ae 3e 23 29 1d 3e 0c b2 03 3d
       0.23229134 0.34019035 0.15347724 0.03215222
0000e0 c7 d4 2d 3e b9 d0 b9 3d ef 80 03 3e c3 08 5d 3e
       0.169757 0.09073014 0.12842153 0.21585374
0000f0 90 62 31 3d bd 2d d6 3d 22 65 4a 3e b2 43 71 3d
       0.043306887 0.10457943 0.19765142 0.05890245

queries.1.bias f4 [64]
000000 f0 f1 8a 3e 31 b9 b8 bd da 98 45 be ed 0f 17 3d
       0.2713771 -0.090196975 -0.1929659 0.036880422
000010 17 9f b5 bd 93 52 8c 3e 9c ad 1a 3e fd 2e 95 bc
       -0.088682346 0.2740675 0.15105289 -0.018210882
000020 29 58 5a be de aa a7 3e 62 3a d6 bd be b5 aa 3e
       -0.21322693 0.3274755 -0.104603544 0.33341783
000030 15 f2 4b be c6 dc 6e 3e a8 60 c1 bd 5b c2 30 bd
       -0.19916566 0.23326406 -0.09442264 -0.0431541
000040 ac c8 14 be 6b 2e 52 3e a1 01 11 3e 3c b0 4d 3e
       -0.14529675 0.2052552 0.14160778 0.2008676
000050 e9 56 20 3e 70 29 33 3e c7 1d 14 be a7 49 0c bc
       0.15658154 0.17496276 -0.14464484 -0.008562482
000060 a0 8a 8b 3e 31 af fe bd 78 d3 c0 bd d0 b2 4e bd
       0.272542 -0.12435759 -0.094153345 -0.050463498
000070 c2 1d 65 3e 68 db f2 bd c1 a4 9b bd ed 3c 24 bd
       0.22374633 -0.11858255 -0.07599784 -0.040097166
000080 de 44 30 3e aa ae 8c be 73 35 46 3d d5 77 18 be
       0.17213771 -0.27477008 0.048390817 -0.14889462
000090 77 40 0b be 17 c1 b6 bd a4 23 55 3e 01 75 3b 3d
       -0.1359881 -0.08923548 0.20814377 0.04576588
0000a0 9a 9f 9e be 8b 79 39 3e 79 e8 9f 3d 4d 58 80 3c
       -0.3098114 0.18112771 0.078080125 0.015667105
0000b0 ed f0 5e be 1c be 2e 3e 02 5a 8e 3d 47 48 01 3d
       -0.21771593 0.17064708 0.069507614 0.03156307
0000c0 06 37 b2 39 c7 d1 96 bd 79 9c 70 3e d8 d3 dd bd
       0.000339918 -0.073642306 0.2349719 -0.108314216
0000d0 19 97 42 3d 61 bc 3d be 10 ce a0 3c fb e8 6c 3e
       0.04750738 -0.18528892 0.019629508 0.2313575
0000e0 28 66 4b be a2 f3 13 3d c7 18 d9 bc 14 cc b4 be
       -0.19863188 0.03612102 -0.026501073 -0.3531195
0000f0 29 36 77 3b 6a 41 31 3d 16 c9 e6 bd c9 8a 3f 3e
       0.003772149 0.043275274 -0.11268823 0.18705286

queries.1.running_mean f4 [64]
000000 b3 86 e4 bc cd 5a 82 3d 1c ba b8 3c 5e b5 5d bd
       -0.02789626 0.06364975 0.022549681 -0.054128043
000010 e2 ef 55 3d 64 01 91 bd ed cc 3f bd 6d fe c3 bc
       0.052230723 -0.07080343 -0.04682629 -0.02392503
000020 01 9c 7d bd 48 a6 fd bc ea 5c e4 3c 5e 86 41 bd
       -0.061916355 -0.030963078 0.027876336 -0.047247283
000030 36 a6 63 3d a2 0f 47 bd a5 05 f4 3c 9a 45 ce bc
       0.055578433 -0.048598893 0.029787848 -0.025179673
000040 fb 3e 32 bd 71 b0 fd 3d 07 28 96 bb 38 5f 97 bd
       -0.043517094 0.12387169 -0.0045824083 -0.073912084
000050 bc 8f c8 3d 4b 2d 84 bd f4 d8 53 bd 13 d3 14 bd
       0.0979304 -0.064539514 -0.051720574 -0.03633411
000060 96 a3 dc 3d 47 1b 56 bd ce 4d ec 3c fa f0 04 bd
       0.10773389 -0.052272107 0.028845694 -0.032456376
000070 ff 11 bb 3d 1f a0 30 bd 7a aa f0 3c 87 56 fd bc
       0.09134292 -0.043121453 0.029378165 -0.030925049
000080 8e 04 13 bd 02 8a 7d 3d 38 28 13 bb bd fd 82 bd
       -0.035893016 0.061899193 -0.0022454392 -0.06396053
000090 99 d3 83 3d d9 75 81 3d 45 63 06 3d cc 72 20 bd
       0.064368434 0.06321306 0.032809515 -0.03917198
0000a0 8c 67 92 3d 70 39 3c bd f4 27 98 bc 5b 9a 1f 3d
       0.07148656 -0.045953214 -0.018573739 0.038965564
0000b0 8b a2 8e 3d ce 2e a5 3c 4a e7 bc bc a0 aa 3e bd
       0.06964596 0.02016392 -0.023059506 -0.04654944
0000c0 4d 03 10 bc eb bf 6b 3d 2c 38 4a 3c d7 5c 82 bd
       -0.0087898495 0.057556074 0.012342494 -0.06365364
0000d0 dc e7 17 bd 70 7b 6b bd 05 d8 0b bd b0 ba 62 ba
       -0.037086353 -0.057490766 -0.03414156 -0.00086490344
0000e0 9a 1d 2c 3d 09 84 a9 bc 42 b5 e1 3c a0 17 30 bd
       0.042020418 -0.020692842 0.02755225 -0.04299128
0000f0 e7 44 2d bc 04 fd ae bc 78 13 d5 3c db f0 19 3c
       -0.01057551 -0.021360882 0.02601026 0.009395803

queries.1.running_var f4 [64]
000000 4a 48 ba 39 10 33 eb 3a b3 7a 7f 39 6e e5 a8 3a
       0.00035530544 0.0017944295 0.00024364404 0.0012885758
000010 2d 46 9e 3a cb d7 10 3b e8 7d 96 3a 51 31 b6 39
       0.0012075357 0.002210128 0.0011481615 0.0003475049
000020 33 69 e5 3a b1 ec fa 39 a5 c6 e4 39 0a 6b 82 3a
       0.0017502665 0.00047860065 0.0004363555 0.0009950113
000030 7c 2c b2 3a 34 f7 8d 3a 2c 4b e8 39 c3 bc aa 39
       0.001359358 0.0010831119 0.00044306496 0.00032565565
000040 b4 fe 5d 3a 61 8c de 3b ea b1 d4 38 61 bc 1d 3b
       0.00084684347 0.006791637 0.00010142087 0.0024068581
000050 12 c9 9d 3b 8d e3 00 3b df 20 a6 3a 90 d7 1b 3a
       0.004815229 0.001966688 0.0012674591 0.0005944902
000060 b7 bc a8 3b be b7 9d 3a a4 6e da 39 34 9d 01 3a
       0.0051494497 0.0012032909 0.00041662634 0.00049443846
000070 54 74 71 3b 9c 59 5e 3a 85 19 cb 39 dc 28 e3 39
       0.0036843019 0.0008481981 0.0003873819 0.00043327257
000080 a2 76 18 3a 38 b2 e2 3a 2b 99 d1 38 62 34 ed 3a
       0.00058160175 0.0017295545 9.9944264e-05 0.0018097276
000090 d6 4a ff 3a 29 bd f1 3a cf e1 1a 3a 26 16 3d 3a
       0.0019477259 0.0018443215 0.0005908282 0.0007213078
0000a0 68 bd 17 3b 75 f4 77 3a a7 d9 49 39 dc fe 3b 3a
       0.0023153666 0.0009458729 0.00019249936 0.0007171461
0000b0 a0 a2 10 3b a4 c1 3b 39 15 e8 7e 39 0c 98 7d 3a
       0.0022069588 0.00017905846 0.00024309785 0.0009673841
0000c0 21 77 91 38 c0 37 db 3a cb 57 d4 38 68 a0 e9 3a
       6.936328e-05 0.0016724989 0.000101253005 0.0017824294
0000d0 9d 75 41 3a 61 48 c4 3a 52 9e 0d 3a 06 5d 43 38
       0.00073798915 0.0014975184 0.0005402315 4.6578258e-05
0000e0 9e 73 97 3a f5 e4 4b 39 ed a1 b1 39 e3 53 70 3a
       0.0011554842 0.00019444882 0.00033880715 0.00091677735
0000f0 22 f5 ca 39 90 a0 77 39 10 96 c9 39 4a 1b 05 39
       0.0003871108 0.0002361557 0.00038449513 0.00012694034

keys.0.weight f4 [16, 3, 1, 1]
000000 1d a5 31 3c fc 9d 03 3b 70 c6 ad 3a 9c b3 ce bc
       0.010842589 0.002008318 0.0013257992 -0.025232129
000010 ec 31 02 3d 47 45 2c 3d 08 18 64 3b 56 c4 b9 bd
       0.03178589 0.042058256 0.0034804363 -0.09070651
000020 a8 47 20 be 22 e5 03 bc da 83 05 bb c9 b4 f6 bb
       -0.15652335 -0.008050235 -0.002037278 -0.0075288755
000030 0f 52 1d be 9f 2a da bd 83 2a 30 bd d8 41 26 bd
       -0.15363334 -0.106526606 -0.043009292 -0.040590137
000040 44 9e 05 be ab a3 51 be 14 e6 93 3c 9e d3 a6 bb
       -0.13048655 -0.2047259 0.018054046 -0.0050911447
000050 97 18 27 bc 3f 95 51 bc 8b 95 f9 3c 70 61 9a 3d
       -0.010198734 -0.012791931 0.030466815 0.07538116
000060 10 5e e5 3d 88 2a 58 3e ea 12 65 3e fa 80 c1 ba
       0.111995816 0.21109974 0.22370496 -0.001476317
000070 04 da e7 bc e6 fc 0a bd 82 1e 89 3d bd 30 67 3d
       -0.0283022 -0.03393259 0.06695272 0.056442965
000080 aa 93 b0 3c 5e f0 cc bc be 23 87 3d f0 c9 e2 3d
       0.021554787 -0.02501696 0.06598614 0.11073673
000090 a5 be e1 bc 94 b7 e9 bb ff 0d 83 3b df 21 a4 3c
       -0.027556727 -0.00713248 0.003999471 0.020035682
0000a0 c0 94 f7 3c 1d ed 2f 3d c7 bc 54 bd 3f a1 2b 3d
       0.030222297 0.04295074 -0.051937845 0.041901823
0000b0 65 e7 cc 3d 58 a3 ab 3d 52 58 be 3d ed 94 b5 3d
       0.100050725 0.08380765 0.092941895 0.08866296

values.0.weight f4 [4, 3, 1, 1]
000000 e0 f9 b7 3d 93 0c d1 bd 38 d7 a1 be 70 8f 02 be
       0.08983207 -0.102074765 -0.3160951 -0.1275003
000010 f6 90 ee be 02 3c 2d 3e e1 6e 67 be a4 5c a4 be
       -0.4659497 0.16917422 -0.2260089 -0.3210193
000020 8c d5 12 3e 9d e8 a3 be 45 d7 a6 bd 76 cf 8a 3c
       0.14339274 -0.32013407 -0.08146528 0.016944628

values.1.weight f4 [4]
000000 50 66 5a 3f 92 07 34 3f 0c d1 39 3f 6c ee 46 3f
       0.85312366 0.7032405 0.72584605 0.7770755

values.1.bias f4 [4]
000000 d6 fa d8 bd 56 bf 49 3e c7 0d 42 be a6 f1 7b 3e
       -0.10594718 0.19701895 -0.18950568 0.246039

values.1.running_mean f4 [4]
000000 70 8d 09 be 27 c0 46 be de 88 3d be 1c 6a 32 be
       -0.1343286 -0.19409238 -0.18509242 -0.1742329

values.1.running_var f4 [4]
000000 52 b6 36 3c 34 98 98 3c ec 23 85 3c 15 0f 64 3c
       0.011151867 0.018627264 0.01625248 0.013919611

conv.0.weight f4 [8, 16, 1, 1]
000000 19 27 00 3e da 2d 5a 3e a1 a0 47 be 9c 15 87 3e
       0.12514915 0.21306553 -0.19494869 0.26383674
000010 c9 15 1e be 24 b5 8f 3d d8 3a 55 be 4b 2a fe bc
       -0.15437998 0.07016972 -0.20823228 -0.031026026
000020 37 49 b1 3d 63 8a 24 3e 19 9e 13 be 11 4e 4a 3e
       0.08656543 0.16068415 -0.14415778 0.19756342
000030 7e 1b 08 bd 22 e1 e1 3d b7 f7 3a 3d d3 5d 87 3d
       -0.033229344 0.11029269 0.045646396 0.066096924
000040 bb 21 81 bb 98 15 f9 bd ff 27 a7 3d 90 44 a3 3c
       -0.0039407886 -0.12162322 0.081619255 0.019930154
000050 6a 4f bf ba e7 74 d4 bd 9c 05 7a 3e 79 16 5b be
       -0.0014595811 -0.1037386 0.24416202 -0.21395291
000060 2c b0 80 3d b7 7a db bd 44 7e 77 3e fc 01 7a bd
       0.06283602 -0.107167654 0.2416926 -0.06103705
000070 71 19 b1 3d d9 0c e3 3d e6 b5 42 be fe 36 17 3e
       0.08647431 0.11086435 -0.19014701 0.14767072
000080 5d 73 41 3e 4a 4d 0b 3e 29 10 8f bd 8e 39 33 3e
       0.18891664 0.13603702 -0.06985504 0.17502424
000090 46 3b 82 be db 2a 56 ba e8 3f 1d be 5a d6 1e bc
       -0.25435847 -0.0008169838 -0.1535641 -0.00969466
0000a0 25 4c 4a bd 46 a5 df 3d 84 ef dd bd bf bd 9c 3e
       -0.049389023 0.10920195 -0.108366996 0.30613515
0000b0 d2 e1 81 3d 4a bd 56 3e a4 c1 14 3b be 4c f6 bd
       0.063419 0.20970646 0.0022698427 -0.12026356
0000c0 f2 0e 35 3e e3 8b 61 b9 85 97 81 3d b8 87 d0 3c
       0.17681482 -0.00021509784 0.06327728 0.02545534
0000d0 9e a4 f1 3d f2 16 64 bd 2e 2c ac 3c dd df 80 3e
       0.11798976 -0.055685945 0.02101716 0.25170794
0000e0 76 84 06 3e af f0 fb 3d 90 fd 67 bd e8 ab 11 bd
       0.13136467 0.12301766 -0.0566383 -0.035564333
0000f0 15 6d ed bd 2a 77 67 3e 66 f3 a8 bd ed d4 3c be
       -0.11593071 0.22604051 -0.082495496 -0.184406
000100 48 92 23 be 81 c8 eb bb c8 ac ba bd 06 7a 26 be
       -0.1597377 -0.007195533 -0.09114987 -0.16257486
000110 b5 d2 0e 3e 27 c6 48 be fd 00 c6 3e ab a7 b8 bd
       0.13947566 -0.19606839 0.3867263 -0.09016355
000120 0a 17 ce bd 73 db d5 3c eb e6 28 be 33 e9 28 be
       -0.10062988 0.026105618 -0.16494338 -0.16495208
000130 ee a7 f6 3b 2c 57 c9 bd 88 89 c9 bc 50 fb 28 3c
       0.007527343 -0.0983108 -0.024601713 0.010313824
000140 91 91 57 3e c1 0c 64 3e e0 e9 2f be ab 54 44 3e
       0.21051623 0.2227049 -0.1717906 0.19172923
000150 13 cf a8 bd 80 23 34 bd 39 25 64 bd 0e 36 5f 3e
       -0.08242621 -0.043979168 -0.05569956 0.21797964
000160 76 ce ef 3d 13 22 a9 3d 3f 50 ff bb d2 02 07 3e
       0.11709301 0.08258452 -0.0077915485 0.1318467
000170 fd af 34 3c 74 a8 88 3e d3 10 53 3c 9f e1 81 bd
       0.011028287 0.2669102 0.012882429 -0.06341862
000180 24 e2 25 3e 49 a9 a3 3d ec 15 b5 3b d2 af bd 3c
       0.16199547 0.07991273 0.005526295 0.023155127
000190 f9 80 ba 3d 9f 88 90 3d 9b 08 8e 3c b8 63 ae 3d
       0.09106631 0.070573084 0.017338088 0.085151136
0001a0 79 5e 20 3c cb 98 17 be 22 7d 72 3b e1 fe 71 3e
       0.009788149 -0.1480438 0.0037000854 0.23632385
0001b0 5b eb cf bd 28 57 27 be 79 68 1c 3c 92 ca de 3d
       -0.10152312 -0.16341841 0.009546393 0.10878481
0001c0 07 27 f4 3d 6e a7 8b 3d 25 e6 da bc c3 12 b4 3d
       0.119215064 0.06819044 -0.02672107 0.08792641
0001d0 03 c8 66 be 9f 2d 21 3e 4b 5c 44 bd 43 b1 06 bd
       -0.22537236 0.1574006 -0.04793958 -0.032883894
0001e0 30 56 84 3e 82 39 78 bc 05 7f 33 be db b4 18 3e
       0.25847006 -0.01515043 -0.17528923 0.14912741
0001f0 40 92 58 3e 9a 56 51 be 1c f7 02 be 61 bc 7b 3e
       0.2114954 -0.20443192 -0.12789577 0.2458358

conv.1.weight f4 [8]
000000 cd 3c 6d 3f 08 49 b9 3e 49 60 44 3f b1 43 14 3f
       0.926709 0.3618853 0.7670942 0.5791579
000010 46 04 6d 3f 08 63 31 3f b8 b4 f9 3e 23 4d c8 3e
       0.92584646 0.69291735 0.4877069 0.3912135

conv.1.bias f4 [8]
000000 ec fa 23 3e 19 34 a5 be 90 2a 71 3e d2 f1 22 3f
       0.16013688 -0.3226631 0.23551393 0.6365024
000010 1d b4 1f 3d af 00 08 3f df 80 e3 3e 66 38 24 3f
       0.03899013 0.53126043 0.44434258 0.6414856

conv.1.running_mean f4 [8]
000000 41 63 7e be 72 78 83 be 63 82 8d bb 5b a5 93 bf
       -0.2484255 -0.2567783 -0.004318522 -1.1534837
000010 26 ce 42 3d 92 b6 5e bf 01 50 6f bf 27 20 42 be
       0.04755988 -0.8699733 -0.9348145 -0.18957578

conv.1.running_var f4 [8]
000000 f6 7b 62 40 76 af ee 3d a7 ea 8f 40 02 8c ef 3f
       3.538816 0.1165456 4.497394 1.8714602
000010 b1 eb 55 40 0c 56 2f 40 5b 89 9c 3f 1c 97 ec 3f
       3.3425105 2.739627 1.2229418 1.8483615

conv.3.weight f4 [3, 8, 1, 1]
000000 ba a7 c2 3e 47 2c b1 bd 8a 37 a1 bd aa 46 13 bd
       0.3801859 -0.08651023 -0.07871921 -0.035956062
000010 a4 46 a7 be fa 7c 8e be 81 35 48 3e 99 ff 84 bd
       -0.32671082 -0.27829725 0.1955166 -0.06494064
000020 e6 8a 06 3e 5c c0 b8 bd 3b 2c 3a 3e b1 13 90 3e
       0.13138923 -0.09021065 0.18180935 0.28140023
000030 e4 b5 8c be 1d a8 35 be 01 8e 53 be 30 fa 5b bd
       -0.27482522 -0.17739911 -0.20659639 -0.053705394
000040 d0 ca 0a bd 63 50 b1 bd 37 da 67 3e a5 0d 27 3e
       -0.033884823 -0.08657911 0.22641836 0.16313799
000050 81 ec 0f be 77 b9 5e be aa 58 e7 bc 4d a3 9e 3e
       -0.14055063 -0.21750437 -0.02824052 0.30983964

conv.4.weight f4 [3]
000000 a6 48 01 40 95 f0 01 40 01 e1 01 40
       2.020059 2.030309 2.0293581

conv.4.bias f4 [3]
000000 b9 b4 f6 be 20 aa 0a bf 7c ef 31 bf
       -0.48184755 -0.5416584 -0.6950605

conv.4.running_mean f4 [3]
000000 bc 41 0e be 66 4b 0c bd f8 a9 36 3e
       -0.13892263 -0.034251593 0.17838275

conv.4.running_var f4 [3]
000000 9f 7a 73 3d 0e 87 69 3d ba bd 52 3d
       0.059443112 0.057013564 0.05145047
