code/models weights/Lambda_gaussian_0.1_25_LayerOuputs32.pth (torch, 49720 bytes, 28 tensors)

embedding f4 [16, 1, 1, 23, 23]
-0.0060801343 -0.004406877 -0.0034961987 -0.0031080884 -0.0029148073 -0.003736616 -0.0022835883 0.00029151514
-0.0049825846 -0.008234083 -0.023473676 -0.041981492 -0.022981774 -0.007036147 -0.0040904037 0.0023577905
0.0010458552 -0.0019493351 -0.0050841263 -0.0059917644 -0.0046965005 -0.0038197904 -0.005285323 -0.0058458485
-0.0040717185 -0.0029226267 -0.0030331558 -0.0022969341 -0.0030784605 -0.0010818294 0.0035525395 -0.00033355624
-0.0018976526 -0.015306273 -0.030929292 -0.015549096 -0.002602253 0.00059261604 0.0037530775 0.0005506456
-0.001682265 -0.0042686746 -0.008760944 -0.0036395642 -0.002546227 -0.0035234538 -0.006366561 -0.004570341
-0.003955491 -0.0027655591 -0.0021153318 -0.0040591857 -0.0019417487 0.004061878 0.0008808863 0.0005158311
-0.012556879 -0.031729843 -0.011903126 -0.001297311 0.0020370414 0.005646916 0.0022177608 0.0005786222
-0.0039214976 -0.0051620905 -0.0030461561 -0.0017728199 -0.0023472412 -0.006853876 -0.004415031 -0.0027683447
-0.0024880872 -0.004169797 -0.0060038157 -0.00019110963 0.0042199213 0.0021783458 0.0011006676 -0.010854593
-0.029491482 -0.009464139 0.0005048156 0.0008410542 0.004193615 0.00012992857 -0.000264986 -0.0039819325
-0.0033406075 -0.0043915645 -0.004809713 -0.0053816154 -0.0067726974 -0.0047134785 -0.002875359 -0.0028915908
-0.004018985 -0.0036396794 0.0005484477 0.0048965933 0.003246445 0.0011313825 -0.008590969 -0.029848255
-0.009326967 0.0010178336 0.0022488125 0.0036491095 0.00085138244 -0.00453976 -0.0007093831 -0.003162275
-0.0035675212 -0.003952531 -0.0053246473 -0.005380194 -0.004383849 -0.0029721933 -0.0018808169 -0.0023866212
-0.0022675162 0.00058792334 0.0068543875 0.004150876 0.0031973047 -0.007709233 -0.029459156 -0.009358072
0.0020561626 0.0033498975 0.004328151 0.001478476 -0.0037806015 -0.0013872243 -0.0021504357 -0.004078202
-0.0032372524 -0.0039666663 -0.0029713057 -0.002220342 -0.0007920219 9.502307e-05 -0.00060609967 -0.0004189659
0.0064153643 0.012765989 0.007923862 0.00862352 -0.0032635336 -0.024017807 -0.0015967537 0.006219895
0.0066245324 0.00779724 0.0041019944 0.00019841368 -5.8044596e-05 0.0001291651 0.00081701064 -0.00012934137
-0.00132881 0.0030837462 0.0031673035 0.0048275148 0.0054376153 0.0045397836 0.006700643 0.01245878
0.021549646 0.017856712 0.020461978 0.0075524016 -0.018171545 0.007989659 0.019382488 0.016889315
0.021875221 0.010263576 0.0067102746 0.0059849177 0.007007629 0.006364386 0.0047853785 0.004728941
-0.00067320344 0.002139147 0.0033184395 0.006916557 0.0040918444 0.005854041 0.011752342 0.022159591
0.024460685 0.026197013 0.013103136 -0.016686529 0.012902867 0.025572248 0.01967299 0.020916628
0.013134592 0.006434437 0.004792251 0.005607833 0.0048080585 0.0036945906 0.0028644674 -0.0019331534
0.0021539065 0.0049682413 0.0061129145 0.00696434 0.008033795 0.012970524 0.0242402 0.02785361
0.026908217 -0.015212831 -0.06589296 -0.0145271905 0.02668686 0.02886526 0.025715284 0.01576314
0.008048764 0.0067786137 0.0045969603 0.00306724 0.0010810824 -0.0005933662 -0.017897962 -0.011381881
-0.008200129 -0.0066092154 -0.005116929 -0.0040559974 0.0037129053 0.011973601 0.016561206 -0.0086836
-0.026560467 0.019039134 -0.024863584 -0.009713498 0.013743021 0.011711022 0.004388822 -0.0023670755
-0.006420028 -0.009297671 -0.01090606 -0.013662296 -0.018017031 -0.036630332 -0.031016048 -0.028137004
00000000: dd3b c7bb 9067 90bb 7b20 65bb 12b1 4bbb
00000010: 5a06 3fbb 04e2 74bb 41a8 15bb 80d6 9839
00000020: f344 a3bb 3fe8 06bc de4b c0bc c9f4 2bbd
00000030: 4644 bcbc 7b8f e6bb cb08 86bb 2985 1a3b
00000040: 1415 893a d580 ffba be98 a6bb 9056 c4bb
00000050: 1ae5 99bb 7355 7abb 8130 adbb 888e bfbb
00000060: 0d6c 85bb 8a89 3fbb e9c7 46bb 2988 16bb
00000070: ffbf 49bb 2ccc 8dba b9d1 683b 29e1 aeb9
00000080: a8ba f8ba 29c7 7abc 6d5f fdbc a3c1 7ebc
00000090: 908a 2abb ca59 1b3a 31f6 753b 3359 103a
000000a0: 727f dcba 3de0 8bbb 108a 0fbc c185 6ebb
000000b0: 9ade 26bb bfe9 66bb 969e d0bb cdc2 95bb
000000c0: 109d 81bb 623e 35bb 61a1 0abb eb02 85bb
000000d0: 4682 feba 8119 853b 47eb 663a d738 073a
000000e0: 5ebb 4dbc 27f7 01bd 5405 43bc 890a aaba
000000f0: e27f 053b c409 b93b da57 113b aeae 173a
00000100: e87f 80bb c126 a9bb 05a2 47bb f75d e8ba
00000110: 2cd4 19bb 7b96 e0bb f7ab 90bb 1e6d 35bb
00000120: 2d0f 23bb cba2 88bb a8bb c4bb 9a64 48b9
00000130: 4447 8a3b 94c2 0e3b 4744 903a 76d7 31bc
00000140: 1f98 f1bc 7a0f 1bbc 9a55 043a 317a 5c3a
00000150: 986a 893b 6f3d 0839 d2ed 8ab9 df7a 82bb
00000160: 18ee 5abb 1de7 8fbb cc9a 9dbb 4358 b0bb
00000170: 81ed ddbb 8673 9abb 8570 3cbb d880 3dbb
00000180: b1b1 83bb b087 6ebb b4c5 0f3a 9a73 a03b
00000190: 4fc2 543b e64a 943a 23c1 0cbc 5484 f4bc
000001a0: 23d0 18bc d468 853a d060 133b e625 6f3b
000001b0: 4f2f 5f3a 44c2 94bb e5f5 39ba 2c3e 4fbb
000001c0: 13cd 69bb 3c84 81bb 617a aebb 574c b0bb
000001d0: 64a6 8fbb 21c9 42bb be85 f6ba dc68 1cbb
000001e0: 9c9a 14bb de1e 1a3a c59a e03b 1204 883b
000001f0: df89 513b bc9d fcbb 5454 f1bc 9952 19bc
00000200: afc0 063b f489 5b3b 29d3 8d3b 6cc9 c13a
00000210: f8c3 77bb 86d3 b5ba 53ee 0cbb 70a2 85bb
00000220: 1528 54bb cffa 81bb 3dba 42bb 2883 11bb
00000230: b19f 4fba 1f47 c738 a9e2 1eba a7a8 dbb9
00000240: fa37 d23b 7028 513c 16d3 013c aa49 0d3c
00000250: 02e1 55bb fec0 c4bc 2a4a d1ba 43d0 cb3b
00000260: 9b12 d93b fd7f ff3b 066a 863b 440d 5039
00000270: e974 73b8 7e70 0739 a82c 563a cf9f 07b9
00000280: 772b aeba ad18 4a3b 8992 4f3b 2130 9e3b
00000290: 062e b23b 77c2 943b 1191 db3b e91f 4c3c
000002a0: e288 b03c 3d48 923c e19f a73c 237a f73b
000002b0: 7edc 94bc 0fe7 023c 06c8 9e3c 765b 8a3c
000002c0: aa33 b33c 8f28 283c dde1 db3b 211d c43b
000002d0: 41a0 e53b 578c d03b aace 9c3b 3bf5 9a3b
000002e0: eb79 30ba ee30 0c3b 2d7a 593b 49a4 e23b
000002f0: e114 863b 41d3 bf3b e58c 403c 0888 b53c
00000300: c661 c83c 1e9b d63c 89ae 563c 30b2 88bc
00000310: 8c66 533c e47c d13c 4029 a13c 5959 ab3c
00000320: 7932 573c f8d7 d23b 5108 9d3b eac1 b73b
00000330: eb8c 9d3b f220 723b cab9 3b3b dd61 fdba
00000340: 8e28 0d3b a1cc a23b d84e c83b 1e35 e43b
00000350: 2ea0 033c 5282 543c 6293 c63c 412d e43c
00000360: 9f6e dc3c 3d3f 79bc e3f2 86bd 7403 6ebc
00000370: 679e da3c d676 ec3c dca8 d23c b321 813c
00000380: f7de 033c 221f de3b 19a2 963b bf03 493b
00000390: 1bb3 8d3a 228c 1bba bf9e 92bc 127b 3abc
000003a0: d559 06bc 1e92 d8bb e9ab a7bb 2ce8 84bb
000003b0: 3754 733b ec2c 443c 5eab 873c a945 0ebc
000003c0: 5695 d9bc f5f7 9b3c b7ae cbbc 5d25 1fbc
000003d0: 682a 613c 96df 3f3c 1bd0 8f3b f020 1bbb
000003e0: 195f d2bb 4255 18bc 55af 32bc d3d7 5fbc
000003f0: 7498 93bc b009 16bd 5e15 febc 937f e6bc

queries.0.weight f4 [64, 3, 1, 1]
0.0056379084 0.009110537 0.0059182676 -0.0044508586 0.06272836 0.022313006 -0.06811702 0.001019254
-0.02003528 0.03621297 0.054992825 0.018505808 0.0040604807 0.018985488 0.025592517 0.03793302
0.09458244 -0.03710474 -0.046674173 -0.028939387 -0.026240706 0.027860189 0.014223403 0.044444762
-0.016007591 -0.012772255 -0.026905635 -0.027650353 -0.018612197 -0.0011994031 0.023579765 0.036063552
-0.0025767153 -0.048288215 -0.03507982 -0.024065863 -0.011030563 -0.07741167 -0.04172269 -0.016292084
-0.0055456166 -0.013025335 0.051130816 0.017460816 0.009810045 0.0012665973 0.0017961538 0.026675923
-0.035387266 -0.011823369 -0.008997309 0.043061975 -0.062215816 -0.094866395 0.08055453 0.046688784
0.048316415 0.09442468 0.06838777 0.06346611 -0.038409285 -0.027388891 -0.0114961015 0.06859635
-0.013178108 0.07861925 -0.06432068 -0.034895495 -0.087762855 -0.02365631 -0.05959896 -0.06042349
0.034252618 -0.0061715953 0.024010673 -0.046297353 -0.0156229455 -0.027147906 0.0694237 0.029601373
0.07586248 -0.039364114 -0.057424404 -0.06621131 0.059233505 0.028859256 0.06764975 -0.018993635
-0.023646418 -0.021697236 -0.04315247 0.12646139 0.09488375 -0.033912476 -0.014408741 -0.017136838
0.0040350175 0.038022798 0.011602175 -0.05324778 -0.045247037 -0.030296747 0.01605414 -0.026485289
0.0068773367 -0.04910004 -0.069543615 -0.054226566 -0.017373543 0.026398668 0.050140955 -0.033279285
-0.09348891 -0.020098923 0.025307132 0.047452163 0.040190104 0.07920256 0.09124924 -0.09500374
0.05409775 0.032649893 0.02272847 -0.052897733 0.008624835 0.002747403 0.118333 0.04311173
-0.04364405 0.03646622 0.053387996 0.051575616 0.08275411 0.034096878 0.055793677 0.015057269
0.014724023 0.015922336 0.018196492 0.042516418 0.05273 -0.016446361 -0.02752426 -0.0134929465
0.045123212 0.028378809 0.017871529 0.05274474 0.035884757 0.050446987 -0.12075424 -0.023049483
0.025485918 -0.07024534 -0.07866409 -0.058202963 -0.032668635 0.044616304 0.03406387 -0.06464013
-0.0729643 -0.048365436 0.06874091 0.0371773 0.061924376 0.0029646414 0.07087846 0.03794055
0.048848785 0.041917887 0.0077481396 0.042378977 0.02524483 0.026121715 -0.04065878 -0.035147622
-0.085109 0.049925026 0.059806082 0.055793453 0.057366397 0.06235703 -0.00090048194 -0.030878095
-0.028399048 -0.018210242 0.008007167 -0.09477938 -0.04838073 0.038303 0.0190345 0.019824637
00000000: 34be b83b 5d44 153c 07ee c13b 82d8 91bb
00000010: ba77 803d c4c9 b63c f080 8bbd 7d98 853a
00000020: 0721 a4bc 0d54 143d 2840 613d 7e99 973c
00000030: c80d 853b 7487 9b3c 66a7 d13c a85f 1b3d
00000040: 70b4 c13d 24fb 17bd 6b2d 3fbd 4b12 edbc
00000050: c0f6 d6bc 0d3b e43c 4709 693c b60b 363d
00000060: 5a22 83bc b842 51bc 3569 dcbc fe82 e2bc
00000070: 9b78 98bc 4a35 9dba 5a2a c13c 60b7 133d
00000080: 1cde 28bb ddc9 45bd dbaf 0fbd c625 c5bc
00000090: 89b9 34bc 028a 9ebd 69e5 2abd fa76 85bc
000000a0: 01b8 b5bb 3768 55bc 8c6e 513d fc09 8f3c
000000b0: 50ba 203c f403 a63a ec6c eb3a 7787 da3c
000000c0: 3df2 10bd ceb6 41bc 7369 13bc c161 303d
000000d0: 03d6 7ebd 5049 c2bd c6f9 a43d bd3c 3f3d
000000e0: 6fe7 453d ba61 c13d e30e 8c3d 85fa 813d
000000f0: 0e53 1dbd ab5e e0bc 255a 3cbc 3e7c 8c3d
00000100: fee8 57bc 2103 a13d 90ba 83bd 94ee 0ebd
00000110: 03bd b3bd e1ca c1bc 0a1e 74bd 9f7e 77bd
00000120: 794c 0c3d 183b cabb 08b2 c43c 4ba2 3dbd
00000130: 62f7 7fbc 4965 debc 032e 8e3d 947e f23c
00000140: ca5d 9b3d 443c 21bd da35 6bbd cc99 87bd
00000150: d59e 723d 3f6a ec3c f48b 8a3d 8a98 9bbc
00000160: 22b6 c1bc 67be b1bc a5c0 30bd 187f 013e
00000170: 6952 c23d cfe7 0abd a412 6cbc 8e62 8cbc
00000180: 2e38 843b cbbd 1b3d 0d17 3e3c 581a 5abd
00000190: f554 39bd e230 f8bc f983 833c adf7 d8bc
000001a0: 485b e13b 201d 49bd e26c 8ebd ad1c 5ebd
000001b0: f652 8ebc 0542 d83c 9a60 4d3d dc4f 08bd
000001c0: 1d77 bfbd 7fa6 a4bc e750 cf3c 335d 423d
000001d0: 619e 243d f434 a23d e2e0 ba3d 5291 c2bd
000001e0: 9a95 5d3d e5bb 053d 0e31 ba3c 4bab 58bd
000001f0: 2e4f 0d3c c60d 343b 9258 f23d ed95 303d
00000200: 1ac4 32bd 9a5d 153d 5fad 5a3d f440 533d
00000210: fd7a a93d 2ba9 0b3d e987 643d c3b2 763c
00000220: 073d 713c 8f6f 823c cf10 953c b225 2e3d
00000230: 6afb 573d 85ba 86bc 8f7a e1bc 8511 5dbc
00000240: 1ed3 383d ad7a e83c 5067 923c de0a 583d
00000250: e5fb 123d 80a1 4e3d 004e f7bd 45d2 bcbc
00000260: d8c7 d03c cadc 8fbd a31a a1bd 3b66 6ebd
00000270: 8ccf 05bd 96bf 363d 8e86 0b3d 0b62 84bd
00000280: 4f6e 95bd d61a 46bd 09c8 8c3d 3947 183d
00000290: 6aa4 7d3d 6e4a 423b ba28 913d 8d67 1b3d
000002a0: aa15 483d 17b2 2b3d 1be4 fd3b 9495 2d3d
000002b0: 3fce ce3c 35fd d53c d289 26bd f4f6 0fbd
000002c0: a14d aebd 2f7e 4c3d 39f7 743d ad87 643d
000002d0: 07f9 6a3d 166a 7f3d 520e 6cba 0ff4 fcbc
000002e0: 1fa5 e8bc a52d 95bc 7e30 033c b11b c2bd
000002f0: df2a 46bd 9be3 1c3d 3dee 9b3c 4767 a23c

queries.1.weight f4 [64]
0.00013137903 0.09807067 0.22578673 0.20317209 0.07157133 0.12762408 0.18356217 0.20368604
0.1393695 0.06435549 -0.038768433 0.17893946 0.18331495 0.03194429 0.17974135 0.025217604
0.042992402 0.31794882 0.5101707 0.464201 0.13644129 0.34305832 0.38955158 0.46373165
0.10657379 0.16347273 0.39828488 0.37771946 0.30525163 0.10222907 0.55775523 0.1045806
0.053223882 0.19732815 0.0002349141 0.5893376 0.08744875 0.45157784 0.16917922 0.06904502
0.38577282 0.036792584 0.095282875 0.2576167 0.40519586 0.077641964 0.30112135 -0.058729716
0.12863097 0.25533018 0.34185106 0.7782756 0.10052026 0.614995 0.51083297 0.3949853
0.3089618 0.14837553 0.40853986 0.5260044 0.09935265 -0.14862482 0.47091392 0.17983833
00000000: cac2 0939 47d9 c83d a334 673e 580c 503e
00000010: fd93 923d e3af 023e b9f7 3b3e 1393 503e
00000020: e1b6 0e3e d0cc 833d a6cb 1ebd e83b 373e
00000030: eab6 3b3e 04d8 023d 1e0e 383e 2695 ce3c
00000040: cd18 303d 30ca a23e 8c9a 023f c1ab ed3e
00000050: 44b7 0b3e 57a5 af3e 4e73 c73e 3c6e ed3e
00000060: 5c43 da3d 6565 273e ffeb cb3e 7264 c13e
00000070: f149 9c3e 7a5d d13d 0cc9 0e3f 5b2e d63d
00000080: 4901 5a3d 6410 4a3e 4653 7639 d4de 163f
00000090: 5518 b33d 3635 e73e 513d 2d3e 7a67 8d3d
000000a0: 0484 c53e d2b3 163d ab23 c33d 56e6 833e
000000b0: d575 cf3e c002 9f3d 942c 9a3e 928e 70bd
000000c0: d6b7 033e a3ba 823e 1a07 af3e 123d 473f
000000d0: 91dd cd3d 5070 1d3f f3c5 023f 833b ca3e
000000e0: 3e30 9e3e c1ef 173e 232c d13e 39a8 063f
000000f0: 6779 cb3d 1b31 18be a11b f13e 8a27 383e

queries.1.bias f4 [64]
0.06958771 -0.012029424 0.16544944 -0.06342394 0.18414028 -0.320454 -0.08254994 -0.10428808
0.18650608 0.063035235 0.18672362 -0.05575812 0.2727129 0.0037427847 0.1363103 -0.10625613
-0.11621466 0.11409749 0.059976984 0.2542971 -0.24183133 -0.06978935 -0.2558436 -0.10368905
0.06158133 -0.11823726 0.17454648 -0.25441784 0.14614615 0.08219683 0.15665463 0.036643796
-0.121833295 -0.043716095 0.17336735 -0.44910845 0.1664724 -0.4058986 0.13057175 -0.07066707
0.28234598 -0.1845898 0.010771588 0.20640776 0.17459603 0.017182093 -0.033109635 -0.05914398
-0.06285072 0.20014791 0.114040524 0.3945989 -0.15257674 -0.06455769 -0.3725577 -0.19441606
-0.052963514 -0.104373716 0.16729482 -0.40401697 0.12006407 -0.007367022 0.19610205 -0.054133024
00000000: 0084 8e3d 1017 45bc 946b 293e 69e4 81bd
00000010: 458f 3c3e 8c12 a4be f10f a9bd fd94 d5bd
00000020: 73fb 3e3e 9e18 813d 7a34 3f3e a062 64bd
00000030: 06a1 8b3e 8249 753b ed94 0b3e d09c d9bd
00000040: f401 eebd f2ab e93d 6daa 753d 3b33 823e
00000050: a2a2 77be b8ed 8ebd effd 82be ed5a d4bd
00000060: b43c 7c3d 6026 f2bd 50bc 323e 0e43 82be
00000070: 56a7 153e d056 a83d 126a 203e ce17 163d
00000080: bc83 f9bd a60f 33bd 3687 313e 8bf1 e5be
00000090: be77 2a3e f1d1 cfbe 9ab4 053e e6b9 90bd
000000a0: a78f 903e 1c05 3dbe 517b 303c 8e5c 533e
000000b0: 4dc9 323e 76c1 8c3c f89d 07bd f540 72bd
000000c0: e1b7 80bd 93f3 4c3e 148e e93d de08 ca3e
000000d0: 143d 1cbe d236 84bd e2bf bebe 0115 47be
000000e0: 45f0 58bd e3c1 d5bd 554f 2b3e 50db cebe
000000f0: 27e4 f53d 0f67 f1bb face 483e 97ba 5dbd

queries.1.running_mean f4 [64]
0.009731537 0.034782518 -0.038982496 0.048601095 0.021316348 0.04431931 -0.045334123 0.037005745
-0.024275566 -0.02099818 0.025859188 -0.04781224 -0.05651927 -0.015152169 0.035164684 0.012705982
-0.024799848 -0.047836136 0.077368826 0.099802054 -0.034788694 0.057323877 -0.08102865 -0.06200447
0.022582704 -0.03883647 0.07611562 -0.07059523 0.0678254 -0.028168548 0.0748341 -0.029347572
0.023295641 -0.056706734 -0.0013420271 -0.07537271 0.023635168 -0.06496496 0.048803113 0.037471812
0.048132557 -0.01894002 0.0546238 0.06129948 0.075899735 0.01985252 0.048771784 -0.025267573
0.039914686 0.060537525 -0.053775378 -0.09053302 0.019656163 -0.08150874 0.072971396 0.048554845
0.044065885 0.041020527 -0.06922905 0.07194342 0.053487755 -0.03428366 -0.058362048 0.034597628
00000000: 0671 1f3c 1d78 0e3d 1cac 1fbd f111 473d
00000010: 9f9f ae3c 2a88 353d 46b0 39bd 5693 173d
00000020: 8ddd c6bc 6004 acbc a6d6 d33c c4d6 43bd
00000030: c080 67bd ce40 78bc d808 103d c02c 503c
00000040: 0d29 cbbc d3ef 43bd 8c73 9e3d 0565 cc3d
00000050: 977e 0ebd 71cc 6a3d 59f2 a5bd 66f8 7dbd
00000060: 5dff b83c fe12 1fbd 82e2 9b3d 3b94 90bd
00000070: 0be8 8a3d bac1 e6bc 9f42 993d 526a f0bc
00000080: 80d6 be3c 5245 68bd f5e6 afba 025d 9abd
00000090: 8a9e c13c 590c 85bd c6e5 473d 0b7c 193d
000000a0: a526 453d 1a28 9bbc 35bd 5f3d 2a15 7b3d
000000b0: 5271 9b3d c1a1 a23c ecc4 473d f1fd cebc
000000c0: 957d 233d 32f6 773d 9243 5cbd 6069 b9bd
000000d0: f605 a13c 0eee a6bd 0772 953d 72e1 463d
000000e0: 6e7e 343d 2405 283d f6c7 8dbd 1257 933d
000000f0: fa15 5b3d 066d 0cbd 0b0d 6fbd 3eb6 0d3d

queries.1.running_var f4 [64]
4.2700885e-05 0.000590468 0.00069506664 0.001053215 0.00022097907 0.00095236045 0.00091225933 0.0006401093
0.00027289483 0.00019549 0.00029953642 0.0010124501 0.0014974343 0.00010360779 0.00054977887 8.9036366e-05
0.00027364978 0.0013937507 0.0026624198 0.004436815 0.00053443084 0.0015715468 0.0030278873 0.0017936745
0.0002391617 0.00067475927 0.0026446157 0.0022920738 0.0021005087 0.00035863227 0.003017919 0.00038325583
0.00025479746 0.0014269928 1.4952984e-05 0.0025632994 0.00033806346 0.0019089328 0.0010901118 0.0009494202
0.0010250211 0.00018850499 0.0014809755 0.0017127381 0.0025773854 0.00017764204 0.0011157464 0.0002865658
0.00070479 0.0016539656 0.0014080603 0.0036627688 0.00026598643 0.00296703 0.002396825 0.0011216719
0.00085764995 0.00074859936 0.0022520565 0.0023328247 0.0012708782 0.0005221155 0.001666133 0.000531177
00000000: ba19 3338 a3c9 1a3a 2235 363a 080c 8a3a
00000010: 9eb6 6739 d4a7 793a b024 6f3a 02cd 273a
00000020: 5313 8f39 73fc 4c39 190b 9d39 30b4 843a
00000030: 8f45 c43a 0248 d938 091f 103a 09b9 ba38
00000040: a778 8f39 83ae b63a fe7b 2e3b b462 913b
00000050: 0c19 0c3a 5cfc cd3a 856f 463b bb19 eb3a
00000060: 7bc7 7a39 54e2 303a 4a51 2d3b 9e36 163b
00000070: b0a8 093b cf06 bc39 47c8 453b baef c839
00000080: 5696 8539 ef09 bb3a 94de 7a37 07fd 273b
00000090: 1c3e b139 2835 fa3a 15e2 8e3a 83e2 783a
000000a0: 005a 863a 6ca9 4539 4b1d c23a f47d e03a
000000b0: 5ae9 283b 6c45 3a39 3d3e 923a 363e 9639
000000c0: a8c1 383a e0c9 d83a aa8e b83a 100b 703b
000000d0: 1874 8b39 8172 423b 0d14 1d3b 1005 933a
000000e0: ead3 603a a73d 443a 3d97 133b 4ee2 183b
000000f0: 9993 a63a 94de 083a 2562 da3a af3e 0b3a

keys.0.weight f4 [16, 3, 1, 1]
0.0149984 0.012768561 0.008054832 0.20023838 0.15911871 0.07650626 -0.009263554 0.108840756
0.165901 0.07397807 0.13766408 0.13576353 -0.013736745 0.000732351 0.015072955 0.02187457
0.017865956 0.03990627 0.061513122 0.004968666 -0.0011288227 0.0019166835 -0.00413841 0.013359992
0.040347576 0.037526447 0.021777224 0.013584005 0.009598062 -0.0012290871 -0.15676221 -0.12333213
-0.112041846 0.03753388 -0.020147117 -0.02298221 -0.060334615 -0.04058127 -0.038933586 -0.0068319463
-0.010411356 -0.022423357 -0.23159188 -0.2068551 -0.185891 0.016404837 0.0074092485 0.010897394
00000000: d9bb 753c 3a33 513c 6af8 033c 4a0b 4d3e
00000010: 04f0 223e 50af 9c3d 29c6 17bc e7e7 de3d
00000020: f4e1 293e d081 973d d0f7 0c3e 9805 0b3e
00000030: 1610 61bc 3efb 3f3a 8ef4 763c 4c32 b33c
00000040: a05b 923c c274 233d 2ff5 7b3d 31d0 a23b
00000050: 01f5 93ba 3a39 fb3a 809b 87bb dee3 5a3c
00000060: 8043 253d 55b5 193d 2666 b23c 728f 5e3c
00000070: 3141 1d3c 5219 a1ba 4686 20be 8e95 fcbd
00000080: 3276 e5bd 20bd 193d 910b a5bc 3045 bcbc
00000090: 6e21 77bd 8c38 26bd d378 1fbd 85de dfbb
000000a0: 6494 2abc 30b1 b7bc 6c26 6dbe d3d1 53be
000000b0: 365a 3ebe 7063 863c 48c9 f23b fc8a 323c

values.0.weight f4 [8, 3, 1, 1]
0.29203653 -0.16802835 -0.21464054 -0.07399402 -0.43033707 0.32277453 -0.3056276 -0.09873282
0.09997505 -0.20330589 -0.19450364 0.27142882 0.3511436 -0.17653672 0.26772305 0.13923988
-0.10539046 -0.3076773 0.22930747 0.50648844 -0.42720062 0.44786125 0.3372763 -0.34752968
00000000: d085 953e a00f 2cbe bbca 5bbe 2d8a 97bd
00000010: 2455 dcbe b442 a53e 397b 9cbe 6f34 cabd
00000020: b8bf cc3d 6b2f 50be f62b 47be b8f8 8a3e
00000030: 18c9 b33e 0bc6 34be ff12 893e e694 0e3e
00000040: f4d6 d7bd e187 9dbe 94cf 6a3e 3aa9 013f
00000050: 0aba dabe 124e e53e 7baf ac3e 69ef b1be

values.1.weight f4 [8]
0.5507519 0.75238305 0.83006775 0.6713918 0.8823608 0.86983377 0.81761545 0.8044765
00000000: 14fe 0c3f 2d9c 403f 527f 543f 55e0 2b3f
00000010: 66e2 613f 6dad 5e3f 3f4f 513f 2cf2 4d3f

values.1.bias f4 [8]
0.3169566 -0.18978038 0.1608068 -0.19079283 0.06452451 -0.2661998 -0.1664301 -0.23418549
00000000: 2348 a23e ca55 42be 8aaa 243e 325f 43be
00000010: 6d25 843d 574b 88be a76c 2abe 52ce 6fbe

values.1.running_mean f4 [8]
-0.030655434 -0.091588736 -0.14136897 -0.06704248 0.1914507 -0.11066215 0.15278892 0.2090989
00000000: 1b21 fbbc e092 bbbd 07c3 10be 914d 89bd
00000010: a70b 443e d6a2 e2bd b374 1c3e 061e 563e

values.1.running_var f4 [8]
0.0041015213 0.0075409934 0.009821656 0.0045563574 0.018543527 0.0088976715 0.016754307 0.02459291
00000000: 0e66 863b 701a f73b 03eb 203c 7f4d 953b
00000010: 98e8 973c 8ac7 113c 5440 893c 1277 c93c

conv.0.weight f4 [16, 32, 1, 1]
-0.09481997 0.06832827 -0.104697205 0.17588419 -0.067505665 0.0058543133 0.051402207 0.18286784
-0.06462207 0.042337377 -0.010299924 -0.053390183 -0.016001238 0.07179453 0.06445787 -0.08487377
-0.030940183 0.011930942 -0.017381612 0.0042432304 0.016050389 -0.044009972 0.01612051 0.01249772
-0.117150955 0.07374698 0.020188661 0.01551032 -0.05302234 0.17217861 0.0102022085 0.034359466
0.030764757 0.017644394 -0.061926886 -0.038917962 -0.15960565 0.013545805 -0.039843064 0.04850705
0.0054200916 0.010296102 0.053459935 0.115390874 -0.0347766 0.17184532 0.033825397 0.093209274
0.047359753 -0.027733697 -0.02588754 -0.046308767 0.055908713 -0.04783386 0.0043367795 -0.01677585
0.007532402 -0.026602687 0.11921206 0.07260192 -0.13620794 0.18117477 -0.086621955 0.10182362
-0.038088053 -0.12789257 0.0019195954 -0.010131733 0.2593426 -0.06784083 -0.05024071 -0.040557284
-0.07919634 -0.08476405 -0.038162515 -0.08513306 0.19170417 -0.12105865 0.0016026445 -0.14558144
-0.08937966 0.02737113 0.06096172 0.011637386 0.021407966 0.008323186 0.06270018 0.017004706
-0.017375989 0.16934592 -0.02848831 0.13098872 0.0035807146 -0.098477505 0.16572101 0.18962333
0.062336937 -0.00048232675 0.007372699 -0.028428713 0.04211529 -0.008359635 -0.024723485 -0.03931535
0.107288845 0.09707016 -0.010152896 0.012564728 0.09137724 0.019585978 -0.068599515 -0.011210576
0.06722166 -0.046575304 0.017564481 -0.045806844 0.023471743 -0.05114238 -0.021853311 -0.032767665
0.06743638 0.05047213 0.018683368 -0.0026381868 0.10389938 -0.023027342 -0.035978112 0.016450582
-0.022679832 0.068302765 -0.1446644 0.01388187 -0.00031514055 -0.09899848 0.05380033 0.03936848
-0.19027077 0.090032585 -0.093221575 0.18710832 0.02230146 0.18888398 0.08612834 0.15208401
-0.045248866 0.004097601 0.0053799525 -0.04527669 0.03732615 -0.030999444 -0.0016088573 0.0004674986
-0.000121230936 -0.0075055496 0.03697129 0.01651811 0.031245803 -0.047605727 -0.014243625 0.090684384
-0.02193152 0.059182446 -0.06742617 0.045076083 -0.10580447 -0.028067943 0.041403007 0.02125838
0.037120257 -0.12444209 0.038577616 -0.10195775 0.07200463 -0.077974506 -0.15018539 -0.09387554
-0.0928875 0.027182596 -0.07314796 0.024493333 0.07851612 -0.06788349 0.016294628 0.051005755
-0.025116082 0.009609437 0.051752035 -0.00760564 -0.09217887 0.12929972 -0.065227784 0.013611925
-0.08688326 0.061093654 -0.082768634 0.066044584 -0.08074209 0.20883033 0.055942714 0.090710916
-0.022124916 0.002556195 0.016665062 0.06647886 -0.0017951366 0.027473513 0.05135337 0.047061004
-0.05526481 0.06458376 -0.01850359 0.077072814 -0.033868156 0.026532881 -0.005622957 0.035324883
-0.052532602 -0.024538238 0.09324065 0.020352159 0.03787411 0.126096 0.0038261323 0.077152304
0.03965465 0.00014217092 0.06382166 0.04308308 0.018313948 0.031770904 -0.13967825 -0.1370806
0.046832796 -0.09238424 0.11859093 0.0063280053 -0.013885803 -0.01798812 0.029033694 -0.05385664
-0.071416005 -0.0007839255 -0.02972085 0.018200856 -0.010072701 0.027063116 -0.020214546 0.041841045
-0.020515153 -0.03893431 -0.029760063 -0.13528076 0.07713283 -0.1141568 -0.09073579 0.0694313
00000000: f930 c2bd b1ef 8b3d 7d6b d6bd fc1a 343e
00000010: 6940 8abd 8ad5 bf3b 1f8b 523d b541 3b3e
00000020: 9358 84bd f569 2d3d 03c1 28bc aaaf 5abd
00000030: 0715 83bc 0309 933d 7d02 843d 4dd2 adbd
00000040: 4476 fdbc ff79 433c e263 8ebc cc0a 8b3b
00000050: 1b7c 833c cd43 34bd 290f 843c 3dc3 4c3c
00000060: d7ec efbd a808 973d b162 a53c ff1e 7e3c
00000070: f42d 59bd 974f 303e 2a27 273c 83bc 0c3d
00000080: 5f06 fc3c fa8a 903c 0ca7 7dbd 7168 1fbd
00000090: aa6f 23be 39ef 5d3c 7b32 23bd 54af 463d
000000a0: 069b b13b fbb0 283c cef8 5a3d 0d52 ec3d
000000b0: e871 0ebd 38f8 2f3e 808c 0a3d 81e4 be3d
000000c0: 4dfc 413d c731 e3bc 1b12 d4bc 43ae 3dbd
000000d0: 8900 653d 70ed 43bd 8b1b 8e3b 826d 89bc
000000e0: 5ed2 f63b e1ed d9bc 7425 f43d 51b0 943d
000000f0: 187a 0bbe e185 393e da66 b1bd e788 d03d
00000100: 3802 1cbd 45f6 02be ef9a fb3a 91ff 25bc
00000110: 8ec8 843e 22f0 8abd 34c9 4dbd 651f 26bd
00000120: b131 a2bd c698 adbd 4c50 1cbd 3e5a aebd
00000130: 194e 443e 99ed f7bd d30f d23a 4d13 15be
00000140: af0c b7bd 6c39 e03c ffb2 793d bcaa 3e3c
00000150: c25f af3c f95d 083c f468 803d 744d 8b3c
00000160: 1758 8ebc 0469 2d3e 5160 e9bc e821 063e
00000170: 6caa 6a3b 93ae c9bd c5b2 293e 9e2c 423e
00000180: 0455 7f3d cde0 fcb9 af96 f13b 55e3 e8bc
00000190: 1581 2c3d daf6 08bc e888 cabc 2209 21bd
000001a0: 41ba db3d b8cc c63d 5558 26bc 4adc 4d3c
000001b0: fe23 bb3d c672 a03c e77d 8cbd 90ac 37bc
000001c0: 82ab 893d bfc5 3ebd 63e3 8f3c f59f 3bbd
000001d0: d047 c03c ac7a 51bd b705 b3bc 6337 06bd
000001e0: 161c 8a3d ddbb 4e3d dd0d 993c 6ee5 2cbb
000001f0: 33c9 d43d d6a3 bcbc c95d 13bd 5fc3 863c
00000200: 0ecb b9bc 52e2 8b3d e822 14be c870 633c
00000210: 7339 a5b9 b7bf cabd bc5d 5c3d d840 213d
00000220: 57d6 42be 0163 b83d f4ea bebd 5399 3f3e
00000230: 8db1 b63c cd6a 413e 0e64 b03d e9bb 1b3e
00000240: e056 39bd 2b45 863b 504a b03b 0d74 39bd
00000250: 4ee3 183d 8cf2 fdbc 4be0 d2ba 9a1a f539
00000260: 5d3d feb8 1df1 f5bb 356f 173d fd50 873c
00000270: 33f7 ff3c 39fe 42bd 185e 69bc bcb8 b93d
00000280: bba9 b3bc 4b69 723d bb16 8abd b3a1 383d
00000290: 04b0 d8bd beee e5bc 3396 293d 0e26 ae3c
000002a0: 690b 183d 7fdb febd 9003 1e3d 3acf d0bd
000002b0: 2a77 933d 19b1 9fbd 33ca 19be d241 c0bd
000002c0: cd3b bebd 09ae de3c 99ce 95bd 3ea6 c83c
000002d0: 0fcd a03d 8006 8bbd 507c 853c 69eb 503d
000002e0: 3ec0 cdbc e670 1d3c f1f9 533d bc38 f9bb
000002f0: 47c8 bcbd 2567 043e 2596 85bd 8d04 5f3c
00000300: daef b1bd 573d 7a3d 9a82 a9bd 6242 873d
00000310: 1c5c a5bd 9ed7 553e 3024 653d a5c6 b93d
00000320: 503f b5bc d685 273b 2b85 883c 1226 883d
00000330: ca4a ebba 2210 e13c e957 523d 0ac3 403d
00000340: 5a5d 62bd 7e44 843d d794 97bc 5ad8 9d3d
00000350: 56b9 0abd 7c5b d93c c840 b8bb d3b0 103d
00000360: 6d2c 57bd 6a04 c9bc f4f4 be3d 92b9 a63c
00000370: e221 1b3d 4f1f 013e d9bf 7a3b 0702 9e3d
00000380: ea6c 223d b713 1539 eeb4 823d e277 303d
00000390: 2207 963c 3522 023d d107 0fbe db5e 0cbe
000003a0: bfd3 3f3d f333 bdbd cddf f23d 285b cf3b
000003b0: 4781 63bc d25b 93bc 12d8 ed3c c898 5cbd
000003c0: 8e42 92bd 5a80 4dba 2479 f3bc f619 953c
000003d0: f807 25bc 78b3 dd3c fa98 a5bc 8461 2b3d
000003e0: 650f a8bc 9579 1fbd 60cb f3bc 0a87 0abe
000003f0: d1f7 9d3d 0acb e9bd b0d3 b9bd ff31 8e3d

conv.1.weight f4 [16]
0.61574495 0.704984 0.7664539 0.1871184 0.502715 0.63598025 0.32331192 0.39904594
0.7237384 0.4830461 0.30438048 0.30862308 0.46216288 0.27807617 0.4984656 0.3334187
00000000: 76a1 1d3f d579 343f 5336 443f f79b 3f3e
00000010: eeb1 003f 9acf 223f 2489 a53e c04f cc3e
00000020: eb46 393f d251 f73e c2d7 9b3e d803 9e3e
00000030: 9da0 ec3e 0060 8e3e e236 ff3e dbb5 aa3e

conv.1.bias f4 [16]
-0.5499161 -0.04934535 0.326958 0.0131214075 -0.36004227 -0.22469056 -0.113854565 0.16461837
-0.60724056 0.4238334 -0.16335146 -0.13934265 -0.12254767 0.037839353 0.13109867 0.20797934
00000000: 4dc7 0cbf 5a1e 4abd 0a67 a73e 2cfb 563c
00000010: 7657 b8be 4815 66be 952c e9bd b891 283e
00000020: 1e74 1bbf b100 d93e 9b45 27be d7af 0ebe
00000030: 46fa fabd 70fd 1a3d bb3e 063e 89f8 543e

conv.1.running_mean f4 [16]
-0.5244243 -0.11228096 0.3874631 0.037211828 -0.619123 0.6347904 -0.48906392 -0.39969793
1.1319798 -1.178566 -0.32713357 -0.12873627 -0.026289547 0.46854615 -0.80090314 0.015972184
00000000: ac40 06bf 8ff3 e5bd 9061 c63e 6e6b 183d
00000010: d87e 1ebf a081 223f 9666 fabe 35a5 ccbe
00000020: b7e4 903f 40db 96bf 0d7e a7be 71d3 03be
00000030: 2d5d d7bc 48e5 ef3e fd07 4dbf 19d8 823c

conv.1.running_var f4 [16]
0.2481291 2.5813754 4.1156507 0.13809542 0.21847162 0.46936882 0.21106137 1.0686861
2.0872073 2.7109883 0.1284275 0.2310579 0.24768545 0.39840874 2.0477815 0.9689289
00000000: 8e15 7e3e 4135 2540 69b3 8340 e368 0d3e
00000010: 06b7 5f3e 1c51 f03e 7920 583e b5ca 883f
00000020: ce94 0540 d580 2d40 8082 033e 719a 6c3e
00000030: 41a1 7d3e 3bfc cb3e da0e 0340 b90b 783f

conv.3.weight f4 [3, 16, 1, 1]
-0.4532891 -0.1684496 0.17416744 -0.054564133 -0.108514085 -0.10647488 0.07376629 -0.085022315
0.22486953 0.1212182 0.15159991 0.0032217745 -0.07942264 -0.16447842 -0.03542109 0.10449597
-0.38342616 -0.16255786 0.13634 0.09945752 -0.1018619 -0.079092726 0.05411595 -0.12991479
0.24867004 0.1241466 -0.068877876 -0.14439727 0.00826716 -0.014799838 -0.075397216 0.08721234
-0.25233737 -0.11286134 0.103591315 -0.023847204 -0.06803694 -0.041127384 -0.13178681 0.011856833
0.09543797 0.12620437 -0.024041658 -0.004540786 0.11332648 0.032976937 -0.1286431 0.046777826
00000000: 8215 e8be 0d7e 2cbe f358 323e a47e 5fbd
00000010: a23c debd 800f dabd c812 973d 2e20 aebd
00000020: 3344 663e 3f41 f83d 023d 1b3e 6824 533b
00000030: 56a8 a2bd 086d 28be b415 11bd fc01 d63d
00000040: 6f50 c4be 9175 26be b79c 0b3e 62b0 cb3d
00000050: f99c d0bd 5efb a1bd b0a8 5d3d 6208 05be
00000060: 5ca3 7e3e 9340 fe3d d80f 8dbd e1dc 13be
00000070: fb72 073c 057b 72bc db69 9abd 629c b23d
00000080: 5d32 81be d923 e7bd af27 d43d 365b c3bc
00000090: f456 8bbd 3075 28bd 1ff3 06be 2943 423c
000000a0: fb74 c33d b83b 013e 03f3 c4bc e0ca 94bb
000000b0: b717 e83d d312 073d 04bb 03be 1b9a 3f3d

conv.4.weight f4 [3]
1.1341056 1.1365087 1.1595718
00000000: 5f2a 913f 1e79 913f d96c 943f

conv.4.bias f4 [3]
-0.25672454 -0.2802564 -0.35599372
00000000: 6671 83be c47d 8fbe cf44 b6be

conv.4.running_mean f4 [3]
0.019050304 0.012003427 0.036629383
00000000: 620f 9c3c 06aa 443c b108 163d

conv.4.running_var f4 [3]
0.054730296 0.044625524 0.022075348
00000000: e02c 603d 41c9 363d 5cd7 b43c

shortcut.0.weight f4 [3, 32, 1, 1]
0.10345242 -0.07160327 0.04839528 -0.17179413 0.18390645 0.13427246 -0.14167942 -0.059481207
0.066533275 -0.012959485 -0.056069177 0.017179124 0.17290254 -0.013975613 0.02011686 -0.020070732
0.030808335 0.008372404 0.15518807 -0.038835473 -0.0122261215 -0.038044084 0.019766351 -0.15232274
0.047091763 0.043928154 -0.04343261 0.13692325 0.25044155 0.10676212 0.22243978 0.09127427
-0.036679555 -0.030607706 0.20775653 -0.09841964 -0.14288509 -0.10999336 0.058679413 -0.030973367
-0.008616389 -0.1836029 0.07358921 0.06352848 0.034974877 -0.12902875 0.016005065 0.050412353
-0.028909687 -0.04226959 0.023775067 0.14966667 0.018355373 0.14020237 0.0059293467 -0.064181514
-0.2015658 0.013789544 -0.019654378 -0.034607016 -0.0003898271 -0.020104235 0.123388946 0.18609808
-0.037938323 0.078179784 0.009802005 0.030389482 0.01707901 -0.07985281 -0.03709774 -0.16852978
0.0075373417 0.013885676 0.11306111 -0.017221209 0.16847208 -0.25214392 0.0285279 -0.1382003
-0.00803372 0.046869814 0.0917042 -0.0014282889 -0.0030188258 0.08345433 -0.073099345 0.051221155
-0.17647143 0.14904718 -0.21596164 0.05177913 0.031554725 -0.08696354 0.07119909 0.06359706
00000000: ddde d33d bca4 92bd 213a 463d cdea 2fbe
00000010: f951 3c3e b87e 093e 6914 11be 91a2 73bd
00000020: 9942 883d 0554 54bc cba8 65bd 3cbb 8c3c
00000030: 5d0d 313e f8f9 64bc 1dcc a43c 606b a4bc
00000040: c361 fc3c 682c 093c 9fe9 1e3e f211 1fbd
00000050: 1250 48bc 1dd4 1bbd 0bed a13c 7efa 1bbe
00000060: 4be3 403d 02ee 333d 64e6 31bd 9c35 0c3e
00000070: e039 803e 19a6 da3d 41c7 633e 01ee ba3d
00000080: 4d3d 16bd 03bd fabc 21be 543e 3c90 c9bd
00000090: 7850 12be 3344 e1bd d359 703d dcbb fdbc
000000a0: c12b 0dbc 6602 3cbe f1b5 963d 381b 823d
000000b0: d141 0f3d 1d20 04be 0e1d 833c 2f7d 4e3d
000000c0: 02d4 ecbc e122 2dbd eec3 c23c 3842 193e
000000d0: 025e 963c 3691 0f3e f74a c23b 9971 83bd
000000e0: 4467 4ebe 8aed 613c 3802 a1bc 16c0 0dbd
000000f0: b561 ccb9 a3b1 a4bc 58b3 fc3d 7f90 3e3e
00000100: 3765 1bbd b91c a03d 9798 203c 5df3 f83c
00000110: 48e9 8b3c df89 a3bd cdf3 17bd 1293 2cbe
00000120: cefb f63b bf80 633c 958c e73d 7e13 8dbc
00000130: f283 2c3e 0219 81be 58b3 e93c 6184 0dbe
00000140: dd9f 03bc 90fa 3f3d 69cf bb3d 6c35 bbba
00000150: 7ed7 45bb 1bea aa3d 1cb5 95bd 46cd 513d
00000160: edb4 34be d39f 183e 0c25 5dbe 5a16 543d
00000170: 873f 013d f119 b2bd d4d0 913d 2d3f 823d

shortcut.0.bias f4 [3]
-4.7623968e-07 9.958811e-07 5.924992e-07
00000000: e2ad ffb4 37aa 8535 3c0c 1f35

shortcut.1.weight f4 [3]
1.0618865 0.9954783 1.0468545
00000000: e6eb 873f aad7 7e3f 54ff 853f

shortcut.1.bias f4 [3]
-0.25672454 -0.2802564 -0.35599372
00000000: 6671 83be c47d 8fbe cf44 b6be

shortcut.1.running_mean f4 [3]
-0.09609549 -0.26956636 -0.24618432
00000000: b6cd c4bd 9a04 8abe be17 7cbe

shortcut.1.running_var f4 [3]
2.6358552 2.404057 4.281949
00000000: dab1 2840 12dc 1940 ba05 8940
