code/models weights/Lambda_gaussian_0.1_75.pth (torch, 47544 bytes, 28 tensors)

embedding f4 [16, 1, 1, 23, 23]
00000000: 9892 313c 587b 173c 2008 f43b 672d f93b
00000010: 0fee ca3b e3b8 c13b 2591 283b 29b1 5fbb
00000020: 8122 da3a e275 2a3c f28d bb3c ae17 9a3c
00000030: 2759 af3c 136e e73b f80c 8bba 1a6f aabb
00000040: 05f8 203a 33fa a63b 4c58 ae3b 023c de3b
00000050: 40d1 003c 444d 163c a245 343c 8d55 ec3b
00000060: da3e b43b e222 713b 3bf2 603b f774 253b
00000070: bcd0 083b ed3c b2ba 798a fcbb 6551 78bb
00000080: 0823 953b c90a 823c c937 803c 33cf 683c
00000090: 6fea c93a 041f 99bb 9837 00bc 7e12 46ba
000000a0: 7e2c 1b3b 01e6 073b d9b3 473b 121d 693b
000000b0: dd48 ac3b c432 ff3b c0e3 c73b c37f 6d3b
000000c0: 2075 2a3b 1bd6 073b 2027 963a b5f0 933a
000000d0: 364a 12bb 50e4 05bc 0fe1 a4bb 9745 2b3b
000000e0: 4672 663c 22b0 533c 4b7f 403c 9d30 b63a
000000f0: 3eae a6bb b5f9 03bc a55f 5cba 720f 3e3b
00000100: fc78 0b3b 5b3a 403b f83a 2c3b de76 883b
00000110: abdb c33b 96f8 af3b beb6 653b 0d8a 363b
00000120: c73a 0f3b 739d e33a 2ee5 793a f50f c4ba
00000130: 9d73 e9bb 4489 7fbb 4cad 303b 9242 5b3c
00000140: 8dfe 493c eeee 513c 3ef5 203b 42ea 9dbb
00000150: 72f6 f8bb 24e9 cf39 61b2 623b 9734 413b
00000160: 6af7 703b ebab 3c3b ef0b 853b 1aee e33b
00000170: 6db7 603b 0c7b e83a 2a71 bb3a d99e 033b
00000180: 4770 3937 526a a539 1a72 32bb 6e2e 1bbc
00000190: 15fa c6bb 2dc8 803a d701 2f3c 0bf2 f73b
000001a0: 88a5 283c b1f7 d038 1d3d c0bb d650 0dbc
000001b0: 90a0 c0ba 55c8 ff3a 7f09 3639 9846 143b
000001c0: 10a6 c23a 79d3 943a 2331 493b b177 953a
000001d0: cb97 ec39 a16f d3b9 18e6 fdb7 e5ef 85ba
000001e0: c5f1 c738 5130 57bb 4894 2bbc 99a7 cebb
000001f0: 66dc c5ba 5542 0f3c 2066 e93a dadd 053c
00000200: c2e6 e1ba 6368 f8bb a60d 28bc d606 f1ba
00000210: 0825 b03a d334 5e38 e5d8 9e3a c915 cc36
00000220: 9451 8fba 8b65 02ba 4720 66bb 976d 77bb
00000230: bcd2 61bb 0c68 30bb d8a9 22bb 26ae 0dbb
00000240: 031f b6bb de5b 75bc e695 40bc f707 d6bb
00000250: 611c 063a 7312 3ebc 3268 273a b868 09bc
00000260: a6ca 4dbc defd 85bc 0a95 d1bb fd43 ddba
00000270: 65d9 01bb 765b fbba ae32 76bb ef6d 9abb
00000280: 7df7 86bb 2bf9 1fbc b768 24bc c93c 18bc
00000290: 81d7 27bc 73a7 2bbc c406 2bbc efd4 6bbc
000002a0: be20 c7bc 08fd b0bc 9460 8cbc 9414 febb
000002b0: c7d5 cebc f7be 14bc 0c9d 97bc e378 b2bc
000002c0: a898 d0bc 1ed6 78bc 8e2f 2bbc 09f1 22bc
000002d0: eaff 1abc 138b 2ebc 31f3 35bc 6f23 31bc
000002e0: 1eb2 92bb cbec c0bb ab86 99bb a002 c2bb
000002f0: 0a8b edbb 1021 f3bb 310e 44bc a228 acbc
00000300: ccf1 8abc 49af 61bc bb58 01bb c2c2 bcbc
00000310: e3c2 42bb 2464 7abc ce8b 90bc 8815 b4bc
00000320: b9f8 49bc 531a e5bb 41ee e2bb ee67 bbbb
00000330: 4a72 c6bb c7de ccbb 9778 90bb eae2 913b
00000340: 77e0 f53a 2963 d039 f7e2 25ba 9f3a 04bb
00000350: 5178 09bb a507 06bc f619 94bc f6cf 67bc
00000360: 3acf 69bc fcbe ba3b b305 57bc a658 7d3b
00000370: 3528 7ebc 2614 6ebc 406d 93bc 89e1 0abc
00000380: 5e7f 0bbb d33a 18bb 26fb 1db9 8e77 293a
00000390: d660 993a 5961 af3b 2243 bc3c f054 9d3c
000003a0: b0da 833c 1fbb 7f3c 6024 4e3c 1877 483c
000003b0: f94c c43b 21e3 e1ba 95ba b33b be87 4f3c
000003c0: d33b 183d d7b6 dbbc 3c7e 173d 3326 513c
000003d0: b05c b23b 6693 06bb 5aa2 b23b 3ebd 483c
000003e0: f3ef 533c b57a 743c 81e1 873c 1f7c 9c3c
000003f0: b892 bf3c b4c0 c03b 84bc f43b 72db da3b
0.010838173 0.009245716 0.0074472576 0.0076042893 0.0061929296 0.005911933 0.0025721279 -0.0034132695
0.0016642363 0.010404082 0.022894833 0.01881012 0.021404816 0.0070626824 -0.0010608723 -0.0052012326
0.00061404734 0.005095744 0.0053205844 0.006782056 0.007862389 0.009173695 0.01100293 0.007212347
0.0055006566 0.0036794473 0.0034324068 0.0025246718 0.0020876369 -0.001359848 -0.007706937 -0.0037890312
0.004551295 0.015874283 0.0156516 0.014209556 0.001540495 -0.004672887 -0.007825755 -0.0007555856
0.0023677642 0.0020736458 0.0030472188 0.0035570306 0.0052577094 0.007788034 0.006100148 0.0036239482
0.0026009753 0.0020726982 0.0011455752 0.0011286946 -0.0022322065 -0.00817211 -0.005031712 0.0026134008
0.014065331 0.012920411 0.011749099 0.0013899986 -0.0050866893 -0.00805514 -0.0008406586 0.0029000905
0.002128183 0.0029331658 0.0026280265 0.0041645607 0.005977114 0.00537021 0.003505155 0.002785328
0.0021855102 0.0017365649 0.00095327466 -0.0014958369 -0.007124378 -0.0038991729 0.0026958762 0.013382571
0.012328756 0.012813313 0.0024560238 -0.0048191855 -0.007597738 0.0003965582 0.0034591185 0.002948081
0.0036768564 0.0028788995 0.0040602605 0.006955874 0.0034289018 0.0017736866 0.0014300693 0.0020083694
1.1053001e-05 0.00031550467 -0.0027228654 -0.009471519 -0.0060722926 0.0009825282 0.010681591 0.0075666956
0.010293372 9.964349e-05 -0.0058666603 -0.00862523 -0.0014696289 0.001951466 0.0001736041 0.0022625085
0.0014850516 0.0011354528 0.0030699454 0.0011403469 0.00045126522 -0.00040328226 -3.0267096e-05 -0.0010218589
9.5340925e-05 -0.0032835195 -0.010472365 -0.0063066003 -0.0015095591 0.008743842 0.0017806925 0.008170569
-0.0017234909 -0.0075808032 -0.01025716 -0.0018388878 0.001343877 5.297812e-05 0.0012119083 6.08221e-06
-0.0010934346 -0.00049742375 -0.0035114454 -0.003775453 -0.0034457883 -0.0026917486 -0.0024820473 -0.0021618693
-0.005557896 -0.014975516 -0.011754489 -0.006531711 0.0005115923 -0.011601078 0.0006386071 -0.008386783
-0.012560522 -0.016356405 -0.0063959407 -0.0016881224 -0.0019813415 -0.0019177038 -0.0037566829 -0.004712812
-0.0041188584 -0.009763996 -0.010034732 -0.009291836 -0.010244251 -0.010476935 -0.010438625 -0.014394029
-0.024307605 -0.02160503 -0.017135896 -0.007753918 -0.025248421 -0.009078733 -0.018507503 -0.021786159
-0.025463417 -0.015187768 -0.01044835 -0.009945163 -0.009460429 -0.010653275 -0.011105345 -0.010811671
-0.0044767996 -0.005887603 -0.004685243 -0.005920723 -0.0072492408 -0.007419713 -0.011966274 -0.021015469
-0.016961 -0.013774701 -0.0019736725 -0.023042087 -0.0029718212 -0.015282664 -0.01764479 -0.021982923
-0.0123273665 -0.0069916635 -0.0069253747 -0.0057191765 -0.006056105 -0.006252143 -0.0044089067 0.004452099
0.0018758912 0.00039746732 -0.0006328071 -0.0020176542 -0.0020976255 -0.008180534 -0.018078785 -0.014148703
-0.014270598 0.0056990366 -0.013123917 0.0038657575 -0.015512516 -0.014531171 -0.01799643 -0.008476623
-0.0021285634 -0.0023228421 -0.00015066247 0.00064646534 0.0011701833 0.005352181 0.02298123 0.01920554
0.01609549 0.015608578 0.012581915 0.012235425 0.005990621 -0.0017233827 0.005484889 0.012666641
0.037166428 -0.026820583 0.03698562 0.012765455 0.005443178 -0.0020534634 0.0054514827 0.01225215
0.012935626 0.014921834 0.01658702 0.019102154 0.02338539 0.005882347 0.007468762 0.006678992

queries.0.weight f4 [64, 3, 1, 1]
00000000: 9d3b f23b 6ccd ac3c afd0 a53c e07f 893d
00000010: 408f aa3d eb5b 243d a34e 0d3a 798a 3e39
00000020: 5614 6fbc 28b8 38b9 6cd3 babb bba7 94bc
00000030: 9271 0a3c ec8d 6e3d 4bee ce3c 6950 82bd
00000040: 14ce 9cbd 72e5 43bd a9ed 8ebd a294 10bd
00000050: a2ba d2bc 6be9 08ba 1986 5bba 2efa 10bb
00000060: bb86 a63a b516 20bd b42a 08bd ed8f 453d
00000070: 87f1 7fba 0bbf 18bd 2cfd 35bc 8af2 2cbc
00000080: 50b3 2bbc 7ce4 04bc 73d8 05bc d986 82bc
00000090: cb52 173d 4041 31bc a6c9 6dbc 4be1 033b
000000a0: 6883 143d a5a4 643c 6698 b8bc bf3b b2bc
000000b0: e601 87bc e95a 57bd 60f7 013d 2ee4 013d
000000c0: 560f 383c dccd 8f3c 7ddf f33c 407d cb3d
000000d0: a97f d43d a208 9b3d 83c5 c63b e72c 4cbb
000000e0: f8ff a1ba b58d 273c cd9c 973b a231 913a
000000f0: d2f1 2e3b 3689 5f3d e278 3f3d e6d6 82bd
00000100: a0c0 b7bd 0982 99bd 651a 56bd cb42 88bd
00000110: 5e9b 90bd f5e9 44bb e1e7 d5ba 391f dd3a
00000120: 2ec7 043d a275 c13c 9205 753c 4f5f 13bb
00000130: 27e5 48bb 476f 15bd a8f9 8d3b 3119 2a3b
00000140: b7c2 8abb ed05 813c 0f90 8c3c cca0 ef3c
00000150: 9325 33ba 320d 61ba aafb af39 6436 c3bc
00000160: b7f9 dfbc 76e1 bdba f9f1 773b edf3 f5b8
00000170: e3b7 5f3b a7b3 debc 4894 81bc c09d aabc
00000180: 1842 e6bb 8180 63bc 0f4e b3bc dae9 623d
00000190: d759 a73d 43c5 b13d 9629 97bb 69a8 58bc
000001a0: a9bd 2cbc 2a29 383c 87eb 6f3c c04d 903b
000001b0: dcb9 d8bc 9506 07bd 8125 90bc 25d3 36bd
000001c0: 6d0d b8bd e310 87bd 2736 4abd 26ab 68bd
000001d0: 59e9 5ebd 1dc6 9a3c e58f 743c 9118 f43b
000001e0: 5afa 243d 9059 7d3d 1cda 2a3d 97e4 3abd
000001f0: 5931 ccbc e93d 4d3c 7878 5cba c02f 733b
00000200: 1c4d deba b6c4 13bd 60a0 10bd 3d93 17bd
00000210: 8398 5ebb ab86 12bb 06f6 8d3b 3109 5c3d
00000220: 0f80 b43c e8bc bf3c a6e6 26bc 7503 79bc
00000230: 569a a8bc d22c 913c 7ba6 b9bc 7ede 4dbd
00000240: 3a42 5fbb 53a9 1c3b 99a4 01bb fc77 853d
00000250: 1cfd b83d 427e 7d3d a33a 463b d1fd 0abc
00000260: 6207 b3bc 116f abbc 9fd3 76bc c825 3ebc
00000270: 559c ccbc 6c69 b7bb a2a3 f6bc f1ad 9bbd
00000280: 0f9e c0bd d351 26bd 4c10 213d 1e77 523d
00000290: de57 b23d 8420 eb3a ebab 283b bd5f 9d3b
000002a0: e2b1 68bb 885c f139 824b 4fba 5541 cdbc
000002b0: a6ce 21bc 56bd 05bc f74c 31bb 811c 26bb
000002c0: b718 cabb 6153 1b3c b6f1 f93c d9fd c13c
000002d0: f100 ca3c f952 f83b 3a8a 2cbd f12b 7b3c
000002e0: 7f74 0b3c c6ab 67bd 5bbe a83c 0c48 ce3c
000002f0: 47c4 373d 0425 6c3c 4483 d23c 2f0c e13c
0.0073923604 0.021094047 0.02024111 0.06713843 0.08328104 0.040126722 0.0005390441 0.00018171397
-0.014592251 -0.00017616211 -0.005701473 -0.018146386 0.008449929 0.058240816 0.025260111 -0.06362993
-0.07656494 -0.047826238 -0.06978924 -0.035297997 -0.02572376 -0.000522277 -0.0008374169 -0.0022121775
0.0012704948 -0.039084155 -0.03324385 0.04823296 -0.00097634684 -0.037291568 -0.011107724 -0.010555873
-0.010479763 -0.008111116 -0.008169281 -0.015933441 0.036944192 -0.0108187795 -0.014513409 0.0020123299
0.03625813 0.01395527 -0.022533607 -0.021757005 -0.016480397 -0.052576933 0.031730056 0.03171175
0.011234125 0.017554216 0.029769653 0.09935999 0.10375912 0.07570006 0.0060660257 -0.0031154694
-0.001235961 0.010226657 0.0046268464 0.0011077414 0.002669443 0.054574214 0.046746142 -0.06388645
-0.08972287 -0.07495505 -0.052271266 -0.06653365 -0.07060884 -0.0030046676 -0.0016319716 0.0016870267
0.032416515 0.023615662 0.014954941 -0.0022487228 -0.0030654164 -0.036483075 0.00433274 0.0025954957
-0.0042346376 0.015749896 0.017158536 0.029251479 -0.0006833907 -0.0008585035 0.00033566105 -0.023829646
-0.027340753 -0.0014486748 0.0037833436 -0.00011727945 0.0034136705 -0.027185274 -0.015817776 -0.020827174
-0.007026922 -0.013885618 -0.021887807 0.0553988 0.081714325 0.08680203 -0.0046131117 -0.013223746
-0.010543265 0.011240283 0.014643556 0.0044038 -0.026455812 -0.03296526 -0.017596008 -0.044634957
-0.08986936 -0.06595018 -0.04936805 -0.056803845 -0.054421756 0.018893296 0.014926885 0.0074492176
0.040277816 0.06185299 0.04171191 -0.045628157 -0.024925875 0.012526968 -0.0008410285 0.0037107319
-0.0016960236 -0.03607627 -0.035309196 -0.03700565 -0.0033965416 -0.00223581 0.004332307 0.053719703
0.02203372 0.023405507 -0.010186827 -0.015198578 -0.020581406 0.017721567 -0.022662392 -0.050261013
-0.0034066574 0.0023904636 -0.0019781946 0.06517026 0.09032652 0.061887987 0.0030247353 -0.008483366
-0.021854106 -0.020926984 -0.015065103 -0.011605687 -0.024976889 -0.005597284 -0.030107323 -0.07601536
-0.09405147 -0.040605377 0.039322183 0.05138313 0.087081656 0.0017938768 0.0025737237 0.0048026727
-0.0035506417 0.00046036043 -0.0007907675 -0.025055567 -0.009875929 -0.008162817 -0.0027053931 -0.002534658
-0.006167497 0.009480328 0.030510765 0.023680614 0.024658652 0.0075782505 -0.04212401 0.015330301
0.008511662 -0.0565603 0.020598581 0.025180839 0.04486492 0.014413122 0.025697358 0.02747163

queries.1.weight f4 [64]
00000000: 01cd ed3c 2479 af3e 66a1 0dba ac71 7039
00000010: 70fb 363e 093c a63e 98ee 603e 1a28 30ba
00000020: ddae 933d 8ef0 fc3c 1f0c 30ba d463 f9ba
00000030: 9d55 723c 2df2 393d d083 17ba c6a5 343d
00000040: 9e2c 073b 99d5 063f 962f 1b3a c7d7 56ba
00000050: 7fed 783e af5b c63e c2ef 953e 2581 12ba
00000060: ba8b 6c3d 4be4 b93c 9621 17b9 05e9 583b
00000070: d289 9138 d1fb b33c b84d 90ba 948b 6a3d
00000080: 185d a33c 66ec a73e 139e ecb9 e230 83bb
00000090: 3d46 de3d ccdc 6e3e 7513 743e bf24 fa39
000000a0: 759f 9c3e 61be 5f3d e52f d6b8 637c a3bb
000000b0: ac9b 1e3a 0c77 eb3d a40a 1f3a c7b5 873d
000000c0: 906d ffb9 07d2 683e b116 2439 7a47 0d3b
000000d0: 4018 6b3d 2de0 873e ceca 753e 24c1 abb8
000000e0: a032 deb9 15d7 753c a38e 9c39 4058 4a3b
000000f0: 6537 3c3c 9134 ce3c 52f3 1eba db69 083d
0.029028418 0.3427211 -0.00054027734 0.0002293053 0.17869353 0.32467678 0.21966016 -0.0006719843
0.07211087 0.030876424 -0.00067156734 -0.0019026943 0.01479092 0.045396972 -0.00057798345 0.044103406
0.002062596 0.52669674 0.00059198716 -0.00081956055 0.24309348 0.38741824 0.29284483 -0.0005588702
0.05775044 0.022691866 -0.00014412994 0.0033097875 6.93981e-05 0.021970661 -0.001100949 0.05726202
0.019941851 0.32797545 -0.00045131202 -0.00400363 0.10853241 0.23326415 0.23835547 0.00047711094
0.30590406 0.05462492 -0.00010213236 -0.0049891933 0.00060504186 0.11497316 0.0006066954 0.06626468
-0.0004871902 0.22736369 0.00015648712 0.0021557496 0.057396173 0.2653822 0.24003145 -8.189891e-05
-0.00042380858 0.015004893 0.0002986091 0.0030875355 0.011487816 0.02517155 -0.0006063479 0.033304077

queries.1.bias f4 [64]
00000000: 20ff 84bc 01a9 15be 199e 49ba 0dfd a3bb
00000010: 4a87 1a3e 89f8 e73e b2ba d93c 79d0 31ba
00000020: 88c7 5fbe 8ef0 7dbd aede 8bba 8a9d c83b
00000030: a344 cd3a a9a8 153e 478d 24bb 02f5 cdbd
00000040: 80e0 a5bd f149 b83e 43bb 65bb 6301 4bbc
00000050: 304e 323d 027f 06be 67dc a6be 4071 d3ba
00000060: 2c60 e53d d4fd 31bd 28a2 d7ba 375c 29b8
00000070: c01d 2f3c 0030 803d 785c d0ba ca94 643c
00000080: 4bc6 43bd aad0 d9be 8825 79ba 898a c3bb
00000090: 5769 a53d 9186 2fbe 4f95 723e f2de 70b8
000000a0: 3ced 18bd b95e 293b 5480 113a 92ba beba
000000b0: 222c 953c 02e7 2f3e 123a f33a afde 693d
000000c0: 106a 43bd e95c 8d3c 03f8 43ba e315 aabb
000000d0: 9cf2 0c3e cbbb 0fbe b4a4 ddbd a027 9aba
000000e0: a815 23be 0e7d 39bc 430d e939 df57 a6ba
000000f0: 9720 f23b 6259 653e 9444 c538 e2ba 903c
-0.016234934 -0.14615251 -0.00076911 -0.0050045312 0.15090671 0.45306805 0.026578281 -0.0006783079
-0.21853459 -0.06199699 -0.0010671222 0.0061222957 0.0015660714 0.1461512 -0.0025108622 -0.10056497
-0.080994606 0.35993913 -0.0035054244 -0.012390467 0.043531597 -0.13134387 -0.3259003 -0.0016131774
0.11199984 -0.04345496 -0.0016451525 -4.037862e-05 0.010688245 0.06259155 -0.0015896698 0.01395149
-0.04779653 -0.4254201 -0.0009504189 -0.0059674424 0.080767326 -0.17141177 0.23689769 -5.7428093e-05
-0.03733562 0.0025843813 0.00055504334 -0.0014551452 0.01820952 0.17177966 0.0018556735 0.057097133
-0.04770857 0.017256217 -0.00074756163 -0.0051905974 0.13764423 -0.14036481 -0.1082243 -0.0011761077
-0.1592623 -0.011321319 0.00044451104 -0.0012690983 0.007389139 0.22397378 9.406466e-05 0.017667238

queries.1.running_mean f4 [64]
00000000: a323 a43c ef1d ab3d be47 d1bb f1b0 2cbc
00000010: 027a 223d 5932 a9bd 19d1 6abd 131a 45bb
00000020: 0aac fabc 2173 dd3b a1d6 6dbc 71d2 6bbc
00000030: 8a2f d23b c8ef bf3c fc0e ddbc 26a9 0ab8
00000040: 19b2 cf3c f2f6 f73d 4769 c5b8 36a3 fe3b
00000050: 35a3 333d 28b6 ccbd 003c a6bd 79fd 72ba
00000060: 6517 fe3c 4150 8bbc 672e 083b 66a1 dc3c
00000070: 7125 7439 9200 bcbc b6ff 7b3b ae80 e7bc
00000080: e9c0 95bc dbd6 c63d 85ce 4fbc 7e39 5e3c
00000090: e149 0bbd a2a0 b1bd a3e1 8fbd 2c81 993c
000000a0: 730d 813d 5bb3 dfbc 2ba9 783a e1fa 42bd
000000b0: 2af5 d0ba b600 323d b3d3 a3bc 5bf5 b8bc
000000c0: 7512 a8ba a8a0 c13d 1315 3cbc 8436 aebc
000000d0: 6c6d dbbc 7711 bebd f856 9c3d 46c9 a43b
000000e0: 1a7d e0ba a1b9 99bc 0413 bebb fd78 e33c
000000f0: f979 63bb ddf0 57bc 741c 203d 4688 f03c
0.020036524 0.08355319 -0.006386726 -0.010540233 0.039667137 -0.08261556 -0.057328317 -0.0030075356
-0.030599613 0.006758109 -0.014516504 -0.014393435 0.0064143585 0.023429766 -0.026984684 -3.3059296e-05
0.025353478 0.12107648 -9.4133014e-05 0.007770921 0.04385682 -0.09995681 -0.08116913 -0.0009269338
0.031017015 -0.017006041 0.002077961 0.02693243 0.00023283601 -0.02294949 0.0038451976 -0.028259601
-0.018280463 0.09708949 -0.012683515 0.013563512 -0.034006003 -0.086732164 -0.07025459 0.018738352
0.06301393 -0.027307203 0.0009485657 -0.047602538 -0.0015942205 0.04345771 -0.019998407 -0.022577932
-0.0012822883 0.09454471 -0.011479634 -0.02126623 -0.026785575 -0.09280675 0.076337755 0.0050288765
-0.0017127127 -0.018765273 -0.0058006067 0.027767653 -0.0034710153 -0.013179985 0.039089635 0.029361855

queries.1.running_var f4 [64]
00000000: 3a06 4439 8fab 493b dcb4 c737 e9d8 7138
00000010: a1ea 3d3a 2921 463b 7551 bd3a f6d7 9636
00000020: f3e8 ec39 0338 c838 3af5 c438 8c85 c838
00000030: 7c5a 4538 33a8 8539 5cd9 a839 fb0f c838
00000040: 040c 9e39 9eb6 d43b 37de e035 b32b e137
00000050: fd86 723a 7b7c 923b daf5 423b 3780 3b35
00000060: a29e dd39 c202 2639 da40 4036 160d af39
00000070: c0f0 3f34 e994 7339 0dda eb36 9d5c b939
00000080: 4688 2539 a5da 8b3b 618f 9a38 5045 ab38
00000090: fc5d 063a fda6 5e3b 8589 103b d4e7 2139
000000a0: 554c e83a 6d96 b339 ae2b 5a35 3ca2 843a
000000b0: d1dc 0036 2248 5a3a cfcf 4039 1563 a339
000000c0: c553 ad35 3371 823b c187 9638 baa5 5039
000000d0: fde3 ab39 fea1 783b aad0 303b 503d 4a37
000000e0: f614 fb35 9c20 2339 afec 8437 34bf b939
000000f0: ee99 8a38 cf7a 2f39 12c6 393a 86d4 cd39
0.00018694336 0.0030772423 2.3806868e-05 5.766089e-05 0.000724474 0.0030232167 0.0014443832 4.4954895e-06
0.00045186988 9.547176e-05 9.391685e-05 9.561618e-05 4.705273e-05 0.00025493055 0.00032205402 9.53972e-05
0.0003014506 0.006491496 1.6753974e-06 2.684244e-05 0.0009251682 0.0044704056 0.002974859 6.9849506e-07
0.00042270595 0.00015832021 2.8647978e-06 0.0003338835 1.7875846e-07 0.00023229759 7.02893e-06 0.00035354952
0.00015786392 0.004268008 7.369999e-05 8.166826e-05 0.0005125699 0.0033974044 0.0022054624 0.00015440519
0.0017722944 0.00034253616 8.127489e-07 0.001011915 1.9202018e-06 0.00083267887 0.00018387962 0.00031163605
1.2913885e-06 0.0039807796 7.1778435e-05 0.00019898164 0.00032785526 0.0037938352 0.0026979842 1.2054414e-05
1.8707058e-06 0.0001555704 1.584584e-05 0.00035428407 6.6090244e-05 0.0001673505 0.0007086705 0.0003925899

keys.0.weight f4 [16, 3, 1, 1]
00000000: dd53 ebbb 47bf 8fbb 3482 bcba 1aec bf3d
00000010: 9db9 d23d f29e 773d 062e 293a d5a4 d639
00000020: 0dcc cd39 b960 733b 415f 023b 7795 703a
00000030: 02af 9a3e a7e7 d93e 7779 d63e 2f2c ffbd
00000040: 91a3 90bd 5dc7 8cbd a473 943d 5783 41bb
00000050: b7de 1cbd bf3b 0dba c3b8 25ba 7935 d8b8
00000060: b24b 84be 25e5 8cbe 339e 58be 6e37 973d
00000070: 280c 633c 4b1c edbc 4c9e 183a f944 ac39
00000080: b378 dd39 95b6 0eba 7c11 343a 5538 963a
00000090: 0bfb 143c a76a 233a b75c ff38 851c 30bd
000000a0: 2e38 11bd 32c8 d5bc 09d5 083b c854 d33a
000000b0: 2b74 d93a 64ee 16bd c1aa d83c beda 8f3d
-0.007181628 -0.0043868157 -0.0014382065 0.09371205 0.10289309 0.060454316 0.00064536964 0.0004094007
0.00039252677 0.0037136509 0.0019893202 0.00091775454 0.30211645 0.4255955 0.41889545 -0.12459599
-0.07062448 -0.06873963 0.07248619 -0.0029527748 -0.038298335 -0.0005387626 -0.0006321782 -0.00010309643
-0.25839 -0.27518573 -0.21154098 0.07383619 0.013857879 -0.028944155 0.0005821928 0.00032857785
0.00042242333 -0.0005444077 0.00068690605 0.001146088 0.009093056 0.0006233849 0.00012176617 -0.04299595
-0.035453968 -0.026096437 0.0020878932 0.0016123289 0.0016590407 -0.03684844 0.02644861 0.07024144

values.0.weight f4 [4, 3, 1, 1]
00000000: 2bb9 9c3e 6785 a9bd 5c75 a5bd 7430 af3d
00000010: c08b 8ebe 445b 433e 62b9 05be 6bdb 13be
00000020: 39d6 613d 6ace 2e3c 6e08 8ebd 7c96 58be
0.30610022 -0.082773976 -0.08079025 0.085541636 -0.27840996 0.19077784 -0.13058999 -0.1443917
0.05513594 0.01066933 -0.069352016 -0.21151155

values.1.weight f4 [4]
00000000: f2d8 ab3e 799c 883e b16e cd3e d2c1 d13e
0.33563954 0.2668188 0.40123513 0.40968186

values.1.bias f4 [4]
00000000: 4f62 60be fb7e 663e d6b4 c9be 9315 873e
-0.21912502 0.22509377 -0.3939578 0.26383647

values.1.running_mean f4 [4]
00000000: 1d02 8c3d f7c6 eabb ee55 d1bd e9f6 e5bd
0.068363406 -0.0071648317 -0.10221468 -0.11228735

values.1.running_var f4 [4]
00000000: 6da7 6d3b c119 da3a 02c5 9c3b 219a db3b
0.0036263124 0.0016639755 0.0047842273 0.006701723

conv.0.weight f4 [8, 16, 1, 1]
00000000: 9546 fc3c bfdb ccbc 3438 0c3d 1985 5fbc
00000010: 028f f23d 9bd3 87bd e7c0 0d3b 1946 20be
00000020: 8e8c d9bd 9537 843d 5178 27bd 5ef6 bfbc
00000030: 24a9 eabd 5048 8c3d a50c 84bd 5a82 a13d
00000040: 3c3f 30bc fd64 6b3a b6ec 693d 0158 8d3d
00000050: a743 b9bb 2c04 153c 2660 08bd d1a5 a7bc
00000060: ad73 26bd a609 573d dbd9 0abe b829 26bd
00000070: 41e8 0d3e 9415 cebd b8fd a13c f535 83be
00000080: e768 563d cb6b cfbc 4c59 9c3d 6a41 6cbd
00000090: 7023 1d3d d4e3 12bd 7b9a 463d 5de0 78be
000000a0: 0ac4 2c3c 264f 0c3a 7b66 d1bd 55e0 f63d
000000b0: a2cb 55bc 28e4 ee3c 017b 6cbd 7e4b 2b3e
000000c0: caf2 36bd 1ede fabc 456b d7bd 1f63 233d
000000d0: 683a c53c 90fe 203d 29de f1bd a9c7 06bd
000000e0: 87dd 9fbd ab4f 0e3e cd8f 913c a1c5 1e3e
000000f0: 7a5b dabc 5f41 91bc f40e f03d 871d e53d
00000100: 061b 1dbd 16b6 243d 16e5 00be a8f8 91bc
00000110: f6af ba3d 0c16 9dbd c074 733e e3b8 cabd
00000120: fdb5 4ebd f3be 493d 323a 11be 4930 a73c
00000130: 3889 c83d 6a97 d4bd 1fa0 8d3e 59f4 95bc
00000140: 29ac 4d3d c7f5 27bd 99bf e13c 0781 793d
00000150: 4d74 9e3d 96ac 95bd 726a 883d 5f73 99bc
00000160: 40f4 c1bd ca65 ad3d c41f 30be bc25 7cbd
00000170: 58d9 033d 6f0e 213c d7bd febc c53c 1f3d
00000180: a3a1 8cbc 0a20 ac3b ab82 72bd 6299 c93c
00000190: 21ed fa3b 1af1 6a3c 3bb0 acbd f80a 173e
000001a0: 3985 003d 562f 87bd 53c8 883e 6268 b0ba
000001b0: f90f 623d ced8 0ebb 59b3 a3ba 2798 3fbd
000001c0: c66b 6abd cd21 913b f71a b53d dc7a 223e
000001d0: df19 e8bd 4b5f 943d 129c 18be fe41 143e
000001e0: 95df 37bd ba57 853d 2559 4cbe 25ed 13bd
000001f0: a7e3 bdbc 3e51 76bb 8ee4 da3d 375c 0c3e
0.030795375 -0.025007127 0.034233287 -0.013642573 0.11843683 -0.066321574 0.0021629871 -0.1565174
-0.10622512 0.06455914 -0.040886227 -0.023432907 -0.11458042 0.0684973 -0.06447724 0.07886191
-0.010757264 0.0008979587 0.05711051 0.06901551 -0.0056538167 0.009095233 -0.03329482 -0.02046481
-0.04063766 0.052499436 -0.13559668 -0.04056713 0.13858129 -0.100627095 0.019774303 -0.25627103
0.052346136 -0.025319954 0.076342195 -0.05767957 0.038363874 -0.035861805 0.048487168 -0.24304338
0.010544786 0.000535237 -0.10224625 0.12054507 -0.013049038 0.029161528 -0.057734493 0.16728017
-0.044665135 -0.030623492 -0.10518507 0.03988945 0.024075702 0.03930527 -0.11809952 -0.032905255
-0.07805925 0.13897578 0.017768765 0.15505077 -0.026654948 -0.017731367 0.11721602 0.111872725
-0.03835585 0.040212713 -0.1258739 -0.017818764 0.09115593 -0.07670221 0.23775005 -0.098985456
-0.050466526 0.04925437 -0.14182356 0.020408766 0.097917974 -0.103804424 0.27661225 -0.01830499
0.050213013 -0.041005876 0.027557181 0.060914066 0.07737026 -0.07308309 0.06660928 -0.018731771
-0.09470415 0.0846668 -0.17199618 -0.061559424 0.032189697 0.009830101 -0.031096382 0.038876314
-0.017166918 0.005252843 -0.059206646 0.024609271 0.0076576625 0.01433971 -0.08432051 0.14750278
0.03137705 -0.066008255 0.26715335 -0.0013458843 0.055191014 -0.0021796706 -0.0012489363 -0.046775963
-0.057231687 0.004429078 0.08843034 0.1586718 -0.113330595 0.07244738 -0.14903286 0.14478299
-0.04489096 0.06510873 -0.19955881 -0.03611483 -0.023179842 -0.0037585045 0.106881246 0.13707052

conv.1.weight f4 [8]
00000000: 1f04 c63e 3014 453e 3fd3 b93e 6b93 163e
00000010: 0d47 2f3f 60cf 973e da13 843e 67f8 053e
0.3867502 0.19245982 0.3629398 0.14704673 0.6846779 0.29650402 0.25796396 0.13083039

conv.1.bias f4 [8]
00000000: d3da 94be e05d b4bd a905 65be 7b72 7a3e
00000010: cc1f 2fbf 8c4d adbd 332d e1bc db5d 903d
-0.290732 -0.08806968 -0.2236544 0.24457733 -0.68407893 -0.084620565 -0.027487373 0.070491515

conv.1.running_mean f4 [8]
00000000: a5ca e7bd 7b55 a5bd 722f 47be 0724 37bd
00000010: 0700 7ebe 1e86 5abe f82b 7b3e c438 7abc
-0.11317948 -0.08072945 -0.19451693 -0.044712093 -0.24804698 -0.21340224 0.24528491 -0.015272323

conv.1.running_var f4 [8]
00000000: c3b8 5b3c ba33 993b 5d3d b63c 770b 083e
00000010: b758 2a3c eb92 8c3c 9830 033d ce38 473c
0.01341075 0.0046753557 0.022246057 0.13285623 0.010397128 0.0171599 0.032028764 0.012159539

conv.3.weight f4 [3, 8, 1, 1]
00000000: 094f 103e 1935 c53d adaf 283c c9f6 2e3e
00000010: e233 9ebe 7cf9 eb3b 8725 0ebe f6b7 a2bd
00000020: a013 cb3d 559c bc3d 5824 493d f5fc 453e
00000030: 36d9 9cbe ea4d 69bd e89b a0bd 3a06 b8bd
00000040: d138 003c 640c 8e3d b3f1 233e bbb0 763d
00000050: cff6 89be a9ff 39be d8ac 3d3d ae14 a7bd
0.1409265 0.09629268 0.010295791 0.17086329 -0.30898958 0.0072013717 -0.13881503 -0.07945244
0.099158525 0.092095055 0.049106926 0.19334777 -0.3063447 -0.05695907 -0.07842237 -0.089855626
0.007826046 0.06935957 0.1601017 0.060227137 -0.26946113 -0.18163933 0.046307415 -0.08158241

conv.4.weight f4 [3]
00000000: f250 883f 4de5 963f 08d1 993f
1.0649703 1.1788727 1.2016916

conv.4.bias f4 [3]
00000000: 4f6d 90be e11d 9dbe 0637 c0be
-0.28208396 -0.30686858 -0.3754198

conv.4.running_mean f4 [3]
00000000: 616c 663b 3458 fa3b 5ed9 9cbc
0.0035159814 0.007639909 -0.019146618

conv.4.running_var f4 [3]
00000000: fc9a 183c 9bf3 383c d736 283c
0.009314295 0.011288549 0.010266981

shortcut.0.weight f4 [3, 16, 1, 1]
00000000: ec38 843d 2da5 9a3d 5533 063d 36f5 693e
00000010: d66a b43d c2ce 053d 5919 5ebe 44bb 7c3d
00000020: 511b 8abe 5cb4 5bbd c5ac 253e 7706 433d
00000030: f62f 523c fc01 26bc e635 f03d 7f7d fbbc
00000040: 9e8c e8bd 1bc0 08be 785c 2d3d 8295 343e
00000050: e39c 64bd e039 92bc a136 6abe e401 01bd
00000060: d87c 983c da4d 423e d159 013e b626 333e
00000070: e047 e73c 3c2a 89bd 54d0 d03d 6239 d63c
00000080: ebf0 b0bd c0cf cf3d 2bc6 eb3d 1295 9b3d
00000090: 8c85 c2bd 0bcd a43d 17b7 f9bd f7a1 3fbe
000000a0: ba18 9b3c 67de 7dbd cc11 15be d62d 973e
000000b0: 58ce a73d 1560 48bd 1337 003e 2465 ab3d
0.064561695 0.07551036 0.032763798 0.22847447 0.0880944 0.032667883 -0.21689357 0.061702028
-0.26973966 -0.0536388 0.16179188 0.047613587 0.012828818 -0.010132309 0.1172903 -0.03069949
-0.113549456 -0.13354532 0.042324513 0.17635158 -0.05581368 -0.017849863 -0.22872402 -0.031495944
0.018614218 0.1897501 0.12631918 0.17495236 0.028232515 -0.06697509 0.101959854 0.02615041
-0.086397015 0.10147047 0.11512407 0.07596792 -0.09498128 0.08046921 -0.12193125 -0.18714128
0.018932689 -0.061979678 -0.1455757 0.29527158 0.08193654 -0.048919756 0.12521009 0.083689004

shortcut.0.bias f4 [3]
00000000: 9e63 4436 541f 2ab7 b319 3d37
2.926426e-06 -1.0140084e-05 1.1271261e-05

shortcut.1.weight f4 [3]
00000000: 0be9 a43f b4f0 883f 5b38 923f
1.2883619 1.0698457 1.1423448

shortcut.1.bias f4 [3]
00000000: 4f6d 90be e11d 9dbe 0637 c0be
-0.28208396 -0.30686858 -0.3754198

shortcut.1.running_mean f4 [3]
00000000: 5fef 913d 4f14 25ba 425c 1cbe
0.071257345 -0.00062972767 -0.15269569

shortcut.1.running_var f4 [3]
00000000: e532 5c3e ebe1 363e 9424 103e
0.2150379 0.17859618 0.14076453
