code/models weights/Lambda_gaussian_0.1_200.pth (torch, 47544 bytes, 28 tensors)

embedding f4 [16, 1, 1, 23, 23]
00000000: 1fd7 413c 441e 0c3c b46b ec3b c775 b33b
00000010: 5212 723b 9c53 493b bb5f adb9 ec50 96bb
00000020: f32f 0c3b d649 283c 7af0 d53c 60a7 c83c
00000030: e87a cd3c 4787 133c f33f 5f39 0364 eebb
00000040: 48ca 41bb a84d 393b bcb5 803b 67d6 d33b
00000050: b1ca 0e3c 5fef 333c 5164 523c 501b 053c
00000060: 42d2 c63b ef67 403b d57d 033b e982 a23a
00000070: 0729 983a e863 07bb ea6b 0bbc cff3 52bb
00000080: 97b8 4a3b aa71 733c 17c8 703c 586e 723c
00000090: c09e 7e3b f136 4dbb 066d 16bc cab3 77bb
000000a0: 5b12 113a 1895 163b c9d0 893b 5cc7 b83b
000000b0: c508 f53b b922 203c 2894 d13b a6fd 8f3b
000000c0: 7c90 373b 8fec 093b 3fe2 673a 1324 833a
000000d0: de39 52bb 0c3d 0bbc d4f8 9ebb 9386 673a
000000e0: 49bf 3a3c e4a5 403c c3b4 433c 4c6e 1f3b
000000f0: 2019 90bb d4fd 15bc 52f8 80bb 8173 8539
00000100: 377c a63a 4d3e 123b ac8b 183b f7a9 833b
00000110: 8137 d33b 7e8b 913b 6ad1 433b 4b42 383b
00000120: 41bf 0f3b ab18 a13a 2b49 053b f7d4 2abb
00000130: b192 1ebc 2b88 c7bb f3a7 423a 6d06 2a3c
00000140: ec46 1e3c 60ec 223c 00db b03a a821 d2bb
00000150: 6d87 2fbc 61e3 7cbb 77a5 c738 bc63 4339
00000160: e6a1 003b 2a8c 003b e907 863b 7085 ca3b
00000170: f8e4 253b 9465 143b 5d8a cf3a 1aac c03a
00000180: 69da f73a 95c5 fe3a 5a96 32bb 4502 15bc
00000190: 1bda babb bac0 0839 74b4 173c 7f81 e33b
000001a0: 0ec3 fe3b e738 133a 0c6f d6bb 1c19 35bc
000001b0: 05dd 9bbb 971b ab38 f8ce a238 8daf 003b
000001c0: 2467 e03a acc4 773b b3f6 813b 5989 ac3a
000001d0: ee62 f73a 81d9 e23a 18e1 033b b84d ec3a
000001e0: 3454 003b 615a 4ebb a76b 26bc ed60 c1bb
000001f0: ca38 c838 8745 0d3c c586 943b 41dd 093c
00000200: 2de7 203a 1fc9 9ebb d32b 21bc 774b 96bb
00000210: 8d7c ef3a f409 b33a 9b40 f73a bd82 d73a
00000220: 4088 153b 429b 083b 33e0 58bb f623 71bb
00000230: f536 3dbb d978 d5ba e319 44bb 3b6d 36bb
00000240: 7dd7 05bc 9ce2 83bc b5a9 39bc 962c fbbb
00000250: 4d18 71ba ac0c f9bb ceed 0c39 1f10 debb
00000260: 554b 2dbc 6063 72bc 1944 e4bb 90dc 4abb
00000270: 0519 2bbb 821f 2dbb fe41 7bbb 081d 0ebb
00000280: 29fb 2abb 631f 25bc e065 2bbc 964c 2cbc
00000290: 6848 22bc fbba 36bc 8e01 47bc 1eaf 86bc
000002a0: c712 bfbc df82 94bc efe9 8cbc 0651 1dbc
000002b0: 76a7 6cbc 01a2 05bc e4c4 84bc d387 96bc
000002c0: 180b b4bc e25c 80bc 82c8 3fbc ca35 2cbc
000002d0: f698 29bc 0e80 3dbc c622 19bc 56eb 13bc
000002e0: a7c8 9ebb 3298 e6bb 724a d4bb 68f3 ddbb
000002f0: 021b febb 435c 0bbc 793b 62bc e0af 90bc
00000300: 58ba 66bc 4ebd 82bc efeb b0bb 91d4 0bbc
00000310: f386 97bb 4184 7ebc 82d1 59bc 251f 8cbc
00000320: 6d9e 21bc 2cd2 cbbb 00ab d3bb 04b1 adbb
00000330: da06 fcbb fc88 cdbb 8870 85bb 8c7f 313b
00000340: 78eb 75ba 841e dfba 7da9 43ba 795b a7ba
00000350: 788a 30bb bd38 2fbc 916c 94bc 8c9d 8cbc
00000360: 7d1a e0bc 5cf9 09bc 31c9 1d3b 4b0d 08bc
00000370: 6cf2 ebbc 0d8c 8cbc 7dc5 8abc fcb4 09bc
00000380: cd96 36bb d815 feba 269d eb39 f85e 9bba
00000390: 9886 3e3a eb89 ac3b b99a c03c 9406 8a3c
000003a0: cef5 563c d3e9 343c fb6a 013c 9bc5 f03b
000003b0: a113 5bba cefe f2bb e66e 73bb ca72 01bc
000003c0: c6b2 a63c 4efa 863b a237 9d3c b7c2 20bc
000003d0: 955a 99bb 2ac0 f1bb 3823 e1ba 0fdb c13b
000003e0: cdd2 e23b 508e 283c 15e3 513c d63d 843c
000003f0: 2a23 bf3c 4486 513c f291 1f3c d4a2 0c3c
0.011831074 0.008552138 0.0072149877 0.0054766866 0.003693719 0.003072 -0.00033068456 -0.0045872834
0.0021390885 0.01027151 0.026115645 0.024493873 0.02508302 0.009004421 0.0002129076 -0.007275106
-0.0029570032 0.0028275046 0.0039279144 0.0064647677 0.008715318 0.0109823635 0.0128413 0.008124188
0.006067545 0.0029358824 0.0020064015 0.0012398633 0.0011608907 -0.0020658914 -0.008509615 -0.0032188778
0.0030932778 0.014858643 0.014696143 0.014796816 0.0038851947 -0.0031313265 -0.009181267 -0.0037796372
0.0005534046 0.002297705 0.0042057973 0.005639 0.007477852 0.0097739035 0.0063958354 0.004394251
0.0028009703 0.002104554 0.0008845664 0.0010005258 -0.0032077949 -0.008498441 -0.00485144 0.0008832004
0.011398145 0.011758301 0.011944952 0.0024327217 -0.0043975264 -0.009154756 -0.003935852 0.00025453794
0.0012701814 0.0022314966 0.002327661 0.004018064 0.0064458256 0.0044416776 0.002987946 0.0028115686
0.0021934065 0.0012290677 0.00203378 -0.0026066878 -0.009678529 -0.0060892305 0.0007425539 0.010377509
0.009660464 0.0099440515 0.0013493001 -0.0064127035 -0.01071344 -0.0038587677 9.51988e-05 0.00018633803
0.001962775 0.0019614794 0.0040902984 0.006180458 0.0025313478 0.0022643553 0.0015834082 0.0014699728
0.0018909696 0.0019437546 -0.002725026 -0.009094779 -0.0057022697 0.00013041767 0.009259332 0.0069429274
0.007774717 0.0005616084 -0.0065439995 -0.01105335 -0.004756572 8.1590544e-05 7.763313e-05 0.0019635886
0.0017120582 0.0037806435 0.0039661764 0.0013163491 0.0018874088 0.0017307253 0.002012318 0.0018028533
0.001958144 -0.0031486975 -0.010157502 -0.005901447 9.547321e-05 0.008622534 0.0045326673 0.008414567
0.00061379635 -0.004845753 -0.009837109 -0.004586633 0.0018271372 0.0013659582 0.0018863858 0.0016442161
0.0022816807 0.0020844494 -0.0033092618 -0.0036795116 -0.0028871868 -0.0016286626 -0.0029922656 -0.0027836103
-0.008169052 -0.016099267 -0.011331965 -0.007665227 -0.00091970415 -0.0076003876 0.0001344003 -0.006776824
-0.010577043 -0.014794201 -0.0069661257 -0.003095422 -0.0026107442 -0.0026416485 -0.0038338895 -0.0021684784
-0.0026089645 -0.010078284 -0.010461301 -0.010516306 -0.009904958 -0.011152978 -0.012146367 -0.016440924
-0.023324383 -0.01812881 -0.017201392 -0.009601837 -0.014444223 -0.0081563005 -0.016207166 -0.018375313
-0.021977946 -0.01566929 -0.01170552 -0.010510871 -0.01035141 -0.011566175 -0.00934667 -0.009028276
-0.004845697 -0.007037186 -0.006478601 -0.006773401 -0.0077546844 -0.008505884 -0.013808125 -0.017661989
-0.014082514 -0.015959408 -0.005399219 -0.0085345665 -0.0046242415 -0.0155344615 -0.013294579 -0.017104695
-0.009864432 -0.006220123 -0.006459594 -0.005300643 -0.0076912465 -0.0062724333 -0.0040722527 0.002708408
-0.0009381096 -0.0017022644 -0.00074639154 -0.001276835 -0.0026938003 -0.01069468 -0.018118175 -0.017164968
-0.02735638 -0.008421268 0.0024076218 -0.008303951 -0.02880212 -0.017156625 -0.016939873 -0.008404966
-0.002786088 -0.0019385172 0.00044939778 -0.0011853864 0.0007267981 0.0052654645 0.023511278 0.01684884
0.013120128 0.011042076 0.007899041 0.007347775 -0.0008357112 -0.007415629 -0.0037144958 -0.007900903
0.020348918 0.004119194 0.019191567 -0.009812049 -0.0046799877 -0.007377644 -0.0017176634 0.0059160064
0.006922102 0.010287836 0.012810488 0.016142767 0.023332197 0.012788359 0.009739386 0.008583743

queries.0.weight f4 [64, 3, 1, 1]
00000000: a2eb 85bc 8542 aebc 7437 bcbc f310 673d
00000010: fe3e 473d 157b c3bb a7f8 6a39 f0b6 adb9
00000020: 5288 1037 21b1 49b6 0f43 2e37 cc1c c6b6
00000030: 496c 25bb 7145 493d 8d59 e53c 05ac 0cbd
00000040: ee59 81bd 7433 12bd 8440 92bd 0a15 7fbc
00000050: 33ca 083d 394b adba 505d e83a 50dd 3bba
00000060: 58d3 613b 857a 2fbd 4411 19bd f8d5 793a
00000070: 3663 b8b9 cdf2 013c 688b fdb7 7823 e337
00000080: 447f e1b7 b720 9db8 f8c4 e737 d347 eab8
00000090: 6518 183d 1b2c 6abb 4057 92bb e2aa a5bb
000000a0: 3259 103d 424f b03c 0dee edb9 1fa1 2a3a
000000b0: 9c47 02bb 314a e338 b7c0 0eb9 f0db f938
000000c0: c9d1 de3c 34b4 4ebc 788e b9bc a794 ac3d
000000d0: 6a2f 8f3d 87a0 893d 2573 303c 254d 9cbc
000000e0: 86fd 36b9 e9fe 33bb d201 8fbb cebb 743c
000000f0: 2bd8 033c c42d 493d bbdf 2b3d 023a 38bd
00000100: 22e1 08bd 1737 46bd e34c d0bc fa20 5cbd
00000110: b3af a8bd d6c4 87bc 622b 9e3c 3087 63bb
00000120: a1d1 3f3c cc9c b93c 3d0f 13bd ad9e 903b
00000130: 9176 8abc 4773 093c a012 6e3c afb9 26bc
00000140: 526a 56bc 50ad 3ebc ec87 a73c 4d12 2ebb
00000150: 090d c7bb 6ab0 d1ba 11fb c83c 8497 e7bc
00000160: f151 2bbd 9f49 cebb 3db9 3c3c ea17 93bc
00000170: f368 dcbb cc38 42bc e676 843b 1be8 703c
00000180: e737 15ba 1043 cdbc b512 b3bc 9c72 043d
00000190: 71f8 8b3d c618 8e3d 020c df38 6fe6 033a
000001a0: 0ead a43a d6a6 9139 ab3d 383a 3556 bd3a
000001b0: 48bc 62bb f395 2fbd 03d6 e0bc deba 913b
000001c0: 7208 87bd edd5 e4bc 9c60 1dbd d81d 3fbd
000001d0: 8e09 52bd 4eda 613b 7d41 3b3c fbf1 2c3c
000001e0: b4c0 b13c 4c7c 403d 38e4 323d 6714 853b
000001f0: edde 3b3b ee9c e7ba e589 b7b8 82d8 2a3a
00000200: 4d77 dcb8 edee 4cb9 2f6f 9c39 6246 623a
00000210: 7b22 393c 1a86 5abb 34f0 19bd 3870 413d
00000220: fde9 013d 2d4f be3c 422a a13b 2ce4 963b
00000230: 4868 ca3b 488e a639 4150 58bb 16c8 2a3a
00000240: faf1 a7bc 005e a9bc 071a 63bc 7206 813d
00000250: 7c33 953d 6f4d 8d3d 1932 0a3b 7908 1b39
00000260: 13aa 083a f578 a5ba 4c28 e33b 457e 18bb
00000270: e230 e8bc 7d09 a7bc 3529 a5bc 0b24 8cbd
00000280: 66f7 a1bd 09ac 55bd 4467 463d dceb c93c
00000290: 8d8a d23c 629a ba39 92e4 9cba f61f 7cb9
000002a0: 426b bc3c 82bf 10bb 69c0 b4bc 75a8 a1ba
000002b0: 2a9a d4ba 3d6b b23a 51c3 16ba e667 af3b
000002c0: 8a23 b93a 4d00 f6b9 98d9 213b 94be 9038
000002d0: 2b0c bebc c19f edbc a2e0 3fbb e15c 243d
000002e0: 4996 9e3c 6c56 023d 142e 19ba e87c a3ba
000002f0: 21dc 43bb 781b 17ba 68ab cc3b bfbb d0ba
-0.01634771 -0.021271953 -0.02297566 0.05641265 0.04864406 -0.0059656003 0.00022408609 -0.0003313343
8.614808e-06 -3.0054437e-06 1.03868215e-05 -5.9042122e-06 -0.0025241545 0.04913849 0.027996803 -0.034343738
-0.06315981 -0.0356936 -0.07141212 -0.015568981 0.033395957 -0.0013221271 0.0017728005 -0.0007166462
0.0034458246 -0.042841453 -0.03736998 0.000953048 -0.00035169133 0.007931423 -3.0224866e-05 2.7077025e-05
-2.6881353e-05 -7.492437e-05 2.7629067e-05 -0.00011171368 0.03713264 -0.0035731855 -0.0044659674 -0.005055771
0.035241313 0.021522168 -0.00045381524 0.0006508994 -0.0019879108 0.00010838023 -0.00013613967 0.00011914212
0.027199643 -0.012616206 -0.022650942 0.08426791 0.069914654 0.06720071 0.01076964 -0.019079754
-0.00017451317 -0.002746517 -0.0043642307 0.014937354 0.008047144 0.04911591 0.041961413 -0.044977196
-0.03341783 -0.04839238 -0.025427287 -0.053742386 -0.08236637 -0.01657335 0.019307796 -0.003471803
0.011707694 0.022657774 -0.035903204 0.004413447 -0.01690224 0.008389301 0.014530808 -0.010176106
-0.013086872 -0.011638001 0.020450555 -0.00265612 -0.006074552 -0.001599801 0.02453378 -0.02827049
-0.041826192 -0.0062953974 0.011518774 -0.017955739 -0.006726378 -0.011854362 0.004042494 0.014703776
-0.0005692229 -0.025056392 -0.021859506 0.032335863 0.06834496 0.06938319 0.00010635705 0.00050315907
0.0012563781 0.00027780858 0.0007028232 0.0014445247 -0.0034597088 -0.042867612 -0.027445799 0.004447325
-0.06593408 -0.027934039 -0.038422212 -0.04665932 -0.051278643 0.0034462395 0.011429188 0.0105557395
0.021698333 0.04699354 0.043674678 0.00406127 0.002866681 -0.001767067 -8.751805e-05 0.00065172475
-0.00010512639 -0.00019543963 0.00029837477 0.00086317037 0.011299725 -0.003334409 -0.03758259 0.04722616
0.03171729 0.023231113 0.0049183676 0.004604837 0.006176982 0.00031767995 -0.003300682 0.00065148005
-0.020501126 -0.020674706 -0.013861186 0.063000575 0.072852105 0.06899535 0.002108699 0.00014785108
0.00052133313 -0.0012624549 0.006932294 -0.0023268622 -0.028343622 -0.020390267 -0.02016125 -0.06842812
-0.07908516 -0.05216602 0.048438326 0.0246486 0.025700832 0.0003559171 -0.0011969975 -0.00024044499
0.023000363 -0.0022086804 -0.022064405 -0.0012333529 -0.0016220261 0.0013612282 -0.00057511503 0.005352962
0.0014124971 -0.00046921 0.0024696346 6.901953e-05 -0.023199162 -0.02900684 -0.0029278179 0.04012764
0.01935877 0.0318207 -0.0005843353 -0.0012473138 -0.0029885846 -0.0005764286 0.006246019 -0.0015925093

queries.1.weight f4 [64]
00000000: d066 5fbd cfe5 583d abd1 0db9 8239 fd35
00000010: bdbd 123e 9f34 ce3d c8b8 0c3d c8ab c339
00000020: 963e db3d 0b03 8a3a ea3b 6036 91a9 0338
00000030: d6c7 a2bc 3d42 1d3d 7646 153a 56a5 bfb7
00000040: b76c afba 1dd4 293e 37dc 8fba 5ba5 423a
00000050: d920 e13d 24dd 173d 3b34 253e f87e 1139
00000060: 5446 85bb 0ecf 54b8 795d 9eba a673 3f3a
00000070: f150 e93a 80b5 1c3d fd52 a9ba 5ffc 3e3a
00000080: 8bde 593c 4b7f d63d f054 4ab9 91c4 85b9
00000090: c941 9b3d 3fa1 dd3c f141 013e c7fa d939
000000a0: c777 d13d 1274 c23a f4ec 3f38 2a6d 23b9
000000b0: 1f49 f33b 9a39 953d e530 89b9 8485 abb9
000000c0: 5d72 e93c 10ff 453e 88a8 d039 4893 3aba
000000d0: 9d0f 593d a46a 513e a088 db3d f595 b038
000000e0: 46a3 2438 e517 3f39 7206 5bba ce5b 71b9
000000f0: 8aa7 8f3c 762d b13d e8de f939 6821 53ba
-0.05454141 0.052953538 -0.00013524915 1.8866706e-06 0.14330192 0.100686304 0.03435591 0.00037321285
0.10705297 0.0010529471 3.3413476e-06 3.1390755e-05 -0.01987068 0.038393248 0.00056943984 -2.2845965e-05
-0.001338384 0.16584821 -0.0010975663 0.00074251526 0.10992593 0.03707613 0.16133206 0.00013875577
-0.0040672217 -5.0737573e-05 -0.00120823 0.0007303305 0.0017800612 0.03825903 -0.0012918409 0.0007285531
0.013297687 0.10473498 -0.00019295863 -0.0002551419 0.07580907 0.027054427 0.12622811 0.0004157631
0.10227924 0.0014835617 4.575863e-05 -0.00015585558 0.007424488 0.07286377 -0.00026167106 -0.00032715139
0.028496915 0.1933558 0.00039798417 -0.00071172835 0.052993406 0.20450836 0.107194185 8.420266e-05
3.9252707e-05 0.00018224081 -0.00083551474 -0.00023017751 0.017535944 0.08651249 0.0004765906 -0.0008053989

queries.1.bias f4 [64]
00000000: fad7 7fbc 5705 45be 9470 3fbb 6d53 3dbb
00000010: e5f7 223e fe91 903e dc17 99bb cf26 4cbb
00000020: a3fd bcbd f981 3bbb 1d66 27bb bc35 39bb
00000030: 5abe 91bc 4db1 973b 8737 72bb 95a8 2ebb
00000040: 68a9 053c b0ce 833e e090 19b8 4b7a 90b8
00000050: 1175 4b3d 79c8 a3ba 751a 98be 9bab c0b9
00000060: b293 dfbc 46c5 a238 11da cbb9 13f2 04b8
00000070: 02ca 2cbc 84f2 adbc 1350 1fb8 8dd8 7eb9
00000080: 9757 453c d062 94be 7af1 a23a 17f2 9e39
00000090: f308 f93d bdb8 d2bd 00d9 0d3e e6d1 b838
000000a0: 59c4 e83b c5e7 953a af80 b33a 502d a43a
000000b0: 3c5f 90bb bf24 c93c bccc 303b 9fcf 933a
000000c0: 29e9 d0bb dc60 313d 9c5e 853a c53b d63a
000000d0: f175 4e3e 1e31 43be 4c56 6dbe 37aa 033b
000000e0: d719 81bd df10 6e39 8a7f 1c3a 1ffd 6f3a
000000f0: 4c18 bf3b 2032 d63d 2678 6339 b591 223a
-0.015615458 -0.19240318 -0.002921139 -0.0028888837 0.15914877 0.28236383 -0.0046720337 -0.0031151061
-0.09228065 -0.0028611405 -0.0025543042 -0.0028260788 -0.017790962 0.00462929 -0.0036959366 -0.0026650776
0.008158065 0.25743628 -3.6612968e-05 -6.889234e-05 0.04967219 -0.0012495659 -0.29707685 -0.0003674895
-0.027292106 7.761507e-05 -0.0003888165 -3.16967e-05 -0.010546209 -0.021233805 -3.798313e-05 -0.00024303999
0.012044809 -0.28981638 0.0012431585 0.0003031648 0.1215991 -0.10289142 0.1385231 8.8129e-05
0.0071034846 0.001143687 0.0013694967 0.0012525711 -0.004405884 0.024553655 0.00269775 0.0011277086
-0.006375451 0.043305263 0.001017529 0.0016344717 0.20162179 -0.19061705 -0.23177451 0.002009047
-0.06303757 0.00022703734 0.00059699325 0.00091548444 0.005831754 0.10458779 0.00021693166 0.00062015216

queries.1.running_mean f4 [64]
00000000: c1dd cfbc 76cd 373d 4773 8bb8 4434 e735
00000010: bb85 043d 4f0f 6dbd 1388 d5bc 84ad b638
00000020: e66d 05bd af62 223b 9f3b bcb6 5801 15b8
00000030: e2ce 613c 727f b53c ae3f 19b9 2472 38b7
00000040: 7a06 25bb 602a c53d 5470 3bbb b78e 7e3a
00000050: 168d 2c3d 020f 60bd aac7 8bbd fe08 4739
00000060: 381d cc3a 96e4 0bbb 331d 56bb 8edf 163b
00000070: 2f7f ba3b 6d98 0cbd caec 87bb a39f 363b
00000080: 10a9 a8bc d52e 953d 5cf7 7e3a ffb3 6f3a
00000090: a5b7 01bd 2e3b 20bd 68a7 70bd 9f55 3a3c
000000a0: a287 473d f755 b13a 42df 0e39 9c76 2c3a
000000b0: cca6 4fbc e8f6 363d 081f 9d3b 1b8d c8b9
000000c0: 4a52 c7bc c727 b63d 5c8b d03a 80ff 9fb9
000000d0: 9ef5 f4bc b11a b2bd 5b15 303d 902e 8638
000000e0: dbb8 aa3a 9ba4 83b8 d6f5 2f39 a692 a337
000000f0: 003f c9bc 8fda 243d ecb7 d9b9 0ae2 3db9
-0.025374295 0.044873677 -6.6495086e-05 1.7226052e-06 0.032354098 -0.057875928 -0.026065862 8.710756e-05
-0.03257551 0.0024778058 -5.6097774e-06 -3.552562e-05 0.013782235 0.022155497 -0.0001461494 -1.099383e-05
-0.0025180862 0.09627223 -0.0028600888 0.0009710597 0.042126738 -0.054701813 -0.06825192 0.00018981469
0.0015572673 -0.0021345965 -0.0032671213 0.0023021433 0.005691431 -0.034325052 -0.0041481005 0.0027866147
-0.020588428 0.07284323 0.00097261905 0.0009143948 -0.031669278 -0.03911894 -0.0587534 0.011372953
0.048713334 0.0013529648 0.00013625345 0.00065789535 -0.012674045 0.044669062 0.004794959 -0.00038252104
-0.02433123 0.08894306 0.0015910673 -0.00030517206 -0.029902276 -0.08696497 0.042989116 6.398291e-05
0.0013025062 -6.277227e-05 0.00016780882 1.9499403e-05 -0.024566174 0.040247496 -0.00041526498 -0.0001810865

queries.1.running_var f4 [64]
00000000: 01a9 9839 55d4 6a3a 9859 fb31 b31b bc2c
00000010: 5965 033a 7f9d c43a 1447 ca39 e0c0 ba33
00000020: ac07 093a 459c 8f36 c17b 9b2e cebc 0931
00000030: 44bc ce38 742c 7d39 12e5 f334 5ebc c930
00000040: cc04 1c38 5904 873b d81d 4d37 9c1a dd36
00000050: 6881 5b3a 8f6c b03a 2647 103b b757 2037
00000060: f425 2438 e74a 0c37 b6dd 8b37 ab4a 4837
00000070: 17b9 0638 a38e 083a 8f0f 9437 999f 6437
00000080: bb95 5439 9af0 1f3b 4d40 2f35 2795 0435
00000090: f949 f739 126d 403a 1945 cc3a 75ae 7c38
000000a0: 630b 8e3a 1d44 fd35 a0b5 9032 8bb9 ae34
000000b0: 4b11 ef38 acc0 663a 533f 7a37 f89c 9934
000000c0: d54a 8939 cf33 683b 1c26 1336 b022 b035
000000d0: 34ab cf39 eced 5b3b 5c69 563a 7915 7733
000000e0: 6ed1 ce37 b0e6 8d34 7b82 ad35 6310 4c34
000000f0: a984 8b39 3d45 3d3a 1a88 4535 fb1d a435
0.00029117617 0.00089580315 7.315247e-09 5.3463566e-12 0.00050123554 0.0015000551 0.000385814 8.696384e-08
0.00052272785 4.2799243e-06 7.070567e-11 2.0043447e-09 9.857913e-05 0.0002414452 4.5428948e-07 1.4678212e-09
3.7197766e-05 0.0041203913 1.2225901e-05 6.589411e-06 0.000837347 0.0013460087 0.0022015064 9.557166e-06
3.9135994e-05 8.36209e-06 1.6673333e-05 1.1938314e-05 3.2120468e-05 0.0005209243 1.765022e-05 1.3627018e-05
0.00020273674 0.0024404884 6.528615e-07 4.939088e-07 0.00047166625 0.00073404715 0.0015584558 6.0243958e-05
0.0010837134 1.8869792e-06 1.68464e-08 3.2545026e-07 0.00011399629 0.0008802514 1.4915905e-05 2.861268e-07
0.0002618643 0.003543127 2.192689e-06 1.3123117e-06 0.00039609673 0.003355856 0.0008179152 5.75287e-08
2.4654637e-05 2.6431144e-07 1.2927479e-06 1.9004942e-07 0.00026610986 0.0007220095 7.358627e-07 1.2227678e-06

keys.0.weight f4 [16, 3, 1, 1]
00000000: e595 2c3b 1b7b f23b 590d 2f3c ed0a ca3c
00000010: 7165 833d f3cd 8a3d 8a0c 873a 89dd 223a
00000020: 2b61 2e3a b783 1cba 7d36 8aba f747 82ba
00000030: 1417 b23e caf4 ea3e 484e da3e c12d a0bd
00000040: 01a9 4bbc d0f9 0cbd 092c b03c 8b47 00bd
00000050: ed07 09bd 90d2 9b3a f39f 463a 4750 4e3a
00000060: 5489 f5bd 13e7 44be c1cf 2cbe 3435 2e3a
00000070: a9a0 443a 1c10 9c3a 9126 49ba 0b30 7eba
00000080: 7cda 20ba 51ae 143a 09f5 5339 6c00 8139
00000090: 2e20 33bc f84d 8a3b 2420 473c 2e11 ebbd
000000a0: 900a cfbd bb86 97bd 6f08 c13a c4d8 8b3a
000000b0: 8df8 a63a 5c05 5eba f39b 8fba ca1d 4fba
0.0026334461 0.007399929 0.010684335 0.024663413 0.06415833 0.06777563 0.001030342 0.0006212821
0.00066520524 -0.0005970555 -0.0010544803 -0.000993966 0.34783232 0.45889884 0.4263785 -0.07821227
-0.01243043 -0.034417927 0.021505373 -0.03131823 -0.033454824 0.0011888314 0.0007576935 0.00078702386
-0.11989084 -0.19228773 -0.16876127 0.0006645501 0.0007500747 0.0011906656 -0.00076732883 -0.000969649
-0.00061360723 0.0005671727 0.00020213811 0.00024605112 -0.010932965 0.0042207204 0.012153659 -0.11477886
-0.101094365 -0.07398745 0.0014727245 0.001066946 0.0012738869 -0.00084694265 -0.0010956511 -0.0007900862

values.0.weight f4 [4, 3, 1, 1]
00000000: e0ec 413e d693 bf3c b85e 4abd fd59 d23d
00000010: 8579 45be 8601 b73d 8e92 e1bd 6d4f d6bd
00000020: f56f 6fbc 7501 023d e4d3 1fbd 4648 5abe
0.18938017 0.023385923 -0.049406737 0.1027107 -0.19284637 0.089358374 -0.11014281 -0.10464368
-0.014614095 0.03173967 -0.039020434 -0.21316633

values.1.weight f4 [4]
00000000: a463 ec3d 9d55 ca3d 1c80 143e c0c8 1d3e
0.115424424 0.09879611 0.14501995 0.15408611

values.1.bias f4 [4]
00000000: bb69 79be b917 253d b0c7 81be d5c6 083e
-0.24356739 0.040305827 -0.25347662 0.13357098

values.1.running_mean f4 [4]
00000000: c74a 9b3d 4586 28bb 5fb6 d0bd cd30 b6bd
0.07582622 -0.0025714797 -0.101910345 -0.08896027

values.1.running_var f4 [4]
00000000: d51f 413b 81aa 3d3a 3dc6 953b da19 9b3b
0.0029468436 0.0007235185 0.004570751 0.0047333064

conv.0.weight f4 [8, 16, 1, 1]
00000000: fd08 723c e42c a5bb eeff a7bc 9a18 63bc
00000010: 4f11 3d3e 5a95 ccbc 0f73 39bd de5a 7abd
00000020: ca6b 8cbd be9b 4239 3d6e 86bd 83f2 9fbd
00000030: 6b48 8bbd c25b 48ba 74c1 9f3b 0fd9 38bd
00000040: 335b 4d3d 0b55 78bc efb0 c13c b69b d5bc
00000050: 0bbd 49bd def8 af3c a096 17bc 8e14 b53c
00000060: 74ea 32bd 5e21 b43c 96ad e1bd c775 10bd
00000070: d494 133e da78 24bd 18a2 4fbd 8c86 e9bd
00000080: a171 0f3c 67f3 823c efae 1eba 06ce 8abd
00000090: fe04 003e 7784 07bd 1bb0 c33b 1a6c 5fbe
000000a0: 9a09 9d3d 285f 8ebc 0e09 a6bd f29b bf3d
000000b0: 4186 3dbc 5938 593c da45 e0bc c48a a23d
000000c0: 15dc dd3c 1592 2abc b6c5 9b3d 08f5 a5bb
000000d0: 3d85 db3c e343 85bc 71a2 28be ab3a 8dbd
000000e0: 04b1 82bc ff7b 8abc 0768 353d 3c2f 2fbd
000000f0: 5f3c 19be f13d fa3c d7a1 f23c 18ea 0f3e
00000100: 18d7 093d b443 38bc bd7b f83b 6c97 64bd
00000110: 541a 203c 128c 54bc b5f2 8d3e a84c f1bc
00000120: 2785 64bc f31b 053c d12c 8abd 4a7e 91bc
00000130: 136a 1f3d 5902 59bc 2305 373e c6bb 003d
00000140: 2cc6 8e3d 4786 23bc fabc a0bc 087d a73d
00000150: d1f3 cb3d 09fa 11bd 26ac 973c 16da 833d
00000160: f955 c8bc dafb 94b8 8ea8 17be 0edd 9ebd
00000170: c93b b7bc f2fc ae3c ced9 2dbd 7e09 9fbc
00000180: 1a1d 033c bb6d 0eba d4b1 3dbd a0b5 3c3d
00000190: 3279 be3c df13 f5bb 34b6 a3bc b66b 113e
000001a0: b18b 89bc 6b61 60bc e50f 343e 57c6 233d
000001b0: 171c 9e3c 48cd 6b3c 974c 553d 77e7 183b
000001c0: 8830 b7bd d77a 133b 87f0 343e 44ae 0a3e
000001d0: 464e 08be 444e 8d3c d9de 01be c913 c13d
000001e0: f15b ea3c 99a4 013c acec a6bd 29e2 0fbd
000001f0: 0497 7ebd f5e1 913c 6dd8 9c3d 6a1a 993d
0.014772651 -0.005040752 -0.020507779 -0.013860846 0.18463634 -0.02497356 -0.045275744 -0.061121814
-0.06856497 0.000185593 -0.06563995 -0.07809927 -0.06800922 -0.00076430675 0.0048753563 -0.04512888
0.050135802 -0.015156995 0.023643939 -0.026075225 -0.04925255 0.021480974 -0.00925222 0.022104528
-0.043680623 0.021988567 -0.11019437 -0.03526857 0.14412242 -0.040154316 -0.050691694 -0.11402616
0.008755119 0.015985204 -0.0006053289 -0.06777577 0.12501904 -0.033085313 0.005971921 -0.21818581
0.07667847 -0.017379358 -0.08107196 0.09355916 -0.011567653 0.013258063 -0.027377058 0.07936624
0.027082482 -0.010410805 0.0760607 -0.0050646104 0.026796931 -0.016267722 -0.16468216 -0.06895956
-0.015953548 -0.01690483 0.04428866 -0.042769656 -0.14964436 0.030547114 0.029618187 0.14054143
0.033652395 -0.01124661 0.00758311 -0.05580847 0.009771902 -0.0129728485 0.27724233 -0.029455498
-0.013947762 0.008124339 -0.06746829 -0.017760415 0.03891952 -0.013245189 0.17873053 0.031429075
0.06971392 -0.009980745 -0.019621361 0.08178145 0.09958614 -0.035638843 0.018514704 0.06438081
-0.024455057 -7.104101e-05 -0.14810392 -0.077570066 -0.022367375 0.021360848 -0.042444043 -0.019413706
0.008002544 -0.0005433221 -0.04631217 0.04607165 0.02325115 -0.0074791755 -0.019984342 0.14201245
-0.016790243 -0.013695101 0.17584188 0.039984073 0.019300504 0.014392205 0.052074995 0.0023331323
-0.089448035 0.0022503638 0.17669879 0.1354304 -0.13311109 0.017249234 -0.12682666 0.09427602
0.028608294 0.007912778 -0.0815061 -0.035127793 -0.06215574 0.01780794 0.076584674 0.07475741

conv.1.weight f4 [8]
00000000: 99ae 2f3e 9dfd b93d 34d9 483e 6094 9a3d
00000010: 30de 0a3f ae36 333e 0422 b93d 9d92 733d
0.17156447 0.09081576 0.19614106 0.075478315 0.5424528 0.17501327 0.09039691 0.059465993

conv.1.bias f4 [8]
00000000: e89d dcbd b927 22bd f07a 47be 0dee 033e
00000010: 5b84 11bf 9a04 91bd 0b70 febb 9d42 103d
-0.10772306 -0.039588664 -0.1948049 0.12883778 -0.56842583 -0.07080956 -0.0077648214 0.035219777

conv.1.running_mean f4 [8]
00000000: 73a6 40bd 8a7b bbbc 1b08 67bd 74da 4c3d
00000010: 803c f0bd 4d84 54bd abba 3b3d 7026 783d
-0.04703374 -0.022886056 -0.056404214 0.05001302 -0.117302895 -0.051883984 0.045832317 0.06058353

conv.1.running_var f4 [8]
00000000: aa9d 253a 2c14 3d39 ad2b a53a 6a5b 053b
00000010: 83af e63b bc3f ac3a 037c 6e3a 99a7 da39
0.0006317744 0.00018031959 0.0012601517 0.0020348676 0.0070399656 0.0013141553 0.00090974587 0.0004170507

conv.3.weight f4 [3, 8, 1, 1]
00000000: f58a 9b3d e648 693d 5f33 5a3c cf42 e93d
00000010: 7df8 a6be 3a06 e3bb ade8 9dbd a08f 32bd
00000020: c5b3 293d b622 583d e137 343d ee82 c53d
00000030: fce0 a4be 2a3e 39bd c937 1abd 159e 52bd
00000040: 1c77 c43b 646d 233d 91e4 f43d e413 a93d
00000050: bcd2 9dbe 7601 f2bd be0e 8a3d 0a92 5bbd
0.07594863 0.056954287 0.013317912 0.11389696 -0.32611457 -0.0069282325 -0.07710395 -0.043594003
0.041431207 0.052767478 0.043998603 0.096441135 -0.322029 -0.0452253 -0.037650857 -0.05142029
0.0059956443 0.039899245 0.11957658 0.08255747 -0.3082484 -0.11816685 0.06741093 -0.05360607

conv.4.weight f4 [3]
00000000: 92d5 8f3f 468e 943f 6ba1 a23f
1.1237051 1.1605918 1.2705511

conv.4.bias f4 [3]
00000000: 1521 8fbe 8ba9 9cbe ba24 bdbe
-0.27954927 -0.305981 -0.36942083

conv.4.running_mean f4 [3]
00000000: 8c35 a03b f9b7 e33a 1a90 bb39
0.004889196 0.0017373554 0.00035774783

conv.4.running_var f4 [3]
00000000: 3acc 363a 17b8 493a e70b 8f3a
0.0006973181 0.0007694973 0.0010913581

shortcut.0.weight f4 [3, 16, 1, 1]
00000000: 4d39 8fbb 896e 9a3d 1207 cd3b 8528 2a3e
00000010: 235d 133d 1d9e 373d 9e30 8dbd 9949 113e
00000020: f33e 58be e86e 28bd cb75 e93d 4e84 ad3c
00000030: 1bdb 3c3d 51e4 d3bc 144c 8f3d bb4a b1bd
00000040: 97ac 98bd 0861 07be 3b4b 413d 9488 013e
00000050: 5f54 32bd 194b 44bd 056b 9cbd b743 433d
00000060: 11f6 cdbd a34e 2d3e 713a 433d 7844 e43d
00000070: e285 973d c303 4f3c 9cce 6a3d 3626 20bd
00000080: a109 08be b4da 9e3d 58e9 023e b304 89bb
00000090: b865 22be ede6 443d b3da 5fbd a921 1dbe
000000a0: b9c2 fb3c 1a67 08bd b04a d6bd 91fc 523e
000000b0: 0dcf c93d 8763 b2bc 080f 02bc 195d f93c
-0.0043708445 0.07540614 0.0062569464 0.1661702 0.035977494 0.044828523 -0.068940386 0.14188232
-0.21117763 -0.041121393 0.1139942 0.021181252 0.046107393 -0.025865706 0.069969326 -0.08656832
-0.07454794 -0.13220608 0.047190886 0.12649757 -0.043537494 -0.04792318 -0.076376 0.047672
-0.10056699 0.16924529 0.047663156 0.11145872 0.07398583 0.012635174 0.057325944 -0.03909894
-0.13284923 0.07756558 0.12784326 -0.0041814684 -0.15859115 0.04807179 -0.054651927 -0.15344872
0.0307325 -0.03330145 -0.10463464 0.20604159 0.09853945 -0.021775974 -0.007938154 0.0304399

shortcut.0.bias f4 [3]
00000000: 4889 b6b8 b7ec 1338 b579 86b7
-8.704007e-05 3.526799e-05 -1.6030719e-05

shortcut.1.weight f4 [3]
00000000: bfd0 9b3f 60c8 883f 28e9 863f
1.2173079 1.068615 1.0539904

shortcut.1.bias f4 [3]
00000000: 1521 8fbe 8ba9 9cbe ba24 bdbe
-0.27954927 -0.305981 -0.36942083

shortcut.1.running_mean f4 [3]
00000000: b4db 1dbc f525 6bbc 3583 93bc
-0.009634901 -0.014352311 -0.0180069

shortcut.1.running_var f4 [3]
00000000: d7c4 913b 8f27 943b 231e 933b
0.004448514 0.0045213173 0.0044896766
