code/models weights/Lambda_s_p_50.pth (torch, 47544 bytes, 28 tensors)

embedding f4 [16, 1, 1, 23, 23]
-0.0012660329 -0.0013241918 -0.0016010237 -0.0021755062 -0.0019554032 -0.0017226385 -0.000677283 -0.0011851683
-0.0014381799 -0.002527067 -0.0046753474 -0.0062400512 -0.004630283 -0.0030718432 -0.0023033186 -0.0017855861
-0.0019044988 -0.0019658497 -0.0020220953 -0.0020242096 -0.002046977 -0.0019205791 -0.0015847081 -0.0012295417
-0.0014433444 -0.0012075845 -0.0018154768 -0.0016167327 -0.0015972721 -0.0010490989 -0.00065827975 -0.001065708
-0.0019951134 -0.0044035576 -0.0054590036 -0.0040180506 -0.0030939933 -0.002241567 -0.0008608948 -0.0021183232
-0.0025773812 -0.002471994 -0.0026854915 -0.0019948322 -0.0014690529 -0.0014750161 -0.0007104704 -0.0007454066
-0.0007002644 -0.0011551282 -0.0013187438 -0.001179205 -0.0013176829 -0.00014756629 -0.0011997565 -0.0018070564
-0.0033372515 -0.005235674 -0.0031124102 -0.0022239962 -0.00084173965 -0.00071730843 -0.0012798005 -0.0010141305
-0.0014530416 -0.0011114952 -0.0004015103 -0.0007205377 -0.0008228811 -0.0009269381 -0.0012474357 -0.00032329428
-0.0018038334 -0.0020843153 -0.0017603524 -0.0019688194 -0.00040133504 0.00022155626 -0.0014727338 -0.0040793875
-0.0051453123 -0.0038164912 -0.0028158952 -0.0015835504 -0.0015358364 -0.0012738326 -0.00088252587 -0.0007047746
-0.00072879536 -0.0005110619 -0.0005310529 -0.0007036494 -0.0011890068 -0.0009698036 0.00017843605 -0.00064360764
-0.001051648 -0.0005392903 -0.0009460653 -0.0002193557 -0.00017267441 -0.00074489816 -0.0030534277 -0.004651559
-0.0034473315 -0.0023387265 -0.0014266424 -0.00021067318 -0.0006595029 -0.0002629774 -4.836523e-05 -3.80388e-05
0.00054911664 0.00060304056 0.00026998934 -0.00151093 7.105725e-05 0.00028496786 -0.0004955097 -0.00029576948
-0.0009361352 -0.00045324748 0.00040924182 0.00021735071 -0.0016074127 -0.0036700321 -0.004878029 -0.002887381
-0.0013958741 7.1582785e-05 1.1205638e-05 -0.000113456656 0.00033468052 0.00013525446 -0.00041608504 -0.00010956625
0.0005434036 -3.509587e-05 -0.0024638113 -0.0010777931 -0.0004792538 -0.0009238563 -0.0003688224 -0.00013949488
-0.0007619142 0.00041951818 4.4889563e-05 -0.0017825033 -0.0034307556 -0.0043904493 -0.002408427 -0.00066086504
-0.00011570839 4.3534812e-05 -0.00016898423 0.0012554912 0.0005791127 1.0122557e-05 0.0007153268 -5.6904122e-05
-0.00068924093 -0.002092474 -0.0015520484 -0.0010517549 -0.000884762 -0.00093800743 -6.393026e-05 4.2892356e-05
-0.000291252 0.0004886752 -0.001267409 -0.0028233316 -0.004262298 -0.0023127925 -0.0010036491 1.4419878e-05
0.00041160514 0.0006372324 0.0012769805 0.00039770434 -0.0003731742 -6.400641e-05 -0.0006017935 -0.0004762696
-0.0017131907 -0.0015638155 -0.0018216191 -0.0012525454 -0.0004371285 3.153142e-05 -0.0001811236 0.00019244426
0.00039738306 -0.00048270673 -0.0017522941 -0.003506449 -0.0021303499 -0.00033462452 0.00026048446 0.000182205
0.00021860423 -3.9737664e-05 0.00039203773 -0.00062529254 -0.0005410253 -0.0007241065 -0.00097002496 -0.0031032176
-0.0022897767 -0.0013765757 -0.0008336452 -0.00077807397 -0.0003456825 0.00012973706 -4.5727378e-05 0.0005235438
0.00012225115 -0.0015978938 -0.0022264165 -0.000992152 -0.0011566947 0.0005854302 3.5340643e-05 -0.0005370066
-0.00019179843 -0.0008636301 -0.00095992733 -0.0010412387 -0.0016499202 -0.0015855216 -0.0034933302 -0.0029624912
-0.0028064623 -0.0021629652 -0.001786291 -0.001508063 -0.0012710191 -0.00069967244 -0.00040893158 -0.00052214105
-0.0023336536 -0.004143845 -0.0019100395 -0.0010785757 -0.0004924987 -0.00085130834 -0.0018015901 -0.0015265539
-0.002085947 -0.0020444766 -0.0025608013 -0.0026766784 -0.0034636646 -0.0046670227 -0.0039577913 -0.00381066
00000000: 04f1 a5ba 8190 adba 71d9 d1ba f092 0ebb
00000010: 3926 00bb 28ca e1ba b18b 31ba a657 9bba
00000020: 4f81 bcba 269d 25bb a833 99bb 5879 ccbb
00000030: a1b9 97bb fa50 49bb 46f3 16bb 540a eaba
00000040: 60a0 f9ba 7cd5 00bb 2185 04bb 9aa8 04bb
00000050: 9326 06bb f1bb fbba fbb5 cfba 9328 a1ba
00000060: 9a2e bdba d047 9eba 4bf5 edba 8ce8 d3ba
00000070: 8f5b d1ba eb81 89ba 6890 2cba 3aaf 8bba
00000080: 73c0 02bb b84b 90bb 71e1 b2bb daa9 83bb
00000090: 98c4 4abb 41e7 12bb acad 61ba 91d3 0abb
000000a0: 48e9 28bb 2d01 22bb 12ff 2fbb bbbb 02bb
000000b0: 3c8d c0ba 5455 c1ba dd3e 3aba 6467 43ba
000000c0: f391 37ba ac67 97ba b3d9 acba 8e8f 9aba
000000d0: 1ab6 acba 06bc 1ab9 2641 9dba c0da ecba
000000e0: cab5 5abb 0490 abbb 94f9 4bbb 77c0 11bb
000000f0: 31a8 5cba c109 3cba fbbe a7ba 93ec 84ba
00000100: fc73 beba 97af 91ba cd81 d2b9 77e2 3cba
00000110: 9eb6 57ba c3fd 72ba ff80 a3ba d37f a9b9
00000120: 9b6e ecba 0299 08bb a0bb e6ba 4f07 01bb
00000130: 476a d2b9 8e51 6839 bf08 c1ba 62ac 85bb
00000140: 029a a8bb 191e 7abb e28a 38bb 228f cfba
00000150: 1e4e c9ba bbf6 a6ba 4f59 67ba 9fc0 38ba
00000160: a10c 3fba c9f8 05ba 5b36 0bba 1d75 38ba
00000170: 73d8 9bba 6b3a 7eba 901a 3b39 c7b7 28ba
00000180: 74d7 89ba 295f 0dba 5e01 78ba d902 66b9
00000190: ef0f 35b9 4545 43ba 041c 48bb 1b6c 98bb
000001a0: a0ec 61bb 5245 19bb 2dfe baba 27e8 5cb9
000001b0: 7ee2 2cba 3be0 89b9 c5db 4ab8 da8b 1fb8
000001c0: 98f2 0f3a 5e15 1e3a 5b8d 8d39 660a c6ba
000001d0: 9204 9538 bd67 9539 18e5 01ba 8211 9bb9
000001e0: f866 75ba d9a1 edb9 828f d639 a3e8 6339
000001f0: d2af d2ba ec84 70bb e0d7 9fbb 373a 3dbb
00000200: c3f5 b6ba b71e 9638 d9ff 3b37 94ef edb8
00000210: 0f78 af39 18d3 0d39 fd25 dab9 efc6 e5b8
00000220: 3373 0e3a e733 13b8 e577 21bb bc44 8dba
00000230: 5b44 fbb9 f22e 72ba 815e c1b9 5f45 12b9
00000240: 32bb 47ba c7f2 db39 cd47 3c38 e3a2 e9ba
00000250: 87d6 60bb c2dd 8fbb b3d6 1dbb e73d 2dba
00000260: 78a8 f2b8 2699 3638 5c31 31b9 4b8f a43a
00000270: 98cf 173a 0dd4 2937 c584 3b3a 56ac 6eb8
00000280: 2dae 34ba e321 09bb 1a6e cbba 0adb 89ba
00000290: 5fef 67ba 9de4 75ba 4c12 86b8 51e7 3338
000002a0: 2fb3 98b9 701a 003a 301f a6ba a507 39bb
000002b0: bfaa 8bbb 3892 17bb e08c 83ba e8ec 7137
000002c0: b5cc d739 f10b 273a 5b60 a73a f982 d039
000002d0: 98a6 c3b9 2e3b 86b8 aec1 1dba d3b3 f9b9
000002e0: 248d e0ba f1f8 ccba 65c3 eeba 732c a4ba
000002f0: 652e e5b9 9b40 0438 ffeb 3db9 ddca 4939
00000300: da57 d039 cd13 fdb9 3cad e5ba 74cc 65bb
00000310: 579d 0bbb 8b70 afb9 a291 8839 480e 3f39
00000320: 2039 6539 feab 26b8 6a8a cd39 acea 23ba
00000330: 98d3 0dba f7d1 3dba 4649 7eba 5a5f 4bbb
00000340: 1410 16bb 376e b4ba fb88 5aba a9f7 4bba
00000350: b83c b5b9 070a 0839 66cb 3fb8 6e3e 093a
00000360: 8b30 0039 6b70 d1ba 12e9 11bb 190b 82ba
00000370: 3c9c 97ba 8e77 193a ba3a 1438 e7c5 0cba
00000380: 801d 49b9 3c65 62ba a2a3 7bba 2c7a 88ba
00000390: 2342 d8ba 47d1 cfba 5bf0 64bb 5b26 42bb
000003a0: a0ec 37bb 89c0 0dbb fb21 eaba 33aa c5ba
000003b0: 5398 a6ba 396a 37ba de65 d6b9 4be0 08ba
000003c0: 36f0 18bb 17c9 87bb 4a5a faba ff5e 8dba
000003d0: 071b 01ba 562a 5fba 5523 ecba a616 c8ba
000003e0: 62b4 08bb a0fc 05bb 1ed3 27bb 366b 2fbb
000003f0: a6fe 62bb d3ed 98bb 5cb0 81bb 44bc 79bb

queries.0.weight f4 [64, 3, 1, 1]
-0.017583374 -0.028094182 -0.00970777 0.27156013 -0.13815099 0.01818142 0.00020111841 -0.00048842555
0.00017870158 -0.22374587 0.06827352 0.10956045 0.06494979 -0.021353567 -0.0049881293 -0.080190934
-0.050084576 -0.043379314 -0.029314252 -0.07551245 0.017317606 0.059843168 -0.042517725 0.019360349
0.1596983 -0.09849541 0.026941484 -0.058660988 -0.07998086 0.026196377 -0.010367262 0.1931248
-0.07763855 -0.06783492 0.080599636 -0.015143439 0.18025541 -0.024803843 -0.030023912 -0.020538904
-0.10802271 0.016518543 -0.041801307 0.03317264 0.043164004 -0.03920127 -0.013112761 0.0028964547
-0.008099758 -0.005389475 -0.020129463 0.1753802 0.016008027 0.03625831 0.003250468 0.008077633
0.008465572 -0.0360442 -0.08277144 -0.057574753 -0.004821181 0.006983036 0.00068058306 -0.040662546
-0.04698104 -0.055987377 -0.06260167 0.009944846 -0.03150372 -0.06971557 0.026541576 0.025265463
-0.058801286 0.017036496 -0.017075535 -0.10505761 -0.0070149773 -0.019540412 0.14704621 -0.016993511
0.011191674 0.096924804 -0.016571425 0.014782453 0.04638418 0.08696186 0.105184905 -0.10113165
-0.009587587 -0.020391567 0.053427905 -0.0016113735 0.023535293 -0.044166494 -0.008047178 0.0074482835
0.015413279 0.036502223 -0.001268343 0.0042263265 0.1530224 -0.030636942 -0.0040445733 -0.014945568
-0.011362969 -0.07224543 -0.018007552 -0.075234026 -5.183091e-07 6.03046e-07 -1.0215859e-07 0.052647654
-0.0022070436 -0.100841194 -0.040418167 0.08499499 -0.1323165 0.032110717 -0.022156425 -0.05146722
0.0005681111 0.035630737 -0.10689258 -0.0069264635 0.02851069 -0.12196944 0.006235837 -0.06661486
0.22318685 -0.04936873 -0.0030765054 0.12454441 -0.017867938 0.104056045 0.09608845 -0.0042526885
0.045615032 -0.13947918 -0.060167704 0.005020426 -0.0042288178 0.010905128 -0.022043921 0.014859601
-0.028939437 -0.020800838 -0.011722071 0.32100463 -0.2876974 0.08479176 0.010632755 0.013304014
0.009333885 -0.008927207 -0.04445209 -0.06267741 -2.795081e-07 1.9680106e-08 2.908069e-07 -0.053279094
-0.028949345 0.005303346 -0.02597839 -0.024136104 0.10320076 -0.04285792 -0.0010450599 -0.009495044
-0.06852245 -0.034267932 0.08494267 -0.066388026 -0.047571916 0.08906345 0.08233725 0.11268102
-0.22491574 0.082498014 0.01667993 -0.08754601 0.015930356 -0.044491664 -0.06912456 -0.029956175
-0.067966335 0.085023336 0.042323448 -0.05916111 -0.067026064 -0.0067678876 0.022577917 0.024640162
00000000: 020b 90bc c525 e6bc 570d 1fbc ee09 8b3e
00000010: 7477 0dbe 34f1 943c 50e3 5239 af09 00ba
00000020: d761 3b39 a31d 65be fdd2 8b3d 3b61 e03d
00000030: 6504 853d aded aebc 7673 a3bb 253b a4bd
00000040: 7c25 4dbd 82ae 31bd 7124 f0bc 45a6 9abd
00000050: a7dd 8d3c 1c1e 753d 1127 2ebd 9899 9e3c
00000060: f387 233e f6b7 c9bd 63b4 dc3c 8146 70bd
00000070: 01cd a3bd c999 d63c 73db 29bc 82c2 453e
00000080: f600 9fbd 09ed 8abd 6c11 a53d 301c 78bc
00000090: e094 383e 6e31 cbbc b5f4 f5bc 3441 a8bc
000000a0: 033b ddbd e551 873c d937 2bbd 09e0 073d
000000b0: bdcc 303d 8391 20bd e8d6 56bc 72d2 3d3b
000000c0: d9b4 04bc 319a b0bb 8be6 a4bc de96 333e
000000d0: 4423 833c 9883 143d ce05 553b 0c58 043c
000000e0: 2fb3 0a3c 15a3 13bd 1384 a9bd 81d3 6bbd
000000f0: fffa 9dbb f4d1 e43b 2869 323a c58d 26bd
00000100: 316f 40bd 0553 65bd 4e35 80bd b5ef 223c
00000110: 0b0a 01bd 09c7 8ebd b86d d93c 84f9 ce3c
00000120: 9ed9 70bd 1f90 8b3c fee1 8bbc 7228 d7bd
00000130: e5dd e5bb 3713 a0bc 4893 163e fa35 8bbc
00000140: 485d 373c 8380 c63d ccc0 87bc 1a32 723c
00000150: 57fd 3d3d 0f19 b23d 2f6b d73d 1c1e cfbd
00000160: 4115 1dbc 370c a7bc 38d7 5a3d b934 d3ba
00000170: 16cd c03c ede7 34bd 50d8 03bc bb10 f43b
00000180: fa87 7c3c 5b83 153d 873e a6ba ff7c 8a3b
00000190: e7b1 1c3e 53fa fabc 5788 84bb 41de 74bc
000001a0: bf2b 3abc 69f5 93bd 9384 93bc 4c14 9abd
000001b0: ee21 0bb5 01e1 2135 4762 dbb3 11a5 573d
000001c0: 0ca4 10bb d485 cebd 858d 25bd da11 ae3d
000001d0: fa7d 07be 8786 033d 6481 b5bc 4bcf 52bd
000001e0: 4aed 143a 89f1 113d 7fea dabd 63f7 e2bb
000001f0: 408f e93c 1dcb f9bd fe55 cc3b 5f6d 88bd
00000200: 188b 643e de36 4abd 329f 49bb 2411 ff3d
00000210: c85f 92bc 561b d53d 05ca c43d 235a 8bbb
00000220: d4d6 3a3d a1d3 0ebe 6972 76bd 6382 a43b
00000230: e591 8abb 6cab 323c 7495 b4bc af75 733c
00000240: 6612 edbc 8566 aabc ee0d 40bc b85a a43e
00000250: 134d 93be 4da7 ad3d 0235 2e3c 14f9 593c
00000260: 27ed 183c 6c43 12bc 6513 36bd 045d 80bd
00000270: 4d0f 96b4 030d a932 3220 9c34 2e3b 5abd
00000280: 2d27 edbc b1c7 ad3b a2d0 d4bc 14b9 c5bc
00000290: ec5a d33d c98b 2fbd 64fa 88ba 1a91 1bbc
000002a0: 8055 8cbd 885c 0cbd 6cf6 ad3d 72f6 87bd
000002b0: c5da 42bd e666 b63d 6fa0 a83d 4ec5 e63d
000002c0: 5050 66be b8f4 a83d 59a4 883c 534b b3bd
000002d0: 6180 823c e43c 36bd 2d91 8dbd a766 f5bc
000002e0: ef31 8bbd b720 ae3d 5a5b 2d3d ec52 72bd
000002f0: f644 89bd 28c5 ddbb 53f5 b83c 2ada c93c

queries.1.weight f4 [64]
0.010514823 0.5947336 4.2074014e-05 0.26582685 0.008854092 0.20185472 0.22015552 0.05934569
0.19332044 0.414219 0.41206053 0.2027134 0.29589257 0.39622566 0.0823242 0.038268194
0.0031407624 0.40418538 0.0051604654 0.14481466 2.8685234e-05 0.14170519 0.18118301 0.084652066
0.07533171 0.41834408 0.48706442 0.20080748 0.3194081 0.35392034 0.07265865 0.027747544
-0.0020430014 0.23997319 0.012756538 0.15344723 -5.88712e-09 0.067575194 0.10969133 0.07849657
0.08097416 0.23613201 0.420107 0.24827775 0.2260363 0.23031642 0.05271994 -0.002045796
-0.0033918025 0.37110433 -0.017850084 0.09228366 3.4017454e-08 0.05920684 0.17401788 0.06913097
0.13003372 0.21015681 0.36396265 0.18706162 0.05810551 0.18873763 0.13460778 -0.03225052
00000000: 5d46 2c3c 7640 183f a178 3038 751a 883e
00000010: c110 113c 01b3 4e3e 7370 613e 7714 733d
00000020: cbf5 453e 8314 d43e 99f9 d23e 1a94 4f3e
00000030: 3b7f 973e 17de ca3e 9799 a83d 1cbf 1c3d
00000040: 40d5 4d3b 63f1 ce3e 1f19 a93b 4b4a 143e
00000050: 12a1 f037 2a1b 113e 0a88 393e 105e ad3d
00000060: 8347 9a3d 3231 d63e 8260 f93e 7aa0 4d3e
00000070: 7589 a33e 0c35 b53e 0fce 943d d14e e33c
00000080: e0e3 05bb 88bb 753e cc00 513c 4521 1d3e
00000090: a847 cab1 dd64 8a3d d9a5 e03d cfc2 a03d
000000a0: c8d5 a53d 97cc 713e 4418 d73e 863c 7e3e
000000b0: 0f76 673e 11d8 6b3e ddf0 573d c312 06bb
000000c0: 0149 5ebb 6301 be3e 573a 92bc 37ff bc3d
000000d0: 961a 1233 df82 723d be31 323e 8a94 8d3d
000000e0: 8f27 053e 5933 573e 5059 ba3e 158d 3f3e
000000f0: 0b00 6e3d 7044 413e 9fd6 093e 1f19 04bd

queries.1.bias f4 [64]
-0.0050419187 0.082670406 0.006722248 0.09641556 0.07046258 0.013494787 0.01593302 0.061259534
0.13869601 0.0034532195 -0.13910738 -0.17334418 0.116495006 0.033041842 -0.14969131 -0.021323357
-0.005285838 0.28491947 0.0014996582 0.013662264 0.08137626 -0.027198235 -0.0545754 0.0691384
0.252148 -0.118618764 -0.06789834 -0.23374619 0.16790158 -0.09046343 -0.15578929 -0.012978649
0.007864661 -0.14779751 0.0034414376 -0.12664129 -0.011655016 -0.079103746 0.10234422 0.08895259
0.06205207 0.118183896 -0.28299338 -0.15417296 -0.19549121 0.15408443 -0.019946652 0.13465424
0.005027382 -0.16616328 0.02475567 -0.29620817 0.04109475 -0.20866507 -0.07104322 0.063092455
-0.08699072 -0.059505314 0.102290176 0.13635387 -0.15992056 -0.0033374645 0.10504388 0.14140832
00000000: ae36 a5bb 1a4f a93d 4e46 dc3b 8575 c53d
00000010: af4e 903d 3d19 5d3c f785 823c 47eb 7a3d
00000020: 5406 0e3e 694f 623b 2a72 0ebe 2381 31be
00000030: ef94 ee3d e256 073d ae48 19be 52ae aebc
00000040: d334 adbb f7e0 913e 2e90 c43a b0d7 5f3c
00000050: 99a8 a63d d5ce debc 748a 5fbd 6f98 8d3d
00000060: 8b19 813e 65ee f2bd 490e 8bbd 295b 6fbe
00000070: 64ee 2b3e e444 b9bd 3a87 1fbe 66a4 54bc
00000080: c7da 003c 3b58 17be be89 613b 41ae 01be
00000090: aef4 3ebc 2501 a2bd d999 d13d c72c b63d
000000a0: 502a 7e3d 660a f23d 82e4 90be 84df 1dbe
000000b0: d92e 48be 4fc8 1d3e 2967 a3bc cde2 093e
000000c0: bdbc a43b b526 2abe 67cc ca3c 99a8 97be
000000d0: f852 283d 4cac 55be 1c7f 91bd 9e36 813d
000000e0: 3128 b2bd d8bb 73bd 837d d13d 59a0 0b3e
000000f0: 37c2 23be 5db9 5abb 3f21 d73d 58cd 103e

queries.1.running_mean f4 [64]
-0.024137342 0.07002624 -5.0593797e-05 -0.025926197 0.018208142 -0.07686874 -0.040002186 0.016239956
0.04067614 -0.051797308 0.050121993 -0.0006733931 0.059124503 -0.050929885 0.014072003 -0.022315515
-0.014621043 0.10177107 0.008881104 -0.07714469 0.0012746477 -0.062704585 -0.036976896 -0.008887269
-0.02698938 -0.05889267 0.06425801 0.04341321 0.1032224 -0.05863691 0.03348399 -0.020211937
0.023230402 0.05746353 -0.013061432 -0.07193156 2.3327279e-07 -0.018706638 -0.035174355 -0.017246854
-0.028326428 -0.041106645 0.06523361 0.02793848 0.07775362 -0.03935312 -0.027326528 0.0015717783
-0.027887959 0.05310928 0.014431319 -0.049710978 -3.9525148e-08 -0.03485666 0.019758971 -0.02407676
-0.011188169 -0.01436757 -0.004303368 0.009506696 -0.04097085 -0.008509714 -0.03471201 0.017480766
00000000: adbb c5bc eb69 8f3d ad34 54b8 2d63 d4bc
00000010: 3e29 953c 5c6d 9dbd 55d9 23bd a809 853c
00000020: 069c 263d 6a29 54bd b84c 4d3d a586 30ba
00000030: 892c 723d db9b 50bd 428e 663c 07cf b6bc
00000040: 198d 6fbc 5a6d d03d 0d82 113c 09fe 9dbd
00000050: 1412 a73a 436b 80bd 1675 17bd e89b 11bc
00000060: d518 ddbc 7139 71bd b499 833d 0dd2 313d
00000070: 4466 d33d 422d 70bd 8226 093d 8193 a5bc
00000080: af4d be3c e15e 6b3d 9eff 55bc db50 93bd
00000090: 8979 7a34 aa3e 99bc fc12 10bd 4649 8dbc
000000a0: d30c e8bc 715f 28bd 3399 853d 3ddf e43c
000000b0: 4a3d 9f3d bd30 21bd e2db dfbc 2104 ce3a
000000c0: 4a75 e4bc 1e89 593d 5771 6c3c bd9d 4bbd
000000d0: 5cc2 29b3 dbc5 0ebd 91dd a13c a03c c5bc
000000e0: 954e 37bc f565 6bbc 4403 8dbb f9c1 1b3c
000000f0: 0dd1 27bd 546c 0bbc 2e2e 0ebd d333 8f3c

queries.1.running_var f4 [64]
0.0002407983 0.0037116082 7.626844e-09 0.001965352 0.00022206451 0.0024015799 0.000713068 0.00021084514
0.0013319942 0.0011789091 0.0017427113 0.00022988504 0.0020123974 0.001182649 0.00022014078 0.0002154163
9.4867115e-05 0.004422668 3.3633176e-05 0.002486883 2.3288303e-06 0.0016348667 0.00060332037 0.00018118117
0.000347338 0.0014937232 0.0019476749 0.0008845026 0.0045270533 0.0014681818 0.00048001736 0.00019159491
0.0002289172 0.0016725272 7.3053736e-05 0.0021802634 6.782871e-14 0.00055361504 0.0011002239 0.0002514459
0.00066902564 0.0011047416 0.0031801437 0.00088432315 0.0028623466 0.0012042443 0.00034593605 1.7558006e-05
0.00031557528 0.004888425 8.5126194e-05 0.0011031802 8.905341e-15 0.00051513093 0.00051284535 0.00024968243
0.00039979522 0.00045445218 0.0019131238 0.0004460426 0.0008581984 0.0003325476 0.00076062744 0.00015139513
00000000: cd7e 7c39 743e 733b 3707 0332 23cd 003b
00000010: fdd9 6839 d363 1d3b 2fed 3a3a 5016 5d39
00000020: 4f96 ae3a a085 9a3a b06b e43a 4c0d 7139
00000030: 6de2 033b 1e03 9b3a 97d5 6639 5fe1 6139
00000040: 65f3 c638 07ec 903b 5911 0d38 f9fa 223b
00000050: 0049 1c36 0649 d63a 2528 1e3a 73fb 3d39
00000060: eb1a b639 09c9 c33a 2049 ff3a f7dd 673a
00000070: ad57 943b 0270 c03a d7aa fb39 dee6 4839
00000080: 7e09 7039 b338 db3a 6d34 9938 c0e2 0e3b
00000090: 97bc 9829 7a20 113a 6335 903a 7fd4 8339
000000a0: 8d61 2f3a facc 903a f569 503b ecd1 673a
000000b0: 3596 3b3b bcd7 9d3a c05e b539 8849 9337
000000c0: cc73 a539 152f a03b c785 b238 9698 903a
000000d0: a36c 2028 da09 073a 7870 063a cfe7 8239
000000e0: 9b9b d139 8a43 ee39 c8c1 fa3a d3da e939
000000f0: b8f8 603a c959 ae39 d864 473a d2bf 1e39

keys.0.weight f4 [16, 3, 1, 1]
0.0037967244 0.0018840408 0.00084159867 -0.12466474 -0.10547505 -0.05177988 0.0064616306 0.009757917
0.011254799 0.069835916 0.11443551 0.087272316 0.0041990457 0.010624573 0.017547816 -0.014962954
-0.010512776 -0.027422585 0.021369068 -0.02345824 -0.046211146 0.03117829 0.049243405 0.07623022
0.061291087 0.046032086 0.025845656 0.036931384 0.0017062745 -0.02160209 -0.094507866 -0.057331804
-0.049876753 -0.04310018 -0.04177813 -0.04887219 0.009621587 0.006866066 0.03767632 0.008917338
-0.021826163 -0.018830184 0.018694507 0.048614 0.06604277 0.0031975808 0.00061152165 0.015738979
00000000: 77d2 783b ebf1 f63a bb9e 5c3a 3a50 ffbd
00000010: 4e03 d8bd 2417 54bd 16bc d33b acdf 1f3c
00000020: 0c66 383c 2206 8f3d 2a5d ea3d d4bb b23d
00000030: 2698 893b b012 2e3c 70c0 8f3c 2e27 75bc
00000040: c73d 2cbc 54a5 e0bc 2f0e af3c 7f2b c0bc
00000050: e647 3dbd 9d69 ff3c 74b3 493d 971e 9c3d
00000060: 5d0c 7b3d 248c 3c3d 45ba d33c 5d45 173d
00000070: 12a5 df3a def6 b0bc 578d c1bd c1d4 6abd
00000080: 914b 4cbd d089 30bd 8b1f 2bbd 352e 48bd
00000090: dca3 1d3c bcfc e03b 7c52 1a3d 071a 123c
000000a0: c8cc b2bc c241 9abc 3925 993c 791f 473d
000000b0: 6f41 873d 818e 513b 864e 203a 08ef 803c

values.0.weight f4 [4, 3, 1, 1]
0.34016937 -0.15036492 -0.025387293 0.044954132 -0.15182531 0.3443104 -0.33162612 -0.17114292
0.087186284 -0.1279329 -0.28195068 0.035612445
00000000: ae2a ae3e 43f9 19be 03f9 cfbc d321 383d
00000010: 1878 1bbe 7449 b03e e6ca a9be 1740 2fbe
00000020: b98e b23d d800 03be d75b 90be 5bde 113d

values.1.weight f4 [4]
0.63123524 0.6616751 0.7866561 0.7557479
00000000: a298 213f 8a63 293f 4b62 493f b278 413f

values.1.bias f4 [4]
-0.26478693 0.061222225 -0.29648033 0.44825673
00000000: 2792 87be 28c4 7a3d 45cc 97be e881 e53e

values.1.running_mean f4 [4]
0.077696145 0.09481094 -0.1913386 -0.16968234
00000000: 281f 9f3d 3d2c c23d 44ee 43be 35c1 2dbe

values.1.running_var f4 [4]
0.005200328 0.0072389054 0.01627573 0.012361323
00000000: 8367 aa3b 5734 ed3b ae54 853c 2687 4a3c

conv.0.weight f4 [8, 16, 1, 1]
-0.0033159363 0.033209052 -0.21480702 0.02110341 -0.059862792 -0.03855019 -0.019940227 0.13014114
-0.004272707 0.059339233 -0.08105391 -0.03303999 -0.068294354 0.008677113 -0.039676875 0.06513212
0.034039233 -0.03426289 0.008416448 0.08371072 0.0122928 0.124699794 0.17461555 -0.3096363
0.046862528 -0.23596594 0.23921128 -0.3412576 0.029376892 0.069809705 -0.10503589 0.1509395
0.21242423 -0.06345662 0.14232108 0.045059647 -0.07211204 0.0737574 0.007567991 -0.11696484
-0.33509874 0.040309053 -0.2571484 0.10728085 0.074285775 0.1002779 0.19354303 -0.10343028
-0.11242769 0.06263351 -0.28026554 0.14156236 -0.203801 -0.1274941 0.077694654 0.23497455
0.15173666 -0.039001293 -0.026760457 -0.0082648555 -0.0074216262 -0.03302397 -0.22849676 0.2716756
0.19030452 0.06571398 0.027292576 -0.27967554 0.16476077 -0.16617452 0.3933191 -0.052230492
-0.11319346 0.100439906 -0.10822613 -0.10556784 -0.121895686 -0.0011615923 0.22292791 -0.13251683
-0.007667289 0.10105753 0.04473219 -0.18089697 0.04069568 -0.018762555 0.1715166 -0.082797945
-0.0994983 0.16271012 -0.08468142 -0.015440348 -0.010315925 -0.042984147 0.081288844 -0.07389961
0.080651075 -0.12391954 -0.0735302 0.2049511 -0.051709183 -0.061812986 -0.06690348 0.14499716
0.02753212 -0.23078462 0.0006269905 0.026386604 -0.013229901 0.19354124 0.11913298 -0.04683742
-0.03806384 -0.10314377 -0.098199666 0.40966445 -0.18187651 -0.06723011 -0.21013364 0.25226235
0.009935836 -0.16794825 0.016181046 0.16357808 0.0055098045 0.124931015 -0.022505188 0.052042555
00000000: 2e50 59bb 3706 083d 5ff6 5bbe 0fe1 ac3c
00000010: b032 75bd cee6 1dbd b059 a3bc b843 053e
00000020: 1002 8cbb b20d 733d 98ff a5bd f154 07bd
00000030: e9dd 8bbd 732a 0e3c 3884 22bd fd63 853d
00000040: b96c 0b3d 3f57 0cbd 24e5 093c 8770 ab3d
00000050: bd67 493c 9b62 ff3d 6bce 323e a688 9ebe
00000060: ecf2 3f3d 0ea1 71be cdf3 743e 51b9 aebe
00000070: cfa7 f03c 64f8 8e3d 0f1d d7bd e28f 1a3e
00000080: bd85 593e 8bf5 81bd 9ebc 113e 7790 383d
00000090: 7aaf 93bd 1f0e 973d e9fc f73b 438b efbd
000000a0: 1092 abbe 1b1b 253d f5a8 83be 10b6 db3d
000000b0: 2423 983d 805e cd3d 2530 463e 41d3 d3bd
000000c0: 7d40 e6bd ff45 803d f77e 8fbe b9f5 103e
000000d0: 36b1 50be d08d 02be 601e 9f3d 2b9d 703e
000000e0: db60 1b3e d2bf 1fbd bf38 dbbc 5169 07bc
000000f0: 1d31 f3bb 2444 07bd 0efb 69be 1019 8b3e
00000100: 30df 423e 0d95 863d ae94 df3c a231 8fbe
00000110: 0cb7 283e a729 2abe 1f61 c93e a4ef 55bd
00000120: f9d1 e7bd 70b3 cd3d a9a5 ddbd f433 d8bd
00000130: 72a4 f9bd 9240 98ba 3747 643e 7eb2 07be
00000140: e23d fbbb 40f7 ce3d 1a39 373d 0e3d 39be
00000150: 83b0 263d eeb3 99bc 0ca2 2f3e f891 a9bd
00000160: c4c5 cbbd 7b9d 263e 746d adbd 83f9 7cbc
00000170: 2004 29bc 2510 30bd c47a a63d ae58 97bd
00000180: 642c a53d 87c9 fdbd 0097 96bd b3de 513e
00000190: 02cd 53bd 9d2f 7dbd b104 89bd 237a 143e
000001a0: 0a8b e13c ce52 6cbe 9f5c 243a b828 d83c
000001b0: 3ac2 58bc ad2f 463e fefb f33d 98d8 3fbd
000001c0: d4e8 1bbd 0a3d d3bd e81c c9bd 8abf d13e
000001d0: d63d 3abe f1af 89bd 462d 57be 8828 813e
000001e0: ebc9 223c a0fa 2bbe 1d8e 843c 0381 273e
000001f0: 978b b43b d5db ff3d cd5c b8bc 932a 553d

conv.1.weight f4 [8]
0.39624497 0.49922365 0.31255305 0.5132409 0.5806474 0.58529955 0.51858246 0.82872784
00000000: 9fe0 ca3e 3e9a ff3e f406 a03e c163 033f
00000010: 4fa5 143f 31d6 153f d2c1 043f 8227 543f

conv.1.bias f4 [8]
-0.28310665 0.41056946 0.07549572 0.5211202 0.7265197 -0.2558837 0.04234359 0.9781775
00000000: 5bf3 90be 2936 d23e 809d 9a3d 2268 053f
00000010: 32fd 393f 3003 83be 7970 2d3d d769 7a3f

conv.1.running_mean f4 [8]
0.17832164 0.18197079 -0.35110506 -0.5462883 -0.05031074 0.14842592 -0.51282567 -0.9744993
00000000: f399 363e 8d56 3a3e 0bc4 b3be 8dd9 0bbf
00000010: a212 4ebd f7fc 173e 8b48 03bf c978 79bf

conv.1.running_var f4 [8]
0.095676124 0.59366065 0.19278584 0.47832832 1.31984 0.35215887 0.63220227 2.54993
00000000: d8f1 c33d 25fa 173f a769 453e 73e7 f43e
00000010: 84f0 a83f 2b4e b43e 02d8 213f 0e32 2340

conv.3.weight f4 [3, 8, 1, 1]
0.14276913 -0.023703238 -0.01178028 0.27744257 -0.32534367 -0.091531865 0.025808796 -0.3582435
0.07235644 -0.23393741 0.090128615 0.117288366 -0.13539678 -0.23077655 0.14276281 -0.32668856
-0.009085676 -0.2057248 0.14147064 0.035360243 -0.027764933 -0.28517714 0.23551166 -0.26167533
00000000: 1232 123e 4b2d c2bc 1302 41bc f40c 8e3e
00000010: 7293 a6be 0f75 bbbd f86c d33c b16b b7be
00000020: 9d2f 943d 4a8d 6fbe 5a95 b83d e234 f03d
00000030: 74a5 0abe b050 6cbe 6a30 123e b943 a7be
00000040: 16dc 14bc 86a9 52be aedd 103e e7d5 103d
00000050: 4973 e3bc bd02 92be f829 713e 4ffa 85be

conv.4.weight f4 [3]
1.3345481 1.3468218 1.3286988
00000000: 79d2 aa3f a864 ac3f cd12 aa3f

conv.4.bias f4 [3]
-0.24700661 -0.2819815 -0.36560833
00000000: 4def 7cbe e15f 90be 0431 bbbe

conv.4.running_mean f4 [3]
-0.4783364 -0.47485688 -0.34269404
00000000: 82e8 f4be 7120 f3be 9875 afbe

conv.4.running_var f4 [3]
0.016596703 0.019934818 0.0118299415
00000000: cff5 873c 584e a33c 5fd2 413c

shortcut.0.weight f4 [3, 16, 1, 1]
0.1727028 -0.075293116 0.12702867 0.08140955 0.096865706 -0.043736868 -0.17382765 0.11501077
-0.28936732 -0.010795258 -0.05417369 0.07917972 -0.14893343 0.1576973 0.30204436 -0.2722752
-0.03418383 -0.057544522 0.062616155 0.16687508 -0.1743706 0.004986987 -0.25855517 -0.012603505
0.07412385 -0.059979185 0.09938642 0.16355152 0.12254109 0.20569763 0.0860922 0.09779117
-0.1697567 0.043267444 -0.05973798 0.20738927 -0.14187062 0.20823063 -0.09812666 -0.020945814
-0.035845775 -0.31046233 -0.064903446 -0.012088685 0.040077046 -0.17248404 -0.21885279 0.10386305
00000000: 01d9 303e 4733 9abd ce13 023e 0dba a63d
00000010: 8761 c63d 6e25 33bd e0ff 31be c48a eb3d
00000020: f427 94be 98de 30bc 3be5 5dbd fa28 a23d
00000030: 0182 18be 677b 213e 8fa5 9a3e a867 8bbe
00000040: 5804 0cbd ceb3 6bbd e63c 803d 4de1 2a3e
00000050: 358e 32be e169 a33b 5861 84be ee7e 4ebc
00000060: 3fce 973d bcac 75bd 1b8b cb3d 0d7a 273e
00000070: d3f6 fa3d 66a2 523e 1b51 b03d bd46 c83d
00000080: b3d4 2dbe 3439 313d d0af 74bd da5d 543e
00000090: 8846 11be 693a 553e a1f6 c8bd 8e96 abbc
000000a0: 05d3 12bd ebf4 9ebe 19ec 84bd 9f0f 46bc
000000b0: d427 243d a89f 30be f21a 60be 27b6 d43d

shortcut.0.bias f4 [3]
-5.8077776e-06 -3.3486378e-06 -6.9246184e-06
00000000: 6ee0 c2b6 29b9 60b6 055a e8b6

shortcut.1.weight f4 [3]
1.2507582 1.0318853 1.1346453
00000000: d818 a03f d114 843f 0f3c 913f

shortcut.1.bias f4 [3]
-0.24700661 -0.2819815 -0.36560833
00000000: 4def 7cbe e15f 90be 0431 bbbe

shortcut.1.running_mean f4 [3]
-0.2694684 -0.33413604 -0.17159277
00000000: c3f7 89be e113 abbe 04b6 2fbe

shortcut.1.running_var f4 [3]
0.3781707 0.75288785 0.6682006
00000000: 979f c13e 42bd 403f 320f 2b3f
