code/models weights/Lambda_gaussian_0.1_25_LayerOuputs128.pth (torch, 83676 bytes, 28 tensors)

embedding f4 [16, 1, 1, 23, 23]
-0.0031956148 -0.002873816 -0.002514597 -0.0031001482 -0.0013910114 -0.003312589 -2.951452e-05 -0.00024497544
-0.0030030366 -0.0022067048 -0.01171368 -0.0059117624 -0.015097238 -0.0049341973 -0.006587873 0.0021751132
-0.0004200601 -0.0019647437 -0.008364116 0.0013748187 0.000765773 -0.0018833609 -0.002789436 -0.006410041
-0.0016213579 -1.5764084e-05 -0.0020785374 -0.0030263844 -0.009312824 0.0014690378 0.0039536394 -0.006461358
-0.0021104398 -0.03941778 -0.027720386 -0.007824602 0.000615302 0.003597775 0.0070585343 -0.001014956
0.007363694 -0.00026499096 -0.012370389 8.211752e-05 -0.0014046117 -0.002920948 -0.0016058472 -0.0007115448
-0.0014162243 0.00095953874 9.99691e-05 0.010073709 -8.4914594e-05 0.0015985345 0.00073610747 -0.0035927102
-0.009348345 0.011729561 -0.01077295 -0.008577186 0.00079565874 0.0029236365 0.00090523716 0.0020631833
-0.0009460212 -0.0016189438 -0.0020936932 -0.0015490704 -0.002201845 -0.0030981393 -0.00064782315 -0.0017842427
-0.0014363029 0.0001642116 -0.0013646035 -0.009313013 0.004171089 0.005848653 -0.01174986 -0.009884838
-0.0042338395 -0.0020134891 -0.0060582845 -0.008313773 0.0016312768 0.005712851 -0.004000511 -0.00013786482
-0.0013186003 -0.0011037696 -0.00057918445 -0.001927474 1.8473767e-05 0.002413948 -0.00128465 -0.0006243076
0.00022891868 0.012385928 0.0065634884 -0.0016755381 -0.0031111185 0.009428225 -0.0050769406 0.002883483
-0.0066741793 -0.012549136 0.002245765 0.0025516339 -0.0036991998 0.011371867 -0.003333228 0.00022583273
-0.0046565398 0.0013628274 -0.001913109 -0.00037804776 0.000108529865 -0.015478626 -0.0012213463 0.0011538735
-0.00064110087 0.006531611 0.0056203874 -0.0053744474 -0.0010920858 -0.00627168 -0.0045411936 -0.0014364852
-0.0016482829 0.0012827604 0.0072129657 0.003296741 -0.0018772752 -0.010221412 0.000489933 -0.0009548246
-0.00089893915 0.00056578 0.000788559 0.0013491539 0.0013567575 0.002311051 -0.0045072017 0.002705251
0.007412466 0.0038865327 -0.006180962 0.0029693653 -0.017054461 -0.014925845 -0.032351118 0.0025938498
0.00067421875 -0.012062339 -0.000780516 -0.003672583 0.0050504776 0.0023121652 0.0026712837 0.0015176116
0.00031630372 -0.006940152 -0.009124802 0.0045238663 3.4417746e-05 -0.008202879 0.008451126 0.0021858409
0.0025618111 -0.0056666764 0.0036801682 -0.004689212 -0.009438954 -0.011726079 -0.003972452 0.0048892577
0.008230465 0.01054338 0.0005257899 0.0059691137 0.0005360811 0.010430575 0.0034096949 0.002118835
0.0020543146 0.003450491 0.009148219 0.0010059733 -0.008673017 0.005027291 0.00082735805 -0.0021093874
-0.0037655435 -0.010249578 -0.020128295 -0.006883046 -0.015272369 -0.0065531414 -0.0049372003 0.0015020715
-0.0018847894 0.0023527863 0.0048121824 0.002592457 0.0016865366 -0.00014574846 -0.0005502043 -0.0008220373
-0.00924854 -0.004630269 0.000558954 0.00069384644 0.002086509 -0.001912051 -0.0068883593 -0.01745657
-0.014592877 -0.040328197 -0.040490836 -0.03593771 -0.054909527 -0.00760688 -0.0026756506 -3.9554692e-05
-0.0067105354 0.0013034147 0.001468907 -0.0024564995 0.0050028744 -0.002415176 -0.014930892 -0.0107368855
-0.0063217687 -0.011289372 -0.01088636 -0.017227406 -0.017511478 -0.017372867 -0.03525575 -0.03429888
0.01720566 0.15645075 0.0070159403 -0.032454852 -0.017025676 -0.02457793 -0.015440255 -0.014907838
-0.012958503 -0.012202942 -0.0024532846 -0.012288226 -0.0156032 -0.008325403 -0.0031692632 -0.00092865166
00000000: 856d 51bb a256 3cbb f0cb 24bb db2b 4bbb
00000010: 9952 b6ba 0518 59bb f395 f7b7 0c70 80b9
00000020: 98ce 44bb 5d9e 10bb bcea 3fbc 75b7 c1bb
00000030: 685a 77bc 0caf a1bb 16df d7bb 588c 0e3b
00000040: 833b dcb9 eec2 00bb a509 09bc 4333 b43a
00000050: 28be 483a 1bdb f6ba f8ce 36bb 520b d2bb
00000060: be83 d4ba 1d3d 84b7 1238 08bb 4e56 46bb
00000070: d194 18bc bb8c c03a 888d 813b cdb9 d3bb
00000080: 4e4f 0abb 8a74 21bd dd15 e3bc c232 00bc
00000090: 384c 213a a6c8 6b3b 474b e73b 4608 85ba
000000a0: 244b f13b 7cee 8ab9 2cad 4abc 8236 ac38
000000b0: f31a b8ba 606d 3fbb 4a7b d2ba f786 3aba
000000c0: 9aa0 b9ba 8e89 7b3a 80a6 d138 330c 253c
000000d0: 2d14 b2b8 eb85 d13a 56f7 403a ad73 6bbb
000000e0: cd29 19bc 582d 403c 0781 30bc 5387 0cbc
000000f0: c193 503a 7b9a 3f3b 704d 6d3a 7936 073b
00000100: 68fe 77ba bd32 d4ba 5836 09bb 2d0a cbba
00000110: d44c 10bb 270a 4bbb add2 29ba 40dd e9ba
00000120: 5442 bcba 3730 2c39 7fdc b2ba 9c95 18bc
00000130: a1ad 883b 0fa6 bf3b 7c82 40bc 04f4 21bc
00000140: 05bc 8abb bef4 03bb 9384 c6bb 7e36 08bc
00000150: 91d0 d53a de32 bb3b b816 83bb ce8f 10b9
00000160: e2d4 acba 5dac 90ba 69d4 17ba 4ca3 fcba
00000170: 1df8 9a37 5433 1e3b b361 a8ba 93a8 23ba
00000180: e409 7039 59ee 4a3c 8812 d73b bb9d dbba
00000190: e8e3 4bbb d878 1a3c 775c a6bb d1f8 3c3b
000001a0: 13b3 dabb e49a 4dbc af2d 133b 5039 273b
000001b0: 466e 72bb 1151 3a3c 4972 5abb 83cd 6c39
000001c0: e395 98bb e6a0 b23a 49c1 faba b634 c6b9
000001d0: 879a e338 109a 7dbc 9515 a0ba 923d 973a
000001e0: 8d0f 28ba 2007 d63b 3a2b b83b 221c b0bb
000001f0: 5224 8fba aa82 cdbb 4bce 94bb 7248 bcba
00000200: 320b d8ba 4c22 a83a be5a ec3b 230e 583b
00000210: e70e f6ba b677 27bc d96e 003a 324d 7aba
00000220: c9a6 6bba da50 143a 4cb7 4e3a 18d6 b03a
00000230: 3ad5 b13a 0075 173b 26b1 93bb 954a 313b
00000240: 46e4 f23b 33b5 7e3b ab89 cabb af99 423b
00000250: ccb5 8bbc 888b 74bc 9b82 04bd 94fd 293b
00000260: 0ebe 303a 1ea1 45bc 8b9b 4cba b8af 70bb
00000270: 7a7e a53b b287 173b b410 2f3b 98ea c63a
00000280: 91d5 a539 376a e3bb 3280 15bc f13c 943b
00000290: c65b 1038 5e65 06bc 9776 0a3c 5340 0f3b
000002a0: 0fe4 273b 87af b9bb fa2e 713b f6a7 99bb
000002b0: d8a5 1abc bd1e 40bc 582b 82bb 1136 a03b
000002c0: 13d9 063c 24be 2c3c 2ad5 093a 8e98 c33b
000002d0: cb87 0c3a 01e5 2a3c 3075 5f3b 27dc 0a3b
000002e0: aea1 063b a221 623b 69e2 153c ddda 833a
000002f0: 4519 0ebc f9bb a43b 0fe3 583a a63d 0abb
00000300: 56c7 76bb d9ed 27bc 18e4 a4bc 2d8b e1bb
00000310: f538 7abc bcbb d6bb 3dc8 a1bb 28e1 c43a
00000320: 0a0b f7ba 3431 1a3b 83af 9d3b 36e6 293b
00000330: c70e dd3a 0ed4 18b9 963b 10ba fd7d 57ba
00000340: 3087 17bc 83b9 97bb c586 123a 3fe3 353a
00000350: d0bd 083b c99d faba bfb7 e1bb 1501 8fbc
00000360: f616 6fbc 2e2f 25bd b8d9 25bd 6c33 13bd
00000370: d0e8 60bd 2243 f9bb f859 2fbb 87e7 25b8
00000380: 0de4 dbbb 57d7 aa3a 5788 c03a 39fd 20bb
00000390: 27ef a33b ee47 1ebb b3a0 74bc c3e9 2fbc
000003a0: d726 cfbb 0ff7 38bc b45c 32bc 7d20 8dbc
000003b0: 3b74 8fbc 8b51 8ebc 5568 10bd fb7c 0cbd
000003c0: e2f2 8c3c a034 203e f9e5 e53b 61ef 04bd
000003d0: 6e79 8bbc a857 c9bc 20f9 7cbc 0140 74bc
000003e0: e74f 54bc d9ee 47bc 49c7 20bb 8e54 49bc
000003f0: 90a4 7fbc 4567 08bc 6ab3 4fbb c270 73ba

queries.0.weight f4 [64, 3, 1, 1]
-0.016981112 -0.0075749666 -0.0030831634 0.04251113 0.04620243 -0.017062118 -0.040262833 -0.07176977
0.019071547 -0.029974671 -0.03273913 0.0040633185 -0.0828169 0.06582144 0.23722532 0.086109556
0.12632154 -0.11754803 0.082996644 0.024780765 0.02946301 -0.124146536 0.0861288 0.08979391
0.02593126 -0.029493442 -0.035616204 -0.037030205 -0.057173517 0.02161039 0.06936414 0.11966872
-0.0759479 -0.04928572 -0.016898148 -0.09439719 0.046104938 0.038541496 0.022948794 -0.023738421
-0.00631231 -0.018747887 0.04800335 0.02620125 0.011129273 -0.20927654 -0.1638875 0.05505726
-0.031140747 -0.026270088 -0.003630699 0.13222758 -0.04996074 -0.054345325 0.030111691 0.028103353
0.04442235 -0.043153506 -0.014369141 0.004144383 -0.4090682 0.13245587 0.25560164 0.024539601
0.08185642 -0.20716429 0.10105635 -0.020389374 -0.012182005 -0.17090884 -0.0043049827 0.053458434
0.04898505 -0.06244464 -0.058863807 -0.0575505 -0.044108253 0.0057390323 -0.026895626 0.16832183
-0.16529897 0.06336645 0.083012626 0.034427293 0.043453783 0.016555889 0.043408845 -0.029890824
-0.008731476 -0.041927766 0.12726676 0.024521686 -0.06192547 -0.18431066 -0.068114586 0.03092567
0.0034634608 -0.018982545 -0.032108292 -0.033807416 0.056415875 0.016786214 0.0022792998 -0.04847335
-0.025380125 0.013170115 -0.014494731 -0.02116507 0.14212592 0.028591914 0.081586555 -0.030599907
-0.035707284 -0.025995016 -0.12415309 0.069302246 -0.0063692257 0.033243187 0.029668512 -0.0007402853
0.016812153 0.025700163 0.0038351167 -0.00738432 -0.030068807 -0.014603465 0.026114132 -0.04490918
-0.049142394 -0.06699937 -0.033386108 -0.06003047 -0.017849447 -0.027154405 -0.043191943 0.0009809398
-0.010610305 0.034219302 -0.011573088 -0.021661233 -0.030272344 0.14991339 0.05251321 0.122541495
-0.020619968 -0.023675427 -0.021630805 0.052499473 0.0074334196 0.0048724185 0.007382297 -0.002328679
0.023535479 -0.033987783 -0.017147088 -0.017139757 -0.023224022 0.13944097 0.12532458 -0.029142385
-0.025975728 -0.039408483 0.057593234 -0.0018805964 0.016539453 0.010971754 0.02561465 0.01838746
0.06414369 -0.035076313 -0.0025248404 -0.045580104 -0.020859145 -0.019476254 -0.015935645 -0.02131903
-0.03791663 0.032869115 0.074381284 0.040327407 -0.037539445 -0.037185293 -0.04158451 -0.0134190135
-0.02166248 -0.03699238 -0.017821213 -0.039244227 -0.025310492 0.03534712 0.087912016 0.10883416
00000000: f91b 8bbc 6d37 f8bb e60e 4abb 2720 2e3d
00000010: c23e 3d3d dbc5 8bbc a4ea 24bd 07fc 92bd
00000020: ef3b 9c3c 718d f5bc 7719 06bd 9625 853b
00000030: e89b a9bd 64cd 863d 32eb 723e 355a b03d
00000040: 6f5a 013e 06bd f0bd 25fa a93d 0801 cb3c
00000050: 695c f13c 8a40 febd 4c64 b03d dfe5 b73d
00000060: cb6d d43c 3b9c f1bc 4ce2 11bd fcac 17bd
00000070: c72e 6abd 4608 b13c c90e 8e3d e014 f53d
00000080: 938a 9bbd d3df 49bd fc6d 8abc 5053 c1bd
00000090: 88d8 3c3d b0dd 1d3d 1cff bb3c 1477 c2bc
000000a0: 7fd7 cebb 2b95 99bc 299f 443d 01a4 d63c
000000b0: 8e57 363c 974c 56be 20d2 27be b983 613d
000000c0: e11a ffbc 5e34 d7bc 05f1 6dbb ab66 073e
000000d0: a2a3 4cbd 3499 5ebd cbac f63c 0139 e63c
000000e0: 36f4 353d bbc1 30bd 8c6c 6bbc 9bcd 873b
000000f0: 6371 d1be 83a2 073e 38de 823e 4607 c93c
00000100: 57a4 a73d e022 54be a2f6 ce3d 9e07 a7bc
00000110: 0897 47bc ba02 2fbe d010 8dbb 3bf7 5a3d
00000120: 8ca4 483d f3c5 7fbd 2d1b 71bd 13ba 6bbd
00000130: dbaa 34bd 7e0e bc3b 3754 dcbc 8f5c 2c3e
00000140: 2244 29be 45c6 813d 8602 aa3d a203 0d3d
00000150: 98fc 313d 37a0 873c 79cd 313d 9add f4bc
00000160: 770e 0fbc 73bc 2bbd 3852 023e b4e1 c83c
00000170: 90a5 7dbd efbb 3cbe a97f 8bbd d557 fd3c
00000180: 3bfb 623b 4881 9bbc fc83 03bd a579 0abd
00000190: 5514 673d 3e83 893c 4e60 153b fe8b 46bd
000001a0: fbe9 cfbc 77c7 573c 4f7b 6dbc 5e62 adbc
000001b0: 7589 113e 9739 ea3c da16 a73d a8ac fabc
000001c0: cd41 12bd 80f3 d4bc fa43 febd 56ee 8d3d
000001d0: f0b4 d0bb 022a 083d 610b f33c b50f 42ba
000001e0: a4b9 893c 2689 d23c 9556 7b3b 2af8 f1bb
000001f0: dc52 f6bc 5f43 6fbc 4eed d53c b0f2 37bd
00000200: 8949 49bd f736 89bd dfbf 08bd 83e2 75bd
00000210: 0139 92bc ea72 debc 09ea 30bd e192 803a
00000220: d8d6 2dbc 8a29 0c3d 0d9d 3dbc e672 b1bc
00000230: b5fd f7bc e582 193e 1718 573d 09f7 fa3d
00000240: 35eb a8bc f8f2 c1bc 1633 b1bc b009 573d
00000250: 0b94 f33b cfa8 9f3b 32e7 f13b c09c 18bb
00000260: 7acd c03c c636 0bbd 0d78 8cbc ad68 8cbc
00000270: 4e40 bebc 9dc9 0e3e 1655 003e 03bc eebc
00000280: 0dcb d4bc ca6a 21bd e2e6 6b3d 587e f6ba
00000290: bf7d 873c dfc2 333c d1d5 d13c 4ca1 963c
000002a0: c45d 833d 2eac 0fbd cb77 25bb 34b2 3abd
000002b0: cce0 aabc aa8c 9fbc 788b 82bc 3fa5 aebc
000002c0: 784e 1bbd c4a1 063d 3755 983d 5a2e 253d
000002d0: f6c2 19bd 9b4f 18bd 8554 2abd 6cdb 5bbc
000002e0: 8375 b1bc 5285 17bd cbfd 91bc 8ebe 20bd
000002f0: f357 cfbc 24c8 103d 370b b43d 72e4 de3d

queries.1.weight f4 [64]
0.014013733 0.2210338 0.1638075 0.08576534 0.28875032 0.09738613 0.36108407 0.042759266
0.1214864 0.15767431 0.14019015 0.42954883 0.1457935 0.02898966 0.19013318 0.5264044
0.11616833 0.11100145 0.24159043 0.100518525 0.23000537 0.103271596 0.33035645 0.10073949
0.16350606 0.28591496 0.047418196 0.5307446 0.116972916 0.08081654 0.06931269 0.56867296
0.08034474 0.15326639 0.12428461 0.023160417 0.6004594 0.22980595 0.09553113 0.11272407
0.081299745 0.04401494 0.08498269 0.5148273 0.1189086 0.02568905 0.11215247 0.6021005
0.2199742 0.13517652 0.062388662 0.20591949 0.50389355 0.46232873 0.18233553 0.21253179
0.103569806 0.2589363 0.22122324 0.42193052 0.17998296 0.12572293 0.37889233 0.66414255
00000000: db99 653c af56 623e 27bd 273e bda5 af3d
00000010: 15d7 933e 6172 c73d 03e0 b83e 5724 2f3d
00000020: ddcd f83d 6075 213e 028e 0f3e d3ed db3e
00000030: e44a 153e b97b ed3c 46b2 423e 70c2 063f
00000040: a9e9 ed3d ba54 e33d 7b63 773e a8dc cd3d
00000050: 8786 6b3e 0f80 d33d 7b24 a93e 8150 ce3d
00000060: 226e 273e 7263 923e 9539 423d e1de 073f
00000070: 7f8f ef3d 2483 a53d d0f3 8d3d 8d94 113f
00000080: c88b a43d ddf1 1c3e ee88 fe3d eaba bd3c
00000090: b5b7 193f 4052 6b3e d3a5 c33d e1db e63d
000000a0: 7b80 a63d 0249 343d 680b ae3d b9cb 033f
000000b0: 5a86 f33d d871 d23c 32b0 e53d 4223 1a3f
000000c0: eb40 613e b76b 0a3e 418b 7f3d 8fdc 523e
000000d0: 2bff 003f 5ab6 ec3e 2ab6 3a3e efa1 593e
000000e0: 681c d43d 4c93 843e 5888 623e 4707 d83e
000000f0: 744d 383e 83bd 003e 2dfe c13e 3f05 2a3f

queries.1.bias f4 [64]
0.1482327 0.049133856 -0.13162154 0.23389836 -0.05245885 0.2506648 -0.05588133 -0.12272561
0.122990906 0.28104624 -0.23526038 -0.10219439 -0.041982505 0.14691547 0.1028703 -0.38602093
-0.2243271 0.2682135 0.09734149 -0.1375764 0.18473323 -0.06432957 0.10887914 0.33801463
0.25921705 -0.14542069 -0.1779114 0.09593436 -0.2344748 -0.052620195 -0.34868988 0.46332088
0.042681824 -0.173239 -0.13780385 0.032994136 -0.2966347 -0.054892357 -0.17456508 -0.064633146
-0.044023618 -0.030196326 -0.09696632 0.10361632 0.24210748 -0.052862603 0.10995997 0.32850945
-0.018457823 0.21452606 -0.23513076 -0.110634096 0.29613054 0.18410704 0.07277498 0.0026277143
-0.008910307 0.011536793 -0.096080564 -0.50315064 0.053548783 0.033873156 0.10537782 0.05193123
00000000: 50ca 173e 9540 493d ccc7 06be 0d83 6f3e
00000010: 17df 56bd 2357 803e d2e3 64bd 9157 fbbd
00000020: a8e2 fb3d 4be5 8f3e 19e8 70be 4b4b d1bd
00000030: d9f5 2bbd 0271 163e aaad d23d 89a4 c5be
00000040: 01b6 65be 4853 893e fa5a c73d d4e0 0cbe
00000050: b52a 3d3e 39bf 83bd 07fc de3d 4110 ad3e
00000060: 19b8 843e 29e9 14be 682e 36be 3c79 c43d
00000070: 291a 70be 4688 57bd 7b87 b2be 6538 ed3e
00000080: 23d3 2e3d 9065 31be 741c 0dbe dc24 073d
00000090: 81e0 97be cfd6 60bd 30c1 32be 625e 84bd
000000a0: 1c52 34bd 495e f7bc 4796 c6bd cb34 d43d
000000b0: 06eb 773e 7586 58bd b132 e13d 6432 a83e
000000c0: dc34 97bc b8ac 5b3e 1ec6 70be 2194 e2bd
000000d0: 6c9e 973e 8e86 3c3e 0c0b 953d bb35 2c3b
000000e0: 89fc 11bc d104 3d3c e3c5 c4bd 7bce 00bf
000000f0: f855 5b3d 94be 0a3d 54d0 d73d d7b5 543d

queries.1.running_mean f4 [64]
-0.012426772 0.0331523 -0.041755617 -0.026381541 0.088401705 0.047430143 0.060448248 0.01833284
-0.014891047 -0.032958556 0.052560877 -0.06823129 0.0473164 -0.021059591 0.03804358 -0.14495051
-0.027044615 0.015360627 0.04434317 -0.024170877 -0.02189913 -0.037553754 0.032168362 -0.057010546
-0.029715816 -0.043149486 -0.0047915513 0.079429634 0.04460187 -0.034761082 0.04289936 -0.10073276
-0.02086859 0.016385322 -0.030891053 -0.009932341 0.11030205 -0.040352017 -0.027696919 0.02838111
0.021017319 -0.02307282 -0.027965235 -0.069673575 -0.038033962 0.009174339 -0.027646653 0.14106098
-0.028610619 0.028933419 0.010940115 -0.029992701 0.102942854 -0.040747985 0.031915326 0.023558365
0.010889868 -0.037912615 -0.032330833 0.06433165 -0.050487347 -0.030478375 -0.035763983 0.099150725
00000000: a999 4bbc b5ca 073d f007 2bbd 1a1e d8bc
00000010: f40b b53d 1c46 423d 9598 773d c12e 963c
00000020: 94f9 73bc 8dff 06bd 134a 573d d9bc 8bbd
00000030: d7ce 413d 2a85 acbc 96d3 1b3d e86d 14be
00000040: ab8c ddbc 24ab 7b3c 2fa1 353d 0102 c6bc
00000050: ce65 b3bc f7d1 19bd f9c2 033d e483 69bd
00000060: 956e f3bc 84bd 30bd 7202 9dbb 01ac a23d
00000070: 73b0 363d a361 0ebd 3db7 2f3d fa4c cebd
00000080: 9bf4 aabc 833a 863c 3c0f fdbc 42bb 22bc
00000090: 0be6 e13d 2848 25bd a6e4 e2bc 807f e83c
000000a0: 832c ac3c 3603 bdbc 5917 e5bc 05b1 8ebd
000000b0: 80c9 1bbd f74f 163c 3c7b e2bc 4a72 103e
000000c0: d160 eabc c705 ed3c 2b3e 333c 41b3 f5bc
000000d0: b4d3 d23d 5ce7 26bd a5b9 023d 79fd c03c
000000e0: 6b6b 323c 424a 1bbd 566d 04bd 50c0 833d
000000f0: d2cb 4ebd c9ad f9bc 417d 12bd 890f cb3d

queries.1.running_var f4 [64]
6.8621965e-05 0.00050709286 0.0008069288 0.0003122164 0.0052617546 0.0015064151 0.0016306359 0.00083803514
0.0001641051 0.00051160564 0.001478062 0.0022147265 0.0009913766 0.0002004977 0.0006412827 0.009611185
0.00032429074 0.0005280493 0.00090021564 0.00026898016 0.0054921503 0.0017486226 0.00058934675 0.0018543843
0.00061057543 0.0008354249 0.00088874635 0.0028029925 0.0009040924 0.0005613093 0.001107125 0.004716016
0.00022195859 0.00019659982 0.0004602053 6.469138e-05 0.0054746713 0.00072681165 0.0006073938 0.00035834973
0.00019687318 0.0002439594 0.0004617229 0.0021871827 0.0006754833 6.582813e-05 0.000355949 0.008977178
0.000368621 0.00038368144 6.1907434e-05 0.0003999914 0.0053211185 0.0007559847 0.00047017317 0.00025295946
0.00012905366 0.00063827814 0.00048822485 0.0018740334 0.0011479105 0.0004392599 0.0005805022 0.0046150023
00000000: 23e9 8f38 6dee 043a 1388 533a fab0 a339
00000010: cc6a ac3b e772 c53a 10bb d53a 96af 5b3a
00000020: a113 2c39 461d 063a 88bb c13a f224 113b
00000030: 14f1 813a b13c 5239 c11b 283a 3b78 1d3c
00000040: 9105 aa39 ca6c 0a3a 73fc 6b3a e805 8d39
00000050: 7ff7 b33b 0a32 e53a 647e 1a3a d00e f33a
00000060: 060f 203a 6a00 5b3a c2fa 683a 69b2 373b
00000070: 9d00 6d3a d424 133a f31c 913a cf88 9a3b
00000080: 8ebd 6839 5d26 4e39 b647 f139 ecaa 8738
00000090: df64 b33b 8187 3e3a 8239 1f3a e3e0 bb39
000000a0: be6f 4e39 5acf 7f39 6613 f239 d656 0f3b
000000b0: eb12 313a 350d 8a38 ab9e ba39 0315 133c
000000c0: 7943 c139 da28 c939 4dd4 8138 f0b5 d139
000000d0: c75c ae3b 462d 463a 9381 f639 a59f 8439
000000e0: 9452 0739 1f52 273a 6ef8 ff39 20a2 f53a
000000f0: 7c75 963a 774c e639 d82c 183a 7239 973b

keys.0.weight f4 [16, 3, 1, 1]
0.0005130948 0.017478708 0.018022457 0.03993949 0.024113232 0.012274507 -0.056712776 -0.054913
-0.036417656 -0.0812877 -0.07951879 -0.080349736 -0.109846525 -0.074997626 -0.07670654 0.04532337
0.074960195 0.07207093 0.1176825 0.15016814 0.17595221 0.1062766 0.10305556 0.100853905
0.009358335 -0.01850229 -0.02129915 -0.02850783 -0.016207963 -0.018988783 0.14097509 0.16085662
0.14603564 -0.008308222 -0.049704384 -0.057650812 0.012037167 0.011290864 0.013386288 -0.061024766
-0.057026397 -0.0612089 -0.03139023 -0.014254523 -0.0058361436 -0.013679515 -0.053366825 -0.05028927
00000000: 3681 063a 822f 8f3c d5a3 933c 9797 233d
00000010: 1d89 c53c 041b 493c a84b 68bd 74ec 60bd
00000020: ae2a 15bd 2a7a a6bd bfda a2bd 678e a4bd
00000030: 37f7 e0bd 5b98 99bd 5218 9dbd ffa4 393d
00000040: bb84 993d ec99 933d 8603 f13d adc5 193e
00000050: d12c 343e 8ca7 d93d cb0e d33d 7e8c ce3d
00000060: b453 193c 1d92 97bc 8e7b aebc 4189 e9bc
00000070: 90c6 84bc 5d8e 9bbc c65b 103e 99b7 243e
00000080: 5e8a 153e 351f 08bc d396 4bbd 4223 6cbd
00000090: 8a37 453c 51fd 383c 2952 5b3c 1bf5 79bd
000000a0: 8394 69bd 2fb6 7abd 0b93 00bd ce8b 69bc
000000b0: 1f3d bfbb 0b20 60bc 2c97 5abd 1ffc 4dbd

values.0.weight f4 [32, 3, 1, 1]
0.26809162 -0.14195846 -0.1618402 -0.009001147 -0.3438398 0.30108818 -0.10204428 -0.12304287
0.12017795 -0.096389905 -0.08376546 0.15401642 0.094567895 -0.016559409 0.046103522 0.095800705
0.013222371 -0.15944056 0.09273849 0.3752993 -0.53285223 0.2237702 0.20556258 -0.28673097
-0.25452608 0.28873506 -0.0035110987 -0.049800538 -0.1208251 0.095270045 -0.13341528 -0.24107516
0.3142491 -0.20255879 0.27313194 -0.025005424 0.1982566 0.109006435 -0.26161587 0.056510508
-0.07124063 -0.09548826 -0.40823996 0.27141917 0.25567403 0.0070718904 0.051341 -0.012638811
0.23195949 -0.100681104 0.014310482 0.075458035 -0.08754414 0.08767584 -0.16981739 -0.15306582
0.37979192 -0.120250896 0.007035067 -0.021150667 -0.0037224202 -0.0426139 -0.074059345 0.06915505
-0.14535347 -0.0359748 0.07116383 0.17595504 -0.15106468 0.32058364 0.10667269 -0.27752993
0.29539317 -0.2998642 0.053801596 -0.02533925 0.0739022 0.0760461 0.023919744 -0.09628683
-0.0017152262 0.028079122 0.023481132 0.047397923 -0.12454822 0.22430988 -0.13912699 0.017473653
-0.054902162 0.14925756 0.08237882 -0.016187983 -0.14573972 0.02148949 0.020985974 0.08906602
00000000: 4e43 893e 8f5d 11be 70b9 25be 8c79 13bc
00000010: c50b b0be 3b28 9a3e 97fc d0bd e6fd fbbd
00000020: db1f f63d 1268 c5bd 3a8d abbd 7bb6 1d3e
00000030: d0ac c13d 99a7 87bc 0cd7 3c3d 2933 c43d
00000040: a5a2 583c 6344 23be aded bd3d 3b27 c03e
00000050: 0169 08bf 0424 653e ff7e 523e 67ce 92be
00000060: 3e51 82be 15d5 933e 761a 66bb a6fb 4bbd
00000070: 2673 f7bd f11c c33d 049e 08be 68dc 76be
00000080: 42e5 a03e 926b 4fbe f3d7 8b3e 2dd8 ccbc
00000090: c703 4b3e c43e df3d 84f2 85be 9077 673d
000000a0: 9be6 91bd 598f c3bd d404 d1be 74f7 8a3e
000000b0: b5e7 823e 51bb e73b f14a 523d 0413 4fbc
000000c0: ca86 6d3e e531 cebd 8376 6a3c be89 9a3d
000000d0: 584a b3bd 648f b33d 9ce4 2dbe 49bd 1cbe
000000e0: 1674 c23e 1a46 f6bd 6b86 e63b 2a44 adbc
000000f0: d9f3 73bb ea8b 2ebd 6dac 97bd 2aa1 8d3d
00000100: 8ad7 14be 505a 13bd 58be 913d 8f2d 343e
00000110: b3b0 1abe 8a23 a43e 3677 da3d 6718 8ebe
00000120: c63d 973e cd87 99be 105f 5c3d 4294 cfbc
00000130: 095a 973d 0fbe 9b3d 57f3 c33c 0832 c5bd
00000140: 71d1 e0ba 3006 e63c 815b c03c 5324 423d
00000150: 2313 ffbd 7db1 653e 4e77 0ebe e824 8f3c
00000160: 17e1 60bd f9d6 183e 3ab6 a83d a99c 84bc
00000170: cb3c 15be ba0a b03c c7ea ab3c 3f68 b63d

values.1.weight f4 [32]
0.22503504 0.3204823 0.4589418 0.16543859 0.5663093 0.13678975 0.3121063 0.4356271
0.28998944 0.17275828 0.39836624 0.4723755 0.22159544 0.54796004 0.3507188 0.18735191
0.65880513 0.3984526 0.12941289 0.5514767 0.4609013 0.55177134 0.29857975 0.5954394
0.40804487 0.5972568 0.63056403 0.2492167 0.47898534 0.6618649 0.28040943 0.6713072
00000000: 966f 663e 4216 a43e 6bfa ea3e bc68 293e
00000010: a5f9 103f 9d12 0c3e 66cc 9f3e 840a df3e
00000020: 7f79 943e 8ce7 303e a9f6 cb3e 34db f13e
00000030: eae9 623e 1c47 0c3f 6a91 b33e 2ed9 3f3e
00000040: 74a7 283f fb01 cc3e d084 043e 942d 0d3f
00000050: 41fb eb3e e340 0d3f 72df 983e b76e 183f
00000060: 42eb d03e d2e5 183f a56c 213f aa32 7f3e
00000070: 913d f53e fa6f 293f d391 8f3e cada 2b3f

values.1.bias f4 [32]
-0.2345344 0.26664686 -0.19926609 -0.14796007 -0.20319168 -0.16658992 0.19660582 0.20940275
-0.23421566 -0.054314718 -0.13793609 -0.1960954 0.2305175 -0.23003843 -0.16718435 -0.119245976
-0.29181573 0.26734215 0.15225944 0.27344415 0.15796244 -0.09182803 0.27411294 -0.22009365
0.18754104 0.21973167 0.19967635 -0.17516229 0.23891628 0.17293607 -0.17516072 0.23444216
00000000: c929 70be f085 883e 690c 4cbe d882 17be
00000010: 7b11 50be 8c96 2abe 0953 493e ad6d 563e
00000020: 3bd6 6fbe 1c79 5ebd 1e3f 0dbe 3ccd 48be
00000030: c80c 6c3e 328f 6bbe 6032 2bbe 3c37 f4bd
00000040: df68 95be 12e1 883e e6e9 1b3e df00 8c3e
00000050: e8c0 213e 5610 bcbd 8858 8c3e 3b60 61be
00000060: c20a 403e 5701 613e f577 4c3e be5d 33be
00000070: 78a6 743e 2716 313e 555d 33be 9b11 703e

values.1.running_mean f4 [32]
-0.00814942 -0.03290876 -0.051628314 -0.018106956 0.054014098 -0.016118033 -0.0097524645 0.0755599
0.011213234 -0.037379052 -0.03894225 0.019562988 0.031006776 -0.044751134 0.04014022 0.020648066
0.06573174 0.030922148 0.010852913 -0.059755016 -0.050728183 -0.048208248 0.048766613 0.07814449
0.022973478 0.052352756 -0.03215503 0.04232369 -0.013854669 0.044242162 -0.02932664 0.055079203
00000000: 2585 05bc 56cb 06bd 3678 53bd 0a55 94bc
00000010: e33d 5d3d f709 84bc cdc8 1fbc 26bf 9a3d
00000020: b6b7 373c c71a 19bd e981 1fbd 8f42 a03c
00000030: ec01 fe3c f74c 37bd 126a 243d 2226 a93c
00000040: 5d9e 863d 7250 fd3c 6bd0 313c adc1 74bd
00000050: 5bc8 4fbd 0376 45bd 80bf 473d 380a a03d
00000060: e032 bc3c d86f 563d feb4 03bd 9b5b 2d3d
00000070: b2fe 62bc 4537 353d 6c3e f0bc bb9a 613d

values.1.running_var f4 [32]
0.0025511188 0.0035827009 0.0017271622 0.0009392015 0.0013696508 0.0010000439 0.008199491 0.0054905177
0.002257 0.0009559271 0.0037758278 0.0018166301 0.0029048286 0.0013090415 0.0072707073 0.00021083042
0.0026873958 0.00070557965 0.0044725197 0.0016764725 0.0012806586 0.0014535604 0.0018635391 0.0062344414
0.0027126232 0.0014606718 0.000572074 0.00082858384 0.0012050366 0.0013943849 0.0011363772 0.0015080966
00000000: ac30 273b bfcb 6a3b f261 e23a bf34 763a
00000010: db85 b33a e813 833a 2857 063c cde9 b33b
00000020: 2dea 133b 2f97 7a3a e173 773b fe1b ee3a
00000030: f05e 3e3b 2594 ab3a 1d3f ee3b 5c12 5d39
00000040: 051f 303b a6f6 383a 378e 923b 15bd db3a
00000050: c6db a73a 6585 be3a ff41 f43a 494a cc3b
00000060: 44c6 313b 0374 bf3a 3cf7 153a 5235 593a
00000070: 52f2 9d3a cbc3 b63a 7ef2 943a 53ab c53a

conv.0.weight f4 [64, 128, 1, 1]
0.025614498 -0.012088537 0.019056661 0.005932435 0.009854152 0.020693226 -0.003649005 -0.062650956
0.007505797 0.033355005 0.021103514 -0.0005691287 -0.004822998 0.04047646 -0.0015758622 0.0033284943
-0.0005088284 -0.016883789 -0.012950537 0.026789792 0.016266994 -0.013407038 0.006597622 0.021919899
-0.008221504 0.025794052 0.0028735842 -0.015531469 0.006549418 -0.024911894 0.0097416425 -0.05450596
-0.017520508 0.026437199 -0.0027186414 -0.0074018803 -0.013349701 -0.011969647 0.01313453 0.005352301
-0.016935771 0.0009875402 -0.005791738 -0.0093653435 0.012256419 -0.014818431 -0.016894596 -0.010946596
-0.038827967 0.015910963 0.0106031 0.021338806 0.010627339 -0.008570222 0.013957574 -0.028274767
0.006738803 0.02222018 0.005099601 -0.013512982 0.023468984 0.005239266 -0.011268806 0.014302213
-0.0046433453 0.0136659285 0.04189891 0.009175323 -0.053169984 0.005286514 0.010898772 -0.03585244
-0.00038172762 0.017494386 0.016377645 -0.012551461 -0.015628366 0.035904672 -0.0140793715 -0.022673491
-0.059717357 -0.036112376 -0.0005619798 0.05452616 0.038103957 0.041271415 -0.024947891 -0.035194248
-0.026637515 -0.044256255 0.042428613 -0.027115194 0.026161408 -0.051236376 0.018741183 -0.051528987
0.013416383 -0.022525875 0.047063243 0.0200446 0.012210582 0.025696851 -0.020456523 -0.059754316
0.018557664 0.0148198195 0.024545694 -0.0033344592 -0.05689746 0.070308894 0.011860635 -0.0142055955
0.03446532 -0.082340136 -0.008824378 -0.03521379 -0.010387978 0.062365074 -0.06829776 0.0067258296
-0.056324333 -0.08682765 -0.014444455 -0.014400886 -0.008334101 -0.03008312 0.030992696 -0.068602555
-0.000114940645 -0.0012210951 0.010222914 0.0030237318 -8.0836115e-05 -0.00017940013 -0.0046772454 -0.009238613
0.0017631905 0.0028176138 0.003943747 0.0029370987 -0.0061416673 0.0011270365 0.0037148376 -0.001718167
-0.0016288301 -0.0010519627 3.0350937e-05 0.001866009 -0.00019819422 0.0025355925 -0.008451123 -0.0040885396
-0.0007876003 -0.0039070793 0.0029131481 -6.78628e-05 -0.0015868344 0.0053874673 -0.0017165837 -0.0030456127
-0.005791669 0.0068237013 0.0068025645 0.005407522 -0.00038307614 -0.0045622806 -0.009769442 -0.009374617
0.0024470678 0.0028032188 0.010571563 0.0035308455 -0.007417194 -0.00802693 0.0076240925 -3.6442074e-05
-0.006351416 0.0040231138 0.004379496 0.0021361995 -0.003952064 -0.0053065117 -0.00562834 -0.012504939
-0.0024437532 0.006608477 -0.0032024942 0.002077179 -0.0056871106 0.010236303 -0.0075821234 0.006090401
0.01693491 0.023481283 0.03197022 0.017622475 0.015557369 0.0017021616 -0.037804186 -0.03227479
-0.020109994 0.01573157 0.037865814 -0.036801066 -0.02190462 0.019244531 -0.0062332936 -0.006870036
0.03282646 0.012922771 0.003742894 -0.01518411 -0.002055127 0.030752195 -0.034202375 -0.0068103904
0.03269012 -0.021174889 0.020359304 0.0052124755 -0.067538455 0.016707426 0.0034742127 -0.007980493
-0.006408328 -0.0026624755 -0.00051455735 -0.0020895537 0.0021009876 -0.0040267087 0.0030953744 0.0028802487
0.0015576098 -0.0005333215 -0.0032839798 0.007510278 0.0021759698 -0.0072736805 0.002518777 -0.00014442584
-0.0063138492 0.0040001636 0.00258234 0.0057172882 -0.004597351 -0.007318335 0.0032444221 -0.0040113186
-0.0024148528 0.0070152725 -0.004861339 -0.0016021405 0.005273821 0.006089505 -0.005211026 0.00817546
00000000: 7fd5 d13c 000f 46bc b71c 9c3c df64 c23b
00000010: 4f73 213c d784 a93c 2524 6fbb 254f 80bd
00000020: 30f3 f53b 429f 083d 47e1 ac3c 9531 15ba
00000030: 3d0a 9ebb a5ca 253d 298d ceba de22 5a3b
00000040: e562 05ba df4f 8abc 7d2e 54bc 4476 db3c
00000050: 5c42 853c 31a9 5bbc dd30 d83b 5c91 b33c
00000060: 7db3 06bc 0c4e d33c be52 3c3b b477 7ebc
00000070: 809c d63b 0714 ccbc 699b 1f3c a441 5fbd
00000080: 2b87 8fbc d392 d83c 3c2b 32bb 798b f2bb
00000090: b4b8 5abc 571c 44bc 3632 573c 5b62 af3b
000000a0: e3bc 8abc 5a70 813a 9fc8 bdbb 1971 19bc
000000b0: 26cf 483c 01c9 72bc 8966 8abc 5a59 33bc
000000c0: 130a 1fbd b557 823c a0b8 2d3c b8ce ae3c
000000d0: 4a1e 2e3c 1e6a 0cbc 4fae 643c 7ca0 e7bc
000000e0: 2dd1 dc3b 1807 b63c 8e1a a73b 8e65 5dbc
000000f0: 0742 c03c 26ae ab3b cca0 38bc d453 6a3c
00000100: 3427 98bb 0fe7 5f3c 319e 2b3d 1854 163c
00000110: c5c8 59bd 7e3a ad3b c390 323c 02da 12bd
00000120: 9d22 c8b9 6350 8f3c 692a 863c a5a4 4dbc
00000130: 0f07 80bc c710 133d 2aad 66bc c2bd b9bc
00000140: 309a 74bd 92ea 13bd d351 13ba d356 5f3d
00000150: e512 1c3d 370c 293d 855f ccbc d827 10bd
00000160: eb36 dabc 0c46 35bd a0c9 2d3d af20 debc
00000170: 7350 d63c 3cdd 51bd 1c87 993c 0f10 53bd
00000180: 64d0 5b3c 2f88 b8bc 63c5 403d 9334 a43c
00000190: e50e 483c 3482 d23c 7094 a7bc f1c0 74bd
000001a0: 3e06 983c d4ce 723c 0d14 c93c f186 5abb
000001b0: 500d 69bd 1cfe 8f3d 1c53 423c 96be 68bc
000001c0: 822b 0d3d f2a1 a8bd 2094 10bc 563c 10bd
000001d0: 5632 2abc 8572 7f3d b2df 8bbd 5964 dc3b
000001e0: 58b4 66bd b2d2 b1bd 6fa8 6cbc b2f1 6bbc
000001f0: c18b 08bc e070 f6bc 65e4 fd3c 7f7f 8cbd
00000200: 4a0c f1b8 270d a0ba 027e 273c cd29 463b
00000210: 8f86 a9b8 5b1d 3cb9 9443 99bb 8d5d 17bc
00000220: db1a e73a b7a7 383b 8c3a 813b 577c 403b
00000230: 0a40 c9bb 12b9 933a a274 733b 1e34 e1ba
00000240: 787e d5ba 03e2 89ba 249a fe37 df94 f43a
00000250: 5bd2 4fb9 2f2c 263b 9476 0abc 28f9 85bb
00000260: f676 4eba f506 80bb 84ea 3e3b 9051 8eb8
00000270: 54fd cfba 5a89 b03b fefe e0ba e798 47bb
00000280: 0ac8 bdbb 5b99 df3b 0ce8 de3b 9531 b13b
00000290: 9cd7 c8b9 2f7f 95bb 0210 20bc fe97 19bc
000002a0: fc5e 203b 35b6 373b 5934 2d3c c265 673b
000002b0: ef0b f3bb 6283 03bc 86d3 f93b 61d9 18b8
000002c0: 8a1f d0bb 53d4 833b e081 8f3b 7bff 0b3b
000002d0: 5180 81bb 3fe2 adbb f06d b8bb 84e1 4cbc
000002e0: 6027 20bb ec8b d83b f0e0 51bb 4821 083b
000002f0: f15a babb 2bb6 273c 7673 f8bb fd91 c73b
00000300: 15bb 8a3c d25b c03c 35f3 023d 025d 903c
00000310: 56e4 7e3c 111b df3a 90d8 1abd 9232 04bd
00000320: b7bd a4bc 7edf 803c 2f19 1b3d b7bc 16bd
00000330: 5171 b3bc b5a6 9d3c a840 ccbb 0a1e e1bb
00000340: 0a75 063d 08ba 533c 574b 753b c6c6 78bc
00000350: 4faf 06bb 07ec fb3c ca17 0cbd b229 dfbb
00000360: 13e6 053d f676 adbc 8ec8 a63c 6acd aa3b
00000370: 9a51 8abd 03de 883c 9eaf 633b 9dc0 02bc
00000380: f4fc d1bb ed7c 2ebb 5ce3 06ba e5f0 08bb
00000390: b9b0 093b 7bf2 83bb c4db 4a3b 8ec2 3c3b
000003a0: b628 cc3a 9ace 0bba 0a38 57bb c718 f63b
000003b0: b79a 0e3b 0e58 eebb 1112 253b 0471 17b9
000003c0: 68e4 cebb ce13 833b 7a3c 293b 1758 bb3b
000003d0: 60a5 96bb a5ce efbb 5fa0 543b 6171 83bb
000003e0: 8242 1ebb 5fe0 e53b de4b 9fbb eafe d1ba
000003f0: 04d0 ac3b 788a c73b 41c1 aabb 5df2 053c

conv.1.weight f4 [64]
0.31130117 0.077591754 0.09076421 0.46762174 0.7158319 0.18516375 0.18050815 0.5856985
0.15145732 0.14683726 0.28686506 0.16682948 0.40763035 0.35149807 0.4263283 0.2128117
0.19126979 0.27108437 0.6151754 0.14211686 0.31252748 0.525031 0.07894433 0.58916837
0.102376826 0.5036499 0.11140702 0.2697281 0.45177037 0.37850955 0.11403064 0.3064306
0.4630286 0.14290537 0.16525874 0.0744791 0.28548148 0.21245459 0.05889059 0.1179503
0.15065716 0.4217719 0.04797406 0.25405002 0.111505575 0.18888281 0.30236217 0.105660684
0.6668276 0.44599697 0.31825525 0.2165041 0.30895162 0.5537643 0.27075928 0.25839368
0.09353539 0.43237796 0.13689885 0.4902359 0.13162933 0.16880372 0.6361751 0.14434956
00000000: de62 9f3e 6de8 9e3d 96e2 b93d 1e6c ef3e
00000010: c240 373f 919b 3d3e 21d7 383e 56f0 153f
00000020: a117 1b3e 825c 163e fadf 923e 59d5 2a3e
00000030: edb4 d03e 8ef7 b33e b447 da3e 4feb 593e
00000040: 3adc 433e 92cb 8a3e 237c 1d3f 1587 113e
00000050: 9a03 a03e 6e68 063f 91ad a13d bdd3 163f
00000060: f1aa d13d 33ef 003f 5d29 e43d cd19 8a3e
00000070: 724e e73e 01cc c13e e588 e93d 79e4 9c3e
00000080: 1612 ed3e c955 123e 9639 293e 8088 983d
00000090: a12a 923e b28d 593e 4237 713d ed8f f13d
000000a0: df45 1a3e 7df2 d73e 7380 443d d812 823e
000000b0: 095d e43d 7f6a 413e 37cf 9a3e a164 d83d
000000c0: 37b5 2a3f b759 e43e 5af2 a23e 40b3 5d3e
000000d0: e82e 9e3e 7fc3 0d3f f6a0 8a3e 2d4c 843e
000000e0: 7c8f bf3d a560 dd3e 362f 0c3e 3300 fb3e
000000f0: d7c9 063e e2da 2c3e 5fdc 223f 5fd0 133e

conv.1.bias f4 [64]
-0.12390113 -0.10303902 -0.1309612 -0.12624352 -0.67924905 -0.024889702 -0.005753448 -0.30049324
-0.11645252 -0.0059295883 -0.274933 -0.17146085 -0.27954817 -0.28725082 -0.17428583 0.0063140336
-0.10620527 -0.04805229 -0.013939717 -0.062430386 -0.32325423 -0.43625033 0.056740906 0.057302065
-0.09156183 -0.42867476 0.10235348 -0.22893041 0.020540595 0.06610915 -0.03460663 -0.04950832
-0.47481596 -0.040254198 -0.017193187 0.018797472 -0.17727539 -0.15437321 -0.0067112073 -0.035003245
-0.094613 0.036570303 -0.008074291 0.017333949 -0.04555169 -0.12902208 -0.12489255 -0.057565514
-0.0049929577 0.1585118 0.03880791 0.026157165 -0.022388054 -0.21743107 0.0033415915 -0.034510665
-0.0062291194 0.028152827 -0.21181595 0.07798822 -0.16848005 -0.022966504 -0.31591946 -0.08253897
00000000: e0bf fdbd 1f06 d3bd b11a 06be fb45 01be
00000010: 44e3 2dbf 7de5 cbbc 6b87 bcbb 40da 99be
00000020: a97e eebd fe4c c2bb 05c4 8cbe 6f93 2fbe
00000030: f020 8fbe 8a12 93be fc77 32be f4e5 ce3b
00000040: 2682 d9bd 7ad2 44bd 6963 64bc 01b7 7fbd
00000050: 9481 a5be 345c dfbe 2769 683d 92b5 6a3d
00000060: c584 bbbd 427b dbbe b49e d13d bc6c 6abe
00000070: c044 a83c 3c64 873d afbf 0dbd 3cc9 4abd
00000080: 141b f3be 96e1 24bd bad8 8cbc 28fd 993c
00000090: ae87 35be 0314 1ebe b0e9 dbbb 905f 0fbd
000000a0: 76c4 c1bd beca 153d 084a 04bc edff 8d3c
000000b0: 6994 3abd 5d1e 04be aac7 ffbd d1c9 6bbd
000000c0: f79b a3bb eb50 223e 0bf5 1e3d 8d47 d63c
000000d0: 2767 b7bc 40a6 5ebe 9afe 5a3b 0e5b 0dbd
000000e0: a41d ccbb c2a0 e63c 48e6 58be 4ab8 9f3d
000000f0: 0986 2cbe 4024 bcbc 32c0 a1be 310a a9bd

conv.1.running_mean f4 [64]
-0.2190264 0.098951064 0.088268965 0.56725985 -0.92429525 -0.39691365 -0.39467698 0.20811306
-0.15958339 0.2961408 -0.4750925 -0.746757 0.50994915 0.059576653 -1.1613572 -0.2335251
-0.050932713 -0.619959 -0.5463572 -0.39562565 -0.015774302 -0.040457357 -0.19058804 -1.4654212
-0.5771607 -0.1353018 0.06519837 -0.55412155 -0.8810985 -0.39895523 0.23671475 -0.1258016
0.532978 -0.34215206 -0.38077527 -0.15400247 -0.77584696 -0.1345154 -0.17316209 0.32208672
-0.5463078 -0.38951555 -0.19968717 -0.687996 -0.24557261 -0.122445345 -0.40546072 -0.31134123
1.3917373 1.2017071 -0.361744 -0.53855103 0.6945063 -0.50369537 0.29781213 -0.30345705
-0.143113 -0.41088465 -0.2702039 1.1176593 -0.3756139 -0.19422817 0.5985396 -0.033377457
00000000: 7548 60be dba6 ca3d 5cc6 b43d f137 113f
00000010: 9d9e 6cbf 4438 cbbe 1a13 cabe 971b 553e
00000020: d469 23be c49f 973e 533f f3be 772b 3fbf
00000030: 078c 023f a606 743d 5aa7 94bf 3421 6fbe
00000040: d29e 50bd a2b5 1ebf 11de 0bbf 728f cabe
00000050: 1c39 81bc 9db6 25bd 8329 43be ec92 bbbf
00000060: cec0 13bf 8e8c 0abe b986 853d e9da 0dbf
00000070: ac8f 61bf dc43 ccbe 5a65 723e 22d2 00be
00000080: 3f71 083f 8e2e afbe faf4 c2be d3b2 1dbe
00000090: e89d 46bf 68be 09be 6751 31be 8de8 a43e
000000a0: d4da 0bbf 956e c7be cb7a 4cbe 8120 30bf
000000b0: 6377 7bbe a0c4 fabd 8c98 cfbe 1e68 9fbe
000000c0: 7324 b23f 8ad1 993f 8236 b9be 7bde 09bf
000000d0: 2acb 313f 2ef2 00bf d57a 983e b95e 9bbe
000000e0: 378c 12be 795f d2be 2a58 8abe 760f 8f3f
000000f0: 7750 c0be c0e3 46be e439 193f cdb6 08bd

conv.1.running_var f4 [64]
0.35975048 0.046305805 0.051692214 1.3377367 0.22167687 0.56518763 0.28993124 1.585554
0.15161213 0.23340397 0.21189983 0.28768033 0.73690206 0.19945052 2.1431115 0.3408854
0.1897902 0.76532423 2.110773 0.108118854 0.26267648 0.76334304 0.13093686 3.6235242
0.08297033 0.48635852 0.19634187 0.31025055 2.0373738 1.6278052 0.10693093 0.55845094
1.1772372 0.10404879 0.66860807 0.1142156 0.15912257 0.14307536 0.08711359 0.11927792
0.15704067 1.8892411 0.034604482 1.0864273 0.0990672 0.17131151 0.51894426 0.1154348
1.5249505 0.9232946 0.17943488 0.7406489 0.56742173 1.3233025 0.47824544 0.71236384
0.1125051 2.0766122 0.09514442 0.91992116 0.12226728 0.3049016 2.1673105 0.23126213
00000000: 3731 b83e 28ab 3d3d 37bb 533d f53a ab3f
00000010: 43ff 623e 23b0 103f de71 943e 6ff3 ca3f
00000020: 3640 1b3e 7301 6f3e 45fc 583e d64a 933e
00000030: 9da5 3c3f c23c 4c3e bd28 0940 8888 ae3e
00000040: 5d58 423e 4aec 433f e816 0740 6b6d dd3d
00000050: 887d 863e 736a 433f 5014 063e d2e7 6740
00000060: 59ec a93d fc03 f93e d80d 493e 29d9 9e3e
00000070: 5564 0240 ec5b d03f 9afe da3d a4f6 0e3f
00000080: b5af 963f 8817 d53d e629 2b3f dee9 e93d
00000090: 07f1 223e 5982 123e 9c68 b23d fb47 f43d
000000a0: 45cf 203e a7d2 f13f 6ebd 0d3d 0d10 8b3f
000000b0: bfe3 ca3d 496c 2f3e 88d9 043f 1569 ec3d
000000c0: 9431 c33f 095d 6c3f c7bd 373e 2b9b 3d3f
000000d0: 8d42 113f fa61 a93f 96dc f43e 7a5d 363f
000000e0: 1369 e63d 37e7 0440 14db c23d f47f 6b3f
000000f0: 4567 fa3d 101c 9c3e 37b5 0a40 fbcf 6c3e

conv.3.weight f4 [3, 64, 1, 1]
0.05631644 0.03845257 -0.09572175 -0.015973767 -0.32926258 0.114819534 0.0046010716 0.037824515
0.083809175 0.08111581 -0.24077351 0.097543165 -0.0021919205 0.08865908 -0.056427736 -0.036952578
-0.05567635 -0.12422751 -0.0905237 -0.04146195 -0.042613298 0.013414702 -0.003105212 -0.12259878
0.040088624 0.17958046 -0.057740822 -0.0877519 -0.053194933 -0.0711967 0.08002472 -0.021500135
0.07761665 -0.00051373016 0.012817681 -0.07088178 -0.051576596 -0.023218054 -0.038461298 0.006379628
0.026110874 -0.04357291 0.0052001076 -0.016062157 0.051594675 0.041739423 -0.12457141 -0.050292827
-0.037080403 -0.03698047 0.038531948 0.07659119 0.011354559 -0.031122116 -0.02233323 -0.0031830226
-0.028451405 -0.12658104 0.15093581 -0.05215661 0.13685372 0.0422885 0.116036855 0.038786117
0.051835384 -0.0709913 0.005366535 0.041784346 -0.33412245 0.090607844 0.014259389 0.028066088
-0.08249409 -0.032522928 -0.02601432 0.094690666 0.08521477 0.07857762 -0.055457957 0.0053977454
0.022716073 -0.036319 -0.09609686 0.0902546 -0.20263998 0.022159453 -0.071428806 -0.07222584
0.019136364 0.016342096 0.031373505 -0.0899691 -0.05472552 -0.061545696 -0.023973737 -0.10183124
0.17794085 -0.0349519 -0.030059587 0.03243797 -0.023075055 0.09223226 0.041215267 0.048167143
0.0015840332 -0.1224425 0.009493198 -0.06876473 -0.06448927 0.055859547 -0.025604784 0.067283444
-0.053222224 -0.044985764 0.019018976 -0.015999818 0.021047853 -0.047959104 0.017361913 -0.023227798
0.033974018 -0.02209463 0.057846513 -0.04020933 -0.10330017 -0.011608888 0.07506355 0.07517022
0.041624982 0.057734698 0.09435326 0.07902213 -0.33184463 0.08524321 0.040335268 0.109553404
0.020661952 -0.028472675 -0.028458053 0.15292169 0.02185136 0.086699 -0.05915892 0.058164276
0.03724553 -0.004354285 -0.1401177 -0.04549797 -0.056362763 0.19770887 0.06427142 -0.10055891
-0.1273809 -0.010789186 0.05650786 -0.09372531 -0.06856072 -0.034391522 -0.012990103 0.015625935
0.1666202 0.048045725 -0.09027616 0.015009983 0.08238546 -0.024669439 -0.031075068 -0.061049607
-0.13358495 -0.0037255387 -0.034447048 -0.006340358 0.029571887 0.04864284 -0.008929583 0.005904376
-0.08497472 -0.066124365 -0.01683468 -0.0064996444 -0.05790585 -0.17393264 0.100588396 -0.06129806
-0.0069197128 -0.08906771 -0.15576583 -0.031636596 -0.05355172 -0.113691166 0.07787792 -0.11132298
00000000: 11ac 663d 7180 1d3d c409 c4bd 6bdb 82bc
00000010: 1b95 a8be 8126 eb3d 96c4 963b e1ed 1a3d
00000020: 25a4 ab3d 0c20 a63d 558d 76be b6c4 c73d
00000030: 53a6 0fbb e492 b53d c520 67bd 965b 17bd
00000040: e20c 64bd fe6a febd 7d64 b9bd 01d4 29bd
00000050: 488b 2ebd 57c9 5b3c d080 4bbb 1215 fbbd
00000060: f833 243d f1e3 373e a481 6cbd 45b7 b3bd
00000070: eee2 59bd 93cf 91bd 00e4 a33d 0d21 b0bc
00000080: 7af5 9e3d d9ab 06ba 4001 523c 772a 91bd
00000090: fb41 53bd ca33 bebc 9889 1dbd 330c d13b
000000a0: 79e6 d53c 8279 32bd aa65 aa3b c994 83bc
000000b0: f054 533d f5f6 2a3d 4c1f ffbd daff 4dbd
000000c0: 9fe1 17bd d578 17bd add3 1d3d d8db 9c3d
000000d0: 7908 3a3c cff3 febc 2ef4 b6bc 429a 50bb
000000e0: ec12 e9bc 769e 01be eb8e 1a3e 2ba2 55bd
000000f0: 6223 0c3e b536 2d3d bba4 ed3d 31de 1e3d
00000100: 5751 543d e363 91bd c2d9 af3b 1026 2b3d
00000110: 1912 abbe 9b90 b93d 36a0 693c daea e53c
00000120: a9f2 a8bd c336 05bd fc1b d5bc 2eed c13d
00000130: 1585 ae3d 4eed a03d e227 63bd 92df b03b
00000140: 0f17 ba3c 3bc3 14bd 6ece c4bd 67d7 b83d
00000150: db80 4fbe be87 b53c 4449 92bd 24eb 93bd
00000160: ddc3 9c3c dcdf 853c 8181 003d b841 b8bd
00000170: de27 60bd 5717 7cbd 9264 c4bc e68c d0bd
00000180: 2036 363e b929 0fbd 863f f6bc addd 043d
00000190: e607 bdbc 44e4 bc3d 57d1 283d e94a 453d
000001a0: 569f cf3a 22c3 fabd 5c89 1b3c 86d4 8cbd
000001b0: f312 84bd fbcc 643d 20c1 d1bc e7cb 893d
000001c0: 8cff 59bd fe42 38bd afcd 9b3c 0d12 83bc
000001d0: 8c6c ac3c c470 44bd 923a 8e3c 3948 bebc
000001e0: 5728 0b3d ccff b4bc 77f0 6c3d 8ab2 24bd
000001f0: 0a8f d3bd 3533 3ebc ebba 993d d8f2 993d
00000200: f57e 2a3d 387b 6c3d 483c c13d 5bd6 a13d
00000210: 8ae7 a9be fe93 ae3d 9836 253d 895d e03d
00000220: 4143 a93c 873f e9bc dd20 e9bc 8197 1c3e
00000230: a001 b33c 3f8f b13d a050 72bd aa3d 6e3d
00000240: c58e 183d 64ae 8ebb 047b 0fbe 145c 3abd
00000250: a4dc 66bd 3274 4a3e bca0 833d d4f1 cdbd
00000260: 2370 02be 20c5 30bc c974 673d 0ef3 bfbd
00000270: 9069 8cbd 20de 0cbd 71d4 54bc f601 803c
00000280: 7c9e 2a3e 98cb 443d b5e2 b8bd 6fec 753c
00000290: b5b9 a83d 9017 cabc 2491 febc 270f 7abd
000002a0: 7eca 08be 2b28 74bb 5918 0dbd c7c2 cfbb
000002b0: be40 f23c b73d 473d 634d 12bc 7f79 c13b
000002c0: 3a07 aebd 366c 87bd e2e8 89bc f8fa d4bb
000002d0: af2e 6dbd 661b 32be 4a01 ce3d ad13 7bbd
000002e0: c2be e2bb 2269 b6bd 1481 1fbe 6095 01bd
000002f0: 0c59 5bbd ead6 e8bd 757e 9f3d 4dfd e3bd

conv.4.weight f4 [3]
1.2016226 1.2030729 1.2028028
00000000: c5ce 993f 4bfe 993f 71f5 993f

conv.4.bias f4 [3]
-0.2677702 -0.29013127 -0.35877362
00000000: 2d19 89be 168c 94be 2db1 b7be

conv.4.running_mean f4 [3]
-0.17120133 -0.15363464 -0.14963426
00000000: 674f 2fbe 6652 1dbe b939 19be

conv.4.running_var f4 [3]
0.037422672 0.034172624 0.040539224
00000000: 8448 193d 98f8 0b3d 750c 263d

shortcut.0.weight f4 [3, 128, 1, 1]
-0.052678604 0.057538547 -0.09926474 0.018923942 -0.0018209409 0.0010421701 0.062268205 0.09418458
-0.063906714 -0.09161768 -0.05875804 -0.038255528 0.0671595 -0.03515947 -0.05117249 -0.047818687
0.0938062 0.04781055 0.03896585 -0.06678174 -0.022702165 0.025322238 0.038987167 -0.045710295
0.0023218524 0.10267376 0.03734664 0.02883012 0.027685564 0.07349259 -0.020713037 0.009801452
-0.016090827 0.019752026 0.025317397 0.017167205 -0.051727246 -0.01615661 -0.014061516 -0.076052815
-0.0028111504 0.057740755 0.015877401 0.020999731 -0.01566065 0.049082182 -0.012168286 -0.05566503
-0.12314919 -0.03705143 -0.007984187 0.10190301 0.056586508 0.04135605 -0.052214764 -0.031818893
-0.021207668 -0.0018348105 0.0853005 -0.054032378 0.05955742 -0.043223746 -0.023909325 -0.075262055
-0.062322304 0.020600528 0.04939158 0.01617653 -0.0013441314 -0.05639262 -0.010642955 -0.015490063
0.025761018 0.026751528 0.009699179 -0.003932459 -0.012590399 0.038908854 0.053434286 -0.016191041
-0.12056565 -0.018019008 -0.0059816064 0.09576213 -0.013296742 -0.021319106 -0.02110078 -0.057310376
-0.084927626 0.055406023 0.031175574 0.019773358 0.022662489 -0.029121056 0.03427158 0.0009259878
0.062417418 -0.038523722 -0.034866873 -0.030191459 0.06595942 0.018547432 -0.07475032 0.02166234
0.006856523 -0.044780012 -0.031755146 -0.022512121 0.044918202 0.05162413 0.015459303 0.05423223
0.13203864 0.014220848 -0.037969258 -0.09138602 -0.0077005993 0.0021004414 -0.042158067 0.122518025
-0.04487774 0.013973419 -0.07253769 0.034142036 -0.08768709 -0.03795672 -0.013373054 -0.025872435
-0.06903435 -0.04365869 -0.034119226 -0.04828758 -0.022255827 0.004512903 0.037755344 0.05064124
-0.039185457 -0.008717517 -0.08458983 0.053736854 0.024125807 0.0051570213 0.056822892 0.03410159
0.026125405 0.077966 -0.008505527 0.031333674 0.0074449284 -0.06806506 0.07471727 -0.06772518
0.036092665 0.031169232 0.02274682 0.021465372 0.009922674 0.10457905 0.0128275985 0.10651498
-0.009269089 0.008282735 0.035070006 0.017211165 -0.053451043 -0.0021544069 -0.007986572 -0.0038931654
-0.007737654 0.033380408 0.04027277 -0.057853054 0.01611255 0.08009777 0.008295879 -0.024540666
-0.010362613 -0.038320515 -0.009885283 0.070530556 0.098488495 0.09578687 -0.039431203 -0.05651597
0.015677227 -0.015208976 0.114815764 -0.059665293 0.034140468 0.017869847 0.043239683 -0.084351055
0.011868018 0.022615448 0.062202595 0.004782443 -0.021947678 -0.028257512 -0.009403134 -0.039703455
-0.07298896 0.061870407 0.039239872 -0.10354628 0.04089175 0.0483652 0.019604333 0.006292776
-0.0045819557 -0.0011771064 0.009636704 0.046696812 -0.0018723684 0.073911466 -0.023009047 0.008842836
0.04037694 -0.065388955 0.025603026 0.01284823 -0.08004479 0.010713553 0.0070018047 0.022677507
-0.011607462 -0.096923165 0.00022256105 -0.020647507 0.094420336 -0.005948204 0.004070147 -0.008532924
0.055163257 0.008973357 0.036450278 0.095944114 -0.0063568475 0.009774809 0.11487834 0.03013579
0.12663476 -0.017941957 -0.008018753 -0.08014279 -0.10241901 0.039938364 0.056614958 0.13317746
-0.027774451 -0.050694313 -0.03578478 -0.011105969 0.04018165 0.017156076 0.012502682 -0.037621982
00000000: 85c5 57bd 8aad 6b3d 504b cbbd 6206 9b3c
00000010: a3ac eeba 6d99 883a f20c 7f3d d8e3 c03d
00000020: 86e1 82bd 0da2 bbbd 45ac 70bd d4b1 1cbd
00000030: ec8a 893d 6003 10bd 3f9a 51bd 87dd 43bd
00000040: 771d c03d ffd4 433d a89a 1f3d ddc4 88bd
00000050: e4f9 b9bc 9570 cf3c 02b1 1f3d b83a 3bbd
00000060: 382a 183b 9f46 d23d caf8 183d 252d ec3c
00000070: d6cc e23c 4883 963d 63ae a9bc 4596 203c
00000080: e9d0 83bc 00cf a13c 6e66 cf3c 3da2 8c3c
00000090: f3df 53bd de5a 84bc 4662 66bc 94c1 9bbd
000000a0: 473b 38bb 9281 6c3d 5311 823c a107 ac3c
000000b0: c34a 80bc 660a 493d 7e5d 47bc 0401 64bd
000000c0: a435 fcbd 3ec3 17bd 1cd0 02bc 86b2 d03d
000000d0: 41c7 673d f664 293d 26df 55bd 8754 02bd
000000e0: b4bb adbc 067e f0ba 07b2 ae3d 0e51 5dbd
000000f0: 7bf2 733d 620b 31bd 7ddd c3bc fe22 9abd
00000100: ac45 7fbd 70c2 a83c d34e 4a3d a484 843c
00000110: 912d b0ba f3fb 66bd ca5f 2ebc 08ca 7dbc
00000120: c508 d33c 0526 db3c 4ee9 1e3c dbdb 80bb
00000130: f647 4ebc e45e 1f3d e9dd 5a3d 13a3 84bc
00000140: 20eb f6bd 999c 93bc 5a01 c4bb f01e c43d
00000150: 94da 59bc 68a5 aebc 8bdb acbc 49be 6abd
00000160: 89ee adbd 6df1 623d eb63 ff3c bdfb a13c
00000170: afa6 b93c 488f eebc 5b60 0c3d fdbd 723a
00000180: 68a9 7f3d 0dcb 1dbd 91d0 0ebd 1454 f7bc
00000190: bb15 873d c9f0 973c b216 99bd 3875 b13c
000001a0: afac e03b 3f6b 37bd af11 02bd 576b b8bc
000001b0: 26fc 373d d373 533d 0449 7d3c 9d22 5e3d
000001c0: 2335 073e 8ffe 683c a785 1bbd 9828 bbbd
000001d0: 4f55 fcbb 8fa7 093b f0ad 2cbd bbea fa3d
000001e0: b9d1 37bd c4f0 643c a48e 94bd 85d8 0b3d
000001f0: 4a95 b3bd 8178 1bbd a71a 5bbc 6ef2 d3bc
00000200: e261 8dbd 74d3 32bd 9ac0 0bbd 33c9 45bd
00000210: da51 b6bc f9e0 933b 59a5 1a3d 306d 4f3d
00000220: ee80 20bd ebd3 0ebc 6f3d adbd 2d1b 5c3d
00000230: 7ca3 c53c 3bfc a83b 1fbf 683d 1cae 0b3d
00000240: f204 d63c a3ac 9f3d c45a 0bbc bd57 003d
00000250: 96f4 f33b b265 8bbd 5e05 993d 80b3 8abd
00000260: e7d5 133d 9e56 ff3c 8a57 ba3c 26d8 af3c
00000270: b692 223c 8a2d d63d d92a 523c 8724 da3d
00000280: 61dd 17bc 4fb4 073c 91a5 0f3d 6efe 8c3c
00000290: 7bef 5abd f330 0dbb 1cda 02bc 7a24 7fbb
000002a0: 258c fdbb e5b9 083d 0ff5 243d 53f7 6cbd
000002b0: 77fe 833c 4d0a a43d 70eb 073c 8209 c9bc
000002c0: f3c7 29bc f9f5 1cbd e2f5 21bc 5372 903d
000002d0: 56b4 c93d e82b c43d 9d82 21bd 4a7d 67bd
000002e0: 876d 803c 122f 79bc 8724 eb3d 9863 74bd
000002f0: e0d6 0b3d c963 923c 181c 313d 3fc0 acbd
00000300: 1372 423c 0844 b93c 26c8 7e3d 0ab6 9c3b
00000310: 9ecb b3bc 4c7c e7bc 9a0f 1abc 17a0 22bd
00000320: 3c7b 95bd d36b 7d3d fdb9 203d 1210 d4bd
00000330: 1c7e 273d 971a 463d 4499 a03c a233 ce3b
00000340: 3b24 96bb 2349 9aba 44e3 1d3c 2845 3f3d
00000350: 426a f5ba e55e 973d 787d bcbc 8be1 103c
00000360: 4a62 253d a5ea 85bd 70bd d13c 6281 523c
00000370: 86ee a3bd e687 2f3c 656f e53b 2ec6 b93c
00000380: 392d 3ebc a77f c6bd 475f 6939 f624 a9bc
00000390: 735f c13d 27e9 c2bb de5e 853b adcd 0bbc
000003a0: def2 613d fd04 133c e34c 153d 597e c43d
000003b0: 1a4d d0bb 8526 203c 5645 eb3d 55df f63c
000003c0: 8bac 013e 03fb 92bc 1661 03bc e721 a4bd
000003d0: 0fc1 d1bd 6996 233d 16e5 673d ac5f 083e
000003e0: 3f87 e3bc d7a4 4fbd 1093 12bd cff5 35bc
000003f0: 8495 243d e68a 8c3c 0dd8 4c3c 8219 1abd

shortcut.0.bias f4 [3]
-2.0335917e-06 1.3854674e-06 7.3350225e-07
00000000: d778 08b6 4cf4 b935 e4e5 4435

shortcut.1.weight f4 [3]
1.0503995 1.0057367 1.0254858
00000000: 7e73 863f fbbb 803f 1e43 833f

shortcut.1.bias f4 [3]
-0.2677702 -0.29013127 -0.35877362
00000000: 2d19 89be 168c 94be 2db1 b7be

shortcut.1.running_mean f4 [3]
-0.11650168 -0.07893961 0.2325689
00000000: 6f98 eebd 17ab a1bd 8b26 6e3e

shortcut.1.running_var f4 [3]
5.0622854 4.2924566 4.1826444
00000000: 3efe a140 ce5b 8940 39d8 8540
