code/models weights/Lambda_gaussian_0.1_50.pth (torch, 47544 bytes, 28 tensors)

embedding f4 [16, 1, 1, 23, 23]
0.009322238 0.0076114866 0.00629223 0.0049506715 0.0043686787 0.0040270644 0.0018410737 -0.00469572
0.0016003429 0.0057728435 0.021350669 0.03026737 0.02095115 0.003831124 0.00057923293 -0.0051974747
-0.00013072042 0.0028719031 0.004039323 0.004977911 0.005712437 0.0076042525 0.009055738 0.006339473
0.00500073 0.0033199447 0.0015465062 0.0008354862 0.0010396598 -0.0015426336 -0.007823393 -0.0024055478
9.312169e-05 0.013750667 0.023299556 0.014334085 0.0012963795 -0.0038226836 -0.0076028784 -0.001822262
0.0013370859 0.0018659502 0.002311668 0.0028011051 0.0040636677 0.006578353 0.005560986 0.0046815556
0.00342732 0.0021959122 0.0006359892 0.0013017071 -0.00065110443 -0.006875724 -0.003486115 -0.00088041404
0.013000267 0.021717284 0.012248122 -0.0013351872 -0.0036560716 -0.007812366 -0.0017772192 0.00028329232
0.0004313159 0.0015940866 0.0025281603 0.0036859117 0.0057252552 0.004092446 0.0032008355 0.0021982903
0.0014436918 0.00038675507 0.0014016442 -0.002132343 -0.008038657 -0.0031618117 -0.0014916181 0.011174283
0.018804418 0.011204055 -0.00072671485 -0.002419222 -0.0072889393 -0.0014140554 0.0014617295 0.0007583635
0.0013067123 0.001860741 0.0018049197 0.0042521604 0.0025577496 0.0015379457 0.0017025016 0.0006028096
0.00044238742 0.00064489234 -0.00081204576 -0.00825097 -0.002989282 -0.0006499457 0.00954783 0.015777005
0.011090083 -0.001866246 -0.00563995 -0.008535576 0.002141864 0.0013163403 0.0013804861 0.001747852
0.0011043263 0.0011856075 0.0023904638 0.0010297252 0.0003632878 -0.00046663 -0.00082373916 4.2690903e-05
0.0020417955 -0.001319245 -0.0077792075 -0.0021861026 9.621454e-05 0.010411692 0.01129396 0.009879224
-0.0018680866 0.00031745457 -0.0075870487 -0.0020656898 -0.0005472057 -0.0010169824 0.00011825686 0.00062807155
-0.00037663133 0.00040487145 -0.0031154354 -0.003414715 -0.0021489046 -0.0016632187 -0.0021878448 -0.002796949
-0.0011098898 -0.0070828567 -0.0060854065 -0.00699888 0.0033887413 0.00063267566 0.0034628096 -0.00721977
-0.005772522 -0.009745901 -0.0025651332 -0.0010964235 -0.0019956022 -0.0018584845 -0.002914926 -0.003087586
-0.003360951 -0.009383426 -0.0101915635 -0.009278454 -0.008986655 -0.009608158 -0.008482923 -0.011167544
-0.016824838 -0.0127806235 -0.015906254 -0.0030164614 -0.0058534825 -0.0023659726 -0.013813547 -0.014292282
-0.019153982 -0.010129834 -0.0073546423 -0.0076395688 -0.00886005 -0.008485873 -0.00942353 -0.009170615
-0.0036319366 -0.0046226596 -0.004440473 -0.0048008193 -0.005049306 -0.0063509885 -0.0065493747 -0.015453172
-0.009308618 -0.013812965 -0.0011895964 -0.015675653 -0.0018244722 -0.013279582 -0.0053916243 -0.014558265
-0.0053309533 -0.0034942508 -0.0039321785 -0.0043348246 -0.004871049 -0.004548031 -0.0039606136 -0.00040969212
-0.0029774026 -0.0035031757 -0.0029336396 -0.005365353 -0.0033848109 -0.008676433 -0.015324865 -0.0137098655
-0.018767826 0.028888026 0.038685717 0.02880074 -0.018068697 -0.011841356 -0.014560805 -0.0071022436
-0.002089914 -0.004460326 -0.0023348958 -0.0035990097 -0.0026992613 2.3337629e-05 0.021792581 0.017283933
0.015104147 0.013767064 0.013052286 0.013810129 0.009365081 0.004869987 0.005894481 0.036188975
0.024662223 -0.17228602 0.02566273 0.036465917 0.0061241305 0.0051418063 0.008765517 0.015210367
0.013341926 0.01529875 0.014650259 0.01706939 0.022287777 0.012731137 0.0101293335 0.009356203
00000000: 4dbc 183c c769 f93b 0d2f ce3b 3e39 a23b
00000010: 2227 8f3b 77f5 833b 2f50 f13a 8ede 99bb
00000020: 99c2 d13a 1f2a bd3b 99e7 ae3c 47f3 f73c
00000030: bfa1 ab3c 9813 7b3b aad7 173a 944f aabb
00000040: ff11 09b9 8a36 3c3b 4c5c 843b be1d a33b
00000050: 652f bb3b 182d f93b 855e 143c 5bbb cf3b
00000060: 2add a33b 6e93 593b 23b4 ca3a 8804 5b3a
00000070: 3245 883a 3232 caba b02d 00bc 65a6 1dbb
00000080: 544a c338 7a4a 613c b6de be3c 83d9 6a3c
00000090: 47eb a93a fd85 7abb 9121 f9bb f7d8 eeba
000000a0: 2841 af3a e692 f43a 5a7f 173b bf92 373b
000000b0: 8428 853b 398f d73b ef38 b63b bc67 993b
000000c0: e39c 603b 4be9 0f3b 83b8 263a 0b9e aa3a
000000d0: e1ae 2aba c14d e1bb 4e77 64bb 96cb 66ba
000000e0: 12ff 543c 72e8 b13c 59ac 483c 7301 afba
000000f0: b49a 6fbb e0fe ffbb 95f1 e8ba da86 9439
00000100: 3d22 e239 acf0 d03a 7eaf 253b 568f 713b
00000110: ec9a bb3b ed19 863b 1cc5 513b 3111 103b
00000120: 423a bd3a 63c5 ca39 60b7 b73a c7be 0bbb
00000130: 92b4 03bc 6636 4fbb 6682 c3ba 5714 373c
00000140: b90b 9a3c 3691 373c 0281 3eba cf8b 1ebb
00000150: 0ed8 eebb d357 b9ba 8197 bf3a eacc 463a
00000160: fd45 ab3a 1be4 f33a 0e93 ec3a b555 8b3b
00000170: eb9f 273b e594 c93a 7926 df3a de05 1e3a
00000180: 3cf0 e739 fe0d 293a 78df 54ba 142f 07bc
00000190: d4e7 43bb 1e61 2aba 806e 1c3c c73e 813c
000001a0: 2eb3 353c d39c f4ba 54cf b8bb cdd8 0bbc
000001b0: 845e 0c3b 0d89 ac3a 6df1 b43a 2e18 e53a
000001c0: 0bbf 903a 6366 9b3a 54a9 1c3b d8f7 863a
000001d0: aa77 be39 05a6 f4b9 33f0 57ba 020f 3338
000001e0: a5cf 053b 84ea acba b9e8 febb b744 0fbb
000001f0: cac6 c938 cd95 2a3c 4d0a 393c 78dc 213c
00000200: 96da f4ba 0870 a639 c79c f8bb 8660 07bb
00000210: 5a72 0fba 444c 85ba ab00 f838 2ba5 243a
00000220: 9a76 c5b9 ed44 d439 552c 4cbb 69c9 5fbb
00000230: a3d4 0cbb 5c00 daba f261 0fbb 044d 37bb
00000240: b979 91ba 4f17 e8bb 1768 c7bb dc56 e5bb
00000250: a515 5e3b 25da 253a 4ef0 623b d293 ecbb
00000260: 6d27 bdbb 46ad 1fbc cb1b 28bb deb5 8fba
00000270: a6c8 02bb 6498 f3ba 5808 3fbb 1959 4abb
00000280: 6743 5cbb f1bc 19bc 84fa 26bc a804 18bc
00000290: c33c 13bc 896b 1dbc f5fb 0abc 13f8 36bc
000002a0: 3ed4 89bc d265 51bc d54d 82bc d3af 45bb
000002b0: 92ce bfbb 6f0e 1bbb 3752 62bc 2d2a 6abc
000002c0: d0e8 9cbc 9af7 25bc 36ff f0bb 5955 fabb
000002d0: be29 11bc 5508 0bbc 2665 1abc 5940 16bc
000002e0: c905 6ebb ae79 97bb 6381 91bb 3150 9dbb
000002f0: a674 a5bb f41b d0bb 239c d6bb 4d2f 7dbc
00000300: 2c83 18bc c64f 62bc 3bec 9bba 3a6a 80bc
00000310: 2123 efba 9b92 59bc 39ac b0bb ca85 6ebc
00000320: 47af aebb cdff 64bb 81d9 80bb 250b 8ebb
00000330: 529d 9fbb a607 95bb 09c8 81bb f2cb d6b9
00000340: 8720 43bb 8995 65bb 4e42 40bb d8cf afbb
00000350: b4d3 5dbb 9927 0ebc 2415 7bbc 589f 60bc
00000360: fcbe 99bc 95a6 ec3c ea74 1e3d 88ef eb3c
00000370: ce04 94bc 3f02 42bc 7190 6ebc f0b9 e8bb
00000380: f0f6 08bb ed27 92bb 0d05 19bb 5ddd 6bbb
00000390: 17e6 30bb 2dc5 c337 5b86 b23c 0997 8d3c
000003a0: 6277 773c 408f 613c 41d9 553c e143 623c
000003b0: ff6f 193c 6994 9f3b 7e26 c13b e43a 143d
000003c0: 6e08 ca3c bf6b 30be a53a d23c 495d 153d
000003d0: eeac c83b 997c a83b 3e9d 0f3c e734 793c
000003e0: 1898 5a3c 9ca7 7a3c a407 703c 1bd5 8b3c
000003f0: db94 b63c 4296 503c 81f5 253c c24a 193c

queries.0.weight f4 [64, 3, 1, 1]
0.003361087 0.029790653 0.024558336 0.103990205 0.048224147 0.02010965 0.00014233796 -0.00017388932
-1.7203078e-05 0.008903802 -0.006516669 -0.04673769 -0.06575064 0.110279925 0.07710537 -0.05302685
-0.088322446 -0.060597844 -0.047297973 -0.046073172 -0.035026323 0.0002687777 -0.0010007378 0.0029448653
-0.0024687026 -0.03156427 -0.033335727 0.052448 -0.004939548 -0.0192649 -0.008062245 0.011219578
0.017434731 0.00024125361 -0.0003552085 0.00037839997 0.03498737 0.015469438 -0.007870455 -0.016670033
0.011336472 0.020241851 -0.0006847751 0.0010407951 -0.0022684485 -0.06618383 0.014618583 0.0143277515
-0.009373807 -0.019366732 -0.0250285 0.1189087 0.099908814 0.08653088 -0.00013021273 -6.718881e-05
0.00014550993 -0.01700614 -0.015197187 -0.040833347 0.020269716 0.095428064 0.0800581 -0.07510031
-0.11165979 -0.078066304 -0.047307536 -0.067059 -0.070055835 -0.0075355093 -0.0073513403 -0.0026029453
0.06795045 0.05982368 0.015905922 -0.046028152 -0.020121187 0.006571946 0.00018869994 -0.00014148424
-0.0010746963 0.00025787432 -0.00041525852 0.0008449828 0.03526723 0.031754214 0.024211282 -0.019131374
-0.027061796 -0.03605022 0.011219489 0.0049957163 0.0018448282 -0.04342579 -0.037303273 -0.018618777
0.007909802 -0.029115018 -0.047900576 0.04398411 0.073412664 0.09748038 -0.00109535 -0.001516684
-0.0016517171 -0.055353057 -0.0126221515 0.009080077 0.031191437 -0.044385638 0.011853264 -0.049756553
-0.10083693 -0.06469474 -0.05687088 -0.052008513 -0.046977885 -0.0007767834 -0.0025358864 -0.0013034152
0.06107842 0.08527839 0.03728808 -0.027517548 -0.03210177 -0.026568478 0.00047283075 -0.0013220165
-0.0019117122 0.002688299 0.005431445 0.005678232 0.039187666 0.027160453 0.022093082 0.044920936
0.024363758 0.0107073 0.00800772 0.006228609 0.006711862 0.003081406 -0.030571997 -0.045769118
0.010308944 0.02467818 0.020429602 0.08435617 0.056623176 0.05224139 -0.0018532131 -0.0023049568
9.750007e-05 -0.026672741 0.009963353 0.040945675 -0.13601485 0.046309683 0.066405505 -0.049928263
-0.08423383 -0.06012695 0.024233744 0.036606483 0.07708222 0.0030775894 0.0051362705 0.007931626
0.012669433 0.019309454 0.023244347 -0.005712291 -0.039172754 -0.025924956 0.011643977 0.014206969
0.008108663 -0.00085168524 -0.0010448474 7.802991e-05 0.025147663 0.006058268 -0.05676745 -0.018727828
-0.01127925 -0.021355977 0.0020600194 0.0038405627 -0.0010909728 0.040902063 0.042262122 0.01088131
00000000: af45 5c3b 870b f43c 902e c93c d1f8 d43d
00000010: af86 453d febc a43c 8e40 1539 0f56 36b9
00000020: 544f 90b7 41e1 113c c889 d5bb 0570 3fbd
00000030: 46a8 86bd 71da e13d 6ce9 9d3d af32 59bd
00000040: 66e2 b4bd 7235 78bd 85bb 41bd 39b7 3cbd
00000050: c377 0fbd bbea 8c39 302b 83ba a4fe 403b
00000060: f5c9 21bb 8949 01bd 0b8b 08bd b7d3 563d
00000070: efdb a1bb 6cd1 9dbc 8217 04bc 52d2 373c
00000080: 48d3 8e3c 06f9 7c39 473b bab9 fc63 c639
00000090: eb4e 0f3d 8773 7d3c 15f3 00bc 988f 88bc
000000a0: 9cbc 393c 3dd2 a53c 7b82 33ba 4a6b 883a
000000b0: 40aa 14bb 638b 87bd c882 6f3c f2be 6a3c
000000c0: 9994 19bc fba6 9ebc 9208 cdbc 6886 f33d
000000d0: fe9c cc3d 1a37 b13d b789 08b9 b8e7 8cb8
000000e0: 0694 1839 7650 8bbc 9ffd 78bc de40 27bd
000000f0: ad0c a63c ca6f c33d 80f5 a33d 31ce 99bd
00000100: e3ad e4bd 3ae1 9fbd 8cc5 41bd 3b56 89bd
00000110: 6f79 8fbd 6fec f6bb 83e3 f0bb 2d96 2abb
00000120: 9b29 8b3d ad09 753d 234d 823c 0488 3cbd
00000130: 30d5 a4bc 7b59 d73b c1dd 4539 635b 14b9
00000140: d3dc 8cba 4e33 8739 0eb7 d9b9 d681 5d3a
00000150: 5f74 103d b510 023d bd56 c63c 66b9 9cbc
00000160: b3b0 ddbc 65a9 13bd f3d1 373c 1bb3 a33b
00000170: 2ace f13a 3edf 31bd 51cb 18bd 6886 98bc
00000180: 1d98 013c 9e82 eebc 6533 44bd af28 343d
00000190: 6159 963d cba3 c73d d991 8fba 78cb c6ba
000001a0: 6e7e d8ba e3b9 62bd 24cd 4ebc 9ac4 143c
000001b0: 2f85 ff3c b7cd 35bd 3134 423c 87cd 4bbd
000001c0: 9883 cebd ad7e 84bd 71f1 68bd e106 55bd
000001d0: e26b 40bd 0da1 4bba 1d31 26bb 5bd7 aaba
000001e0: 5e2d 7a3d 70a6 ae3d 63bb 183d 7b6c e1bc
000001f0: 257d 03bd 23a6 d9bc 45e6 f739 8347 adba
00000200: 6b92 faba 2c2e 303b 43fa b13b 7610 ba3b
00000210: 3f83 203d 997f de3c 8dfc b43c 04ff 373d
00000220: 8196 c73c ac6d 2f3c d032 033c 5c19 cc3b
00000230: 2eef db3b 6af1 493b 2072 fabc 6678 3bbd
00000240: d8e6 283c e529 ca3c fb5b a73c edc2 ac3d
00000250: b4ed 673d 11fb 553d 83e7 f2ba c20e 17bb
00000260: f478 cc38 cb80 dabc 553d 233c a7b6 273d
00000270: 7a47 0bbe 39af 3d3d 9cff 873d 9481 4cbd
00000280: c982 acbd ad47 76bd d885 c63c aef0 153d
00000290: 48dd 9d3d 62b1 493b 294e a83b a7f3 013c
000002a0: 7493 4f3c dc2e 9e3c ee6a be3c 2c2e bbbb
000002b0: 9c73 20bd 9360 d4bc 61c6 3e3c 59c4 683c
000002c0: 33da 043c a143 5fba 43f3 88ba fda3 a338
000002d0: 7902 ce3c 6f84 c63b fc84 68bd 1a6b 99bc
000002e0: 9acc 38bc bbf2 aebc 6401 073b f3b1 7b3b
000002f0: f9fe 8eba ec88 273d 0c1b 2d3d 8647 323c

queries.1.weight f4 [64]
0.05385155 0.4398359 9.081108e-06 0.08184628 0.27543962 0.41671577 0.3136583 -0.00029154564
0.031691987 0.037609607 0.010684267 -3.7660822e-05 0.15270852 0.006833245 4.697091e-05 0.0933931
0.024545271 0.6343833 -1.8190534e-05 0.12546274 0.41073096 0.5841807 0.36388874 -0.0022315185
0.22181775 0.07116531 -0.0002571838 0.000188322 0.23433514 0.08531711 0.0012508556 0.23844063
0.10381286 0.413213 0.0007369193 0.087054014 0.002155588 0.32075885 0.26495886 0.00096417195
0.4363443 0.22163028 -0.00033393173 -0.0011790497 0.20485894 0.084705256 -0.0005507058 0.1770499
-0.056482457 0.1913261 0.0004793366 0.031075696 0.05978752 0.24518456 0.26051617 -0.0017429085
0.006640833 0.09721945 0.011283035 0.00035894234 0.061618283 0.03295518 -0.0004706693 0.18012948
00000000: 7193 5c3d 2c32 e13e 105b 1837 069f a73d
00000010: 6c06 8d3e c55b d53e d297 a03e 98da 98b9
00000020: 75cf 013d 880c 1a3d 100d 2f3c 00f6 1db8
00000030: 9f5f 1c3e 6ae9 df3b a102 4538 e244 bf3d
00000040: 2a13 c93c f266 223f e097 98b7 4e79 003e
00000050: 544b d23e de8c 153f a04f ba3e ab3e 12bb
00000060: 3124 633e 1ebf 913d a0d6 86b9 4d78 4539
00000070: 8df5 6f3e bdba ae3d c0f3 a33a c829 743e
00000080: d69b d43d a890 d33e d12d 413a 6049 b23d
00000090: c444 0d3b 813a a43e b0a8 873e 7cc0 7c3a
000000a0: 8568 df3e 0cf3 623e 8f13 afb9 588a 9aba
000000b0: 8bc6 513e f379 ad3d 3e5d 10ba 924c 353e
000000c0: 265a 67bd fdea 433e 784f fb39 7592 fe3c
000000d0: c2e3 743d a911 7b3e 6062 853e 4e72 e4ba
000000e0: 589b d93b fe1a c73d 7bdc 383c 6d30 bc39
000000f0: 7463 7c3d 03fc 063d 2ac4 f6b9 dd73 383e

queries.1.bias f4 [64]
0.09750226 -0.121863805 -0.002509798 -0.16148706 0.12648065 0.5528359 0.11048696 -0.0055895993
-0.21585523 0.046392415 -0.0005246524 -0.0029460646 0.06353135 0.05675568 -9.332306e-05 -0.20962831
-0.1810094 0.3585227 -0.00039281382 -0.09074408 0.0989513 -0.0962022 -0.31197187 -0.005068083
0.22650863 -0.052694835 0.024819015 -0.0005217958 0.09246964 0.04721956 0.00037758006 -0.008101958
0.043008033 -0.4044183 -9.4876996e-05 0.009419271 -0.10988902 -0.22174539 0.25730082 -0.0025562716
-0.19034746 0.12302635 0.024290983 -1.9578652e-05 0.05560291 0.19153206 -0.0010258992 0.116726026
0.0008157213 -0.015515751 -0.0010354059 -0.09459089 0.1246986 -0.10997897 -0.08864553 -0.0015692476
-0.24411954 -0.026291933 0.0037858104 -0.0009197797 0.14475651 0.21052161 -0.0034458458 0.008575127
00000000: 44af c73d bb93 f9bd 6c7b 24bb dd5c 25be
00000010: 2584 013e a786 0d3f fd46 e23d f528 b7bb
00000020: 2709 5dbe f905 3e3d d488 09ba c312 41bb
00000030: b91c 823d a578 683d 70b6 c3b8 cea8 56be
00000040: 875a 39be 4a90 b73e 94f2 cdb9 08d8 b9bd
00000050: fba6 ca3d a905 c5bd c7ba 9fbe 2912 a6bb
00000060: e1f1 673e 8ad6 57bd 3f51 cb3c 20c9 08ba
00000070: b960 bd3d 4c69 413d f0f5 c539 13be 04bc
00000080: 3129 303d ea0f cfbe b3f8 c6b8 4953 1a3c
00000090: 7f0d e1bd 3911 63be efbc 833e 1f87 27bb
000000a0: 72ea 42be 3df5 fb3d e2fd c63c d63c a4b7
000000b0: e1bf 633d fb20 443e 7777 86ba 0e0e ef3d
000000c0: 21d6 553a c735 7ebc 75b6 87ba deb8 c1bd
000000d0: fb61 ff3d a73c e1bd ca8b b5bd 36af cdba
000000e0: 79fa 79be 2e62 d7bc 5c1b 783b 5f1d 71ba
000000f0: 0d3b 143e fa92 573e b3d3 61bb b17e 0c3c

queries.1.running_mean f4 [64]
0.02471299 0.07613654 -1.8216206e-05 -0.017729267 0.05037426 -0.08768084 -0.055584133 0.00049357995
-0.028565707 0.014303062 0.008813915 8.6626584e-05 0.020775275 0.0061785025 -0.001037518 -0.017135987
-0.022985388 0.13329028 -9.5036434e-05 -0.031143695 0.08382512 -0.11412708 -0.07929049 -0.008643946
0.06352341 -0.027557781 0.000114853094 -0.00013292235 0.03994199 -0.035395436 0.009433461 -0.043611586
-0.02810889 0.09196095 -0.0024895486 -0.025696043 -0.0007413045 -0.09278612 -0.06812155 -0.002156041
0.08053163 -0.038043637 -0.0021556732 0.006238968 0.038567558 0.035423245 0.009578665 -0.030771881
0.02458709 0.08451451 -0.00094491936 0.010191376 -0.013477428 -0.08380405 0.05809163 0.0070560863
0.023952646 -0.030900002 0.014908585 -0.00032020372 -0.00998306 -0.021721559 0.0008542651 0.041465156
00000000: e572 ca3c 79ed 9b3d 01cf 98b7 f83c 91bc
00000010: 3d55 4e3d 0392 b3bd 30ac 63bd 9763 013a
00000020: a102 eabc 6457 6a3c 3d68 103c 4bab b538
00000030: e930 aa3c 0975 ca3b 54fd 87ba c560 8cbc
00000040: da4b bcbc 3f7d 083e 4c4e c7b8 1021 ffbc
00000050: 81ac ab3d 75bb e9bd 0d63 a2bd 569f 0dbc
00000060: 9018 823d dbc0 e1bc 49dd f038 1261 0bb9
00000070: 369a 233d cefa 10bd ce8e 1a3c 10a2 32bd
00000080: 9d44 e6bc 0656 bc3d b227 23bb 8280 d2bc
00000090: 1a54 42ba a606 bebd 5083 8bbd 5e4c 0dbb
000000a0: c4ed a43d a5d3 1bbd 3246 0dbb 4270 cc3b
000000b0: 04f9 1d3d f717 113d d5ef 1c3c 5015 fcbc
000000c0: dd6a c93c f215 ad3d 77b4 77ba bbf9 263c
000000d0: 6ed0 5cbc 75a1 abbd 7df1 6d3d be36 e73b
000000e0: 5738 c43c 0022 fdbc 2343 743c 04e1 a7b9
000000f0: fd8f 23bc 69f1 b1bc c3f0 5f3a 5ed7 293d

queries.1.running_var f4 [64]
0.00029041266 0.0025651096 1.0519653e-09 0.00020169377 0.001593592 0.0034510775 0.0013706248 5.204238e-07
0.0003935926 0.00014002141 4.7438058e-05 9.019094e-09 0.00019907643 3.8695405e-05 7.25992e-07 0.00020071861
0.00024651946 0.007882145 7.2926722e-09 0.0004585949 0.0032862374 0.0058309366 0.0028534015 3.3364955e-05
0.0017757897 0.00034695384 1.6233699e-07 1.0346586e-07 0.00070659607 0.0005755324 3.991977e-05 0.0008380506
0.00041957013 0.0039117695 3.2641708e-06 0.0003166348 4.165368e-05 0.0038826051 0.0020642316 2.3338505e-06
0.0028743183 0.0006461637 2.5426393e-06 1.8371102e-05 0.0006571482 0.0005534377 4.116269e-05 0.00048008934
0.00027514095 0.0031609216 1.2382824e-06 0.00011602633 0.0005894949 0.0031596872 0.0016113133 2.331973e-05
0.00026205523 0.00044483613 9.8670505e-05 3.137028e-07 0.0001503009 0.00021225585 2.1737155e-06 0.00075715134
00000000: 8742 9839 661b 283b bd94 9030 c27d 5339
00000010: 13e0 d03a 792b 623b 89a6 b33a 40b3 0b35
00000020: 1b5b ce39 b6d2 1239 3af8 4638 65f2 1a32
00000030: 2cbf 5039 e04c 2238 cae1 4235 fe77 5239
00000040: 483f 8139 1d24 013c 0693 fa31 916f f039
00000050: ea5d 573b 7111 bf3b 2200 3b3b 59f1 0b38
00000060: 9dc1 e83a 5be7 b539 da4e 2e34 f530 de33
00000070: dc3a 393a 53df 163a 876f 2738 a0b0 5b3a
00000080: c0f9 db39 4d2e 803b 070e 5b36 0102 a639
00000090: 4cb5 2e38 4e73 7e3b 0f48 073b 3f9f 1c36
000000a0: 0f5f 3c3b 5063 293a 36a2 2a36 a41b 9a37
000000b0: 7844 2c3a 9314 113a 1aa6 2c38 80b4 fb39
000000c0: cb40 9039 7727 4f3b 0f33 a635 2953 f338
000000d0: 5588 1a3a c112 4f3b b432 d33a bd9e c337
000000e0: 7564 8939 e538 e939 53ed ce38 fc6a a834
000000f0: 179a 1d39 ff90 5e39 26e0 1136 917b 463a

keys.0.weight f4 [16, 3, 1, 1]
0.02486296 0.049773037 0.063166775 0.091190174 0.07337388 0.040674835 -6.5915774e-05 -0.00040757496
-0.00047733096 0.025278255 -0.0634998 -0.109963246 0.27670708 0.41947109 0.4011047 -0.14435041
-0.1004613 -0.094656214 0.059831027 -0.022030078 -0.05659571 0.0011214926 0.000532563 0.0003041036
-0.24759397 -0.23372087 -0.17593762 0.11555211 0.12408696 0.123655826 0.0021113001 0.0034631058
0.0041136327 8.898346e-05 -0.0003100825 -0.00043109694 0.057631113 0.069723375 0.066270895 -0.056294937
-0.06907722 -0.058413897 -0.0019416378 -0.0022771177 -0.0019734758 -0.06956445 -0.00053419033 0.050604027
00000000: 68ad cb3c d0de 4b3d 955d 813d eac1 ba3d
00000010: 0b45 963d a89a 263d 433c 8ab8 c9af d5b9
00000020: 4742 fab9 5814 cf3c 2f0c 82bd 6934 e1bd
00000030: 8dac 8d3e eac4 d63e 985d cd3e 98d0 13be
00000040: a7be cdbd 1edb c1bd 6111 753d 6c78 b4bc
00000050: e7d0 67bd 0cff 923a b39b 0b3a 1870 9f39
00000060: 4689 7dbe 8654 6fbe fe28 34be 96a6 ec3d
00000070: 4e21 fe3d 443f fd3d bd5d 0a3b 46f5 623b
00000080: a7cb 863b a29c ba38 9292 a2b9 da04 e2b9
00000090: 9a0e 6c3d 21cb 8e3d 09b9 873d 8595 66bd
000000a0: 5c78 8dbd 6943 6fbd 8e7e feba b23b 15bb
000000b0: 6e55 01bb ce77 8ebd e808 0cba 2b46 4f3d

values.0.weight f4 [4, 3, 1, 1]
0.33749375 -0.08174757 -0.11108592 0.0530024 -0.34002203 0.24958 -0.17906937 -0.17215928
0.07773991 -0.026864814 -0.08742251 -0.22241445
00000000: fbcb ac3e 456b a7bd 0481 e3bd 0b19 593d
00000010: 5e17 aebe e691 7f3e f65d 37be 864a 30be
00000020: 1a36 9f3d 9913 dcbc 930a b3bd 9dc0 63be

values.1.weight f4 [4]
0.49079534 0.37775114 0.60228884 0.573957
00000000: 8749 fb3e 9968 c13e 9a2f 1a3f d9ee 123f

values.1.bias f4 [4]
-0.18407369 0.25532874 -0.39046332 0.3029722
00000000: d07d 3cbe 73ba 823e cfea c7be 2c1f 9b3e

values.1.running_mean f4 [4]
0.071488336 -0.024615487 -0.12420391 -0.14102821
00000000: 7a68 923d 6ba6 c9bc 9f5e febd b369 10be

values.1.running_var f4 [4]
0.0044996478 0.0027568731 0.0072064083 0.009936464
00000000: c871 933b a8ac 343b bc23 ec3b 8dcc 223c

conv.0.weight f4 [8, 16, 1, 1]
0.044881705 -0.03773019 0.05395737 -0.017044425 0.08506171 -0.056376882 0.013707036 -0.16714755
-0.0695128 0.051320996 -0.01754403 -0.020149196 -0.13319759 0.09092865 -0.12078499 0.10690988
0.010903665 -0.01140943 0.07788755 0.079646744 -0.016046043 0.021087445 -0.06885114 -0.02627809
-0.04997173 0.05908984 -0.1265976 -0.014009217 0.1147058 -0.10471254 0.041436642 -0.333453
0.084054224 -0.053766087 0.13924626 -0.07866016 0.009443082 -0.026631562 0.05856186 -0.2371162
-0.0007732057 0.012279238 -0.12380304 0.116681226 -0.0039013044 0.026314232 -0.09231573 0.16286653
-0.07263223 -0.03557422 -0.14405932 0.07015942 0.015559699 0.02494997 -0.12376583 -0.030579919
-0.026007833 0.20430641 -0.03667982 0.20069206 -0.014784776 -0.018403294 0.098977424 0.16313241
-0.03967662 0.04336028 -0.11892574 -0.002097307 0.10372405 -0.09631399 0.2591641 -0.11402158
-0.07027135 0.07022748 -0.17968917 0.04156413 0.110240504 -0.11620683 0.29495788 -0.069970556
0.07161628 -0.065358184 0.08599817 0.039700277 0.06784393 -0.07501843 0.05875368 -0.016648922
-0.10651257 0.10128735 -0.17597964 -0.04749836 0.054071307 0.0051825694 -0.0768585 0.056095064
-0.05234529 0.017357726 -0.0823373 0.04422804 0.039304532 -0.00573541 -0.09495277 0.13464315
0.028175315 -0.05678887 0.26030737 0.02914278 0.06529048 -0.026610907 0.03196585 -0.10474824
-0.04138313 0.010221642 0.045192264 0.15925333 -0.108189546 0.07705943 -0.16667892 0.16180591
-0.07226027 0.083495915 -0.22105269 -0.01758296 -0.027236942 0.023905763 0.03039345 0.14743088
00000000: e1d5 373d f98a 1abd 6702 5d3d c0a0 8bbc
00000010: d534 ae3d 72eb 66bd 7a93 603c ba28 2bbe
00000020: ba5c 8ebd f735 523d 7fb8 8fbc ed0f a5bc
00000030: f364 08be cd38 ba3d 1f5e f7bd 91f3 da3d
00000040: 49a5 323c 9eee 3abc 8283 9f3d d51d a33d
00000050: fe72 83bc 94bf ac3c d401 8dbd 2645 d7bc
00000060: 28af 4cbd 3008 723d cda2 01be ea86 65bc
00000070: e0ea ea3d 8773 d6bd 78b9 293d 5aba aabe
00000080: 9f24 ac3d d439 5cbd 9296 0e3e 9418 a1bd
00000090: 28b7 1a3c 6f2a dabc 90de 6f3d 97ce 72be
000000a0: f5b0 4aba db2e 493c 738c fdbd 91f6 ee3d
000000b0: 07ad 7fbb f290 d73c 0810 bdbd 7cc6 263e
000000c0: 35c0 94bd 46b6 11bd 4984 13be beaf 8f3d
000000d0: 1cee 7e3c e163 cc3c f178 fdbd bd82 fabc
000000e0: 610e d5bc b335 513e 943d 16bd 3882 4d3e
000000f0: d83b 72bc 81c2 96bc adb4 ca3d 2f0c 273e
00000100: f483 22bd 8d9a 313d 578f f3bd f972 09bb
00000110: 466d d43d 4540 c5bd 28b1 843e 2584 e9bd
00000120: 6dea 8fbd 6dd3 8f3d 7000 38be 263f 2a3d
00000130: c6c5 e13d d9fd edbd b804 973e b94c 8fbd
00000140: 8eab 923d 83da 85bd cf1f b03d c29c 223d
00000150: c2f1 8a3d 43a3 99bd b3a7 703d 5263 88bc
00000160: 4323 dabd be6f cf3d 0234 34be a48d 42bd
00000170: e079 5d3d 8bd2 a93b fd67 9dbd f0c3 653d
00000180: 0468 56bd ca31 8e3c 75a0 a8bd 7628 353d
00000190: cafd 203d 1bf0 bbbb 9976 c2bd e5df 093e
000001a0: ebcf e63c 729b 68bd 0247 853e d7bc ee3c
000001b0: 04b7 853d 1eff d9bc a0ee 023d 3f86 d6bd
000001c0: 5b81 29bd ad78 273c 861b 393d 4e13 233e
000001d0: 7b92 ddbd 56d1 9d3d e1ad 2abe 73b0 253e
000001e0: 31fd 93bd e8ff aa3d a35b 62be 240a 90bc
000001f0: 0220 dfbc 05d6 c33c affb f83c 1ff8 163e

conv.1.weight f4 [8]
0.4584938 0.24985807 0.45161793 0.18623917 0.7566779 0.36999717 0.3301965 0.16928247
00000000: b3bf ea3e cbda 7f3e 773a e73e 7bb5 3e3e
00000010: a5b5 413f 4570 bd3e 840f a93e 6258 2d3e

conv.1.bias f4 [8]
-0.34343886 -0.120047234 -0.22767411 0.3002108 -0.7444872 -0.09769118 -0.016073005 0.10019706
00000000: 38d7 afbe 53db f5bd 6723 69be 3bb5 993e
00000010: b796 3ebf 5012 c8bd 89ab 83bc 1e34 cd3d

conv.1.running_mean f4 [8]
-0.09484488 -0.05484182 -0.31775638 -0.115511 -0.35310397 -0.3100792 0.23536493 -0.019409277
00000000: 083e c2bd d1a1 60bd f7b0 a2be 0891 ecbd
00000010: 0bca b4be b3c2 9ebe 8103 713e 3400 9fbc

conv.1.running_var f4 [8]
0.042676404 0.01634965 0.06989269 0.4977969 0.023804074 0.055776596 0.16749544 0.034795105
00000000: 74cd 2e3d b4ef 853c e623 8f3d 3cdf fe3e
00000010: c300 c33c 0076 643d ed83 2b3e 5085 0e3d

conv.3.weight f4 [3, 8, 1, 1]
0.1540118 0.08969144 -0.0010432957 0.1770575 -0.34187052 0.01432237 -0.13725364 -0.08017904
0.11103682 0.088145435 0.046424773 0.22720274 -0.33619967 -0.03490911 -0.09959545 -0.08999262
0.012386711 0.078334145 0.17596173 0.0710881 -0.3324392 -0.17435399 0.018324697 -0.0887442
00000000: 45b5 1d3e 25b0 b73d 32bf 88ba 904e 353e
00000010: a709 afbe 60a8 6a3c 388c 0cbe e934 a4bd
00000020: 4667 e33d 9885 b43d e727 3e3d d6a7 683e
00000030: 5d22 acbe dbfc 0ebd b3f8 cbbd 0d4e b8bd
00000040: a2f1 4a3c a76d a03d 502f 343e a396 913d
00000050: 7935 aabe da89 32be ad1d 963c 85bf b5bd

conv.4.weight f4 [3]
1.0345234 1.1697812 1.1583087
00000000: 436b 843f 64bb 953f 7643 943f

conv.4.bias f4 [3]
-0.28462332 -0.30893412 -0.37583816
00000000: 26ba 91be 9d2c 9ebe dc6d c0be

conv.4.running_mean f4 [3]
0.0018922017 0.016928669 -0.02506476
00000000: c103 f83a fead 8a3c 9d54 cdbc

conv.4.running_var f4 [3]
0.01307987 0.016049804 0.016286626
00000000: f34c 563c e17a 833c 886b 853c

shortcut.0.weight f4 [3, 16, 1, 1]
0.084776014 0.08027918 0.036056843 0.23866864 0.07270468 0.0646623 -0.27306333 0.05748431
-0.27444315 -0.06679207 0.11556559 0.09366768 -0.015957095 0.0046516387 0.106287725 -0.005400402
-0.12927212 -0.12596585 0.03114535 0.21768369 -0.09002205 -0.01714487 -0.26962507 -0.025423054
0.0445206 0.17126174 0.102956444 0.20233595 0.019509183 -0.06569035 0.11173667 0.025125857
-0.067350544 0.1082925 0.077498436 0.104036994 -0.098613575 0.089444466 -0.12340009 -0.17886975
-0.0015240555 -0.053539686 -0.14730479 0.32703534 0.11182524 -0.060315847 0.14781983 0.10073399
00000000: 0c9f ad3d 6969 a43d 57b0 133d 8d65 743e
00000010: 31e6 943d ab6d 843d f5ce 8bbe ab74 6b3d
00000020: d083 8cbe 48ca 88bd a7ad ec3d d7d4 bf3d
00000030: 74b8 82bc c66c 983b 61ad d93d dbf5 b0bb
00000040: e95f 04be 31fd 00be 8824 ff3c 79e8 5e3e
00000050: 7b5d b8bd 6673 8cbc 4c0c 8abe 0244 d0bc
00000060: 3c5b 363d 3d5f 2f3e d4da d23d 2831 4f3e
00000070: b9d1 9f3c aa88 86bd 32d6 e43d bed4 cd3c
00000080: 15ef 89bd 75c8 dd3d 80b7 9e3d 5911 d53d
00000090: eaf5 c9bd a92e b73d 30b9 fcbd a229 37be
000000a0: d1c2 c7ba 6e4c 5bbd 11d7 16be 2d71 a73e
000000b0: a204 e53d c00d 77bd 155e 173e 9f4d ce3d

shortcut.0.bias f4 [3]
2.4332644e-06 -1.1407694e-06 9.113794e-06
00000000: 2a4b 2336 8a1c 99b5 72e7 1837

shortcut.1.weight f4 [3]
1.310175 1.0623206 1.1510247
00000000: d0b3 a73f 1ffa 873f c754 933f

shortcut.1.bias f4 [3]
-0.28462332 -0.30893412 -0.37583816
00000000: 26ba 91be 9d2c 9ebe dc6d c0be

shortcut.1.running_mean f4 [3]
0.103065245 -0.0289862 -0.22656535
00000000: df13 d33d 7874 edbc bf00 68be

shortcut.1.running_var f4 [3]
0.7926025 0.64840037 0.47802353
00000000: ffe7 4a3f 91fd 253f 80bf f43e
