code/models weights/Lambda_gaussian_0.1_25_LayerOuputs512.pth (torch, 588248 bytes, 28 tensors)

embedding f4 [16, 1, 1, 23, 23]
000000 25 cb 90 3a e8 e0 33 bb a4 4b 58 ba f2 cd 6a 3b
       0.001104687 -0.0027447287 -0.00082510174 0.003582832
000010 36 05 85 bc a7 95 8b 39 ec 7b 5d ba 3a 4b 71 bb
       -0.016237836 0.00026623646 -0.0008448947 -0.003681852
000020 fb 62 f1 ba a1 d8 b3 38 5d bf f5 b9 b0 92 d2 3b
       -0.0018416339 8.5757354e-05 -0.00046872618 0.006426178
000030 c1 0f 45 3c 79 dc 81 3a 01 d7 6c bb 92 19 22 bb
       0.012027682 0.0009907625 -0.0036138895 -0.002473448
000040 0e 24 3f bb c2 42 0c 39 29 7b e4 ba 0a 0b 2f bb
       -0.0029165777 0.0001337631 -0.0017431724 -0.002670946
000050 59 7f 88 bb ed f8 a5 ba 0c b8 c4 3a 7b 75 46 ba
       -0.0041655716 -0.0012662687 0.0015008464 -0.00075706065
000060 c7 d5 17 bb 81 38 2f ba 13 15 43 bb 51 a9 d8 bb
       -0.0023168193 -0.000668414 -0.00297672 -0.006611981
000070 19 e8 3b 3b 04 3d d1 b9 41 cd 41 bc 41 2b c1 bb
       0.0028672277 -0.00039909047 -0.0118287215 -0.005895049
000080 f5 52 2c 3a f0 68 06 bb e7 0b a8 3b 82 5e 4b bb
       0.0006573641 -0.0020509325 0.005128372 -0.0031031673
000090 42 90 10 3b 48 15 5d 3b ab 85 dd 39 f3 25 85 ba
       0.002205864 0.0033734608 0.00042251995 -0.0010158404
0000a0 74 6b 8f bb 7b 6f 8a 3b f1 34 1e bb 1e b7 c0 ba
       -0.004376823 0.0042247153 -0.0024140442 -0.0014703011
0000b0 a3 a1 1e bb d9 42 5d ba 15 1c da 3a 08 ca 5a 39
       -0.002420523 -0.0008440442 0.0016640449 0.00020865363
0000c0 fd f9 90 ba d3 f9 3d ba ed b3 40 bb 30 57 84 bb
       -0.001106083 -0.00072470045 -0.002940412 -0.004038714
0000d0 5a 68 22 b9 ab 17 df 3c bc f3 fd b8 0a df 69 bb
       -0.00015488398 0.027232965 -0.00012109379 -0.003568592
0000e0 51 52 12 bb 07 b6 e3 3b 9c b2 a2 ba 6c a4 4a 3a
       -0.0022326896 0.0069491896 -0.0012412849 0.0007730189
0000f0 0c 07 28 bc 8f 6d 5c bb 2d f4 b0 3c 1d bd 99 ba
       -0.010255586 -0.0033634638 0.021600807 -0.0011729334
000100 5f d7 42 bb 9f a4 9d bb 6b c7 05 bc 2c 37 ca ba
       -0.0029730422 -0.004810884 -0.008165221 -0.001542782
000110 f0 fb 97 ba a7 fc 36 bb 66 f6 87 bb 00 53 a5 ba
       -0.0011595469 -0.0027921589 -0.004149246 -0.0012613237
000120 9b 51 a5 3a 97 e1 b6 ba 41 24 c2 3b a3 0f 7a bb
       0.0012612821 -0.0013952729 0.005924732 -0.0038156293
000130 5f d7 9b bb 25 91 ee bb 3c c4 37 3a 91 42 45 3b
       -0.004755899 -0.007280486 0.0007010137 0.003009949
000140 32 22 04 3c fd 0b 0e ba 27 b0 0a 3c 46 1f 84 bd
       0.008064793 -0.00054186565 0.00846485 -0.064512774
000150 e1 ee 8d bb 44 10 67 bc e8 88 9e 3b 78 2e 0a 3b
       -0.004331455 -0.014102999 0.004838098 0.0021084826
000160 b3 8f 87 3b cb a1 05 ba ce f0 b6 bb fc c7 35 ba
       0.0041370033 -0.00050976564 -0.0055829054 -0.0006934402
000170 d5 a1 9b bb 1f 90 cb 3b 2b 81 a5 bb 7d 65 07 3b
       -0.0047495165 0.006212249 -0.0050507984 0.0020659857
000180 f0 7c 13 bb a7 d4 e9 ba a0 91 ab 3c 0a e4 9b ba
       -0.0022504888 -0.0017839865 0.020943463 -0.0011893522
000190 a0 a2 ec bb b6 a9 bb 3b 7e 85 26 3c 14 47 92 3b
       -0.007221535 0.005727018 0.010163663 0.0044640396
0001a0 f5 15 3c 3b e3 7d 97 3c 1b 0e 27 bc de b7 b2 bb
       0.002869961 0.018492645 -0.010196234 -0.0054540476
0001b0 2e 70 46 3b fe 40 4f 3a 17 e0 79 3b 26 c4 51 3b
       0.0030279267 0.0007906108 0.0038127953 0.0032007783
0001c0 1d 33 9f ba 16 63 4a 3b 9e 39 91 bb 14 a7 ca ba
       -0.001214597 0.0030881814 -0.0044319173 -0.001546117
0001d0 d9 82 00 bc 97 e1 94 ba 48 41 dc b9 17 05 b5 3a
       -0.0078436965 -0.0011358735 -0.00042010308 0.0013810721
0001e0 ae 50 57 3a f8 a6 15 bc 5c ae 72 bb 56 3f 6c 3b
       0.00082136213 -0.009134047 -0.0037030196 0.0036048493
0001f0 bf 9e 35 bd 8e 15 81 37 54 74 d3 3b 0a f0 7a bb
       -0.044340845 1.5388036e-05 0.0064530764 -0.0038290047
000200 61 90 29 bc 8e 90 a3 bb b4 61 14 3c d3 60 03 3b
       -0.010349364 -0.0049915975 0.009056497 0.0020046725
000210 c0 2f d4 ba 9b d3 35 3a 93 f3 93 ba 17 62 12 ba
       -0.0016188547 0.0006936134 -0.0011287801 -0.00055840745
000220 8f 84 5b bb 83 c5 4e bb 9a 1e cc 38 20 7a 51 ba
       -0.003349576 -0.0031550832 9.733178e-05 -0.00079909153
000230 93 5b 4f bc 0e c0 3f 3b 28 5f 8f 39 35 70 3a 3c
       -0.01265611 0.002925876 0.00027345982 0.011379291
000240 92 dd 15 bb 92 2e 03 bb 5a 2f dc 3a 81 7f 2d 3c
       -0.0022867662 -0.0020016772 0.001679878 0.010589481
000250 89 88 0b bc 15 3c 8a 3c cc 94 c8 bb c7 c3 05 3c
       -0.008516439 0.016874352 -0.0061212536 0.008164353
000260 93 a3 2d 3d b8 44 a1 bb 24 af b7 bb af a6 1c 3c
       0.042392325 -0.004921522 -0.005605595 0.009561225
000270 10 b7 b0 bc 00 e4 5f bb ea a7 8a ba b7 d6 8c ba
       -0.021571666 -0.0034162998 -0.0010578607 -0.0010745142
000280 28 a8 7c bb 68 d3 a2 bb fb a4 12 bb 9e fb f3 3b
       -0.0038552377 -0.0049690492 -0.0022376168 0.0074457666
000290 57 39 7f 3b fc 28 4f bc 00 d9 4b 3b 2d c7 12 38
       0.003894409 -0.012644049 0.0031104684 3.499461e-05
0002a0 8d 06 2e 3b 2f 9d ab ba d7 3a 14 3c 36 41 5c bc
       0.0026554198 -0.0013093109 0.009047232 -0.013443282
0002b0 9f b3 ad 39 c1 99 94 bb a9 b4 9a bb 66 ff ba 3b
       0.0003313096 -0.0045349305 -0.0047212434 0.0057067154
0002c0 ec fc 8a 3b 6c e7 00 bc e1 a5 4e 3d dc f6 29 bc
       0.0042415764 -0.007867675 0.050451163 -0.010373797
0002d0 5a 02 c5 bb 6f 05 08 bc ef b7 1e bb 0b da 61 ba
       -0.006012243 -0.008302077 -0.002421852 -0.000861556
0002e0 86 43 3d bb 52 6c 5a ba 81 c5 a2 39 fb 87 6a bb
       -0.0028879358 -0.0008332181 0.000310462 -0.0035786617
0002f0 bc 84 8e 3a a8 b3 88 bb 65 35 eb bb 01 f4 00 bc
       0.0010873298 -0.0041718073 -0.007177996 -0.007870675
000300 e3 4f 19 3b 28 fa 69 3c c1 94 27 bc 03 74 af 3c
       0.0023393563 0.014280833 -0.010228337 0.021417623
000310 16 6e 79 bd f9 6f 4e bb 70 2d 8a 3b 79 41 03 bc
       -0.060896 -0.0031499846 0.0042168424 -0.008011215
000320 80 cb bd bb e9 84 1d bc 0f d6 8c 3c 3d f2 0a bb
       -0.0057920814 -0.009614208 0.017191915 -0.0021201514
000330 4a 70 2c bb d8 e8 05 bc 56 fe b8 ba 06 87 32 3a
       -0.0026312047 -0.00817319 -0.0014113884 0.0006810281
000340 97 c2 fb b9 0d bd 11 3b 3d b6 05 3b 94 fe 01 3c
       -0.0004801943 0.0022237927 0.0020402812 0.007934231
000350 48 8e c4 3b d0 09 65 3c 97 a5 9d bb 24 72 2b bb
       0.0059984066 0.01397939 -0.0048109996 -0.0026160562
000360 d4 31 97 bc a5 6e 61 bd 16 10 b3 bc 8c f2 b8 bc
       -0.018456377 -0.05503716 -0.021858256 -0.022576593
000370 36 10 65 bc 46 57 79 bb 1a cf 02 bc 7e f3 a8 3a
       -0.013980916 -0.0038046404 -0.007983947 0.0012889949
000380 fe bf f3 3b 94 01 a9 3a 29 ad ba 3b 5a 0a 18 bb
       0.0074386587 0.0012894147 0.005696912 -0.002319953
000390 6c e4 1d bb fc 51 5e 3a 5e 65 c8 39 d4 00 2e b9
       -0.002409245 0.00084808446 0.00038222497 -0.00016594242
0003a0 c2 17 d2 ba e0 3b 59 bb 40 58 86 bb 7f ae e1 b9
       -0.0016028809 -0.003314726 -0.0040998757 -0.00043045354
0003b0 71 3c 51 bb 75 43 01 bc 04 a6 9f 3a 29 e2 25 bd
       -0.0031926895 -0.007889618 0.0012180214 -0.040498886
0003c0 13 39 64 3d 9e 74 7f 3e b0 8f 37 3d 55 87 0c bd
       0.055718493 0.2494683 0.044814765 -0.03430875
0003d0 4d d9 76 bc 8f 31 a3 bb ad 51 a5 b9 99 0e 82 bc
       -0.015066457 -0.004980273 -0.00031532106 -0.015876101
0003e0 be 90 bd 3b 4b 6d e8 ba 45 a3 3d bb dc 04 1a bb
       0.005785077 -0.0017732767 -0.0028936428 -0.0023501432
0003f0 37 cb a0 ba 73 11 c8 3b b5 4d 38 3c d3 56 47 3c
       -0.0012267594 0.0061055957 0.011248996 0.012166697

queries.0.weight f4 [64, 3, 1, 1]
000000 7f e5 03 bd b3 02 24 3d ef fe 9e bb 8c df 9c 3b
       -0.032201286 0.040041637 -0.004852168 0.004787391
000010 91 7d 82 3d 97 c1 98 3d c0 af 22 3d 7a e6 85 bd
       0.06371606 0.07458799 0.03971839 -0.065381005
000020 b8 3a 19 bd 5b 7a 15 be d0 80 08 3e bc 3b 35 be
       -0.037409514 -0.14597456 0.13330388 -0.17698568
000030 5e 79 05 3e 7f 46 bd bc b4 13 09 3d 4e a4 f2 3c
       0.13034579 -0.023104904 0.033466056 0.029619362
000040 c6 7a 17 3d 27 35 21 3d 1e b5 b2 bd 17 c4 c2 3c
       0.03698232 0.03935733 -0.087259516 0.023775144
000050 85 a4 45 bd 6e 6b 8d bd 64 75 06 3d 24 a3 30 3d
       -0.0482526 -0.06905256 0.032826796 0.043124333
000060 05 47 53 bd 1c ae 60 bd bd 41 8f bd 57 dd 2c bc
       -0.0515814 -0.054853544 -0.069949605 -0.010550818
000070 d2 d2 dd bd 6f 55 b1 3c 92 fb c6 3b 37 77 28 3d
       -0.108312264 0.021647183 0.00607247 0.041129317
000080 a2 76 77 bb aa 1f 0d 3c 9c 96 33 3d 0c 81 fe 3c
       -0.003775992 0.008613506 0.043844804 0.031067394
000090 5f 65 8d 3d d0 a0 00 bd b4 d4 e3 3c 66 f8 19 3c
       0.069041006 -0.031403363 0.027811386 0.009397602
0000a0 ad 08 1a bc 51 f0 55 bd ff ab ce 3c 71 2f 78 3d
       -0.0094014825 -0.052231137 0.025228499 0.06059212
0000b0 b7 f5 20 3d f9 a5 4f bd fb b8 00 be 5e a0 80 3c
       0.039296832 -0.050695393 -0.12570564 0.015701469
0000c0 81 ad 62 bd 34 1e ce 3c 90 39 6c bb d6 f1 1a 3c
       -0.055341247 0.025160886 -0.0036045052 0.009457072
0000d0 4b 6b a7 bd 9d 09 83 bd 4f 0d 4a bc a7 b2 d3 3c
       -0.081747614 -0.06398318 -0.012332275 0.025842024
0000e0 a9 fa fc 3c 0e 3a 54 3c 95 00 d1 bd b6 56 6b bd
       0.030881243 0.012953294 -0.10205189 -0.05745574
0000f0 43 9d a7 bd 33 f1 ec bc 53 af 72 bc 4d a3 d9 bc
       -0.08184292 -0.028923607 -0.014812308 -0.026567126
000100 25 38 a7 bc 11 0e 47 bc 26 ff 9d 3d da 37 35 3c
       -0.020412514 -0.01214935 0.07714681 0.011060679
000110 ec 5c 00 3d 05 b9 d1 bb 6c 3c 03 bd c0 13 d9 bc
       0.031338617 -0.00640023 -0.032040045 -0.026498675
000120 ef db 4a 3d 50 a8 6a 3d 5b 11 80 3d 1d 0c f3 3b
       0.04952615 0.05728942 0.0625331 0.0074172155
000130 03 43 1d 3c 6d 93 4c bd e1 53 82 bb df ac 89 bc
       0.009598496 -0.049945284 -0.0039772843 -0.016806064
000140 cc ef f4 bc 34 a7 3c 3d c7 06 82 3c 26 2a 66 3c
       -0.0298995 0.046057895 0.015872372 0.014048135
000150 83 30 42 bd 7e 39 31 3d d3 58 bf 3c 93 ee 0e bd
       -0.047409546 0.04326772 0.023357784 -0.03489549
000160 af 14 54 bc 70 6b 83 3b af 62 21 3d 30 f1 cd 3c
       -0.0129443845 0.0040106103 0.039400753 0.025139421
000170 72 f4 1b 3d 11 07 a3 bd 0a b2 80 3b d9 20 f2 bc
       0.038074918 -0.07960332 0.003927474 -0.029556679
000180 43 b7 01 3d 76 c8 27 3d de ac 60 3c 10 b0 87 bd
       0.031668913 0.04096266 0.01371309 -0.06625378
000190 45 bc c3 bc d2 2b 19 bd 27 b5 79 3d 95 d6 bc bc
       -0.023893485 -0.037395306 0.060963776 -0.02305154
0001a0 59 a9 ed bb fe 07 11 be 7c a5 6e 3a e3 a1 e6 bd
       -0.007252854 -0.14163205 0.00091036386 -0.11261346
0001b0 9a 62 20 3e ac 1b b5 ba 31 19 ad 3d 1d 7e 3d bd
       0.15662614 -0.0013817451 0.084520705 -0.04626285
0001c0 41 ff 80 bd 4e 2f 34 bd ca ae 67 bd 0e dd de 3d
       -0.06298686 -0.043990426 -0.056563176 0.108820066
0001d0 82 52 12 3d af fa 86 3c 76 5d 33 3d 4e 58 82 3c
       0.035723217 0.016476957 0.043790303 0.015911248
0001e0 ea 45 77 3d 59 76 7d 3d 0f 40 8b 3d 51 5f 27 bd
       0.06036941 0.061880443 0.067993276 -0.040862385
0001f0 b4 90 93 bd 9b 9c 2a bd 1b b7 35 3b 46 e1 91 3b
       -0.07205334 -0.041653257 0.0027727548 0.0044519035
000200 87 18 26 3d 94 3f 2a 3d c7 28 28 3d 5f 28 17 3d
       0.040550735 0.04156454 0.041054513 0.036903735
000210 39 55 ef 3d 1c 04 9f bd 3b aa e8 3c 9f 98 5b 3c
       0.11686177 -0.07764456 0.028401485 0.013403087
000220 42 02 f2 3c ff 48 04 3d 6c 86 11 3d af 66 14 3d
       0.029542092 0.032296177 0.035528585 0.03623074
000230 80 a9 09 3d 35 a8 a5 bc a6 7f 90 bd 82 e5 db bc
       0.033608913 -0.020221809 -0.07055597 -0.026842836
000240 59 64 63 3d 58 2e 4e bd 18 11 6d bd 9f d8 ef bc
       0.05551562 -0.050337166 -0.05787763 -0.029278098
000250 a1 87 9e bc bb ff 4d bd bf be d3 3b 57 60 15 3d
       -0.019351782 -0.05029271 0.0064619477 0.03646883
000260 59 0a 45 3c 08 71 de bd 10 7d 6a be 74 e2 29 3e
       0.012026393 -0.10861403 -0.2289927 0.16590291
000270 0e ea f0 3c 0f 1a 96 3d 90 0e 53 3d f2 96 63 bd
       0.029408481 0.07329189 0.05152756 -0.055563875
000280 3f 64 46 bd 73 55 1b bd ec 11 05 3d 34 ee 22 3d
       -0.048435446 -0.037923288 0.032487795 0.03977795
000290 0f c0 7c 3d e2 bd 14 3d d9 2c af 3c 30 eb 6d 3c
       0.0617066 0.0363139 0.02138369 0.014521405
0002a0 d0 b1 b6 3d 1b 8a 26 3d 39 6d a6 3d 7c 5e 31 bd
       0.08920634 0.04065905 0.08126301 -0.043302998
0002b0 2a 11 06 39 6e e0 53 bd c2 fb cd 3a 63 ab d5 bc
       0.0001278563 -0.051727705 0.0015715288 -0.0260827
0002c0 2f 31 89 bc 07 3d 08 3d 08 a5 0e 3d 46 50 ce 3c
       -0.016747085 0.033261325 0.034825355 0.025184762
0002d0 8e 6c 51 bd dc 26 42 bc 60 34 e1 bc 4e eb f3 bc
       -0.051128916 -0.011850085 -0.027490795 -0.029775288
0002e0 34 07 fc bc 4d ef 3e bd 23 4c 36 3c 03 f0 d0 bd
       -0.030765153 -0.046614934 0.011126551 -0.102020286
0002f0 f0 23 ab bd 2f 29 2e 3d 53 98 5b 3d 36 f0 5c 3c
       -0.08356464 0.042519744 0.053612065 0.013485005

queries.1.weight f4 [64]
000000 43 fb 3c 3a e5 e6 82 3e c6 8e ab 3d 87 4a bb 3e
       0.0007209072 0.25566784 0.08376841 0.36580297
000010 87 aa 9f 3e 8e 3e 4d 3e ad ab 97 3e dd f0 88 3d
       0.3118479 0.20043394 0.29623166 0.06686566
000020 90 25 99 3e b0 8a e7 3d c0 6b 09 bd 02 b3 02 3e
       0.2991147 0.113057494 -0.033550024 0.12763599
000030 7d 50 6f 3e c8 28 06 bd d7 ce eb 3e f1 6e 85 3e
       0.23370548 -0.032753736 0.46056244 0.26061204
000040 ad 00 c4 3c 7c 45 69 3e 5e 99 8d 3d 8c 3d 99 3e
       0.023926103 0.22780412 0.06914018 0.2992977
000050 1a 36 7a 3e d3 cc 8f 3d 28 8f 55 3e dc ef 36 3e
       0.244347 0.07021489 0.20855391 0.17864937
000060 33 17 eb 3e d5 0b c4 3c fe 5a 80 bd bb 59 59 3e
       0.45916137 0.023931423 -0.062673554 0.21225636
000070 9c 40 42 3d 63 08 46 3d cc 20 6f 3e b6 0a 5e 3e
       0.047424898 0.048347842 0.23352355 0.21683773
000080 6d 0d fe 3d 21 eb 97 3e c0 dd 1a 3d 60 cf 0e 3f
       0.124049045 0.29671577 0.037809134 0.5578518
000090 0b 72 0e 3f a4 c4 06 3f 37 a3 84 3e 47 05 27 3e
       0.55642766 0.526438 0.25905773 0.16310607
0000a0 1e 79 0d 3f 69 13 b9 3e 0a d4 85 bd 44 8a c5 3e
       0.55262935 0.3614762 -0.06534584 0.3858205
0000b0 eb d2 c3 3d 90 42 c1 3d 60 c5 ba 3e 9b c2 8a 3e
       0.09561714 0.09436524 0.3647871 0.27101597
0000c0 6e 65 2f 3e 07 3e 03 3f 64 3f 18 3e a0 23 b2 3e
       0.17128536 0.5126652 0.14867932 0.34792805
0000d0 f3 a9 05 3f 0b 3a 25 3f ed d7 d7 3e 1c 2e 51 3e
       0.52212447 0.6454169 0.42156926 0.20427746
0000e0 a2 35 2d 3f ef 9e 8c 3e e0 af ff bc ab f6 c9 3e
       0.6765996 0.27465007 -0.031211793 0.39446005
0000f0 a4 50 c5 3e 1e 4b 93 3e 9b dc f0 3e 10 34 95 3e
       0.38538086 0.28768247 0.4704331 0.29141283

queries.1.bias f4 [64]
000000 e8 eb 67 3e 35 2b 81 3e b9 ce b3 bb 60 60 49 3e
       0.22648585 0.25228277 -0.0054872897 0.1966567
000010 0d 31 83 3e 33 59 cd bd 85 57 c3 3d 09 27 a5 3c
       0.2562336 -0.10026779 0.095381774 0.020160215
000020 09 54 a9 be 76 34 59 3e 20 bd f1 bd d0 cb b4 be
       -0.33071926 0.21211419 -0.11803651 -0.35311747
000030 dc fc f8 bc 61 60 8a be b7 ca ae bd 3f ff 99 3e
       -0.03039401 -0.27026656 -0.085347585 0.3007755
000040 23 7b 3a 3d de 22 fd 3d aa 55 12 3d 07 b3 4a 3d
       0.04552759 0.12360166 0.035726227 0.04948714
000050 6b 32 c9 bd 89 41 58 3e e6 9a 88 be c8 e5 2c 3e
       -0.098240696 0.2111875 -0.26680678 0.1688453
000060 f1 3a 08 be 89 3e c0 bd 32 3b 38 be c7 61 73 be
       -0.13303734 -0.09386928 -0.17991331 -0.23767768
000070 df 2d 4f 3d d8 32 97 bc 72 11 5f be b0 b9 9a bd
       0.050580855 -0.018456861 -0.21783999 -0.07554948
000080 fd 3d ae be 42 06 96 be 7a 43 b6 bc 75 80 bd bd
       -0.34031668 -0.2930165 -0.022248972 -0.09253017
000090 4e 42 9b 3e 23 44 d6 be 61 da c0 3e c7 25 1b bd
       0.30324024 -0.4184886 0.3766661 -0.037877824
0000a0 12 fd 6a 3e f4 66 4f be 48 c4 01 3e 46 c6 cf 3e
       0.22948101 -0.20254117 0.12672532 0.40580958
0000b0 70 ab 5f be f0 a8 b9 bd 56 41 b7 bd 9a 22 96 3e
       -0.21842742 -0.090654254 -0.08948009 0.29323274
0000c0 98 4e 86 3e 15 af a8 3d a7 d3 12 3d c0 aa 97 bd
       0.26231837 0.08236519 0.03584638 -0.07405615
0000d0 3d cc 02 3d d8 0a 05 3d 98 a1 9e bd 93 0b bc bd
       0.031933058 0.032481045 -0.07745665 -0.09181895
0000e0 2c a3 50 bd 9f c2 8a bd de 1d c6 3e c6 a3 94 be
       -0.050936863 -0.06775402 0.38694662 -0.290312
0000f0 6c ca 91 be bc cf 46 be 2c 4f a2 bd 28 27 59 be
       -0.28474748 -0.19415182 -0.07925257 -0.21206343

queries.1.running_mean f4 [64]
000000 a5 96 3a 39 b6 b3 78 3d 0d f8 d5 bc 34 49 a3 bd
       0.00017794462 0.06071826 -0.026119256 -0.07972947
000010 e8 e7 7d 3d 27 7b 3d 3d e9 1a 48 bd fa cd a0 38
       0.06198874 0.046260025 -0.04885379 7.667761e-05
000020 37 3f 9b bd 14 72 33 bd d4 cb 9e 3c 97 24 13 3d
       -0.07580417 -0.043809965 0.019384302 0.035923567
000030 e3 a4 f1 3c a6 bb b1 bc f5 33 5e 3d 10 41 93 bd
       0.02949757 -0.021695923 0.05424877 -0.07190144
000040 8b d5 81 bc 1d 03 6d bd 5c 10 9a 3c 7a 3a 80 bd
       -0.015848896 -0.057864297 0.018806629 -0.062611535
000050 f4 81 64 bd 36 42 d3 bc b1 75 56 3d fa 6e e7 bc
       -0.055787995 -0.025788408 0.052358333 -0.02825116
000060 99 02 96 3d 0d b4 51 bc 4f 01 b2 bc 57 c6 0a 3d
       0.07324714 -0.012799275 -0.02172914 0.033880558
000070 a1 8a f2 3b 3c 27 9f bc 24 04 35 3d e1 65 3e bd
       0.0074017798 -0.019427888 0.044193402 -0.046483878
000080 3d c4 1b 3d 58 2a 64 bd f7 47 73 3c a6 4a e0 bd
       0.038028944 -0.055704445 0.014848701 -0.10951738
000090 67 5f d6 3d 25 06 89 bd 70 a8 19 3d d2 d6 08 3d
       0.10467415 -0.06690625 0.03751415 0.033407994
0000a0 92 3a a8 3d bc bc 89 bd 11 67 a9 3c f8 7e 53 3d
       0.082142964 -0.06725451 0.020679029 0.05163476
0000b0 86 4d f4 3c cd 4f 02 3d de fb 3a 3d 3e 5e 51 bd
       0.029822122 0.031814385 0.045650356 -0.051115267
0000c0 3a dd ac bc fd 8e 2e bd 28 ea c1 3c c6 aa a8 bd
       -0.021101583 -0.042616833 0.023671225 -0.082356974
0000d0 4a 16 88 3d eb 45 7d bd 48 2c 6a 3d 3b fa fe 3c
       0.06644876 -0.061834257 0.057171136 0.031125179
0000e0 3c bc bb 3d 1d 73 26 bd 37 bd 96 bc b0 a4 27 3d
       0.09166762 -0.040637124 -0.018400772 0.040928543
0000f0 38 df 1f bd 3c ab 3b bd 96 b1 98 bd f7 72 46 3d
       -0.039031237 -0.0458176 -0.07455747 0.048449483

queries.1.running_var f4 [64]
000000 99 47 1f 38 41 f8 e9 3a 53 af e9 39 be 6c 73 3b
       3.7975235e-05 0.0017850475 0.0004457185 0.0037143673
000010 4c 28 ed 3a 44 8d 7b 3a 4b 6c 93 3a 3c 08 2f 39
       0.0018093674 0.00095959404 0.0011247484 0.00016692368
000020 7e 10 2a 3b 35 e8 74 3a 82 4d 39 39 2e 8d 1c 3a
       0.0025949772 0.0009342463 0.00017671849 0.0005971965
000030 95 f9 e7 39 ff 56 95 39 a5 36 ae 3a 3e 10 19 3b
       0.00044245707 0.00028484312 0.0013291432 0.0023355628
000040 dc 35 21 39 71 b9 d8 3a 2c a3 4f 39 dc 9e fc 3a
       0.0001537422 0.0016534758 0.00019801845 0.0019273418
000050 78 5e b3 3a 4b 6c 98 39 24 be 9f 3a 51 9e c2 39
       0.001368477 0.00029072384 0.0012187404 0.00037120518
000060 a3 ed 1d 3b 2b 57 11 39 e9 69 71 39 32 13 04 3a
       0.0024097941 0.0001386075 0.00023023006 0.0005038261
000070 ee 54 f6 38 d4 f4 33 39 6b 95 64 3a 46 6f 80 3a
       0.000117460135 0.00017161976 0.0008719775 0.0009798787
000080 1c 47 26 3a 99 79 b3 3a 18 a2 23 39 7b 25 b3 3b
       0.00063429936 0.0013692855 0.00015605276 0.0054671145
000090 70 1a a2 3b 16 09 02 3b 88 fe 6a 3a 74 78 03 3a
       0.0049469993 0.0019841841 0.000896432 0.00050152023
0000a0 16 d7 45 3b 2e 0f 04 3b 73 0e 6b 39 14 f7 9a 3a
       0.0030188016 0.002015065 0.00022416729 0.0011822903
0000b0 6b 70 26 3a a0 43 f5 39 ce 76 72 3a 22 cd 9a 3a
       0.0006349149 0.00046780426 0.00092492707 0.0011810402
0000c0 96 a1 d9 39 ba 84 5b 3a 8e 57 86 39 df a8 83 3b
       0.00041509856 0.0008373965 0.00025623705 0.0040179337
0000d0 26 52 03 3b e0 c1 dc 3a 02 11 c5 3a 08 14 de 39
       0.0020037978 0.0016842447 0.0015034976 0.00042358064
0000e0 07 d9 75 3b 74 50 49 3a 27 1a 29 39 48 90 41 3a
       0.0037513392 0.000767953 0.00016126838 0.00073838653
0000f0 2a 3b 31 3a 52 fd 7a 3a ed cb 33 3b 15 cb 86 3a
       0.00067608303 0.0009574491 0.0027434782 0.0010283912

keys.0.weight f4 [16, 3, 1, 1]
000000 2d d3 a8 bd ce c8 d1 bd e0 80 e3 bd 8c 41 93 3d
       -0.082434036 -0.102433786 -0.11108565 0.071902364
000010 1d 4f f9 3d 41 aa f1 3d d8 42 c5 3a 9e fd d9 bc
       0.12173293 0.118000515 0.0015049828 -0.026610192
000020 8c 87 25 bd 7a 36 1b be e4 13 c4 bd 6a ff cf bd
       -0.04041247 -0.151575 -0.09574106 -0.10156138
000030 c2 3e 0a 3e 78 86 f6 3d 29 b5 d7 3d c9 2d f3 3d
       0.13500503 0.12037367 0.105326004 0.11873967
000040 13 3c ff 3d a3 b4 e5 3d f1 71 f0 bd ac 75 9f bd
       0.1246263 0.11216094 -0.117404826 -0.07786116
000050 3a 0c 87 bd a2 dc 52 3b 58 81 3f 3d 39 4a 99 3d
       -0.06594129 0.0032174964 0.04675421 0.0748486
000060 c2 3e 62 bd df 64 d0 bd 2f 25 ce bd dc e2 57 bd
       -0.05523563 -0.1017549 -0.10065686 -0.052706584
000070 40 b8 07 bd 52 19 9b bc 70 40 99 bd 8e a3 97 bd
       -0.0331347 -0.018932972 -0.074829936 -0.074042425
000080 8b b3 65 bd fa d1 ba 3d fa ba a9 3d 85 a9 9c 3d
       -0.05607943 0.09122081 0.08287616 0.07649521
000090 4f d6 d3 3d 49 18 3b 3d 1c d5 11 3d fc b2 ac bb
       0.103436105 0.045677457 0.035603628 -0.00527036
0000a0 79 29 2a bd 1e e6 37 bd ee 94 8b 3d 91 05 7e 3d
       -0.041543458 -0.04489719 0.068155155 0.062017027
0000b0 cd 4e 15 3d 2b f8 a9 bb 83 5c ff 3c 11 e5 93 3d
       0.036452103 -0.0051870546 0.031172043 0.07221425

values.0.weight f4 [128, 3, 1, 1]
000000 d0 b8 0e 3e c1 f5 84 bd cf 32 a7 bd 9d d0 f8 ba
       0.13937688 -0.06492186 -0.08163988 -0.001898307
000010 ad 24 00 be 99 4f ff 3d 8a 3c c6 bc 69 02 8b bd
       -0.1251399 0.12466354 -0.02419879 -0.06787569
000020 55 41 ad 3d 0c c0 b5 bd 8d 97 a0 bd 2b 36 1a 3e
       0.08459727 -0.08874521 -0.07841406 0.15059726
000030 2f 39 9e 3d 67 fb 49 bc bd d7 bf 3b 36 fa b9 3d
       0.07725751 -0.012328005 0.0058545754 0.09080927
000040 6c 5c be bb 7a f7 d4 bd a6 d0 29 3d 90 e6 fb 3d
       -0.0058093574 -0.10398765 0.04145875 0.12299836
000050 dd 1e 23 be db 39 20 3d 41 39 72 3d e9 5d d4 bd
       -0.15929742 0.039117675 0.059136633 -0.103694744
000060 23 9d e0 bd 8e b8 e7 3d d0 e2 59 bb 05 e0 89 bc
       -0.109674715 0.11314498 -0.0033246763 -0.016830454
000070 c8 7f c3 bd a9 fb da 3d c1 bb 79 bd f7 23 09 be
       -0.09545857 0.106925316 -0.06097007 -0.13392626
000080 f6 ef 47 3e 05 96 5d bd be 93 8c 3d af 9b fa 3c
       0.19525132 -0.054098148 0.06864117 0.030591814
000090 67 9a 1e 3e 80 5a 08 3e be ea 55 be 9d 6b dd 3d
       0.15488587 0.13315773 -0.20890328 0.10811541
0000a0 af c1 9c bd 85 4d 85 bd 13 28 3f be b1 f0 dd 3d
       -0.0765413 -0.06508926 -0.18667631 0.10836924
0000b0 d1 b0 a3 3d 3a 94 19 bd fd 57 64 3d bd f7 11 bc
       0.079927094 -0.037494875 0.055747975 -0.008909163
0000c0 a1 4b 1f 3d ea 0a 1f bd b8 de 6a 3b cc 74 f0 b9
       0.038890485 -0.038828768 0.0035838317 -0.00045863388
0000d0 f7 db 9b bb d4 19 2a 3d b3 33 24 be b9 50 0d be
       -0.0047564465 0.041528538 -0.16035347 -0.13800324
0000e0 11 0f a3 3e ce 56 44 bc e7 b1 22 3d b7 a2 2c bd
       0.31847432 -0.0119835865 0.039720442 -0.042147364
0000f0 df 0a 39 bd b3 28 3f bc d8 59 69 bd 3c 7b 95 3d
       -0.045176383 -0.011667418 -0.056970447 0.07298896
000100 8e 63 b7 bd c2 08 3a 3c 75 70 55 3d 50 b9 04 3e
       -0.089545354 0.011354627 0.0521092 0.12961316
000110 5a d6 2e be 84 06 fc 3d 1b ea 0f 3d ed 55 14 be
       -0.17073956 0.1230593 0.03513537 -0.14485903
000120 b6 bf 34 3e 89 ab 4f be 9a a0 22 3d d5 75 f1 bc
       0.17651257 -0.20280279 0.039703943 -0.029475132
000130 d0 11 6d 3d 3b 03 0c 3d 75 72 3b 3d 12 fb 99 bd
       0.057878315 0.03418277 0.04576345 -0.07518591
000140 cb 94 a9 3c 97 27 04 3c 94 07 6d bc e4 9c 2c 3c
       0.020700833 0.00806608 -0.014467139 0.0105354525
000150 06 ab 90 bd 43 d4 f9 3d 1e 15 72 bd ff 89 e2 b9
       -0.0706387 0.12198689 -0.05910217 -0.00043208894
000160 54 a8 ee bc 51 f3 be 3c c3 d3 b3 3d bb 75 4e 3b
       -0.029133 0.023309382 0.08780625 0.0031503278
000170 90 8f d7 bd e7 4f a9 3d ea ff 32 3d cf ec 03 bd
       -0.10525429 0.08267193 0.04370109 -0.03220826
000180 57 7e 92 3d cc 65 df 3d ef 46 bd bd 8d 95 3c bc
       0.07153004 0.10908088 -0.09242045 -0.011510265
000190 13 92 1e 3b 64 24 9c 3d dd f8 6b 3d 3b c0 19 bd
       0.0024195954 0.076241285 0.05761038 -0.03753684
0001a0 77 62 98 3c 20 b5 96 3d b0 59 90 bd 6e d8 28 bc
       0.01860164 0.073587656 -0.070483565 -0.010305507
0001b0 b4 f4 e6 3c 24 f8 93 bc 77 42 50 bc b1 8b 28 bc
       0.028192855 -0.018062659 -0.012711159 -0.010287211
0001c0 a5 d6 93 3d 2b 52 82 bd 1b ce 25 3c e7 01 b0 bc
       0.072186746 -0.063633285 0.01011994 -0.021485282
0001d0 1b a1 80 3d 7a 1a 2f 3c b4 63 8e bc 5b c9 c4 3b
       0.062807284 0.010687465 -0.017381527 0.0060054488
0001e0 f5 ff 57 3c ad 8f 09 bd c0 8d a7 3d b1 0f e4 bb
       0.0131835835 -0.033584286 0.081813335 -0.0069598784
0001f0 8c 92 95 bb d0 23 99 3d ad c5 ea bc 5d b4 02 3d
       -0.004564589 0.07477534 -0.028658712 0.03191029
000200 aa e1 88 3d 81 f8 be 3c 2c 3e 80 3d 55 31 9e bd
       0.06683667 0.023311855 0.06261858 -0.07724253
000210 26 94 92 bd 17 74 db 3d 77 9b 0b bd c7 de 3a bb
       -0.07157163 0.10715502 -0.03408381 -0.0028514133
000220 38 95 6f bd e2 5e 18 3d 3a c0 b0 3d 92 de c9 bd
       -0.058491915 0.037199862 0.08630414 -0.09856905
000230 6c ab ee bc fd 73 f0 3c 55 43 c9 bc 5b 82 7e 3c
       -0.029134475 0.029352183 -0.02456824 0.015534009
000240 e1 e8 b2 bd 8f 71 04 bc 3b ba 25 3c 0b 5a 36 3e
       -0.087358244 -0.008083715 0.010115202 0.17807786
000250 5c a0 0e be 5c 9e f1 bc e4 40 4f be 38 36 b5 3d
       -0.1392836 -0.029494457 -0.20239598 0.08848232
000260 56 ff b6 3d c8 a2 2f be b3 d1 9d 3c 78 9f 26 3e
       0.0893542 -0.1715194 0.019265031 0.1627177
000270 61 43 88 3c 32 16 bd 3d 9e b0 a8 bd 3d b7 31 bd
       0.016633691 0.09232749 -0.08236812 -0.04338764
000280 97 4e 51 bd b1 f3 20 bd 4f f6 64 bc 08 fe 66 3c
       -0.05110034 -0.039294902 -0.01397474 0.014098652
000290 44 8e 81 bc bc a3 4d 3d 35 c8 b4 3d 94 ad e8 bd
       -0.015814908 0.050204977 0.08827249 -0.113612324
0002a0 c2 3f 62 3d 2d 8a 83 bd 38 a0 22 3c f2 e0 10 3e
       0.055236585 -0.06422839 0.009925894 0.1414831
0002b0 b2 0d c3 bd f8 99 da bc 5d 1a f7 3c 32 86 7d ba
       -0.095240965 -0.026684746 0.030163938 -0.0009671181
0002c0 a4 d2 ea bc e2 6b 92 3b e5 9b 15 bc 6b 19 a2 bd
       -0.028664894 0.004468427 -0.009131406 -0.07915004
0002d0 e2 cf a3 bd 4a 9b aa 3d 3d 05 de ba 23 78 d4 3c
       -0.07998635 0.083304 -0.0016938817 0.025936192
0002e0 93 fe 63 be 88 a3 59 3e 82 be 44 3d 4f 92 00 bd
       -0.22265081 0.21253788 0.048033245 -0.03138953
0002f0 17 a3 b7 3a 20 31 48 be 00 58 3b 3e a8 cb 0a bc
       0.0014010397 -0.1954999 0.18295288 -0.008471407
000300 fb b4 5f bd 17 f5 0f 3e f0 01 d4 bd f8 e7 1b be
       -0.054615956 0.14058338 -0.10351932 -0.15225208
000310 77 aa 02 bd 11 85 45 3e 71 ed e9 bb 0a f1 8b ba
       -0.03190085 0.19289042 -0.007138901 -0.0010676694
000320 6a 7d 34 3c 0e 92 bd 3c f0 33 22 bd ef 45 85 3c
       0.011016229 0.023140933 -0.039600313 0.016268698
000330 76 e2 1a 3e 31 73 91 be 37 95 1e 3e 90 f6 51 be
       0.1512545 -0.28408197 0.15486608 -0.20504212
000340 0d d8 d6 3d 9f 20 9e 3d 09 82 61 bd f7 fe f7 3d
       0.10490427 0.07721066 -0.05505565 0.121091776
000350 98 96 92 bd b4 35 31 3e 74 8b 04 be a3 06 b4 bc
       -0.0715763 0.17305642 -0.12943822 -0.02197582
000360 2e ca 60 bc 49 30 be bd e5 ec d7 3d fd a7 04 3e
       -0.013720078 -0.092865534 0.10543231 0.12954707
000370 f4 ef 87 bd 8d 57 9e bd 80 65 bf 3c 7b d2 ed bc
       -0.06637564 -0.07731543 0.023363829 -0.029031029
000380 d8 30 b0 bd 02 ac 8e bd 4c d7 2e 3c ec 71 79 3b
       -0.08603066 -0.06966402 0.010671448 0.0038062287
000390 81 83 22 bb 29 aa 91 3a 39 28 41 3a f9 cd 84 bc
       -0.002479762 0.0011113334 0.00073683594 -0.016211497
0003a0 8f d0 3c 3d 89 5f 60 3d e1 9a c1 3d ea 68 4e bd
       0.046097334 0.05477861 0.09453369 -0.050393023
0003b0 36 7f 12 3c ad 15 b1 bb 19 ba 5f 3e f3 d8 3e be
       0.008941462 -0.0054041953 0.21848334 -0.18637447
0003c0 e2 de c0 3c f5 31 90 bd 2e a9 01 3d b5 79 29 3e
       0.023543779 -0.070407785 0.031655483 0.16550334
0003d0 a7 73 ca 3d a2 ae 84 be 01 dc 6e 3e 31 96 23 be
       0.0988534 -0.25914484 0.23326112 -0.15975262
0003e0 1b 27 b0 bd 1d f0 19 3e 2f 86 11 3d b7 7e 45 be
       -0.08601209 0.15033002 0.035528358 -0.19286619
0003f0 ba 78 28 bd fa 07 e8 3d a2 82 9a bd b4 64 5b bd
       -0.04113076 0.113296464 -0.075444475 -0.053562835

values.1.weight f4 [128]
000000 7c a6 6b 3c a5 b2 cb ba 1a 60 8d 3d fa 72 f2 3d
       0.014382955 -0.0015540911 0.069030955 0.11838336
000010 ef 94 87 3e 36 92 3a 3e e8 49 ea 38 a4 54 dd 3c
       0.26480815 0.18219838 0.000111717556 0.027017899
000020 2f 98 05 39 32 c7 2a 3e 05 e9 01 3d 53 86 2c 3e
       0.00012740561 0.1667755 0.031716365 0.16848116
000030 08 e7 79 3e 4f 7d 84 3e 36 b5 cf 3d 72 a9 f2 3d
       0.24404538 0.25876853 0.10141985 0.118487254
000040 1c be bd 3c 1a df e8 3d 74 39 25 3e 22 b9 f9 3d
       0.02316194 0.11370678 0.16135198 0.121935144
000050 75 4b aa 3e 2b 2b e1 3d 6c a9 2b 3e 00 d7 23 3c
       0.33260694 0.10994562 0.16763848 0.00999999
000060 24 8e 00 3e 5e 82 77 3e b7 62 20 3e 67 d8 87 3b
       0.12554222 0.24170825 0.15662657 0.00414567
000070 fe 50 28 3d a6 d9 15 ba 78 54 83 3c f1 fc d3 3e
       0.041092865 -0.0005716331 0.016031489 0.41403916
000080 44 da 50 3e 5d c2 8c 3e 68 3a 31 3e 26 e9 2a 3e
       0.20395762 0.27492037 0.17307436 0.16690502
000090 64 71 1b 3c ce 98 e6 3c 17 56 09 3e d2 aa 16 ba
       0.009487484 0.028149035 0.13411747 -0.00057475
0000a0 ee 58 95 3e ae 4b 53 3e 28 24 7c 3e 0c f9 e9 3c
       0.2916941 0.20634338 0.24623168 0.028561138
0000b0 20 10 fe 3c 20 41 14 3e 78 50 0d 3e 22 e6 a2 3c
       0.031013548 0.14477968 0.13800228 0.019885127
0000c0 ab 0b 88 3e 71 5d 37 3d 1a 2b 26 3d 70 ad 5b 3d
       0.26571402 0.044766847 0.04056845 0.0536322
0000d0 18 16 15 3d a9 9a bd 3e ac e0 70 3c 98 e7 ec 3d
       0.036398023 0.3703206 0.014702003 0.115676105
0000e0 e1 86 49 3d aa e2 3b 3b 33 21 04 3b 98 e9 9f 3e
       0.049200896 0.0028669038 0.002016139 0.31232905
0000f0 19 c5 02 39 e8 fe 3a 3c a5 a3 ad 3d 9d b1 70 3d
       0.0001247119 0.011413313 0.08478478 0.058763135
000100 8e 56 9d 3a 4b b1 dd 3c 11 fe bb b9 03 eb 22 3c
       0.0012003945 0.027062079 -0.00035856714 0.0099437265
000110 5d 6d 46 3e f6 68 b4 3c c4 5c 5b 3e 57 fd 24 3b
       0.19377656 0.022022706 0.21422106 0.0025175416
000120 a4 5d 02 3a 4c a4 22 3c d4 89 de 3e be ac 5f 3e
       0.000497306 0.009926867 0.4346453 0.2184324
000130 65 64 a1 38 67 9a 95 3e 84 fa 84 3e a2 60 0e 3e
       7.695778e-05 0.29219362 0.25972378 0.1390405
000140 31 b1 e4 3d 59 94 41 3e 48 86 00 3e fe f6 12 3d
       0.11166609 0.18904246 0.12551224 0.03588008
000150 40 9f 0c ba 11 97 ec 3a 90 bc ab 3d 9f 09 56 3e
       -0.0005364306 0.0018050392 0.08385575 0.20902108
000160 7e 5f 5f 3d 97 f3 8e 3b 60 0a 98 3d c7 06 df 3d
       0.054534428 0.0043625343 0.07423854 0.108899646
000170 9e 32 4b 3d c6 39 56 3e de 52 c3 3d 93 3b 80 3d
       0.04960882 0.20920476 0.0953729 0.06261363
000180 1c d6 4d 3e 60 24 f4 3d a5 89 d4 3d b4 93 d8 3d
       0.20101207 0.119210005 0.10377816 0.10575047
000190 b8 5b 65 3d 79 18 54 3e 4f a0 e3 3d 22 8f 7a 3e
       0.055995673 0.2071246 0.11114561 0.24468663
0001a0 74 42 1e 3b 27 b9 60 3e 9d 9c 10 3e 49 b0 d2 3a
       0.0024148496 0.2194563 0.14122243 0.0016074266
0001b0 5f 93 a6 3e 8c 3a 82 3c cc 9c 3d 3d 74 a9 62 3e
       0.3253431 0.015897058 0.04629211 0.22134954
0001c0 62 2e 39 3e 02 3b 1a 3d c6 f2 79 3d ae 40 31 3c
       0.180841 0.03765393 0.061022542 0.0108186435
0001d0 c4 73 75 b3 fa 18 7e 3d 10 65 ac 3d a8 c8 40 3b
       -5.7148796e-08 0.06203554 0.08417714 0.0029416475
0001e0 4d 3a 1e 3e c9 ab ce 3a 66 be 41 3d 5e 7b 94 3c
       0.15451927 0.0015767749 0.04730072 0.018125232
0001f0 10 e0 7f 3d 25 27 e6 3d 20 2f 09 3b 41 75 8e 3e
       0.062469542 0.11237935 0.002093263 0.27823833

values.1.bias f4 [128]
000000 9d 15 1b 3e 4e 4a 95 3c 1c 47 e1 bd 9b fd 85 bd
       0.15144964 0.018223908 -0.10999891 -0.06542512
000010 5b ca 1d be 8d 21 8c bd 72 bb 21 bd eb c5 2e 3d
       -0.15409224 -0.06842337 -0.039485402 0.042669218
000020 63 00 f0 bb 69 ca 96 bd 8d 80 ab bd 25 e6 8e 3d
       -0.007324265 -0.073628254 -0.083741285 0.0697749
000030 fd 62 d1 bd 25 87 e0 3d c6 e9 30 3d 7a b5 0c be
       -0.10223959 0.10963277 0.043191694 -0.13741103
000040 7f 83 9d 3c 9a 3e 99 3d c3 45 09 be 3e c7 84 bd
       0.019227741 0.074826434 -0.13405518 -0.06483315
000050 a8 c3 ff bd 6d e0 b5 3d 16 5c aa 3d ea 73 7e be
       -0.1248849 0.088806964 0.08318345 -0.24848905
000060 7b 43 e3 bd 44 86 97 3d e5 e5 11 3e 67 45 46 bc
       -0.11096855 0.07398656 0.14247854 -0.012101508
000070 cf d3 e9 3c 50 8d 43 3a 50 9c 00 3e 17 16 cd bd
       0.028543381 0.0007459717 0.12559628 -0.10013979
000080 c3 d0 b1 bd ba dd 66 3d 04 cd cc bd f3 42 17 3e
       -0.08682396 0.0563638 -0.10000041 0.14771633
000090 0b 18 ed bb 39 95 ff bc 16 56 b7 bd 8b 2f fb 39
       -0.007235532 -0.031199085 -0.089519665 0.00047909873
0000a0 c8 f0 91 3d 3f d5 fd bd de 85 c2 3d 55 e9 0a bc
       0.071260035 -0.12394189 0.094981894 -0.008478482
0000b0 54 ab d6 bc be 3d 23 be 5a 88 a6 3d 70 cb 17 bd
       -0.026204742 -0.15941522 0.08131476 -0.037059247
0000c0 97 88 84 3e 0b 20 d1 bc fe cf cf 3d 0d 3f 80 3e
       0.2588546 -0.025527975 0.10147093 0.25048104
0000d0 67 e4 83 bd d6 ec 83 bd 6f 49 9b 3b d1 fe bb 3d
       -0.06440049 -0.06441657 0.0047389786 0.09179462
0000e0 f0 a2 eb 3c 20 37 41 bc 8b 6d ac 3a 3e 1d b0 bd
       0.028764218 -0.011792928 0.0013155205 -0.085993275
0000f0 18 0f 4b bb fd 5c 20 bd ba b8 a8 3c e7 ae 6d 3d
       -0.0030984338 -0.03915118 0.020595897 0.058028128
000100 41 2a 73 3c eb 2e c6 bd bd 9e 3b ba 28 67 0b 3c
       0.014841617 -0.09676918 -0.0007157138 0.008508481
000110 84 75 a1 bd 96 b2 28 3d 54 ec d7 3d 62 eb bd bc
       -0.078837425 0.041185938 0.10543123 -0.023183528
000120 02 5c 81 39 75 52 ff 3c 24 79 8a bd 36 97 94 bd
       0.00024673349 0.031167248 -0.06761387 -0.07255404
000130 4f 48 d7 39 0f 9c b7 3d 31 7e f1 bd 7e 41 a5 bd
       0.0004106187 0.08965313 -0.11791647 -0.08069132
000140 46 99 ab 3d 4c 69 ba 3d 4c a7 ad 3d ff d7 20 3e
       0.08378844 0.09102115 0.08479175 0.15707396
000150 29 6d 98 bc cd fb aa 3c 33 2a 63 be 58 6c 90 3d
       -0.01860674 0.020872021 -0.22184066 0.07051915
000160 b3 ac 03 3d 0b b4 86 ba d5 69 f2 3d 94 44 c9 bd
       0.03214712 -0.0010277046 0.11836592 -0.09827533
000170 ed 6d ae 3d 6d d4 b4 3d 35 39 52 3d f9 7f 89 bd
       0.085170604 0.088295795 0.051324088 -0.06713862
000180 cf 20 b1 bd 08 5d 30 3d ed 5b 55 3d fa be c6 3d
       -0.08648836 0.04305747 0.05208962 0.09704395
000190 b9 3f 49 bd 4a c0 e6 bd 09 be 5c 3d b5 6c ca bd
       -0.049133036 -0.11267145 0.05389217 -0.098840155
0001a0 78 e8 48 3b 17 cd a5 bd 83 fb b5 bd 08 74 b0 ba
       0.003065614 -0.080957584 -0.08885863 -0.0013462314
0001b0 1a 2f 8c 3d 5d e6 17 3c 7a 8f 68 bd 15 f5 fd bd
       0.068449214 0.0092712315 -0.056777455 -0.12400261
0001c0 60 75 d3 bd 19 ae 8c bd 5e 2c c8 3d 25 a6 8f bd
       -0.10325122 -0.06869144 0.09774087 -0.070141114
0001d0 12 93 83 39 e7 16 ca bd 28 a8 89 3d bb 1f 84 3c
       0.00025095843 -0.098676495 0.067215264 0.016128412
0001e0 09 68 a8 3d c2 64 69 3a 76 93 2a bd 03 56 0a bd
       0.08222968 0.0008903259 -0.041644536 -0.033773433
0001f0 d2 ae 81 bc 64 12 2f bd 3c 5e 83 ba d1 55 fe 3d
       -0.015830431 -0.042742148 -0.0010022591 0.12418712

values.1.running_mean f4 [128]
000000 0f 1c 6a 3a fa dc a9 bb 48 4c c7 bb 2d 9d 59 bc
       0.00089305727 -0.005183813 -0.0060820915 -0.0132821025
000010 92 51 04 3d 27 47 72 bb 65 57 04 3c 51 61 b1 3a
       0.032304354 -0.003696868 0.008077477 0.0013533031
000020 f0 e5 7c ba 49 c2 bf bb 44 c4 e1 bb d5 9f 96 3c
       -0.00096473005 -0.005852018 -0.0068898518 0.01838676
000030 2d 30 33 3d 12 38 42 bc aa d2 8f bb 1a d6 80 3b
       0.043747116 -0.0118541885 -0.004389127 0.003931773
000040 17 05 f6 3a ce ed 7a 3c d7 15 53 bb 2d b3 b1 bb
       0.0018769827 0.015315486 -0.0032209062 -0.0054229707
000050 45 7a 48 bd 0c 74 f9 ba 4d ff 30 3c ee d4 46 3c
       -0.04894473 -0.0019031777 0.010803056 0.012135727
000060 c9 54 dc 3b d6 94 d5 3c 94 41 87 bb e9 b2 d8 3a
       0.0067239744 0.026071947 -0.0041276906 0.0016532812
000070 b2 18 26 bb a7 b8 6a bb 23 81 02 bb a4 6a 32 3d
       -0.002534431 -0.0035815628 -0.0019913397 0.04355873
000080 7d d7 2e 3d 9f e5 de 3c 00 32 91 3c e9 82 0e bb
       0.042685974 0.027209101 0.017724037 -0.002174551
000090 42 a2 ca b9 84 96 71 3a 46 01 af 3c 73 ac d8 b9
       -0.00038649334 0.0009215849 0.021362912 -0.00041327215
0000a0 c0 7d cb 3c 9f 48 d3 3c af 68 e9 3c 74 e6 e7 3b
       0.024840236 0.025791464 0.0284923 0.0070770327
0000b0 48 03 52 3a 2d 0e 3c bc b5 97 8a bc 45 c8 11 3c
       0.0008011353 -0.011477989 -0.016918043 0.008897846
0000c0 47 8c 20 bd 85 7b ea 3b 00 35 84 bc 92 fb 30 bb
       -0.03919628 0.007155838 -0.016138554 -0.0027005416
0000d0 34 6a 71 3c 86 bc 6e bd 9f b8 e6 bb 80 75 78 3c
       0.014734793 -0.05828526 -0.0070410515 0.015164733
0000e0 18 e7 35 3a ce 6e 34 3c 13 98 c8 3a ea 11 0d bd
       0.00069390377 0.011012746 0.0015304111 -0.034440912
0000f0 ce de b0 b8 f3 81 a9 39 36 ef 0e 3c d1 02 39 bc
       -8.4338346e-05 0.00032331012 0.0087240245 -0.011292175
000100 42 8c 9f bb a4 93 83 bb 14 09 43 3a 21 6a ab b9
       -0.004869015 -0.004015403 0.00074400124 -0.00032694734
000110 e7 6f de 3b 48 88 75 bc 29 ea b5 ba 7a 4b 46 3c
       0.006788242 -0.014986105 -0.0013878989 0.012102956
000120 ed e6 88 bb 95 0e 1a bb 6a 58 19 bd 10 84 d1 bc
       -0.004177919 -0.0023507227 -0.037437834 -0.025575668
000130 17 1f a9 b9 57 ca 10 3d 3c 51 c8 3c df e7 94 3c
       -0.00032257356 0.035349216 0.024452798 0.018176971
000140 36 7f f5 bb ba 13 4d 3c 75 82 c5 b9 cd 58 9b 3b
       -0.0074919714 0.01251691 -0.00037671966 0.0047408105
000150 5f ed 20 3a 5a 5a 6b bc c2 c8 9d 3c 4e 06 da 3c
       0.00061388867 -0.014364803 0.019260768 0.026614334
000160 fd 88 13 ba d6 e2 ac bb de da af bc d8 eb 8f 3a
       -0.0005628018 -0.0052760644 -0.021466669 0.0010980321
000170 8b 04 17 3c 41 56 48 3b 32 36 14 3b c9 fe 82 bb
       0.009217392 0.003056899 0.002261531 -0.003997658
000180 61 de 37 bc 98 7b a5 ba 1c a0 57 3c 7e f3 46 bc
       -0.011222453 -0.0012625335 0.013160732 -0.012143014
000190 a1 03 dd 3a 34 c6 12 3d e5 97 7c bb 24 9e 83 bc
       0.0016862043 0.035833552 -0.0038542685 -0.016066618
0001a0 7c 3c 41 3b 95 62 82 bb 85 6d 09 3c 77 8c ea 3a
       0.0029485514 -0.003979037 0.008387928 0.0017894645
0001b0 25 84 1b 3d 57 88 15 bc 94 42 6b ba 47 ce ec 3c
       0.03796782 -0.009126744 -0.00089744595 0.028906954
0001c0 bc 27 d2 3c 83 8d 36 3b 36 17 7d ba 65 ed 78 3c
       0.025653712 0.0027855344 -0.0009654643 0.015193318
0001d0 a3 d6 99 34 96 e1 47 ba 61 af 05 bb ec e5 53 bb
       2.865464e-07 -0.00076248625 -0.0020398723 -0.003233309
0001e0 d4 c0 e6 bc 32 a2 ba 3a 67 c8 6c bc 8a 3e 1d 3c
       -0.02816812 0.0014239012 -0.0144520765 0.00959743
0001f0 82 1a da 3a 6e e1 31 ba 3b a3 c9 bb 1f 8c 0b bd
       0.001663998 -0.0006785606 -0.006153492 -0.034069177

values.1.running_var f4 [128]
000000 a1 fb 2a 3a 37 34 05 3a 7e f3 75 39 e7 c6 58 3a
       0.0006522481 0.0005081328 0.00023455729 0.0008269385
000010 3e d4 04 3a 76 37 fc 39 49 f4 50 3a c7 df ab 39
       0.0005067027 0.00048106507 0.00079709716 0.0003278239
000020 4b f2 c1 39 5d 29 bf 39 38 8e 98 3a 07 55 a4 39
       0.0003699235 0.00036461177 0.0011639064 0.00031343868
000030 05 87 1b 3b d9 b4 0b 3a 8d e4 88 3a 36 13 91 38
       0.00237316 0.00053293776 0.001044409 6.917717e-05
000040 e8 d0 3c 38 76 0b 1a 39 b3 f7 53 3b 38 72 90 38
       4.5017252e-05 0.00014690854 0.0032343685 6.88773e-05
000050 ff 19 90 3a 10 d3 47 39 19 f0 74 3a 97 36 6c 3a
       0.0010994076 0.00019056746 0.00093436387 0.000901082
000060 c7 be 86 3a 11 6c d3 39 8c 2d ee 38 5e b2 d7 36
       0.0010280245 0.00040325572 0.00011357208 6.428264e-06
000070 dc 2b 9e 39 15 f5 d4 37 3e 46 f4 39 e2 db 6c 3a
       0.00030168786 2.5386495e-05 0.0004659164 0.00090354506
000080 b8 e9 91 3a 53 cd fd 39 be 53 4c 39 8d c0 34 39
       0.0011132276 0.000484089 0.00019486152 0.00017237868
000090 ca 96 d7 37 da 92 13 39 f9 0c 9b 39 dd 90 cb 36
       2.5700214e-05 0.00014073719 0.0002957357 6.0667358e-06
0000a0 d3 b9 e3 39 cb 04 e6 39 0e e2 09 3a fe 02 57 39
       0.00043435264 0.0004387259 0.000525982 0.00020505112
0000b0 9b ee 72 39 89 93 f4 38 80 cd ea 39 05 12 66 38
       0.00023167806 0.00011662307 0.00044785067 5.4853055e-05
0000c0 34 8c 3f 3a 59 49 67 3a 77 2e 9f 3a 4e 3e b0 3a
       0.00073069637 0.00088228803 0.0012144585 0.0013446303
0000d0 c7 75 a9 39 a1 5c c5 3a a5 33 fe 37 54 52 05 3a
       0.00032321943 0.0015057513 3.0303208e-05 0.0005085815
0000e0 4e 79 d4 38 8d 11 10 3a 94 2d 30 38 1e f4 32 3a
       0.000101315425 0.00054957793 4.2004118e-05 0.00068265374
0000f0 fb 82 52 39 74 64 c1 3a 34 e1 a4 38 2b 87 90 3a
       0.00020075955 0.0014754669 7.862077e-05 0.0011026611
000100 03 e5 f6 39 bf 25 c0 3a dc be 9f 36 6d 03 00 38
       0.00047091403 0.0014659687 4.760788e-06 3.052077e-05
000110 d8 53 d9 3a a5 66 9d 3a 4c cd 9b 39 f0 79 57 3a
       0.0016580774 0.001200874 0.00029716862 0.0008219769
000120 75 5c b6 39 dc c7 1a 3a cd 29 5f 3a 15 12 b0 39
       0.0003478263 0.0005904415 0.00085130037 0.00033582808
000130 aa d0 47 34 61 3f 2f 3a 67 2d d3 39 3d 14 b0 3a
       1.8609231e-07 0.00066851644 0.00040278884 0.0013433766
000140 59 af da 38 f4 68 1b 3b 54 26 d8 3a d3 75 be 3a
       0.00010427711 0.002371368 0.0016490915 0.0014530964
000150 03 d8 8c 39 2a 48 48 3a 70 86 42 39 9f b4 ac 39
       0.00026863822 0.0007640148 0.00018551364 0.0003294097
000160 bc 23 02 39 fd 00 1f 38 7c 8f 54 39 8b 29 fb 3a
       0.00012411078 3.7909474e-05 0.00020271348 0.0019162161
000170 36 2f 4e 38 2f 0b 8f 3a b6 a2 23 39 cf e7 67 38
       4.9158196e-05 0.0010913367 0.00015605506 5.529058e-05
000180 ae 09 6f 3a d3 bb 0a 39 3c 67 04 39 f7 0c 39 39
       0.0009118569 0.00013230676 0.00012626959 0.00017647805
000190 48 fe a5 38 8f 82 17 3a b7 db ca 3a 2c 14 92 39
       7.915177e-05 0.00057796476 0.0015476857 0.0002786232
0001a0 ce ec 93 37 8b 28 19 3a 36 da ec 39 8c d8 44 39
       1.7634036e-05 0.0005842528 0.00045176008 0.00018772687
0001b0 3c 62 37 3a 62 d3 07 3a 14 5c 4a 3a b8 89 f9 39
       0.0006995534 0.000518134 0.0007719409 0.0004759559
0001c0 58 44 b0 39 91 50 3a 38 43 9e 77 39 9c fe 59 3a
       0.00033620256 4.442089e-05 0.00023614713 0.0008315833
0001d0 2f 97 8a 2a 18 e3 c0 3a 57 fc 6a 3a 33 d9 fd 39
       2.461863e-13 0.0014716117 0.0008963993 0.00048417746
0001e0 59 45 40 3a 75 ed f4 35 6e c4 0f 39 a1 dc 2c 38
       0.00073345524 1.8248526e-06 0.00013710718 4.1213472e-05
0001f0 ee 54 52 39 b5 64 aa 39 5e f5 7c 38 f9 32 18 3a
       0.000200588 0.0003249996 6.0309998e-05 0.00058059354

conv.0.weight f4 [256, 512, 1, 1]
000000 b2 35 10 39 d9 53 26 b8 a4 21 10 3a 15 61 b4 3a
       0.00013752913 -3.9655573e-05 0.0005498177 0.0013761843
000010 5d 04 c1 bb a1 1f d4 ba 58 eb 0c 38 1a e2 b5 35
       -0.0058904127 -0.0016183743 3.3597782e-05 1.3551355e-06
000020 c8 6d bf b7 26 5f 16 3b 6f 6b c7 38 da 30 07 ba
       -2.2820095e-05 0.0022944896 9.5090705e-05 -0.0005157121
000030 4d 14 b4 bb 8c f5 76 ba 32 c0 ba 38 80 79 c4 b9
       -0.005495584 -0.00094207446 8.90497e-05 -0.00037474558
000040 19 3a 50 39 9d 9c 00 ba c3 97 b5 3a f1 19 81 39
       0.00019858069 -0.00049061497 0.0013854433 0.00024624125
000050 1e eb 8d 3b 4a 8d a8 39 e9 2b 14 bb ed 22 b2 b7
       0.0043310067 0.00032148726 -0.002260918 -2.1235517e-05
000060 54 73 fb 36 3f d0 b1 ba 38 b2 44 3a f6 b9 7e 37
       7.493809e-06 -0.001356609 0.00075033633 1.5182877e-05
000070 fd 50 83 b9 68 b5 7f 37 3e a5 0f 39 5d 3f 26 bc
       -0.00025046608 1.5241421e-05 0.000136991 -0.010146943
000080 fd 48 a4 bb 4f a5 47 ba c2 2b 58 bb da ca 9c b9
       -0.0050135837 -0.00076158805 -0.0032985066 -0.00029905775
000090 ca 03 5e 38 7b be a5 38 5b 3f 2e ba d6 ee b3 b3
       5.2932453e-05 7.903293e-05 -0.0006647014 -8.378781e-08
0000a0 95 2f ca ba ed c5 0b ba de 06 1b ba 00 9d 95 b9
       -0.0015425558 -0.00053319224 -0.0005913804 -0.0002853647
0000b0 f6 49 62 b9 83 85 4f 3b bf 9a 44 39 a0 2a 30 b9
       -0.00021580592 0.0031665273 0.00018749664 -0.00016800547
0000c0 42 1a ce 3b 10 3c 57 3a 88 20 53 38 1d f3 9b b9
       0.0062897513 0.0008210549 5.0336617e-05 -0.00029745037
0000d0 94 fe 27 ba e6 36 b1 3b c4 74 26 39 38 5f 01 bb
       -0.00064084795 0.0054081557 0.00015874492 -0.0019740593
0000e0 ed 89 15 3a ed 58 b0 38 ff e3 a9 38 83 88 cd 3a
       0.00057044515 8.408898e-05 8.1010156e-05 0.0015680942
0000f0 e9 52 a3 b7 df 0a a9 b8 79 03 ba ba fb 11 da b9
       -1.9469722e-05 -8.060573e-05 -0.0014191709 -0.00041593597
000100 f5 a0 d8 b8 5d 34 5d b9 df 64 48 37 75 9b 93 38
       -0.00010329663 -0.00021095709 1.1944415e-05 7.038462e-05
000110 9e 56 33 3a d0 ba 81 b9 ec 49 2c ba bc a5 e6 38
       0.0006841215 -0.00024743984 -0.00065722945 0.00010998125
000120 01 bd 64 38 07 d2 4b 39 d0 9f d8 3a ed f9 a7 3b
       5.453546e-05 0.0001943783 0.001652712 0.005126229
000130 dc 71 27 b6 c3 2b fa ba ca d0 ba bb 04 87 05 bb
       -2.4951214e-06 -0.0019086528 -0.005701159 -0.0020374665
000140 0a 2e d3 3a 82 a1 06 bb c9 0a 30 39 6c 1b 8b 39
       0.0016111743 -0.0020543044 0.00016788686 0.00026532577
000150 f3 6e 46 39 4c d2 9e b7 c8 30 d4 ba db 76 a0 bb
       0.00018924083 -1.8932995e-05 -0.0016188854 -0.004896981
000160 6b ff da b9 82 0a 1e b8 e4 97 d5 3a 33 2a 43 ba
       -0.000417705 -3.767992e-05 0.0016295877 -0.0007444948
000170 ce 26 46 ba 94 15 ac 3a 9b 9d c5 39 28 7f b0 39
       -0.0007558883 0.0013128989 0.00037692193 0.00033664075
000180 95 3b 41 3b 07 ea 02 3a 93 9a db ba bc 86 02 3b
       0.0029484977 0.0004993979 -0.0016754441 0.0019916734
000190 ff c2 94 b9 fa 66 5e bb 06 9e 5d 3a 8a 74 a7 3b
       -0.00028374043 -0.003393589 0.0008454028 0.005110328
0001a0 f1 91 fd 37 ed 39 12 ba e2 e9 44 3a a9 49 35 b8
       3.022791e-05 -0.00055780896 0.0007511658 -4.3222364e-05
0001b0 97 9f 87 bb c6 95 97 38 77 81 9a b9 b0 c8 95 ba
       -0.0041388976 7.2281386e-05 -0.00029469628 -0.0011427607
0001c0 33 c5 89 bb e9 be 5b b9 d8 bf d0 b9 31 64 45 39
       -0.004204416 -0.00020956587 -0.00039815786 0.00018824708
0001d0 4c 99 cc b6 67 60 87 37 c1 a5 14 3a 67 23 d4 b8
       -6.09752e-06 1.6138145e-05 0.0005670451 -0.00010115542
0001e0 f1 f0 68 3b fb 92 e8 b5 c0 85 96 3a 12 06 3b b9
       0.0035544003 -1.7328124e-06 0.0011483952 -0.00017835971
0001f0 e2 4f ef 39 9d 82 ed b9 f0 28 17 b8 fa 2a d7 3b
       0.0004564515 -0.00045301477 -3.603933e-05 0.0065664025
000200 6f 98 f4 39 0e 16 e4 b6 0e 3d 5e 3b 43 4c 05 3c
       0.00046652879 -6.797497e-06 0.0033910903 0.008135858
000210 83 84 e0 bb c7 f3 27 bb 51 d7 5e b9 70 6b 07 bb
       -0.006851734 -0.002562748 -0.00021251781 -0.0020663403
000220 e4 e1 8d 37 38 08 1a 3c 30 2b 07 3b 2c 69 ae ba
       1.6913698e-05 0.009401374 0.0020625107 -0.001330649
000230 04 49 1c bc f4 2e 66 bb d6 30 ff 3a 3d 4e fb ba
       -0.009538893 -0.00351232 0.001946951 -0.0019173097
000240 02 79 a1 b9 b9 bf 26 37 81 77 f1 3b b5 e8 14 bb
       -0.0003079847 9.93901e-06 0.0073689823 -0.0022721712
000250 43 82 98 3b 25 44 99 39 de 86 28 bc f0 9e e4 ba
       0.0046542003 0.00029233206 -0.010286061 -0.0017442387
000260 1b 9d 15 ba 97 a0 4b bb 2d 1a 57 3b be c3 0d 36
       -0.00057073095 -0.003107106 0.0032821998 2.1124574e-06
000270 e4 7a 6c ba 4c ad de 37 7b 10 8b b6 a2 da 42 bc
       -0.00090209977 2.654516e-05 -4.1444414e-06 -0.011892946
000280 fc 92 16 bc 70 33 ad ba d1 f2 56 bb f6 3d a1 ba
       -0.009190317 -0.0013214182 -0.0032798538 -0.0012301791
000290 9a b0 67 b9 f3 29 a9 ba 65 55 82 3a 9a 51 da 36
       -0.00022095666 -0.0012906179 0.0009943662 6.506406e-06
0002a0 46 e1 01 ba 05 72 a7 3a 67 f0 11 bb cd f4 05 bb
       -0.0004954528 0.0012775069 -0.0022268535 -0.0020440102
0002b0 10 45 00 ba 6a de 84 3b 0f 4c ee b9 9e 0f c6 b9
       -0.00048931036 0.004054834 -0.00045451566 -0.0003777714
0002c0 36 be f6 3b 6a ea 91 ba c8 96 e8 3a e9 3b fe 3a
       0.007529999 -0.0011132483 0.0017745132 0.0019396517
0002d0 4c ee 1e bb 5b 94 d0 3b ec 68 d7 36 47 cb d2 bb
       -0.0024250923 0.0063653416 6.419714e-06 -0.006432924
0002e0 ab bf 91 b9 78 92 0c b9 33 db b5 b8 a9 31 3f 3b
       -0.0002779936 -0.00013406004 -8.6715816e-05 0.0029173887
0002f0 e0 fc 8f 37 b8 2f 0e 3a a3 e4 08 bb 79 3a 93 3a
       1.7164683e-05 0.0005423981 -0.0020888231 0.0011232636
000300 6c 70 78 b8 8a 05 84 3a 14 96 9f b7 05 e0 8f 39
       -5.923251e-05 0.0010072452 -1.9024163e-05 0.00027441993
000310 a1 c8 9d 3b 00 38 8b 3a a6 57 d2 bb 16 42 38 b9
       0.0048151766 0.0010621548 -0.00641914 -0.00017572226
000320 20 ad 97 37 3f 01 08 ba 20 37 9a 3b 0d b2 a4 3b
       1.808122e-05 -0.0005188174 0.0047062784 0.005026108
000330 ad b5 c6 b5 80 9c 73 bb 34 ac be bb 03 ce e1 bb
       -1.4805024e-06 -0.0037172139 -0.005818868 -0.0068910136
000340 76 27 8f 3b dc 18 2f bc d4 85 56 bb 8d b0 2d ba
       0.004368718 -0.010687079 -0.0032733576 -0.00066257344
000350 da 65 a6 b8 1c 7d 56 39 cf 10 33 bb f1 8c c4 bb
       -7.934468e-05 0.00020455237 -0.002732325 -0.005998247
000360 f8 f9 85 ba 1f 1d b3 39 12 a8 35 3b 6f 8f dd 3a
       -0.0010221591 0.00034163237 0.0027718586 0.0016903708
000370 6e a7 88 ba a6 90 a6 3b 3f 0b 9a 39 f5 d2 ea b9
       -0.0010425874 0.0050831614 0.00029381548 -0.00044789133
000380 66 87 31 3c 00 f4 9f 3a 02 89 bc ba 87 aa a4 3b
       0.010835504 0.0012203455 -0.0014384093 0.0050252113
000390 38 de 2a ba 3f c7 ad bb 82 a8 88 3b 0c 18 08 3c
       -0.00065180985 -0.005303293 0.0041704783 0.0083065145
0003a0 ed bf 66 38 9a c9 71 bb 53 db 88 3b 9b bf bf 38
       5.5015018e-05 -0.0036893846 0.004176536 9.143279e-05
0003b0 fa 2c 6c bb 58 1a a5 3a 08 3f 9f 3a 29 e2 aa ba
       -0.003603755 0.0012596352 0.0012149522 -0.0013037372
0003c0 62 9f b2 bb ed d4 84 ba 51 36 90 ba b3 f8 56 ba
       -0.005451129 -0.0010134258 -0.0011002516 -0.0008200511
0003d0 7f 1a a3 36 8b 23 3c 3b e1 5a ca b9 48 8e eb 38
       4.860863e-06 0.0028707709 -0.00038596152 0.00011232175
0003e0 16 f4 f9 3b 25 55 fc 34 f9 2f 1f 3b 51 cf 10 ba
       0.0076279743 4.7000609e-07 0.0024290069 -0.00055240566
0003f0 95 f2 ab ba 99 1b a7 ba c4 90 45 39 ec 9a fc 3b
       -0.001311856 -0.0012749314 0.00018841313 0.007708898
