code/models weights/Lambda_gaussian_0.1_25_LayerOuputs256.pth (torch, 186296 bytes, 28 tensors)

embedding f4 [16, 1, 1, 23, 23]
000000 d1 93 ad bb 72 a1 2b bb d5 42 d3 b9 1a 5e 7a bb
       -0.005297162 -0.0026188758 -0.0004029485 -0.0038203062
000010 dd 59 8c bb ac 17 27 bb 61 be dc bb db 8b 06 bb
       -0.0042831735 -0.0025496287 -0.006736562 -0.0020530138
000020 f6 b2 19 bb c0 29 0d bc 5f b6 2a bc 63 74 18 bc
       -0.0023452616 -0.008615911 -0.010419457 -0.0093050925
000030 3f e2 c9 bb 63 3e ba bb bb 11 30 bc 4b 87 b2 bb
       -0.006161004 -0.0056837066 -0.010746415 -0.005448257
000040 8e f7 d0 bb 7e a9 86 ba 4f ad 84 bb 46 6b 36 bb
       -0.006377167 -0.0010273901 -0.0040489803 -0.0027834936
000050 da da 13 bb e1 da d5 bb 1b 2e 5b bb 80 f8 5e bb
       -0.0022560866 -0.0065263365 -0.003344423 -0.003402263
000060 04 d4 0a bb 2e bd 10 bb 0d 07 70 bb a7 da 2c ba
       -0.00211835 -0.0022085416 -0.0036625296 -0.0006593861
000070 64 60 24 bb 03 37 07 bb 39 69 91 3b b7 44 0c 3b
       -0.0025081867 -0.0020632155 0.0044375923 0.0021403262
000080 80 11 2b bb 65 34 d4 bb e3 ec 2a bc 3f 34 22 bc
       -0.002610296 -0.0064759725 -0.010432455 -0.009900152
000090 ec 43 b2 bb 97 7a ba bb 81 ef 1c bb 84 92 82 bb
       -0.005440226 -0.0056908834 -0.0023946466 -0.003984751
0000a0 69 a6 1b bb 71 b4 87 ba 3f 2f 0a 3b c9 cc 09 bb
       -0.0023750311 -0.0010353458 0.002108529 -0.0021026602
0000b0 11 d6 ff ba ea a6 30 bb 14 bb 83 bb 35 55 20 bb
       -0.0019518753 -0.0026954957 -0.004020104 -0.002446485
0000c0 84 60 0b bb f6 90 cd ba 3e 58 08 3a cc 68 bd 3b
       -0.0021267245 -0.001568346 0.00052011374 0.005780315
0000d0 00 27 99 bb 82 ec 5f 3b d4 71 e6 bb a0 fb 60 bb
       -0.0046738386 0.003416807 -0.0070326123 -0.0034329668
0000e0 b0 4d 55 bc a3 c2 9c bb 69 a0 0c bc 63 f1 a8 bb
       -0.01301901 -0.0047839447 -0.008583167 -0.0051557287
0000f0 0b de d6 3a d8 22 31 bc 30 f4 58 3b 2e 9d 3e 3b
       0.0016393078 -0.01081153 0.0033104531 0.0029085386
000100 72 f5 84 3b 80 31 64 bc a4 4b 29 bc 3e 26 d0 b9
       0.0040575797 -0.013927817 -0.010332976 -0.00039701344
000110 31 5d 0e bb d3 d0 90 bb f4 a4 ec ba c1 fa 56 bb
       -0.0021723027 -0.004419425 -0.0018054531 -0.003280327
000120 a2 c5 ab ba 62 b2 52 b9 55 da d7 ba 32 c9 8d 3b
       -0.0013105164 -0.00020093613 -0.0016468266 0.004326963
000130 d3 38 74 ba 7f 63 0b 3b db 82 d7 ba 84 12 a0 bb
       -0.0009316329 0.002126902 -0.0016442196 -0.0048850197
000140 1e b9 f6 bb cb 95 f0 bb 64 e2 06 bc 7e 8c 18 bb
       -0.007529392 -0.0073420755 -0.008232687 -0.00232771
000150 60 eb 9e 3b b6 e3 9c 3b ab 24 73 3b 81 44 3c bb
       0.004849836 0.0047878874 0.0037100713 -0.0028727355
000160 b7 39 4c bb f3 ba e3 ba 8d 68 26 3b 80 2f 9e bb
       -0.003116233 -0.0017374441 0.0025391907 -0.00482744
000170 07 50 56 bb 2d 36 a6 bb dc 1a dc ba 53 49 b9 ba
       -0.0032701509 -0.005072376 -0.0016792673 -0.0014136232
000180 9b 5b bb 3b 20 19 24 3b 01 ec 1c 3b 10 85 41 bb
       0.0057177073 0.002503939 0.002394438 -0.0029528774
000190 ff d3 45 3b 5c f3 8a bb 4a 32 41 bc dd 34 77 bc
       0.0030186174 -0.0042404365 -0.011791775 -0.015088287
0001a0 fd c5 2b bc 04 ee 71 bc b3 0f 20 3b fa 0b 95 ba
       -0.010484216 -0.01476622 0.002442342 -0.0011371367
0001b0 10 73 89 bb a4 60 a5 39 7b a2 49 bb 5d 7b f4 bb
       -0.0041946247 0.00031543255 -0.0030767012 -0.007460995
0001c0 8d 8b 7e bc bf bd 01 bc 62 ef b7 bb 00 45 46 bb
       -0.015536201 -0.007918774 -0.0056132535 -0.003025353
0001d0 44 ac 1e ba 4a 30 fb b9 70 a6 80 b9 7f b5 19 bb
       -0.0006052891 -0.0004791043 -0.00024538068 -0.0023454127
0001e0 bf 3d c6 3a 36 68 35 bc 2e ec 37 bb c8 c2 1a 3a
       0.0015124603 -0.011072209 -0.0028064358 0.00059036585
0001f0 0b 19 17 bd 25 50 2e bc 8c 17 12 bd 56 1b b0 bc
       -0.036889117 -0.010639225 -0.035666987 -0.02149741
000200 cf 5c 2c bc 3b 00 3e 3b e9 d3 1b 3a 74 9b b8 bb
       -0.010520174 0.0028991837 0.0005944358 -0.005633766
000210 ec 2f 34 3b 91 46 9d bb b9 4f e6 39 9f 48 7f b9
       0.0027494384 -0.004799672 0.00043928417 -0.00024345749
000220 98 79 27 3b 21 4c 86 bb 29 a0 42 bb 46 99 0d ba
       0.0025554653 -0.0040984307 -0.0029697514 -0.00054015627
000230 99 4a 49 3a f9 f4 14 39 d6 1d 3f bc bf 81 9a 3b
       0.00076786574 0.0001420564 -0.011664828 0.004715174
000240 ed af b6 b9 3d 62 01 b9 9b 46 50 bc f4 9b 4b bc
       -0.0003484482 -0.00012338995 -0.012712146 -0.012427319
000250 37 30 8a bc d9 be b9 bc 8e 3a 9f bc a6 76 3b bc
       -0.016868694 -0.022674011 -0.0194371 -0.011441862
000260 d4 67 ba 3a fa 10 eb bb 18 90 28 3c 5b f0 16 3b
       0.0014221617 -0.0071736546 0.010288261 0.0023031447
000270 30 b2 d3 bb be 7c c3 bb 39 0d af bb 26 f5 5f bb
       -0.0064604506 -0.005965798 -0.0053421524 -0.003417322
000280 42 6a f5 ba 78 d0 a6 b9 55 8b 8c 3a 4d 92 1e bb
       -0.0018723684 -0.0003181731 0.0010722677 -0.0024196089
000290 ce 42 01 ba 52 94 46 3b 94 d8 92 bb b8 9c e1 bb
       -0.0004930914 0.0030300808 -0.0044813845 -0.0068851374
0002a0 50 7e a1 bc f4 de 44 bb ef 79 e8 bc e7 ea b8 bc
       -0.01971355 -0.0030040117 -0.028378455 -0.022572948
0002b0 a5 c5 ef bc 47 19 cd bc 5b d4 ab bc 80 eb c5 39
       -0.029269049 -0.025036467 -0.020975282 0.0003775023
0002c0 3f 9f 84 bc 7f d8 11 3a 5f 30 91 ba 76 11 83 bb
       -0.016189216 0.00055635715 -0.0011077038 -0.0039998842
0002d0 a1 3c 65 bb d3 fb 46 ba 5e 6b 35 bb e1 53 b7 bb
       -0.0034978765 -0.00075906253 -0.0027682404 -0.005594716
0002e0 61 6e 8a 3a 73 4d 31 3b 17 83 58 39 fc 3d df 3b
       0.001056146 0.002705422 0.000206482 0.006812809
0002f0 a4 bf c8 bb 47 d9 5f bb f8 bc fb ba 6c bc 07 bb
       -0.006126361 -0.0034156607 -0.0019206097 -0.0020711673
000300 88 0b 37 3b 84 35 b7 bc 34 35 02 bd 2e ad 19 bd
       0.0027930457 -0.022364385 -0.03178902 -0.037518673
000310 58 3e 04 bd d3 a7 da bc 5f a1 32 bc b4 13 d3 bb
       -0.032286018 -0.026691353 -0.010902732 -0.006441558
000320 2f 47 40 bc 24 65 b8 3b ca 5a fe ba 8d f8 82 3c
       -0.0117357215 0.0056272913 -0.0019405719 0.015987659
000330 03 cd 24 3c b6 46 a4 39 72 c2 37 bc 23 62 6d bb
       0.010058644 0.000313332 -0.011215793 -0.0036221824
000340 2e a0 e1 ba 1e b1 aa bb e9 10 33 bb d5 15 c2 bb
       -0.0017213875 -0.0052091023 -0.0027323312 -0.0059230127
000350 9e 1f 02 bc aa 6b 5b bc 3f e8 9b bb 5d 9b eb bc
       -0.007942108 -0.013392368 -0.0047579105 -0.028760606
000360 65 61 26 bd 17 fa a0 bb 93 c5 b4 3b b7 fb 6b bc
       -0.040620226 -0.0049126255 0.0055167167 -0.014403275
000370 fa e1 1e bd 85 7d bc bc d0 9a b3 bc 82 3e 5b bc
       -0.038789727 -0.023009071 -0.021924406 -0.013381602
000380 8e 49 1b bc 36 ac e8 bb 5e 30 33 bb c8 a4 c3 bb
       -0.009477986 -0.0071006073 -0.0027342062 -0.005970571
000390 d5 72 84 ba b3 93 18 bb ba 20 cd bb 10 30 ca bb
       -0.0010105023 -0.0023281395 -0.006260005 -0.0061702803
0003a0 9b c6 d7 bb 44 01 f7 bb b8 fa 82 bc 40 6e 80 bc
       -0.006584955 -0.0075379927 -0.015988693 -0.015677571
0003b0 c7 ab 9f bc e9 59 27 bd 40 3d 13 bd a3 fd 34 bc
       -0.01949109 -0.04085723 -0.035947084 -0.0110468
0003c0 0e 34 2e bd c1 18 5d be 17 8c 1a bd 1a e2 e2 bc
       -0.042530112 -0.21591474 -0.037731256 -0.027695704
0003d0 97 85 35 bd ca df d3 bc fb 71 ee bc e3 b8 cb bb
       -0.044316854 -0.025863547 -0.029107084 -0.0062171086
0003e0 f1 de 50 bc 0f 5d 21 bc 17 0d e5 bb 93 68 f4 bb
       -0.012748466 -0.009848847 -0.006990086 -0.0074587553
0003f0 5f d3 e3 bb d8 30 4f bc 7f 10 e3 bb 1c 7d 65 bc
       -0.0069526876 -0.012645923 -0.0069294567 -0.014006879

queries.0.weight f4 [64, 3, 1, 1]
000000 01 43 b3 3d 2a 61 f1 3d 13 cd b2 bc cd 8c 5a 3c
       0.08753014 0.11786111 -0.021826303 0.013339234
000010 7f 7c 56 bd d6 a5 48 3b 65 41 90 3c 3e 74 db bc
       -0.052364822 0.0030616424 0.017609308 -0.026788827
000020 64 5b f2 bd 00 d3 00 bd fe be b7 3c e8 b2 bc bd
       -0.11833838 -0.031451225 0.02242994 -0.09213811
000030 64 95 dd 3c a5 a1 95 bb 37 df 59 3d 4d a6 80 bd
       0.027048774 -0.0045663887 0.05319139 -0.06281719
000040 40 e1 d6 bc a6 e7 9f bd a1 0b ed bb 96 d0 c4 bd
       -0.026230454 -0.07807855 -0.0072340523 -0.09610097
000050 00 06 6c bd 0c 41 27 be b2 51 90 bd 70 ff 34 3d
       -0.05762291 -0.16333407 -0.07046832 0.044188917
000060 51 7f 07 be da 94 b7 3c 07 61 16 bc 2a 5a 9d bb
       -0.13232161 0.022409845 -0.009178407 -0.004802008
000070 b9 49 ad bd 5a 2b 03 3e e6 26 b3 3c 05 54 96 3e
       -0.08461327 0.12809506 0.021869134 0.29360977
000080 77 2a ae bd be 9c 84 bd 47 00 14 bc fb fe 1d 3d
       -0.08504193 -0.06475209 -0.009033269 0.038573246
000090 82 71 52 3d 74 17 84 3d 63 f1 60 3d d9 15 f6 3c
       0.05137778 0.06449786 0.054917704 0.030039715
0000a0 6b 5d b9 3a 36 5d 68 3d 55 2f 88 3d 9d cd 2d 3c
       0.0014142221 0.056729518 0.06649653 0.010608104
0000b0 93 03 b1 3c 23 e2 c2 bc 0e 68 75 bd b0 8a 41 3c
       0.02160815 -0.023789471 -0.059913687 0.011812851
0000c0 30 f2 76 bd ec 74 aa 3b 94 a5 a8 bd b3 04 23 3c
       -0.06028956 0.0052019265 -0.082347065 0.009949851
0000d0 36 3c 3f bd 7a 42 16 3c 04 77 ab 3b 31 67 e1 bc
       -0.04668828 0.009171123 0.0052326936 -0.027515026
0000e0 ae 01 c6 bd 9e 37 08 bd 10 70 a4 bc 1f a5 13 bd
       -0.09668289 -0.033256166 -0.020072967 -0.036046144
0000f0 01 cb 48 bd bd b5 ad 3c ae ce 91 3d 2e c1 92 bd
       -0.049021725 0.021204824 0.07119499 -0.07165752
000100 07 4e 55 bd f1 4c 3d bd 5a 79 1b 3e 81 4a 10 be
       -0.052076366 -0.046215955 0.1518301 -0.14090921
000110 33 85 b7 bd 16 44 33 be 73 53 ae bc 6a db cc 3d
       -0.089609526 -0.17506441 -0.021280026 0.100027874
000120 4c 68 38 3b 99 a0 8c 3d 65 7a 23 3d 1c 0a 0c bd
       0.0028138338 0.06866569 0.039911646 -0.03418933
000130 4d cc 1a bd ac af 4c 3d d4 23 01 be 99 9c c7 3d
       -0.037792493 0.04997222 -0.12611324 0.097466655
000140 4e 55 d3 bd 3d c7 42 3d d4 df c7 3c 16 75 e3 3c
       -0.10319005 0.04755329 0.024398722 0.027765792
000150 c0 14 2d 3d 03 3a 75 3d b0 f7 8b 3d ec 82 2b 3d
       0.042256117 0.059869777 0.06834352 0.041872904
000160 57 72 40 3c 89 50 11 3d a3 eb 6d 3d e7 c2 3d 3c
       0.011746011 0.035477195 0.05808605 0.011582113
000170 be 09 0b 3d 24 30 35 3c c0 e5 61 bd 95 d1 3c bb
       0.033944838 0.011058841 -0.055150747 -0.0028811444
000180 8a f9 99 3d 2a b4 0e 3d cd 71 c1 3d b6 5f 02 bd
       0.07518299 0.034839787 0.09445534 -0.03182956
000190 e8 9c 33 bd 60 b6 0f bd 85 19 97 3d b1 3e 23 3c
       -0.04385081 -0.035086036 0.07377914 0.009963677
0001a0 52 d9 3e 3d 4c 3e a9 bc 4f b1 8c bc 97 6d 2e bd
       0.04659397 -0.020659588 -0.017174391 -0.04258498
0001b0 32 e6 19 3d 91 5f ac 3c 98 5e 4c 3d ee 1a 1d bc
       0.037573047 0.021041663 0.0498949 -0.00958894
0001c0 60 9e 4d bd e2 20 40 bd a1 40 ff bd 7b c2 fe bc
       -0.050199866 -0.04690636 -0.12463499 -0.031098595
0001d0 22 a5 77 bd 9a bc a5 3d 76 fa a7 3d 4a 5d a4 bd
       -0.060460217 0.080926135 0.082020685 -0.08025606
0001e0 b0 c2 03 3d 5b d4 3f 3d 51 98 df 3b b9 35 85 bc
       0.03216809 0.046833377 0.0068235775 -0.016260969
0001f0 2f bf 85 bb ad 34 9c bb 9f 80 7f 3d 4e 4e 2b be
       -0.0040816288 -0.0047670216 0.062378522 -0.1672909
000200 63 42 50 bd 89 ad 0e 3c ab dd ce 3c 94 29 91 3c
       -0.05084456 0.008708366 0.025252184 0.017720021
000210 99 8e ce 3d a4 ff 6a 3d 32 6f d6 3d f6 a6 f2 3b
       0.10085792 0.057372704 0.104704276 0.007405157
000220 86 7a 58 3c cd 3e 98 3c 4f ab 5d bd 8b 8a 27 3c
       0.013212806 0.018584633 -0.05411845 0.010225902
000230 f7 9f 6c bb eb 12 9e 3c 84 08 08 3d 27 e7 e7 3c
       -0.0036106089 0.01929613 0.033211246 0.028308464
000240 81 92 5a bd ce 3e 43 bd 5a 56 46 bd 41 e8 a9 3c
       -0.053362373 -0.047667317 -0.048422195 0.02074063
000250 ca 3b 44 3d 5c 5a ce 3c 39 9d 8f bd 87 e5 00 3e
       0.04790858 0.025189571 -0.0701241 0.12587558
000260 9d 0c 25 3e a1 9d 0c bd bc 91 f7 bd 4d 7c 47 3d
       0.16118093 -0.034330014 -0.120883435 0.048702527
000270 cf 60 1c bd 69 a3 2c 3c 12 e6 74 bd 35 71 ac bd
       -0.03817826 0.010537007 -0.059789725 -0.0842003
000280 81 a7 bc bd b3 01 1d 3d ef 07 ad 3d 13 03 22 3d
       -0.09211636 0.0383317 0.08448779 0.039553713
000290 d2 f2 ee 3c 16 84 83 3d 26 ae 37 3d 06 a9 12 3d
       0.02916852 0.06421678 0.044843815 0.035805725
0002a0 aa a3 f9 3d d5 01 c6 3b c9 81 89 3d e2 cb df bc
       0.121894196 0.006042699 0.06714208 -0.027318899
0002b0 43 4a 8b 3b 79 3e 3f bd 76 2e a7 bd 72 15 48 bd
       0.004250796 -0.046690438 -0.081631586 -0.048848577
0002c0 c8 b8 0b bd 21 cb 24 3d 7c 60 08 3c d4 3d a1 3c
       -0.034111768 0.04023278 0.008323785 0.019682802
0002d0 10 a0 89 bd 25 d5 49 bd 15 ae 3e bd d2 ab db bc
       -0.067199826 -0.049275536 -0.046552736 -0.026815329
0002e0 ff 07 72 3a c1 e9 04 bd e7 8b 12 bc 4f 92 16 bd
       0.0009232759 -0.032449488 -0.008944488 -0.036760624
0002f0 3e fd de bc ff d9 1f 3d 63 e5 15 3d 1e d8 65 bc
       -0.027220365 0.039026257 0.036595713 -0.014028577

queries.1.weight f4 [64]
000000 32 94 69 3e b5 f6 44 3d 49 74 0c 3f 92 72 51 3e
       0.22810438 0.04808684 0.5486494 0.20453861
000010 7f ba 5f 3e 76 bb 73 3e 25 73 d1 3e 0e 22 08 3f
       0.21848486 0.2380198 0.4090816 0.53176963
000020 00 6b 93 3e 6c 75 01 3e ef 6c a3 3e b3 a5 a5 3c
       0.28792572 0.12642449 0.31919047 0.020220613
000030 79 ff 04 3f 39 0f 91 3e 6e 87 a8 3e 6b 57 6d 3e
       0.5195232 0.28331926 0.32915825 0.23177879
000040 83 eb 39 3e 9f 1e cc 3c 01 ff e8 3e c4 81 b4 3e
       0.18156247 0.024916945 0.45507053 0.35255253
000050 c6 ad cd 3c 07 f8 e5 3e 90 19 1c 3e fc 54 79 3e
       0.025107276 0.44915792 0.15244126 0.24348825
000060 0c 40 98 3e eb 91 21 3e 26 77 94 3e 5d 4a 93 3e
       0.29736364 0.1577832 0.28997153 0.28767672
000070 e0 05 c6 3e a9 48 6e 3e dd 65 b0 3e 30 fd d9 3d
       0.38676357 0.23269905 0.34452716 0.10643995
000080 ec 00 42 3e 4c ca a5 3e eb d5 21 3e 8b 77 99 3d
       0.18945664 0.32380903 0.1580426 0.07493504
000090 c7 fd f8 3d 04 91 f4 3d de 8f a2 3e bf 39 66 3d
       0.12157779 0.11941722 0.31750387 0.056207415
0000a0 97 92 cd 3d 72 64 3b 3c 29 60 c4 3d 4b 9c ac 3d
       0.100377254 0.011437522 0.095886536 0.08428248
0000b0 b7 84 9f 3e a1 7d da 3c ab 49 94 3d 0a 09 0f 3e
       0.3115594 0.026671233 0.072406135 0.13968292
0000c0 cd d9 f2 3e e4 c8 75 3e 58 5a bd 3e 3e e2 32 3e
       0.47431794 0.24002415 0.3698299 0.17469117
0000d0 ca 65 9d 3e 33 02 06 3e 2d 9c fa 3e 60 8f 18 3f
       0.3074172 0.13086776 0.48947278 0.5959377
0000e0 ea 84 db 3e 8b da 1c 3e 17 d4 14 3f 12 5e 35 3e
       0.42874843 0.15317743 0.58136123 0.17711666
0000f0 f3 5a ad 3e 6e 60 40 3e db ec 67 3e f4 05 4d 3e
       0.3385845 0.18786785 0.22648947 0.20021802

queries.1.bias f4 [64]
000000 be c0 95 3e f9 8e eb be 65 e3 46 3d 4a e8 11 be
       0.29248613 -0.46007517 0.048556704 -0.14248767
000010 90 02 a9 bb 77 59 32 be 14 d1 35 be 80 5b f2 bd
       -0.005157776 -0.1741694 -0.17755538 -0.118338585
000020 bf 42 59 3e 16 f2 23 3e f5 30 41 bd ba 71 4c 3e
       0.21216868 0.16010317 -0.04716583 0.19965258
000030 3f 33 be 3e 6e e3 5d 3e ff e2 3d 3e 86 fe aa bd
       0.37148473 0.21668789 0.18543623 -0.08349328
000040 c9 df 29 be 29 3e 93 be f6 85 1d be 95 78 34 3c
       -0.16589274 -0.28758362 -0.15383133 0.011015077
000050 19 6e ed 3d 59 f7 33 3e d3 4f 0e 3e dd dc ac be
       0.11593265 0.17574824 0.13897638 -0.33762255
000060 3a 76 2d 3d 11 9c 29 3e b2 47 83 3e 70 d0 88 3d
       0.042349078 0.16563441 0.25640637 0.06680381
000070 9e 84 84 3e 5e 1c 74 3e bb 86 05 3e 78 99 79 be
       0.2588243 0.23838946 0.13039677 -0.2437495
000080 2e 38 64 3e 42 5c 3e 3e 2d 89 97 bd 24 31 cd 3d
       0.22287056 0.18589881 -0.07399211 0.100191385
000090 ed 7a c1 bc 31 c4 f4 bd fe 3a c8 3b e1 ba 0e be
       -0.023618186 -0.11951483 0.006110548 -0.13938476
0000a0 10 c7 2e 3d 83 55 31 bd 99 25 c1 ba bd 6b d9 bd
       0.04267031 -0.04329444 -0.0014735936 -0.106162526
0000b0 1f 27 17 be d4 cc 81 3d d7 24 3d 3d 52 8a 7c be
       -0.14761017 0.06337896 0.04617771 -0.2466214
0000c0 4b 13 79 3d 24 ff 1b be ce ea 05 be 39 b9 9c bd
       0.060809415 -0.15234047 -0.13077852 -0.07652516
0000d0 ad df d3 3d a0 08 4a be 6c 9e e3 bc c6 72 78 3e
       0.10345397 -0.19729853 -0.027785502 0.24262533
0000e0 f9 c5 05 be ff 87 24 be 9d 82 b3 bd e6 1b a5 3d
       -0.13063802 -0.16067503 -0.08765147 0.08061962
0000f0 c3 7d f4 3e 09 82 96 bc 75 ea 66 3e 89 db a6 be
       0.477522 -0.018372552 0.22550376 -0.32589367

queries.1.running_mean f4 [64]
000000 97 3c aa 3d 7c c1 7a bc 0c f7 55 bd 22 62 2d bd
       0.08312338 -0.015304919 -0.052237555 -0.042329915
000010 87 f0 03 3d 49 90 93 bd 4e 69 8e bd f8 9d b2 bd
       0.032211807 -0.072052546 -0.06953679 -0.087215364
000020 ec f1 5e bd fe ad 52 3c 18 eb d8 3d 37 9a 90 bc
       -0.054429933 0.012858866 0.105917156 -0.01765166
000030 03 53 98 3d eb c4 1b 3d 84 1a 33 3d 73 a6 02 bd
       0.07437708 0.038029592 0.04372646 -0.03189702
000040 18 c3 70 bd 45 25 5e bc f5 83 4a bd 81 9e 1e bd
       -0.058779806 -0.01355869 -0.04944225 -0.03872538
000050 20 99 82 3c 5f 37 99 bd 68 e7 f8 bc ee 71 44 bd
       0.015942156 -0.07481264 -0.03038378 -0.047960214
000060 96 c9 44 3d c2 73 57 bc 76 ec 67 bd 73 b6 33 3d
       0.04804381 -0.013150157 -0.05662199 0.04387517
000070 40 a2 97 3d 4f 7f 1d 3d 52 c3 3a 3d 8e c1 aa bc
       0.074039936 0.03845149 0.04559643 -0.020844247
000080 ca 7f b4 3d 5a b8 46 bd 83 ce 69 3d 78 bb 0d bd
       0.08813436 -0.048515655 0.05708171 -0.034602612
000090 7f b5 41 3d a7 d1 3a bd 63 14 c3 bd b4 b8 26 3d
       0.04729223 -0.045610096 -0.09525373 0.04070349
0000a0 9e 9c 1d 3d b9 f6 3c bc 53 60 88 bd a2 0a ba 3c
       0.03847944 -0.011533433 -0.066589974 0.022710148
0000b0 e7 6f ea 3d 1d 11 8a 3c 27 f8 b0 bc 19 75 0f 3d
       0.11447125 0.016853863 -0.021602703 0.035023782
0000c0 ac b1 85 bd c3 b5 26 3d 34 e4 b7 3d 7f 4c 49 bd
       -0.06528029 0.040700685 0.08979073 -0.049145218
0000d0 c7 0a 17 bd ee 24 82 bd ca 1b 8b 3d 8e 4c 82 3d
       -0.036875512 -0.063547 0.0679241 0.06362258
0000e0 08 65 af 3d a4 b6 f1 bc a7 2b 95 bd 45 9c f5 3c
       0.08564192 -0.029506035 -0.07283717 0.029981742
0000f0 89 31 93 bd 3a fb cc bc 08 02 01 bd 54 74 eb 3c
       -0.071871825 -0.025022138 -0.031496078 0.028741993

queries.1.running_var f4 [64]
000000 52 88 4a 3b bb 21 0f 39 18 01 cf 3a 6f 73 7d 3a
       0.0030904007 0.00013650108 0.0015793173 0.0009668385
000010 04 a4 05 3a 74 b2 1a 3b 76 4e 14 3b 02 b0 69 3b
       0.00050979876 0.0023604902 0.0022629774 0.0035657887
000020 2f c4 bf 3a cc 60 0a 3a ef f8 bb 3b 8d 76 76 39
       0.0014630611 0.0005278706 0.0057364623 0.00023504552
000030 c0 59 21 3b b9 ec 34 3a 69 4e 5f 3a 24 cb f4 39
       0.0024620146 0.00069017295 0.0008518459 0.00046690658
000040 5d 01 d6 3a 63 82 e0 38 fb 36 ac 3a 72 d7 30 3a
       0.0016327311 0.00010705439 0.0013138944 0.0006745971
000050 0e 22 ab 39 ca 64 21 3b 29 ae c0 3a 0c f6 de 3a
       0.00032641034 0.0024626725 0.0014700341 0.0017010584
000060 66 8c 8e 3a 05 64 29 39 33 4f f1 3a d0 15 5e 3a
       0.0010875582 0.00016154356 0.0018410444 0.0008471878
000070 f9 56 22 3b 5f ed 2d 3a 73 94 72 3a 0d 0f 6e 39
       0.0024771078 0.00066347973 0.0009253688 0.00022703056
000080 a7 64 67 3b eb 56 89 3a 2e 5c bf 3a 2b d9 11 3a
       0.0035307796 0.0010478174 0.0014599615 0.00055636716
000090 6f f1 84 3a d0 ad 7f 3a 6d ba 83 3b b4 63 81 3a
       0.0010142754 0.0009753378 0.0040200264 0.0009871633
0000a0 00 b2 2a 3a 25 bc 76 38 d1 74 22 3b ca 9f 75 39
       0.00065115094 5.8826194e-05 0.0024788866 0.00023424547
0000b0 9a 32 c0 3b f1 98 09 39 17 83 74 39 56 ef 10 3a
       0.005865407 0.00013122313 0.00023318488 0.0005528828
0000c0 4d 6d f7 3a a5 d6 42 3a d6 41 98 3b a1 a4 9e 3a
       0.0018877179 0.0007432497 0.00464652 0.0012103507
0000d0 1c 61 2e 3a be 57 f4 3a d8 9d 04 3b cd d5 e8 3a
       0.00066520437 0.0018641872 0.0020235684 0.0017763913
0000e0 ba 60 58 3b be 18 dd 39 ce 41 18 3b d5 77 d1 39
       0.0033016638 0.0004217084 0.0023232582 0.00039952868
0000f0 6f 2c 15 3b 57 4b 99 39 fc a8 ef 39 43 28 c5 39
       0.002276208 0.00029238567 0.00045711535 0.00037604765

keys.0.weight f4 [16, 3, 1, 1]
000000 46 71 8e bd 87 f4 b4 bd e5 f4 8e bd b0 6a 5b 3d
       -0.06955199 -0.088357024 -0.06980304 0.053568542
000010 54 a6 81 3d 17 aa 7f 3d 90 0e 89 bd d1 e0 d3 bd
       0.06330553 0.06241807 -0.06692231 -0.10345615
000020 a1 8d cf bd b2 35 df 3c ec 3a 6a 3d 60 94 8d 3d
       -0.101344354 0.027247284 0.0571851 0.06913066
000030 35 2f 6b bd 94 42 3c bd 58 ec 5f bd 6a 1b a5 bd
       -0.057418067 -0.04596193 -0.054668754 -0.080618694
000040 ba 87 3a bd c0 e5 16 bd 7c 68 30 3e 20 a6 32 3e
       -0.045539595 -0.0368402 0.17227358 0.17446184
000050 48 64 24 3e bf de 56 3d 6f 4c 43 3d d0 fb 35 3d
       0.1605388 0.05245852 0.047680315 0.0444296
000060 fb ed 22 3e b0 47 02 3e a6 ab c5 3d 6c 62 03 be
       0.15911095 0.12722659 0.0965188 -0.12830514
000070 cf d9 cf bd 25 cb a3 bd 3e d7 21 be 1a 99 e0 bd
       -0.101489656 -0.07997731 -0.15804765 -0.10966702
000080 d2 63 b7 bd f0 c7 b9 3d d1 9f 8a 3d fe ec 56 3d
       -0.08954586 0.09071338 0.06768764 0.052472107
000090 e5 e0 34 bd 95 38 39 bd b1 34 1d bd dd a9 18 bb
       -0.04415979 -0.045219976 -0.03838033 -0.0023294606
0000a0 7a b3 99 bc d9 4d 15 bd 31 3b d6 3d fc c1 f9 3d
       -0.018762339 -0.036451194 0.104605086 0.12195203
0000b0 48 f2 06 3e fb 33 79 bd 19 00 b5 bd 06 82 c8 bd
       0.1317836 -0.060840588 -0.08837909 -0.09790425

values.0.weight f4 [64, 3, 1, 1]
000000 16 b6 6a 3e a4 d2 d2 bd 3d 21 e3 bd 08 53 35 3c
       0.22921023 -0.10294083 -0.11090324 0.0110671595
000010 ec 5b 6d be bf 4c 73 3e 22 b1 8b bd 71 6b e4 bd
       -0.23179597 0.23759745 -0.06820895 -0.11153305
000020 54 31 c7 3d 7f 58 b3 bd 27 50 e3 bd 05 96 d9 3d
       0.097262055 -0.08757114 -0.11099272 0.10624317
000030 88 22 96 3d a5 1c 0f be 0e a0 9b 3d ec 41 d0 3d
       0.07330805 -0.13975771 0.075988874 0.101688236
000040 fb fe 10 bd b0 38 26 be 26 a9 a5 3d 0c 4c 9b 3e
       -0.03539942 -0.16232562 0.08088903 0.30331457
000050 37 85 ca be c3 d8 46 3e 3c 30 57 3e 71 87 78 be
       -0.3955476 0.19418626 0.21014494 -0.24270417
000060 fe 21 37 be bb 33 47 3e f6 c8 af bc 29 e7 8d bd
       -0.1788406 0.19453327 -0.02145813 -0.06928856
000070 b9 5c 23 be 91 e8 ea 3d 5e f8 e3 bd 6b 82 38 be
       -0.1595334 0.1147014 -0.11131357 -0.180185
000080 24 f5 5f 3e ad fa 76 bd 88 d8 d5 3d f4 b2 09 3d
       0.21870857 -0.060297657 0.10441691 0.03361793
000090 4c 4c 13 3e 25 ce e2 3d 33 57 7a be cc 37 9e 3d
       0.14384574 0.11074475 -0.24447326 0.07725486
0000a0 4c 06 8e bd 41 e0 17 bd eb 61 8e be 48 85 1f 3e
       -0.06934795 -0.0370791 -0.2780908 0.15578187
0000b0 55 ef 0f 3e aa 52 09 3d dc 76 01 3d 83 ab 0d 3d
       0.14056142 0.0335261 0.031607494 0.034587394
0000c0 bf 7b bc 3d 43 ae bf bd 31 f3 43 3c 07 11 2e 3d
       0.0920329 -0.0935941 0.011959837 0.042496707
0000d0 98 96 aa 3c 1c cc 7b 3d f1 63 11 be ed 03 f4 bd
       0.020823762 0.06147395 -0.14198281 -0.11914811
0000e0 4f 1c 8c 3e 48 43 c7 bc 50 9d b4 bc 2d 9c bb 3c
       0.27365348 -0.024324074 -0.022047669 0.022901619
0000f0 23 0b 8d bd a0 fc 9e bc 11 9a 12 3b 07 38 86 3d
       -0.0688689 -0.01940757 0.0022369663 0.06553655
000100 e0 e2 df bd be cc 80 bd 3b 57 80 3d 65 cc 16 3e
       -0.10931945 -0.062890515 0.06266638 0.14726408
000110 e1 e9 0e be 3a a3 60 3e b4 91 5d 3d c4 8a 83 be
       -0.13956405 0.21937266 0.05409403 -0.25691807
000120 c6 52 ce 3d 26 0b 09 be d7 49 37 3d 3a 0d 69 3c
       0.100743815 -0.13383159 0.044748154 0.014224345
000130 d1 83 3b 3d 0e 2c ef bb ca 19 76 3d 95 b8 c7 bd
       0.045780007 -0.007298953 0.060083188 -0.09752003
000140 14 3f c2 3b 31 ef 83 b9 51 14 aa 3c 79 cf b9 3d
       0.0059279297 -0.0002516448 0.02076164 0.090727754
000150 97 e3 cd bd 2f 85 50 3e fd 5d e0 bd 35 a5 38 bd
       -0.10053175 0.20363306 -0.10955427 -0.04507943
000160 af 2f f7 bd 36 c2 61 3e 28 ec b4 3d fb 02 03 3c
       -0.12069642 0.22046742 0.08834106 0.007996316
000170 3d 4d e5 bd 6f fc 1a bd d7 ed b1 3d 49 55 74 bc
       -0.11196373 -0.037838396 0.086879425 -0.014912912
000180 ef 55 2f 3d cc 9c bd 3d 4e 56 cb bd 78 2f b9 bc
       0.042806562 0.09258422 -0.09928571 -0.022605643
000190 41 ff 5e 39 0d 3e 1c 3d 1c b8 9f 3d 2a f7 c3 bc
       0.0002126666 0.038145114 0.07798788 -0.023921568
0001a0 75 48 73 3c d5 cc 88 3c df 46 e7 bc 61 e5 90 bd
       0.014848818 0.016699234 -0.028232036 -0.070750006
0001b0 0f 9c 4a 3d c6 1f 68 bd e1 95 87 bc 1e 45 a1 bc
       0.049465235 -0.056670927 -0.01655096 -0.019686278
0001c0 05 bc 07 3e a9 4c 38 be 82 22 ba 3d 90 2d 67 bd
       0.13255318 -0.17997994 0.09088613 -0.056439936
0001d0 74 83 db 3c 74 86 03 3e 7c 7f 7c be af 1c ff 3d
       0.02679608 0.12844259 -0.24658006 0.12456643
0001e0 c0 fd 97 3d 89 ea e5 bd dd 1a 62 3d 19 33 93 3d
       0.07421446 -0.11226375 0.0552014 0.071874805
0001f0 da 21 7a bd 06 05 5d 3c 1a 3d a5 bd a8 57 9d 3d
       -0.06106744 0.013489967 -0.08068295 0.07682735
000200 cf f7 84 3d b3 8f 42 3d ad c0 c5 3d f9 02 0c be
       0.06492578 0.047500324 0.096558906 -0.13673009
000210 36 e9 ca bd 93 83 f3 3d ff 81 f5 bc e0 b6 84 bd
       -0.09907763 0.1189033 -0.029969214 -0.06480193
000220 bb 0b 5f bc 9d be a9 3c 59 68 ac 3d a0 f6 05 be
       -0.013613637 0.020720774 0.0841834 -0.13082361
000230 9d 56 21 3c 33 6d 94 3c d1 6b 58 3d 2a bd c7 3c
       0.00984731 0.018118476 0.052837197 0.024382193
000240 50 8b 9c bd 94 7a 02 bc 48 99 b8 3a 51 84 94 3e
       -0.07643759 -0.007963795 0.0014083767 0.290072
000250 c9 d2 6f be bd 7b 71 bd a4 16 a9 be ae 3c 06 3e
       -0.23420252 -0.058955897 -0.33025086 0.13109085
000260 b1 4e ee 3d ca 8a a0 be 7e a4 10 3d 09 3f a6 3e
       0.11636103 -0.31355888 0.035313122 0.32469967
000270 ba 70 70 3d f6 ca f3 3d 90 84 9b bd 07 aa cb bd
       0.058701254 0.11903946 -0.07593644 -0.099445395
000280 d1 f1 7f 3d 30 0e a6 bc 9a ea 48 bd 14 27 04 3d
       0.062486473 -0.020270437 -0.04905186 0.03226383
000290 b3 02 44 bd b9 26 5a 3d f3 9d d4 3d b9 01 ef bd
       -0.047854137 0.053259585 0.10381689 -0.116702504
0002a0 c7 3b a4 3d e7 aa 1f bd 1b 06 87 3c 2e 0c b4 3e
       0.08019214 -0.038981345 0.016482404 0.35165542
0002b0 7c 57 92 be df fe bf bd fd cf 0f 3e 0e 59 16 39
       -0.2858237 -0.09374785 0.14044185 0.0001433829
0002c0 16 d1 23 be 54 32 e5 3c 76 73 59 bd 4e b7 8c bd
       -0.15997729 0.0279781 -0.053088628 -0.068709
0002d0 cd 33 4f be e4 e1 5b 3e ba 90 15 3b c1 b1 f9 3c
       -0.20234604 0.21472889 0.002282186 0.030480267
0002e0 02 94 61 be 66 a0 46 3e 93 ea 1c 3d 55 0e 22 bd
       -0.22029117 0.19397125 0.038309645 -0.03956445
0002f0 38 45 77 3d 57 47 11 be c3 8b 0b 3e 69 b0 02 3c
       0.060368747 -0.1418737 0.13627534 0.00797663

values.1.weight f4 [64]
000000 b4 87 df 3d 3f 0c 70 3d 34 b3 91 3e e8 72 2d 3e
       0.10914555 0.05860543 0.28457034 0.16938365
000010 9a b3 73 3e 94 d4 df 3e 5c fa 00 3e 3b f5 f7 3e
       0.23798981 0.43716872 0.12595505 0.48429283
000020 f9 0f 2d 3d 11 bc aa 3e 39 37 86 3e 34 62 cd 3e
       0.04225156 0.33346608 0.26214007 0.40113986
000030 fc 78 cf 3d 06 3d 66 3e 31 ed 06 3e ac d1 b9 3e
       0.10130498 0.22484216 0.13176419 0.3629278
000040 b1 2d 0a 3e 21 7a c3 3e f5 eb 85 3d 9d a2 03 3e
       0.13493992 0.38179114 0.06539146 0.12855001
000050 23 b9 b0 3e 72 4f eb 3e 22 70 79 3e 1d c4 c6 3d
       0.34516248 0.4595905 0.24359182 0.097053744
000060 2f 95 2a 3d 25 58 7a 3e e6 d2 ab 3e 80 69 fe 3e
       0.04164618 0.24447687 0.3355934 0.49689865
000070 5c 3d 64 3e 57 1d 9c 3e a3 dd 73 3d ec 5e ba 3e
       0.22289032 0.30491135 0.05953754 0.36400545
000080 86 2d 38 3e 8a d3 b7 3c 31 4b 98 3e 01 29 b9 3e
       0.17986116 0.022439737 0.29744866 0.36164096
000090 a7 b4 85 3d 17 a1 cb 3e 04 57 e4 3e 98 7e 25 3e
       0.06528597 0.3977134 0.44597638 0.16161573
0000a0 ab 8f b6 3e 4a 61 92 3e e4 e6 9d 3e 58 07 53 3d
       0.35656485 0.2858985 0.30840218 0.051520675
0000b0 8a 67 89 3d 1a f7 95 3e 15 cc 8e 3e 1c 90 89 3e
       0.06709202 0.29290086 0.27890077 0.2686776
0000c0 3d 03 c1 3e 57 86 5e 3d ed 5c 3f 3e 59 af 85 3e
       0.37697783 0.054327335 0.18687792 0.26110342
0000d0 15 9d 81 3e b7 13 c4 3e 3f 25 98 3e bf 32 24 3e
       0.25315157 0.3829629 0.29715917 0.16034983
0000e0 07 0d ca 3e 1b ca ef 3d 81 40 74 3d 3f e6 bb 3e
       0.39463064 0.117084704 0.05963183 0.366991
0000f0 fc 8d f7 3c 6e 64 9d 3d aa fb a6 3e 45 5d dd 3a
       0.03021907 0.07685171 0.3261388 0.0016888758

values.1.bias f4 [64]
000000 2f 32 9b bd 1e c9 1b be 7c de 47 3e aa d8 1b 3e
       -0.07577931 -0.15213439 0.19518465 0.1521937
000010 8e ba 1e be 18 71 ad bd 32 49 03 3e 32 91 c0 bd
       -0.15500852 -0.084688365 0.1282089 -0.09402694
000020 ae 51 ba 3d 7b c2 fe 3d 3d da 19 3e 94 77 cb 3d
       0.090976104 0.12439438 0.15024658 0.09934917
000030 21 cc 11 3e e3 7a c7 bd 94 69 b6 3d 2d 48 57 be
       0.14238025 -0.09740236 0.08906856 -0.21023627
000040 50 e3 a6 3d fb c1 9c 3d 8d b8 9b 3d b3 cf ae bd
       0.08148825 0.07654186 0.0760356 -0.08535709
000050 c8 7c a4 be 49 50 e3 bd 9c c2 08 be 19 6e de 3d
       -0.3212645 -0.110992976 -0.13355488 0.10860843
000060 4b 2c 5c bd 40 83 1c 3e c3 e0 13 3e db 1c d1 3d
       -0.05375318 0.15284443 0.14441209 0.10210582
000070 c7 04 10 3e 0d cd 10 be a7 0c 81 bd 78 66 2b be
       0.14064322 -0.1414072 -0.06301241 -0.16738307
000080 ea 92 11 3e 0f b5 ea bc e4 41 14 3e da 44 83 be
       0.142162 -0.028650789 0.1447826 -0.25638467
000090 ca f1 b1 bd 91 08 db bd 26 3c 1f be 0f 8e c6 3d
       -0.08688696 -0.10694993 -0.15550289 0.09695064
0000a0 6b 43 f8 bd cf 30 a5 3d 4b a6 46 be 77 0d 0d bc
       -0.12122234 0.0806595 -0.19399373 -0.008609167
0000b0 3b 3d da bd 12 df 5a be 4c e3 41 3e 79 83 c7 3d
       -0.1065621 -0.21374157 0.18934363 0.09741873
0000c0 36 33 d1 bd 2d 47 00 3e 23 04 f8 3d 9e b2 20 be
       -0.10214846 0.12527151 0.12110164 -0.15693137
0000d0 35 7b 8c be d7 5f 41 3e 78 27 42 3e 2d 1f aa 3d
       -0.2743775 0.18884216 0.18960369 0.083067276
0000e0 c6 ba e3 3d 69 0e b2 3d 59 d9 0e 3e d6 78 4e 3e
       0.111196086 0.08694155 0.13950099 0.20163283
0000f0 8f 23 51 bd 25 4b 0e 3d 06 a1 39 be 37 bc 94 bd
       -0.051059302 0.034739632 -0.18127832 -0.07262462

values.1.running_mean f4 [64]
000000 ad 82 53 3c 82 da 33 ba 95 d0 29 bd b8 41 3d bd
       0.0129095735 -0.00068608683 -0.041458685 -0.046205252
000010 65 3e 0d 3b 79 7b 13 bd f1 42 1f 3c 30 cd a9 3d
       0.0021552083 -0.036006425 0.00972055 0.082910895
000020 3e 37 65 bb af 0f 65 bd 9d 62 29 bd ca 6d 06 3d
       -0.0034975554 -0.05592316 -0.04135381 0.032819547
000030 3c cf 6f 3c 85 08 2e bc 7a 31 f6 39 6b 0b 32 3d
       0.014636811 -0.010622148 0.0004695764 0.04346792
000040 cb af 9f 3b f5 5a 5c 3d 2b 8f b5 bb 38 c1 46 bc
       0.004873251 0.05379768 -0.0055407486 -0.012131028
000050 1d bb 21 bd c0 b6 35 bd b7 8b 19 3d 75 55 98 3c
       -0.039485086 -0.044363737 0.037486758 0.018595437
000060 10 b0 97 3b 2d f9 c3 3c 3f 09 63 bc c7 22 3d 3d
       0.0046291426 0.023922527 -0.013857185 0.046175744
000070 de c1 15 38 d2 fc 85 3c d5 2a 07 bb 59 c0 7d 3c
       3.570492e-05 0.016355906 -0.0020624895 0.015487754
000080 01 42 a3 3c bb a6 b7 3b bc 26 00 3d d4 a5 09 bd
       0.019928934 0.0056045926 0.03128694 -0.03360541
000090 0e 4f 16 bc 98 d8 c4 bc 06 46 e2 3c 16 ab ca b9
       -0.009174122 -0.024029061 0.02762128 -0.0003865591
0000a0 85 df ce 3b 12 81 31 3c 83 62 c6 3c f8 37 0a 3c
       0.0063132667 0.010833995 0.024216896 0.008436196
0000b0 c0 db 8e bb 37 4b e2 bc b9 2d 84 bc 9d 0c 2b 3d
       -0.0043596923 -0.027623756 -0.016135084 0.041760076
0000c0 4c 6f 1c bd 98 8b 5d 3b f3 07 36 bd 93 a4 cf 3b
       -0.03819208 0.0033805128 -0.044441175 0.0063367574
0000d0 ee 49 48 3d 8d b3 d6 bc 81 92 e3 bc 91 6b ba 3c
       0.04889863 -0.026208663 -0.02777982 0.02275637
0000e0 30 bd d7 3c 07 fc be bb ee 7a e8 ba 99 10 20 bd
       0.026335329 -0.005828384 -0.0017736831 -0.03907833
0000f0 fb e4 95 3b da bf 99 bb 8e d7 cb 3c 1e 77 2e ba
       0.0045744157 -0.00469206 0.024883058 -0.0006655323

values.1.running_var f4 [64]
000000 b7 d9 d2 3a 6b 09 eb 3a eb b6 90 3a 3c a3 b2 3a
       0.0016086613 0.0017931884 0.0011040842 0.001362897
000010 42 2c d5 39 3d 32 d2 3a c2 cd 9a 3b a1 fb a9 3b
       0.000406595 0.0016036701 0.0047242353 0.005187467
000020 4c 64 87 3a 5b 4a f7 3a 91 da 18 3b fb 0e 43 3a
       0.0010329573 0.0018866764 0.0023323635 0.0007440892
000030 dc 5f 09 3b c8 55 99 39 60 f8 25 3b 87 80 5c 3a
       0.0020961678 0.00029246346 0.0025325045 0.0008411486
000040 f9 33 89 39 78 a7 ad 3a c0 c4 1f 3b e3 14 b4 38
       0.000261694 0.0013248762 0.0024378747 8.586959e-05
000050 0f 93 38 3a e7 75 a5 3a 4a 5c a8 3a 7d 40 39 3b
       0.00070409564 0.0012623639 0.0012844887 0.0028267198
000060 f5 72 d9 39 b1 f7 89 39 ee 0a 8f 39 97 41 95 3a
       0.00041475115 0.0002631522 0.0002728323 0.0011387345
000070 2f 4d 5b 3a f6 7c c3 3a e4 e8 04 3a a5 7b 6a 39
       0.0008365688 0.0014914561 0.0005070104 0.0002236204
000080 ea 3b 03 3a d8 ae 8b 38 55 96 01 3a 16 78 2a 3a
       0.00050061813 6.660604e-05 0.00049433607 0.00065028796
000090 50 49 16 39 21 50 98 3a fd f0 fa 39 47 04 a0 3a
       0.00014332426 0.001162056 0.00047863266 0.0012208306
0000a0 d4 ee 9a 39 bc 2f 38 39 51 b3 25 3a a2 78 1f 3a
       0.0002955111 0.0001756539 0.0006320971 0.00060833443
0000b0 37 b9 b7 39 0c f1 c9 39 c3 ae f2 39 3c 9e 4d 3a
       0.00035042476 0.000385173 0.00046288045 0.0007843708
0000c0 86 2b 31 3a 25 1d 22 3b b0 78 5f 3b 74 f0 a5 3b
       0.00067584997 0.002473661 0.0034099035 0.0050640646
0000d0 cb 61 a9 3a df 08 fb 39 a6 87 d5 39 00 30 31 3a
       0.0012922821 0.0004788106 0.00040727592 0.0006759167
0000e0 25 3d d0 39 f4 26 7d 3b a5 d9 92 3a 6c b3 62 3a
       0.00039718408 0.0038627954 0.0011203779 0.0008647952
0000f0 fe 82 b2 3a 46 56 ae 3a d3 e3 c1 39 8e 14 22 3a
       0.0013619361 0.0013300858 0.0003698157 0.00061828725

conv.0.weight f4 [128, 256, 1, 1]
000000 fd 45 92 3b a3 b8 09 3c 31 56 76 bb eb 69 71 bb
       0.0044639097 0.008405837 -0.0037587995 -0.0036836814
000010 78 8a 8a 3b 63 85 2a 3c c4 ce ee bb fb b8 80 bb
       0.0042279325 0.010407778 -0.007287832 -0.0039283014
000020 8c 8c ad bb c3 58 59 ba 10 af 16 bb 27 9b 1f bc
       -0.0052962955 -0.00082911196 -0.002299253 -0.009741581
000030 2c 99 f4 bb 5d f4 00 3c 4d 2b cb bb 97 32 ca 3b
       -0.0074645486 0.007870761 -0.00620023 0.0061705816
000040 f9 43 b9 bb 38 b7 d5 bb 8f 6a 84 bb 4c 1a ff 3b
       -0.005653855 -0.0065220855 -0.004041023 0.0077851173
000050 04 46 a1 3c 17 dd 1d 3c b3 d8 7e 3a 00 ec bc bb
       0.019686706 0.009635231 0.0009721622 -0.005765438
000060 b4 74 38 3b 9a 94 38 bc 20 f6 10 ba ba 98 0f bc
       0.0028145732 -0.011265898 -0.00055298395 -0.00876444
000070 da c0 b8 bb 8b 0c 41 3b 81 79 96 3b df de f5 3a
       -0.005638224 0.002945694 0.004592121 0.0018758437
000080 dc 3c 32 bc 88 c3 41 3a a8 d6 1b bc 01 b1 8b 3c
       -0.010878768 0.0007391502 -0.009511627 0.017052175
000090 1c 35 de 3b 89 ea da 3b 07 1d 3e 39 0f fe 93 bb
       0.0067812335 0.006680791 0.00018130626 -0.00451637
0000a0 bf eb 0a bb 6f 1e eb bb 0b c2 75 3a f7 15 b3 b9
       -0.0021197645 -0.007175259 0.0009374923 -0.00034157906
0000b0 b2 d2 c8 3b 68 1d 75 3c 92 6f 9d bb 55 91 f2 bb
       0.0061286325 0.014960624 -0.00480456 -0.007402579
0000c0 1d 07 05 3c 35 cd d3 bb 3c 42 3a bb 6c d1 81 3b
       0.008119372 -0.0064636716 -0.0028420826 0.0039617326
0000d0 a9 31 1c 3c 47 aa 1a bb e7 99 ce bb 17 92 fd bb
       0.009533324 -0.0023600028 -0.0063049677 -0.0077383625
0000e0 a9 8a 0d bc 7a ce 63 bb 27 20 ba bb 8a f1 a0 bb
       -0.008639016 -0.003476052 -0.0056801024 -0.004911606
0000f0 67 fc 3e 3b 2c 32 ab ba fb 93 84 3b fc a7 97 3b
       0.0029142143 -0.0013061217 0.004045961 0.0046281796
000100 ae 67 af 3b dd 9b 06 3c ab f1 04 bc 3b ee f7 bb
       0.0053529358 0.008215872 -0.008114259 -0.007566241
000110 9b 74 89 3c 9a 9e 20 3c 65 9a 02 bc ca dd b7 3b
       0.016779235 0.009803439 -0.007971381 0.005611156
000120 67 f5 c4 bb cd fe b5 bb b2 1d 13 bc 8a 49 88 bc
       -0.0060106996 -0.0055540563 -0.008979248 -0.016636629
000130 1b db 02 bc 0c 45 3e 3c fd 58 f6 bb ba 88 96 3b
       -0.007986809 0.011613142 -0.0075179324 0.004593936
000140 67 df 17 bb d8 8b 45 bc 8e cc 80 bb 3a e5 ab 3b
       -0.002317393 -0.012057267 -0.003930635 0.005245832
000150 ec 22 9e 3c 27 d4 81 3c f1 86 b2 3b 97 e2 c0 bb
       0.019303761 0.015848232 0.005448215 -0.0058863866
000160 de c1 9b 3b d9 2d 49 bc 43 5f 64 ba 0c 1b 74 bc
       0.0047533354 -0.012278997 -0.0008711705 -0.014899027
000170 e7 c5 7a bc cc c7 dc 3b bd 77 67 3b a6 6f 9f 3a
       -0.015305973 0.006737685 0.0035319172 0.0012164011
000180 dd 10 05 bc 6f 37 f0 3a 6e 8d 53 bc 1b 02 ab 3c
       -0.008121696 0.0018327067 -0.012912137 0.020875027
000190 a4 73 fb 3b 76 e3 1c 3c e9 2d 91 3b db 65 09 bb
       0.0076736975 0.009575715 0.0044305217 -0.0020965252
0001a0 7e d5 84 3c f5 d5 7c bb bc 8a fa 3b 8c 89 6b 3a
       0.016215082 -0.0038579677 0.007645933 0.00089850347
0001b0 24 b3 92 3b 2b 74 52 3c d4 b0 94 bb 8f e8 49 bc
       0.0044769216 0.012845079 -0.004537681 -0.012323513
0001c0 ad 6e 24 3c 15 78 bd bb 57 68 14 bc 92 e8 03 3c
       0.010036153 -0.005782137 -0.00905808 0.008051055
0001d0 8e 40 57 3c e5 95 22 bc ba 3a bd bb db 1b d4 bb
       0.01313795 -0.009923433 -0.005774823 -0.006473047
0001e0 b0 92 08 bc ba 48 48 bb 13 a0 09 bc da 7e 46 bb
       -0.008335754 -0.0030560927 -0.008399981 -0.0030288012
0001f0 24 eb 1c 3b 10 e6 a5 ba 65 dd 88 3b 10 66 65 3b
       0.0023943866 -0.0012657065 0.004176783 0.003500346
000200 20 74 a7 bb d7 8a 55 bc 33 c5 12 3c 89 ec f5 3b
       -0.0051102787 -0.01303359 0.008958149 0.007505004
000210 a8 39 55 bc ee e1 ce bc 7e 58 40 3c 51 28 5c 3b
       -0.013014235 -0.025254216 0.011739848 0.0033593366
000220 9b 18 e9 3b e8 40 af 39 0a 7a a8 3b a9 f7 e9 3c
       0.007113529 0.0003342696 0.0051415013 0.028560476
000230 60 00 46 3c f2 16 82 bc 67 37 fc 3b d8 0b fb 3a
       0.01208505 -0.015880082 0.007697034 0.001915331
000240 6e 2a d2 3b bf 83 d4 3c 33 3c 8e 3b 2e 2b 4c bc
       0.0064137494 0.025941728 0.0043406724 -0.012461467
000250 38 ea 2b bd e3 7e 01 bd 12 28 8a bb ed 5b 15 3c
       -0.041971415 -0.03161515 -0.0042162025 0.009116155
000260 f4 b8 83 bb e7 30 d3 3c cc 54 2c bb 7c dd 0b 3d
       -0.004019851 0.025780154 -0.002629566 0.03414677
000270 26 01 5b 3c 9e 48 cb bb 56 4e a0 bb 28 16 4b 3b
       0.013366973 -0.006203725 -0.004892151 0.0030988548
000280 f4 d8 82 3c 1e 77 73 ba 73 31 c0 3c 29 02 2b bd
       0.015972592 -0.0009287464 0.02346108 -0.041750107
000290 25 8f 20 bc 2e 88 90 bc f6 08 33 3b 2f f7 9d 3b
       -0.009799753 -0.01764306 0.0027318574 0.0048207263
0002a0 cb 36 8e bb 69 04 3e 3c 4d 29 ae b8 8a 0f 9e 3a
       -0.004340028 0.011597731 -8.3046594e-05 0.0012059074
0002b0 db 20 f2 bb 24 13 e3 bc b4 86 8d 3b 4e 78 bf 3c
       -0.0073891706 -0.027719088 0.0043190364 0.023372795
0002c0 ae 7c c5 bc 24 1a 1b 3c 40 29 e6 3b d3 8f 2b bc
       -0.024107303 0.009466682 0.0070239604 -0.010471302
0002d0 ad c2 7a bc bb f8 88 3b c0 e8 d2 39 68 36 37 3c
       -0.015305203 0.0041800416 0.00040227734 0.011182405
0002e0 0b d3 ab 3c f7 3e aa 3b 5c 73 2a 3c 7c 18 a8 bb
       0.020974657 0.0051954943 0.01040348 -0.005129872
0002f0 a4 2e 76 bb 43 e8 3d 3a 04 db b4 3a 15 be b4 bb
       -0.003756442 0.00072443875 0.0013798182 -0.0055158236
000300 b8 bf 10 bc 46 8f b9 bc 1d 96 93 3c ea 34 80 3c
       -0.008834772 -0.022651326 0.018015916 0.015650231
000310 c0 71 a7 bc 98 e1 78 bc 49 fd a1 3c 98 26 70 b9
       -0.020439982 -0.0151905045 0.019774096 -0.00022902561
000320 86 e9 5f 3c 85 43 e3 3b 26 28 56 3c c6 78 af 3c
       0.013666516 0.006935539 0.013071096 0.021419894
000330 97 f1 b1 3c a4 6b 78 bc 0a 14 2e 3c 62 42 7f bc
       0.021721644 -0.015162382 0.010624895 -0.015579792
000340 53 a9 60 3c a2 a0 97 3c 51 7d 25 3c d7 49 89 bc
       0.013712245 0.018509213 0.010100679 -0.016758842
000350 31 28 50 bd 3d 4b b9 bc 26 bb 33 bc c7 ee 8d 3c
       -0.05081958 -0.022618884 -0.010969913 0.017325772
000360 49 34 0b bc 9f ba e4 3c 7b 5d 34 3c 26 1d c0 3c
       -0.0084963525 0.02792102 0.011008616 0.023451399
000370 5d 05 ab 3c b3 88 8e bc f0 6d 15 bc 59 d1 4f bc
       0.02087658 -0.017399168 -0.009120449 -0.01268419
000380 98 d9 c7 3c 65 4f 86 bb 6c 19 d6 3c b6 2c 2c bd
       0.024395749 -0.00409882 0.026135169 -0.042034827
000390 bc 6a 65 bc 7a 65 85 bc b4 2e 21 bc 85 be 55 3c
       -0.014002498 -0.01628374 -0.009837795 0.013045912
0003a0 b4 de 32 bc 9f 8c 73 3c 63 6b 9c bc 7e 8b ed b9
       -0.010917354 0.01486507 -0.019094175 -0.00045308092
0003b0 f8 33 86 bc c6 81 10 bd 34 cc 9d 3c 03 97 ad 3c
       -0.016382203 -0.03528001 0.01926241 0.021190172
0003c0 8e f0 b9 bc 29 ec 9b 3c f9 b4 43 3c 1e 97 c3 bc
       -0.022697713 0.019033508 0.011945003 -0.02387577
0003d0 8a 7d e2 bc ed c0 75 3c 89 24 7d 3c 9d 08 84 3c
       -0.027647752 0.01499961 0.015450605 0.016117388
0003e0 f8 de af 3c 8c 95 59 3c 7d b3 a7 3c e5 fd 84 3c
       0.021468624 0.013280284 0.020471329 0.016234348
0003f0 a4 1b 0e bc 9e b6 ac 3b 81 92 80 bc a4 9a 3e bc
       -0.008673582 0.005270793 -0.015694859 -0.011633549

conv.1.weight f4 [128]
000000 43 d5 71 3e f8 ed dc 3e d9 93 87 3d b1 64 f9 3e
       0.23616509 0.43150306 0.066199966 0.48709634
000010 19 05 06 3e 5e 0e d1 b6 3e 7d d1 3d 94 a9 fd 3d
       0.13087882 -6.230358e-06 0.10228966 0.1238586
000020 5f 3b 03 3e 43 29 21 3f 9e 31 16 3e 05 95 57 3e
       0.12815617 0.62953585 0.14667365 0.2105294
000030 ab 00 e9 3d ef c1 06 3e 94 d3 db 3d 55 c7 d1 3d
       0.113770805 0.13159917 0.10733715 0.10243098
000040 e5 af b7 3e f7 f5 c4 3d 43 07 ab 3d d8 06 97 3e
       0.35876384 0.096172266 0.083509944 0.2949741
000050 55 95 2a 3e f1 8f b0 3d dc f4 f9 aa d7 20 ba 3e
       0.16658528 0.08621205 -4.440119e-13 0.3635318
000060 41 b5 b8 3d 98 6e 62 34 5f 7b 1e 3e 17 c7 b4 3d
       0.090189464 2.1088124e-07 0.1547675 0.08827036
000070 5e 5b 5b 3e f9 01 ac 3d 40 0a fe 3e 5f c4 1c 3b
       0.21421573 0.08398814 0.49617195 0.0023920757
000080 5e 9f 19 3e 83 f9 9a 3d f7 75 ae 3b 89 64 5f 3d
       0.150022 0.07567122 0.005324121 0.054539237
000090 02 fa 08 3f e9 08 95 3d 6c ee c4 3d 34 3c 3f 3f
       0.5350648 0.0727709 0.09615788 0.7470124
0000a0 68 89 17 3e 77 ff 7b 3e 29 2e 7b 38 3c bb 0c 3f
       0.1479851 0.24609171 5.9886053e-05 0.54973197
0000b0 f7 77 b4 3c d0 2b 66 3e 71 c6 a6 3d 4a 59 d4 3c
       0.02202986 0.2247765 0.081433184 0.025921483
0000c0 c3 bf 52 3e d0 f5 a3 3e 7b d0 a0 35 dd 54 2f 3e
       0.20580964 0.32023478 1.1981605e-06 0.17122217
0000d0 1b b4 92 3e 2c 27 c4 3d 0a 69 e1 3c cb f1 14 3d
       0.28653035 0.09577784 0.027515907 0.036363404
0000e0 85 88 8a 3d 97 44 82 3d 86 db 65 3e 3e 5f ce 3e
       0.0676432 0.06360739 0.22447023 0.4030704
0000f0 8a ad 95 2e e4 fb de 3e 93 66 a0 3d f9 ff 9f 3e
       6.806562e-11 0.43551552 0.078320645 0.3124998
000100 6b ae f5 3d 4d f0 1b 3e fa 12 e3 3b 4b 5b fe 3d
       0.11996158 0.15228386 0.0069297524 0.124197565
000110 d8 e5 14 3e 29 6b 7f 3d 64 78 66 3e 39 6c 7d 3d
       0.14540803 0.062358055 0.22506863 0.061870787
000120 92 5f 6a 3d f2 d9 fd 3d bd 03 6c 3d a2 6f 3c 3c
       0.05722005 0.123950854 0.057620753 0.011501225
000130 c8 42 e1 3e 78 78 46 3b 27 aa e6 3d 8e 25 1b 3e
       0.43996263 0.0030284207 0.11262923 0.15151045
000140 f9 5b a4 3d ba 74 78 3e 52 aa 15 3e 5e 83 9b 3d
       0.08025355 0.24263278 0.14615753 0.07593416
000150 01 ce 4e 3d 6f b3 68 3d 48 2a b1 b4 67 aa 8c 3e
       0.05048943 0.056811746 -3.2999583e-07 0.27473757
000160 4e 92 67 3d 69 64 6d 3e 25 2c c9 3d 05 6c 18 3e
       0.05653601 0.23182835 0.09822873 0.14884956
000170 91 2e 41 37 db 5e 83 35 e5 14 01 3e d3 db a6 3d
       1.15145385e-05 9.787867e-07 0.12605627 0.08147397
000180 76 fc ae 3e fe 43 cb 3e 1b 21 12 3e 75 23 6e 3e
       0.34176987 0.3970031 0.14270441 0.23255713
000190 27 69 a5 3c 2a a4 54 3e 78 96 bf 3e a9 83 02 3e
       0.020191742 0.20765749 0.37419486 0.12745537
0001a0 4f 2b cf 3e 37 95 cd 3d e1 f4 b4 3c ad d6 b4 3e
       0.4046273 0.10038226 0.022089424 0.35320035
0001b0 06 89 83 3d 05 66 0f 3d 8b 72 3b 3d a0 49 07 3e
       0.064226195 0.035009403 0.045763534 0.1321168
0001c0 ff 15 8f 3d a9 d0 e8 3d 38 00 5d 3e 08 51 d3 3d
       0.06986617 0.11367924 0.21582115 0.1031819
0001d0 2f c7 99 3e d4 32 99 3d c1 f3 f4 3e 24 72 c1 3d
       0.30034778 0.07480398 0.4784222 0.09445599
0001e0 7d 8f e7 3e e4 96 9d 3d 69 af fe 3c 21 83 ea 3d
       0.4522666 0.07694796 0.031089501 0.11450792
0001f0 07 5b c8 3e fe 5e 0a 3f 47 01 5a 3a 3f f6 a0 38
       0.39131948 0.54051197 0.00083162304 7.6752614e-05

conv.1.bias f4 [128]
000000 3f 33 46 be 58 ea 44 be c8 0a 94 bd 87 9e 63 be
       -0.19355486 -0.1923002 -0.07228619 -0.22228442
000010 b8 55 f5 bc 99 67 65 b9 06 1a 9f bd 06 12 05 be
       -0.0299481 -0.00021877735 -0.077686355 -0.12995157
000020 36 a9 e0 bb 04 0b cf be e7 3a 82 bd 3d a3 49 be
       -0.006856109 -0.40438092 -0.06358891 -0.19691177
000030 80 78 bd bd 43 77 3b be fd 56 92 bd f6 04 04 be
       -0.09251499 -0.18307213 -0.07145498 -0.12892517
000040 c8 6a 4d 3d d6 07 a9 bc 3b a4 d2 bd 8b cf 64 be
       0.050150663 -0.02063362 -0.10285231 -0.22344796
000050 c9 d8 14 be 0c 7d cc bd 1b 77 2f ab 6e ec 19 be
       -0.14535822 -0.09984788 -6.233778e-13 -0.15031597
000060 f9 ab f8 bc d1 6b 60 b5 b7 92 6c bc 20 ca a7 bd
       -0.03035544 -8.3603396e-07 -0.014439276 -0.08192849
000070 54 9c d5 bd 19 df a9 bd 41 5c 0b bc 35 9e c2 bb
       -0.10430208 -0.082945056 -0.008505882 -0.00593927
000080 18 71 dd bd b5 f2 b1 bd 51 c3 90 bc 33 1d 3f bd
       -0.108125865 -0.08688871 -0.01767126 -0.046658706
000090 8d 21 55 be 3b 36 f8 bd de e8 00 be db 97 35 bf
       -0.2081358 -0.12119719 -0.12588832 -0.7093484
0000a0 56 10 23 be 4f b3 c7 bd c1 2d 48 b9 40 bc 31 be
       -0.159242 -0.09750997 -0.00019090531 -0.17356968
0000b0 50 d2 1a bd 0b 63 8f bd 8b d9 c8 3c 1e 47 d3 bc
       -0.037798226 -0.07001313 0.024517795 -0.025790747
0000c0 b0 ee d8 bd 42 4e 16 be 76 fd bd b4 79 e0 16 be
       -0.10592401 -0.1467829 -3.538841e-07 -0.14734067
0000d0 d3 80 4d be 07 b3 8a bd 57 07 18 bd 90 14 2f bd
       -0.20068674 -0.06772428 -0.037116375 -0.04274422
0000e0 e2 ed 6a bd d1 41 8c bd fa 61 cc bd b5 10 c3 be
       -0.05735577 -0.06848491 -0.09979625 -0.38098684
0000f0 42 4e 23 a4 f3 5e c4 be 61 44 01 be e9 98 81 be
       -3.5411278e-17 -0.3835369 -0.1262374 -0.25311974
000100 e1 88 17 bd 9a f6 7c bd 5b 73 98 3c c2 47 93 bd
       -0.036995772 -0.061758615 0.018609693 -0.07191421
000110 56 72 29 be 17 6b 90 bc 4d a8 25 bd ee ba 8f bd
       -0.16547522 -0.01762919 -0.040443707 -0.07018076
000120 23 72 c7 bd 64 bd ca bd 65 c8 d0 bd 97 e5 86 bc
       -0.09738567 -0.09899405 -0.10194472 -0.016466899
000130 39 a0 82 be 45 3c 73 bc c2 ee 22 be 3e 96 2e be
       -0.25512865 -0.014845912 -0.15911391 -0.170495
000140 88 a4 97 3c e4 50 8d be ab ea 3d bd 02 3c d4 bd
       0.018511072 -0.27600777 -0.046366375 -0.10363008
000150 07 ad 60 bd 58 60 7e bd 29 94 1f ae 11 35 6d be
       -0.05485251 -0.0621036 -3.6284007e-11 -0.23164774
000160 d9 ad 9d bd 44 99 5a be 5a 6a 8d bd f5 cc e4 bd
       -0.076991744 -0.21347529 -0.069050506 -0.11171905
000170 ba f2 eb b8 eb 93 2b b4 36 9e 50 bd ef 7e 15 be
       -0.000112508846 -1.5979428e-07 -0.05093213 -0.14599203
000180 33 9f 90 bd aa d4 d8 ba 6e f9 ac bd 0a c8 03 3d
       -0.07061615 -0.0016542871 -0.084460124 0.032173194
000190 06 3c ce bb f4 6e f8 bd 9e f6 91 be a0 24 6e bd
       -0.0062937764 -0.12130538 -0.28508466 -0.058140397
0001a0 62 7f 5d be d0 6f cf bd bb 09 f9 bb 26 31 a3 bd
       -0.21630624 -0.101287484 -0.007600037 -0.07968359
0001b0 1c d6 a3 bc 1f 97 07 bd a2 42 9d bd a5 7d 09 be
       -0.019999556 -0.033103105 -0.07678725 -0.13426836
0001c0 13 70 fd bd 59 e3 35 be a3 93 5d bd 00 9b b1 bd
       -0.12374892 -0.17762507 -0.054095875 -0.08672142
0001d0 77 14 95 bd ac 2f a5 bd 30 5b 4e be 95 d3 b2 bd
       -0.07279294 -0.08065733 -0.20151973 -0.08731762
0001e0 e3 03 6c bd dc 85 16 be 99 d9 83 3d 8e 4d 5f bd
       -0.057620894 -0.14699501 0.06437988 -0.05451732
0001f0 ba 50 b3 be 04 21 9f bc 4f 31 1c bb 04 75 2f b4
       -0.35022527 -0.019424923 -0.00238331 -1.6340715e-07
