code/models weights/Lambda_gaussian_0.3_50.pth (torch, 47544 bytes, 28 tensors)

embedding f4 [16, 1, 1, 23, 23]
00000000: 336b 343a b8e8 59ba 06ab a3ba 9e6b 43ba
00000010: 7ac4 a63a 9c54 8fb9 56bb 513b 4969 213c
00000020: 6773 0a3a 0168 603a a528 753c 736e 6abd
00000030: 1d87 583c 9466 6a3a 58f8 ec3a 5ce8 203c
00000040: 546d 3638 17ad f337 1a75 b3ba 6dde 37ba
00000050: 05b6 3eb9 e6ed 09ba f715 18bb 3adb 24bb
00000060: 8bbb ffba 8ea7 03bb f1fc 52ba 1901 a6b9
00000070: 0d5e 83b8 d752 443b 3231 083c b96c 88b9
00000080: 6b22 40b9 fd2e a23c 1778 44bd 6384 953c
00000090: 1ac1 d23a 1c79 bf3a 0e13 1d3c 7bfc 3b3b
000000a0: 4e0d 3a39 5a16 f2ba c175 a1ba 2f94 65b9
000000b0: 6550 87b9 3dc5 0eba b530 813a 3f1b 28ba
000000c0: d855 ceba 5a64 26ba 8fef 9bba 4ccb 6d3a
000000d0: c8e4 8d3b 8f40 393c 2fba a83a 67f2 993a
000000e0: 154b a23c 00ef 3abd e62d 9d3c 85f4 7db7
000000f0: d179 483b 9422 373c b53a 663b 4522 f63a
00000100: ba94 3339 63ed d0b9 fe3d 49ba 8284 d1ba
00000110: 58a2 c6b9 6124 c0b9 91d3 843a 61fd 0339
00000120: e205 beba 7d93 4d3a 5fd9 b63a 9646 b03b
00000130: faa0 533c e6fb 173b a24d e43a b531 b53c
00000140: 31cd 3bbd d868 ba3c 7603 523b 4af8 903b
00000150: 4a39 573c d591 a93b 80fa 393b 6a98 533a
00000160: ab5b 9db9 d337 70b9 37fd 90ba ba48 faba
00000170: 91eb 263b eb3b 083b 9885 8839 87fd b739
00000180: 7889 563b e6f3 723b a4cc e63b e94d 803c
00000190: 1747 8f3b 2527 a33b 38b6 ce3c 58bf 45bd
000001a0: b7bc c93c 7bbc b03b 86c0 d13b e26f 643c
000001b0: facc a03b f927 843b d654 043b e327 9b38
000001c0: e8d2 9b39 fb3a 043b 4e7c 84b8 1dc6 4f3b
000001d0: 8375 2b3b bab7 783a 0494 293b 70b9 9e3b
000001e0: 048d b13b b122 143c 0b2c a13c d9da 0a3c
000001f0: 6676 223c c833 f33c 0be7 53bd ffea f73c
00000200: 1eeb f13b 0583 123c 4a28 9c3c 35ca e93b
00000210: cb08 d23b eaf7 533b 46c4 7e3b 90f1 943a
00000220: 9deb ca3a daf1 bd3a 8f11 543b f880 5d3b
00000230: e5ce 963b 431a a93b b964 a83b 3ef1 ec3b
00000240: c28c 473c 53d5 d23c e585 573c c7b1 5f3c
00000250: e950 0e3d 7483 6dbd e0b6 0a3d 6c55 503c
00000260: dd89 503c 7768 cb3c bfe3 253c 527e fc3b
00000270: b398 ab3b 2e58 9c3b 9e2a 873b 4b5a 2f3b
00000280: f611 7f3b f538 513c e82c 203c d72c 4a3c
00000290: 66cd 723c 53fc 7c3c fdb3 9f3c f26b ca3c
000002a0: 8387 253d e9b4 f43c 854b fd3c 4e8a 433d
000002b0: 1e44 65bd 110a 4e3d 40c1 f83c 92fb f73c
000002c0: 5aa1 1f3d 3392 c83c 2873 aa3c 8f1f 923c
000002d0: bb33 753c 7f79 573c 7e23 5e3c 810e 5c3c
000002e0: a715 5a3b 9061 353a 1079 f93a 6fe5 453b
000002f0: d9f0 be3b 547d ec3b 5685 463c 9a53 e73c
00000300: 01fe bd3c 9fcb f03c 49ef 1b3d 8026 b7bd
00000310: d0ee 183d 4ca1 eb3c a836 bf3c d2f4 f23c
00000320: d2f6 7c3c 5135 1f3c e8cb 0b3c 11fa 363b
00000330: fb4c 6e3b d605 653b ff2a 4b3b 7ae2 c73a
00000340: 6a6d 8f3a 52d7 483b a8a1 a33b de19 d93b
00000350: 3539 0b3c 6521 823c bbff 103d 0600 e73c
00000360: e60d 1b3d 468c e03c 3272 07be c7bc dd3c
00000370: 54a0 153d ad57 043d 588b 163d d7e6 993c
00000380: 9501 3b3c a817 e03b 0f19 9d3b 3c33 383b
00000390: 126c 2e3b 3bdd 1e3b 4088 933c 6539 ac3c
000003a0: 7a8f be3c 7c70 c63c 9973 eb3c c2b3 f33c
000003b0: 68c7 0b3d 9338 453d 537f 193d 60bd e73c
000003c0: ac92 84bd 756e a9be 2f76 8cbd 69e7 c63c
000003d0: 55c7 123d 63f5 353d f2e0 0a3d 5418 f93c
000003e0: 2b7f dd3c 73c0 d33c e377 c83c 9140 b63c
000003f0: 835b 9f3c f2b9 85bd 9a33 6cbd 2b4f 5dbd
0.0006882429 -0.0008312571 -0.0012486882 -0.0007454696 0.001272335 -0.00027338124 0.003200253 0.009851762
0.00052814785 0.00085604197 0.014963304 -0.05723424 0.013215807 0.0008941677 0.0018079383 0.009821024
4.3494e-05 2.9048459e-05 -0.0013691515 -0.000701404 -0.0001818762 -0.0005261585 -0.0023206451 -0.0025155083
-0.0019510848 -0.0020088884 -0.00080485555 -0.00031662805 -6.264085e-05 0.0029956603 0.00831251 -0.00026020946
-0.00018323369 0.019797796 -0.04796609 0.018251603 0.0016079277 0.0014608237 0.0095870625 0.0028684426
0.00017743299 -0.0018469796 -0.0012318419 -0.00021894345 -0.00025809105 -0.0005446261 0.0009856435 -0.00064127514
-0.0015742136 -0.0006347351 -0.0011896956 0.0009071126 0.0043302514 0.011306896 0.001287287 0.0011745215
0.019811193 -0.045638084 0.019186925 -1.5136907e-05 0.0030590186 0.011177678 0.0035130207 0.0018778524
0.00017126175 -0.00039849718 -0.0007676779 -0.0015984925 -0.00037886458 -0.00036648198 0.0010133852 0.00012587525
-0.0014497603 0.0007842107 0.001395028 0.0053795082 0.012916798 0.0023190915 0.0017418156 0.022118429
-0.045849983 0.022755072 0.003204552 0.0044241296 0.013136217 0.0051748552 0.002837807 0.00080717227
-0.00030013671 -0.0002290898 -0.0011061792 -0.001909516 0.0025469998 0.0020787667 0.00026039477 0.00035093373
0.0032735746 0.0037071644 0.007043438 0.01566215 0.0043724882 0.0049790316 0.025233373 -0.048278183
0.024626119 0.0053935624 0.0064011244 0.013942691 0.0049072476 0.0040330854 0.0020192168 7.3984054e-05
0.0002972104 0.0020176757 -6.317404e-05 0.0031703778 0.0026162572 0.00094878266 0.0025875578 0.004843883
0.0054184217 0.009041474 0.019674322 0.008475029 0.009915924 0.029687777 -0.05173401 0.030263422
0.0073827645 0.00894237 0.01906218 0.0071347007 0.0064097396 0.0032343813 0.0038874312 0.0011363495
0.0015481595 0.0014491633 0.0032359099 0.0033798795 0.0046023005 0.0051606013 0.00513896 0.0072309067
0.012179555 0.025736487 0.013154482 0.013653225 0.03474513 -0.05798669 0.03386581 0.012715679
0.012728182 0.024830086 0.0101251 0.0077054882 0.005236709 0.004771254 0.0041249534 0.00267567
0.0038920618 0.012769927 0.0097763315 0.012339792 0.014819479 0.015441018 0.019495005 0.024709675
0.040412437 0.029871421 0.0309198 0.04773932 -0.055973165 0.05030257 0.030365586 0.030271325
0.038972236 0.024483776 0.020806864 0.017837314 0.014965947 0.0131515255 0.013558267 0.013431192
0.0033277066 0.000691914 0.0019033272 0.0030196568 0.005827051 0.0072170887 0.012116751 0.028238107
0.023192408 0.02939397 0.038069997 -0.0894289 0.037337124 0.028763436 0.023341492 0.029657755
0.015439706 0.009717301 0.008532502 0.0027920047 0.0036361802 0.0034946105 0.003100097 0.001524999
0.0010942642 0.003064592 0.004993636 0.006625398 0.008497526 0.015885064 0.035400134 0.028198253
0.03785505 0.027410638 -0.13227156 0.027067555 0.036529854 0.032310177 0.036753982 0.01878683
0.011413951 0.0068387575 0.004794247 0.002810671 0.0026614708 0.002424075 0.018009305 0.021023462
0.023261774 0.024223559 0.028741645 0.029748801 0.034125715 0.048149657 0.03747494 0.028288543
-0.06473288 -0.33092085 -0.06858479 0.024280267 0.03583463 0.044423472 0.03390593 0.030407108
0.027038177 0.025848603 0.024471229 0.022247585 0.019452816 -0.06529607 -0.0576664 -0.05403058

queries.0.weight f4 [64, 3, 1, 1]
00000000: bcd4 62bd c12a eebc 4156 62bd 6b2b 2d3e
00000010: cd05 d63b e4d7 eb3c c803 263b 3eda a03c
00000020: c930 833c acc0 a8bd 4a19 7dbd 18a1 86bd
00000030: d88b bebd 05f6 a63d 5469 9c3d 4d3a 17bd
00000040: 6575 fbbc cf7e 49bd 2499 2a3d 8685 86bd
00000050: e097 89bd 9063 133b e4ad 343b 8756 1bbc
00000060: 881a 41bc 6029 3a3d a152 783d 70f3 3dbc
00000070: 112a 6e3b 4425 dbbc d90b 203c a460 5d3b
00000080: a12b 8238 80f0 9cbc fec6 08bb 07a8 64bc
00000090: 8acb 08bd 127f 883d 2f2a 443d 2046 ee3b
000000a0: 72d8 913c d8d9 b9bc 1003 9dbd f836 80bb
000000b0: ced6 97bc 9db3 d23b e594 51bb c064 7bbb
000000c0: 1032 50bd e579 8cbd 630f c6bd 24c2 083e
000000d0: fdc0 c13d 5311 da3d 4abe 643d 1e05 c43c
000000e0: 4d35 633c 46ad 02be 8c38 bfbd 191d 9abd
000000f0: a14c 42bd 3957 903d 0814 e53d 7eee 583d
00000100: 5575 45bd a63e 0ebe 055b 4fbd 6eb1 41bd
00000110: 0c1f 38bd 65f9 4ebc 0bda 8cbc eac2 8fba
00000120: 4c37 9d3d 812d 933d 1f7e 763d c324 6bbd
00000130: dfd5 f1bc 0027 f7bc 7d3d 753b d797 c1bb
00000140: d7d5 213c 6ef3 98ba e500 513c ff1f 29bc
00000150: a5cb 753d 32d9 833d 4283 a53c 3952 25bd
00000160: 6f26 2fbd 5bc0 3bbd 0e35 d139 0438 843c
00000170: b65b 44b9 7186 87bd fea1 01bd 2940 5f3c
00000180: 547a 55bb 5ede 2dbd 75f6 a2bd 1e85 983c
00000190: 62e3 853d c6a1 c53d 8846 1f3d 1861 0e3c
000001a0: 585c d43c 9990 f1bd 1b67 38bb 63e5 cdba
000001b0: 6bbe 823d d872 5a3c 92fd 4a3d 10da e83c
000001c0: 91a6 c2bc f7b9 cbba ea61 a4bd 3cd8 3dbc
000001d0: 3fcb 07bc c1ce 9bbc 9dd4 f2bc 1d19 c73c
000001e0: ccd1 93bc a56e 61bd 13de 92bd 21bf a33b
000001f0: b23e 263c 428f e83c a762 223b 1d37 c6bb
00000200: 9c70 253c 98e4 7eba 2b6e 59bc 0dfd 493c
00000210: 9079 403d f999 0cbd 508b 8abd d452 713c
00000220: 16b1 03bd f23e 48bd b2e2 d0bc e6ec 1ebd
00000230: 9fca 5dbd 07c4 a33c a8bf 37bc 6cc3 123b
00000240: 2ae0 b4bc 3230 35bd 7e4c b1bd ab08 f83d
00000250: 822c 98bd ac2b d93d 9249 3c3d c9f2 083d
00000260: f1de be3c 222a abbd 6998 3f3c 8b6a 263d
00000270: 75f0 a5bd bee2 cf3d db55 b83d e63d a33d
00000280: aaf0 053d bf00 e5bc 8553 ab3d d355 32bd
00000290: 267d 563d c504 febb a309 2a3c eef3 d6bb
000002a0: de3f 79bd 5bc4 0fbd 1613 6dbd 5c3b ff3b
000002b0: 441f da3c 7039 8d3c e0b2 19bc e5d3 86b9
000002c0: 6e84 163c 1868 a73a 48e2 67bb f67a 163d
000002d0: 2ab6 af3c f197 923d bba5 033c dcf3 46bd
000002e0: 2b03 14bd 7450 b6bc 935d 453d 5b32 423d
000002f0: 6972 1d3c b445 443c 1d53 94bc 5888 263c
-0.05537866 -0.029073121 -0.05525804 0.16911094 0.006531453 0.028789468 0.0025331844 0.019635316
0.016014474 -0.08239874 -0.061791696 -0.06573695 -0.09304017 0.08152393 0.07637277 -0.036920834
-0.030695627 -0.0491932 0.041649953 -0.06568436 -0.06718421 0.0022489764 0.0027569467 -0.009481079
-0.011786111 0.045449615 0.060625676 -0.011593685 0.0036340992 -0.026751168 0.00976845 0.0033779526
6.2070096e-05 -0.019157648 -0.0020870562 -0.013956076 -0.033397235 0.06664862 0.047891792 0.007271543
0.017803404 -0.022686884 -0.076666 -0.003912803 -0.018535044 0.006430103 -0.0031979617 -0.0038359612
-0.050828993 -0.06859187 -0.096709035 0.13355309 0.09460638 0.106478356 0.055845536 0.023928221
0.013867688 -0.12761411 -0.09336957 -0.07525081 -0.04743636 0.070478864 0.11185461 0.05296182
-0.0482076 -0.13891086 -0.050623912 -0.04728835 -0.044951484 -0.0126327025 -0.017193815 -0.0010968123
0.07676563 0.071864136 0.060178872 -0.057408106 -0.029520927 -0.030169964 0.0037420683 -0.0059079933
0.009877644 -0.0011669227 0.012756561 -0.01032257 0.060008664 0.06437911 0.02020419 -0.040361617
-0.042761263 -0.04583774 0.00039903115 0.016139992 -0.00018726182 -0.066174395 -0.03164863 0.013626137
-0.0032574134 -0.042448394 -0.07957164 0.018618163 0.065375105 0.096499965 0.038885623 0.008690141
0.02592294 -0.11795158 -0.0028137628 -0.0015708621 0.063839756 0.013333045 0.04955823 0.028424293
-0.023761066 -0.0015543093 -0.08026488 -0.011587199 -0.008288204 -0.019019486 -0.029642398 0.024303967
-0.018044375 -0.05503716 -0.071712635 0.0049971496 0.010146784 0.028388623 0.002477804 -0.0060490505
0.010097649 -0.0009723394 -0.013270895 0.012328398 0.04699093 -0.034326527 -0.06764853 0.01472922
-0.032151304 -0.048888154 -0.025498722 -0.038800143 -0.054148313 0.019990934 -0.011215128 0.0022394313
-0.022079546 -0.044235416 -0.08657168 0.12111028 -0.07430364 0.10604033 0.0459686 0.033434663
0.023299666 -0.083576456 0.011694052 0.04062895 -0.08102504 0.101506695 0.09000751 0.079707906
0.03270022 -0.027954457 0.083655395 -0.04353888 0.052365445 -0.0077520334 0.010378274 -0.0065598404
-0.060851924 -0.03509937 -0.05787953 0.0077890586 0.026626237 0.017239302 -0.009381026 -0.00025716345
0.009186847 0.0012772111 -0.0035382677 0.03673836 0.021449167 0.07157887 0.008035119 -0.048572406
-0.036135834 -0.02225516 0.048184942 0.047411304 0.009609797 0.011979509 -0.018106038 0.010164343

queries.1.weight f4 [64]
00000000: 1d6f 263e c29b 063f a1fa b6bc 6f7c 893e
00000010: 485b 3e3e c6b4 413e f084 8a3e d9cb 743a
00000020: 8e4e 163e fe86 813c eb12 3cbb f760 f83c
00000030: 712d 4d3e fab5 063c 30de 003e b3f3 8eb9
00000040: 0c2b a13e 1009 293f e006 e03d 9055 fd3e
00000050: 6c36 523e 6ee5 493e 55b9 883e f8f4 0e3c
00000060: 5c42 063f 6df7 543e fc50 943a fddb 3cba
00000070: 033f 493e f2dc 5f3e dd5d 26bb f46a f73d
00000080: 51f6 cb3d 9c99 8d3e 1631 833d 5851 d83d
00000090: 39d7 c73d 08ee 5c3b 5f79 203e bd84 8b3c
000000a0: 6c25 833e 8fa1 b33c 6023 90ba 2a96 8f3a
000000b0: 6ee6 8f3d 1442 8b3d f4c4 143e 0b04 00bb
000000c0: 5f0a d43d d48d c33d f57e ab3d d9cb 283c
000000d0: 352a e73d 015f c93d f99d 743d 03cc 95ba
000000e0: b6fd 4a3e 1739 aa3c 25b6 e4b9 0cbc 3e3c
000000f0: 93c9 dc3d a606 bb3d f4d5 883d fdfa c338
0.16253324 0.5258142 -0.022336306 0.26852748 0.18589509 0.18916616 0.27054548 0.0009338237
0.14678404 0.01581144 -0.00286978 0.030319674 0.20036866 0.0082220975 0.12584758 -0.0002726592
0.31478155 0.66029453 0.10938811 0.49479342 0.20528573 0.19716427 0.26703897 0.008725397
0.52445006 0.2079751 0.0011315639 -0.00072044117 0.19652943 0.21861628 -0.0025385537 0.120809466
0.099590905 0.27656257 0.06405847 0.1056239 0.09757847 0.0033711214 0.156713 0.017031068
0.25614488 0.021927623 -0.0010996871 0.0010954787 0.07026373 0.06799713 0.14528257 -0.001953366
0.10353541 0.09548536 0.083738245 0.010302507 0.11287347 0.09832574 0.059720967 -0.0011428598
0.19823346 0.020779176 -0.00043623257 0.011641514 0.10780635 0.091321275 0.06681433 9.345075e-05

queries.1.bias f4 [64]
00000000: 0a14 193f 1df5 073d 2054 eebc 2e3d fa3d
00000010: b210 463e bb5c 873d 9c21 423e daef 713b
00000020: 09f7 d5bd 2bdd 21be 9cf7 a53a 8fdf 2dbd
00000030: 00d2 3d3e b8cd 53bb 37f8 febd b4c2 5c3d
00000040: 7451 c3be e3f7 183e 7799 57be 5fc4 22bd
00000050: fa6b 493e 4a35 b83e 5995 aebc 1d83 773c
00000060: 1127 2a3d c37b edbd e060 973b 0f39 65bd
00000070: f8c0 253d 7117 e13d a4e6 8a3e aca3 643e
00000080: d607 5ebd 7bd9 3bbe da45 38bc 1971 0dbf
00000090: ec06 8c3d 20be c53d 026b 333e b5c2 5f3c
000000a0: 6393 dcbd b469 b03c 6115 443b 70d5 dbbc
000000b0: a18e 0a3d dc70 ea3d dd42 96be 60a7 7e3e
000000c0: d5eb 4e3e 7921 283e e1a7 bcbd 8128 1dbf
000000d0: 8920 c73d 7a64 223d 7128 043c c750 d53b
000000e0: 1d0c aebd f39c bd3c 66a7 d638 c183 dcbc
000000f0: 8aef b93d 3d3e 173d 21c3 c53e f044 1f3c
0.597962 0.033192743 -0.029092848 0.122187 0.19342306 0.06609484 0.18958133 0.0036916644
-0.10447509 -0.15807025 0.0012662294 -0.04244953 0.1853714 -0.0032318663 -0.12449687 0.05389662
-0.3814808 0.14938311 -0.21054636 -0.039738055 0.19670096 0.35978156 -0.021311449 0.015106943
0.041541163 -0.11595871 0.0046197027 -0.05596262 0.040467232 0.10990799 0.2712909 0.22328061
-0.05420669 -0.18344681 -0.011247123 -0.552507 0.06837258 0.09655404 0.17521289 0.013657262
-0.10770299 0.021534778 0.002991997 -0.026835173 0.033827428 0.114473075 -0.29347888 0.24868536
0.2020715 0.16419019 -0.09211708 -0.6138993 0.097230025 0.039646603 0.008066283 0.0065098736
-0.08498404 0.023146128 0.000102354956 -0.026918294 0.090788916 0.03692459 0.38625434 0.009721026

queries.1.running_mean f4 [64]
00000000: eb8e 75bd 61de b93d cafa 813c 829d babd
00000010: 241b cd3c 5de4 4ebd 46ca 15bd ebf7 d6ba
00000020: 852b 213d f53c 50bc 3c91 bc3b 1267 76bc
00000030: 8385 0c3d 2315 143b d924 35bd c714 a23a
00000040: 9075 bdbd 50b6 143e 80f1 273d 6752 04be
00000050: 4cd7 5e3d 4c54 5dbd e776 7dbd 86fe 66bc
00000060: d934 ba3d b62e 52bd 9c00 c13a 9e9f ad3a
00000070: 6e1b 823d 3752 64bd 398a de3b 0d7e 1fbd
00000080: 6c93 55bd 52b6 9c3d a4ab 033d fedc 5fbd
00000090: 846d 603d 64bd 0e3b 2d1a 36bd 0457 1fbc
000000a0: 9b51 7bbd 9887 983c 3ba7 353b 6c1a bbba
000000b0: 50c2 aabc 7a79 d2bc e798 4ebd c71d c43b
000000c0: ef6f 83bd 4678 853d 1283 383d fd2b 85bc
000000d0: 73b4 3b3d e2d3 203d 5a73 253d 9c0b 4f3a
000000e0: fc50 88bd 1e76 b33c 52f4 8fba 48c3 653c
000000f0: b661 363d 331e 40bd ed43 3e3d 8bf8 a83a
-0.05995075 0.090756185 0.015866656 -0.091120735 0.025037356 -0.050510753 -0.036569856 -0.001640079
0.039348144 -0.012709846 0.005754618 -0.015039222 0.034307014 0.0022595606 -0.044224594 0.0012365811
-0.09250939 0.14522672 0.041001797 -0.12922059 0.05440454 -0.05403547 -0.061880972 -0.014098769
0.09092111 -0.05131408 0.0014724913 0.0013246422 0.06352888 -0.05574247 0.00679138 -0.03893857
-0.052142546 0.07651962 0.03214611 -0.054654114 0.054791942 0.0021780366 -0.044458557 -0.009725336
-0.061357122 0.018619344 0.0027718085 -0.0014274842 -0.020844609 -0.02569269 -0.050438788 0.005984995
-0.06417834 0.06517081 0.045046873 -0.016256327 0.045826387 0.039264567 0.04039321 0.0007898153
-0.066560715 0.021906909 -0.0010982847 0.014023609 0.04452678 -0.0469038 0.046451498 0.0012891454

queries.1.running_var f4 [64]
00000000: d7dc 0e3b e767 c93b 8354 3239 8a5a a03b
00000010: f94a 213b c4b6 c93a c8bc da3a 114d 4737
00000020: 6921 a83a 96fe 1c39 0c3a c737 b864 1b39
00000030: 9488 ac3a de46 ba38 b38c b43a 7663 fa36
00000040: ee91 ac3b 57fc 4b3c bb02 8b3a 733f 213c
00000050: 4c39 5d3b 8aaf 803b 96c0 133b e35a 0239
00000060: a41a 9f3b 9c00 ce3a 8a90 7d37 3bd7 df37
00000070: ea49 1f3b f33a f13a d105 3238 8b08 973a
00000080: e293 043b a858 803b ed09 293a f89a 253b
00000090: 5021 f83a a8df 0c39 c09e bc3a afb0 5a39
000000a0: 8e59 213b e504 7e39 8757 9a37 90a0 0b38
000000b0: f319 883a f98b 2d3a 7013 d03a 47d5 8838
000000c0: 4a4c 363b 4b08 9c3b 6624 9d3a 911e 813a
000000d0: fcbd 663b e572 b93a 2174 e93a 18cb b237
000000e0: 98e6 2d3b aecf a039 305b 8e37 1ea0 7139
000000f0: 897a af3a 699a aa3a 7784 ad3a 285e 6b38
0.0021799111 0.0061464193 0.00017006886 0.0048936056 0.0024611338 0.0015389551 0.0016688341 1.1879268e-05
0.001282734 0.0001497216 2.3749679e-05 0.00014819473 0.0013163262 8.882371e-05 0.0013774842 7.4621594e-06
0.0052664196 0.012450299 0.0010605672 0.009841788 0.0033756075 0.003927176 0.002254521 0.00012431624
0.0048554707 0.0015716734 1.5113628e-05 2.6683896e-05 0.002430553 0.0018404409 4.2443924e-05 0.0011522932
0.0020229747 0.0039168186 0.00064483174 0.002526937 0.0018930826 0.00013434759 0.0014390573 0.0002085592
0.002462003 0.00024225151 1.8398989e-05 3.3289718e-05 0.001038371 0.0006620284 0.0015874933 6.524711e-05
0.0027816468 0.004761731 0.0011988997 0.0009851028 0.0035208454 0.0014148621 0.0017811098 2.1313826e-05
0.002653515 0.00030672312 1.6970182e-05 0.000230432 0.0013387959 0.0013015989 0.001323833 5.6116056e-05

keys.0.weight f4 [16, 3, 1, 1]
00000000: 2672 903c a19c a83d b046 b93d 1a87 e73e
00000010: 3fe7 9f3e cb3e 863e 7ab0 9a3c f714 303c
00000020: 5b95 103c b497 6abe 00e5 32be 75c1 36be
00000030: d606 4cbd d878 653c 7baf 0a3d 6cb9 19be
00000040: 407e 1bbe 1a6a 24be 1afe 9dbc d40e 15be
00000050: 4bf8 45be c4ed 8a3b 6726 c2bb a82f 95bc
00000060: e24b 263f beb8 4a3f 701d 3f3f 5356 89be
00000070: 5555 8dbe 1569 78be cfaa 92ba e722 bcb9
00000080: 4d3b 513a b9aa de3b e774 bbb9 8b6a 64bc
00000090: 6e61 5c3d 776a 323e 2c27 583e 94d6 0abe
000000a0: 4382 d5bd 7944 c7bd fc97 66bd d58e 143d
000000b0: 04e2 c63d 9cf9 10be fcc3 06be 9cb3 d0bd
0.017632555 0.082329996 0.09046686 0.45220262 0.31231114 0.26219782 0.018882979 0.010747186
0.008824672 -0.22909433 -0.17470169 -0.17847236 -0.049811207 0.014005862 0.033858757 -0.15012139
-0.1518488 -0.160561 -0.019286204 -0.14556438 -0.19332998 0.0042397697 -0.005924988 -0.0182112
0.6495954 0.79188144 0.74654293 -0.26823673 -0.27604166 -0.24258836 -0.0011189821 -0.0003588416
0.0007981554 0.006795254 -0.00035754518 -0.013941417 0.053803854 0.17423426 0.21108693 -0.13558418
-0.10425236 -0.09729857 -0.056297287 0.036269028 0.09711078 -0.14157718 -0.131607 -0.10190508

values.0.weight f4 [4, 3, 1, 1]
00000000: cb0b 243e c62a 09be 4d2f 61be 8e6c 8fbc
00000010: 6b89 7ebe 92f1 353e a777 6cbe 0798 9ebd
00000020: 719c 393d 9332 2cbe 7f3f 48bd 4cdd 30be
0.16020124 -0.13395223 -0.219907 -0.017507818 -0.24857108 0.17767933 -0.23092519 -0.07743841
0.04531521 -0.16816168 -0.04888868 -0.17271918

values.1.weight f4 [4]
00000000: c5d6 ee3e dea5 bd3e 7395 063f d9ee fd3e
0.4664823 0.3704061 0.5257179 0.4959629

values.1.bias f4 [4]
00000000: ccfd 3abe 449a 443e 1afb 93be a713 db3e
-0.18260878 0.19199473 -0.28902513 0.4278843

values.1.running_mean f4 [4]
00000000: 2616 9cbd cf1a 3bbd 77fd f3bd ccd1 2bbe
-0.07621412 -0.045679864 -0.11913579 -0.1677925

values.1.running_var f4 [4]
00000000: cc1f 4a3c 6c46 1e3c c704 3d3c f5bc 903c
0.0123366825 0.009660345 0.011536784 0.017668227

conv.0.weight f4 [8, 16, 1, 1]
00000000: 9d8a 313b bef6 a53b abee 983d fdeb 7dbd
00000010: 1d58 9bba 45b7 5a3c a331 1b3c caf6 e83b
00000020: 46f7 703d 9759 bebb c19b 4abd 4e06 1e3e
00000030: 3c86 d5bb b766 493d 81e4 6cbd 4c48 2e3e
00000040: 90da 3a3e d86c 97bd b054 adbd 9f32 d23a
00000050: 7f07 2f3d a6cc efbc 7ffd 8abd 0c57 15bc
00000060: 184d cbbd 4701 883d 6246 5ebd 4621 453d
00000070: 4d63 d43d bd9a 913c b28c 07be 6b09 ba3d
00000080: 8df6 8e3d 20e7 07bd f609 aa3c e710 19bd
00000090: 79da 4e3c 49ae fe3b 242f f6ba 28dd a23c
000000a0: c2ee 2bbd 43ce a83d 506e f23c fe83 163e
000000b0: 59ae f0bc 3054 a33d 27d2 92bd fe33 433e
000000c0: b3dc 3bbe 21d0 003d 856b 67be 2c06 98bd
000000d0: a9f0 f53d 4caf 0e3d 63f7 183e 6a78 223e
000000e0: 7ba8 bbbb 0aa4 95bd 2900 043d 9397 3fbe
000000f0: c7eb 3c3d 15f7 d63d 483b 923c 1fb0 973e
00000100: ee0f e9bd 7da8 11bd 5d8a 15be 0631 ddbd
00000110: 58d8 293e 619c aebd 1445 673e 034b bcbd
00000120: 897b 23be ca03 ba3d 47d5 8fbe f233 023e
00000130: ab6f 843c fa49 1fbb f57b d93c a640 993c
00000140: bb77 13bb 0a4d 4abd 13c3 4f3d 7e2c 433c
00000150: 033a a0bc 6fe8 ecbc 45d0 4b3b 97bd 36bc
00000160: 13aa 3ebd 766e 693e 294a a0bd 884d d7bb
00000170: 3ae8 9c3c ec11 853d 59d4 b83c c23a 0cbd
00000180: 555b e63c bb6b 31bc 20f1 0a3b 8181 a9bc
00000190: 35f6 26bc b264 293c b316 d1bc cc62 0b3c
000001a0: 92ba eebd a399 ce3c 407b 0bbe f2c5 393c
000001b0: eb19 e2bd a888 5a3d f440 35be d232 8b3d
000001c0: b403 213d 937e a63c f843 343d a158 4ebc
000001d0: 5697 5fbd c191 973c e633 d5bc 4793 0dbd
000001e0: 4f3a 64bc 8a77 64bc c3f5 48be 01a3 1e3e
000001f0: ef37 3d3d 3f38 f5bc 1b7c 3e3c 0688 91bc
0.0027090677 0.0050648144 0.07467397 -0.061992634 -0.0011851821 0.013349359 0.009472284 0.0071094977
0.05882957 -0.00580902 -0.049464945 0.15432093 -0.006516246 0.049170222 -0.057835106 0.17019767
0.18247437 -0.07393807 -0.084634185 0.0016036815 0.04273176 -0.029272389 -0.06786632 -0.009114992
-0.09926814 0.06640869 -0.05426634 0.048127435 0.103705026 0.01777398 -0.13237265 0.090838276
0.069806196 -0.033179402 0.020756703 -0.037369635 0.01262533 0.0077722413 -0.001878236 0.019880846
-0.041975744 0.08242466 0.029593617 0.14698789 -0.02938001 0.07975042 -0.0716899 0.19062802
-0.18345909 0.031448487 -0.22599609 -0.07423052 0.12008793 0.034835145 0.1493812 0.15866247
-0.0057268715 -0.073066786 0.032226715 -0.18710165 0.046123292 0.10496346 0.017850533 0.29626557
-0.113799915 -0.035561074 -0.14603563 -0.10800366 0.16586435 -0.08525921 0.22584945 -0.09193995
-0.15965094 0.09082754 -0.28092405 0.12715128 0.016166529 -0.0024305568 0.026548365 0.018707585
-0.0022501785 -0.049389876 0.050723147 0.011912463 -0.019558912 -0.028919427 0.003109948 -0.0111536
-0.046548914 0.22796044 -0.07826645 -0.0065705217 0.019153703 0.06497559 0.022562193 -0.034235723
0.028119722 -0.010828908 0.002120085 -0.020691635 -0.010190536 0.010338949 -0.02552352 0.008507442
-0.11656679 0.025219744 -0.13621235 0.011338698 -0.110401 0.05335298 -0.17700559 0.067968026
0.039310172 0.020324027 0.044010133 -0.012594373 -0.054587685 0.018502118 -0.026025724 -0.034564283
-0.0139299175 -0.013944516 -0.19625 0.15491869 0.04619592 -0.029934047 0.011626269 -0.017765056

conv.1.weight f4 [8]
00000000: 46b8 873e b749 c43d 74d5 c73e 3d6b 783e
00000010: bd1c 383f 732e e53d cfb6 b93e 6c2f 2b3e
0.26507777 0.095843725 0.3903004 0.24259658 0.7191885 0.111905 0.36272284 0.16717309

conv.1.bias f4 [8]
00000000: 0ec1 b0be 0162 fc3d c2c4 00bf 20a7 6a3e
00000010: ae68 45bf 528c a8bd dcad a6be c4df 17be
-0.3452229 0.1232338 -0.5030023 0.22915316 -0.77112854 -0.08229889 -0.3255452 -0.14831454

conv.1.running_mean f4 [8]
00000000: fecd 04bf 2f3b d3be b99d 12bf bbb8 683e
00000010: 4851 66bf 6848 95be a126 f9be e2c0 e2be
-0.5187682 -0.4125609 -0.57271916 0.22726719 -0.89967775 -0.29156804 -0.48662284 -0.44287783

conv.1.running_var f4 [8]
00000000: ab75 953d cdb1 8b3c c2a1 aa3d b296 a63d
00000010: 2e05 ef3d ecec 353c f3d0 b53d cf90 a93c
0.07297834 0.017052555 0.08331634 0.081342116 0.1167091 0.01110385 0.088777445 0.020698933

conv.3.weight f4 [3, 8, 1, 1]
00000000: 5c2f 53bc 660f 943d 7fde 1c3e a6a0 ba3d
00000010: 94fa 9cbe dfb3 1cba 4a64 0fbe a909 6cbd
00000020: 9153 433d af0a 2abc a3f5 d63d e450 b13d
00000030: 7001 94be 8ad8 6c3d 2c53 1dbe e882 88bc
00000040: 41cd 5e3e 841c 84bd 86f8 e9bb 355c 893d
00000050: 39fc 72be 7cd4 8bbd 750d 08be 9997 a33d
-0.012889709 0.072294995 0.1531925 0.091126725 -0.30659926 -0.00059777306 -0.14003101 -0.0576264
0.047687117 -0.010378524 0.1049607 0.08658007 -0.28907347 0.057823695 -0.15363759 -0.016663983
0.21757986 -0.064507514 -0.007140222 0.0670704 -0.23729028 -0.068276376 -0.13286383 0.07987899

conv.4.weight f4 [3]
00000000: e4c4 9b3f f3fc 9b3f 89a8 9b3f
1.2169461 1.2186569 1.2160808

conv.4.bias f4 [3]
00000000: a8ec 97be 24a1 a3be 1861 c8be
-0.29672742 -0.31958878 -0.39136577

conv.4.running_mean f4 [3]
00000000: b08c 9e3b a132 87bb 0771 36bc
0.0048385486 -0.0041259085 -0.011135346

conv.4.running_var f4 [3]
00000000: 6db3 ab3b b2ea 9e3b 8b6d 6c3b
0.005239895 0.004849755 0.0036076035

shortcut.0.weight f4 [3, 16, 1, 1]
00000000: 90e7 b83d d2f4 993d 5797 aa3d b5ae fc3c
00000010: 0d02 d6bd 48e3 aabc ceeb eebd 6d13 5fbe
00000020: 1da2 15be 7e7b ebbc ed98 943d 556f 263e
00000030: b474 e9bb 53e5 04bd 89cc 4c3e 7103 02bc
00000040: cfd5 313d e4f3 1abe cfac d73d 3abd be3d
00000050: 2778 07be da94 c5bd 4d77 05be 9086 41be
00000060: 2105 8e3d e2f7 753e b57f 87bd ac48 b73d
00000070: 1927 ef3d f92a 653c 2143 d73d 2f05 2a3c
00000080: dc6a eb3d d53a 243d 4834 b93d b397 b03b
00000090: b9ce eebd e5a1 95bc 652a 27be a73a 48be
000000a0: d401 883d 750f 18bd df2a 02be 3c69 493e
000000b0: 4c4f 493e a8c7 4bbd 91da 503d df10 8d3d
0.09028542 0.07517399 0.08329647 0.030845026 -0.1044961 -0.02086033 -0.1166607 -0.21784754
-0.14612623 -0.02874541 0.07255731 0.16253407 -0.007124508 -0.032445263 0.19999899 -0.007935391
0.043416794 -0.151321 0.105310075 0.09313436 -0.13229428 -0.09647532 -0.13033791 -0.18898988
0.06934572 0.24020341 -0.06616155 0.08949408 0.11677379 0.013987296 0.10510851 0.010377212
0.11494991 0.04009517 0.09043175 0.0053891777 -0.11660523 -0.018265674 -0.16324766 -0.19553624
0.06640974 -0.037124116 -0.12711667 0.1966905 0.19659156 -0.049750954 0.05098969 0.068879835

shortcut.0.bias f4 [3]
00000000: bc05 9d37 1d75 3a36 01c9 3f37
1.8718529e-05 2.7784329e-06 1.1431287e-05

shortcut.1.weight f4 [3]
00000000: 11f6 9d3f 768a 9c3f 49d8 a23f
1.2340719 1.2229755 1.2722255

shortcut.1.bias f4 [3]
00000000: a8ec 97be 24a1 a3be 1861 c8be
-0.29672742 -0.31958878 -0.39136577

shortcut.1.running_mean f4 [3]
00000000: 6cc1 52be 33eb b1be 9431 d0be
-0.20581597 -0.34749755 -0.40662825

shortcut.1.running_var f4 [3]
00000000: e8d7 933e 3c63 933e 820d af3e
0.2887566 0.28786647 0.34189993
