code/models weights/Lambda_gaussian_0.1_50_u4_m7.pth (torch, 27544 bytes, 28 tensors)

embedding f4 [16, 4, 1, 7, 7]
0	0x3bde3aa4	0.006781893
1	0x3b77fad5	0.0037838717
2	0x3ad3597b	0.001612469
3	0xbb726206	-0.0036984696
4	0x3ad9e46a	0.0016623859
5	0x3b84e281	0.0040553217
6	0x3bc4bf61	0.0060042595
7	0x3b98ac61	0.004659221
8	0x3b7620e4	0.0037556225
9	0x3ac6810b	0.0015144659
10	0xbb89ff6f	-0.0042113583
11	0x38875ad2	6.454218e-05
12	0x3b5c5f86	0.0033626272
13	0x3b63be15	0.003475075
14	0x3a8d9403	0.0010801557
15	0x3a1384d3	0.00056273973
16	0xbb77cfde	-0.0037813107
17	0xbbe24d29	-0.006906171
18	0xbb4436b2	-0.0029939828
19	0xba394e6b	-0.0007068875
20	0x3aefeb06	0.0018304295
21	0xbbc3b5cf	-0.005972601
22	0xbc0dc158	-0.008652054
23	0xbc412a6e	-0.011789901
24	0xbc8a7aee	-0.01690432
25	0xbc32513e	-0.010883627
26	0xbc1d002d	-0.009582561
27	0xbbf2dd8b	-0.007411664
28	0x3a5d0748	0.0008431566
29	0xbab3216e	-0.0013666579
30	0xbb7ddce8	-0.0038736407
31	0xbbfb3c8c	-0.00766713
32	0xbb9d3dcc	-0.0047986265
33	0xb9d2296f	-0.00040085192
34	0xb9c764d8	-0.00038031372
35	0x3b85e463	0.0040860637
36	0x3b73e2ca	0.0037214034
37	0x3b051e7d	0.0020312362
38	0xbba1aeff	-0.0049341912
39	0x3ac37cd0	0.0014914516
40	0x3b57068a	0.0032810294
41	0x3b53a8bc	0.0032296618
42	0x3bc6f528	0.0060717054
43	0x3ba2be42	0.004966528
44	0x3b6f6b73	0.003653255
45	0xbb49de28	-0.0030802581
46	0x3b2b63d5	0.0026152034
47	0x3b98a1b1	0.004657947
48	0x3bbefe9b	0.005828691
49	0x3b4e22c0	0.0031453818
50	0x3a3dcd9c	0.0007240416
51	0x39f1fb25	0.0004615422
52	0xba873193	-0.0010314457
53	0x398e5973	0.00027150995
54	0x3824a8f8	3.925801e-05
55	0x3b1295fe	0.0022367234
56	0x39b1ab97	0.00033887915
57	0xbadc7e17	-0.0016822246
58	0x38a9bb2b	8.093411e-05
59	0x399e1e4e	0.00030158687
60	0x39ab7319	0.00032701416
61	0xbb139880	-0.0022521317
62	0xb9dd5d23	-0.00042221797
63	0x3afd5d8f	0.0019330251
64	0x3b28be29	0.002574811
65	0x3be4a0ac	0.0069771614
66	0x3b97fac3	0.0046380474
67	0x3bd5cf21	0.006524936
68	0x39b0f0b5	0.00033748677
69	0x3ac0e73d	0.0014717352
70	0x3b0a255f	0.0021079404
71	0x3b4d294c	0.0031305132
72	0x3be3b24c	0.006948745
73	0xbaa83728	-0.0012833821
74	0x3be572a5	0.007002192
75	0x3b31e385	0.002714367
76	0x3a54fb01	0.00081245607
77	0x3ba4c1ba	0.005027977
78	0x3bad7266	0.0052931784
79	0x3c619409	0.0137682045
80	0x3bfad98a	0.007655327
81	0x3c3b644e	0.011437489
82	0x3bbab3d8	0.0056977086
83	0x3b911a70	0.0044282004
84	0x3b1510c0	0.002274558
85	0x3ac3488e	0.0014898942
86	0x3ba2adce	0.004964567
87	0x3bac1a51	0.0052521606
88	0x3b9d8316	0.0048068864
89	0x3b1470bf	0.002265021
90	0x3b5311c8	0.0032206643
91	0x3b65b7c6	0.0035052164
92	0x3b05f4af	0.0020440032
93	0x3b8ba301	0.004261375
94	0x3b7d10e7	0.003861481
95	0x3b85dba3	0.0040850206
96	0x3b2cecc7	0.0026386247
97	0x3b82eec8	0.00399575
98	0xbb0ecd40	-0.002178982
99	0xbb3abbc8	-0.0028493274
100	0xbb2b4495	-0.0026133407
101	0xbc0f20ee	-0.008735878
102	0xbb1bdefd	-0.0023784034
103	0xbb6e7ad6	-0.0036389134
104	0xbb1e96b5	-0.0024198715
105	0xbabca7ee	-0.0014393309
106	0xbaac661d	-0.0013152991
107	0xbaae338d	-0.001329051
108	0xbbe22ad5	-0.0069020786
109	0xbaafb9fe	-0.001340687
110	0xbb5b7968	-0.0033489112
111	0xbb20bc8d	-0.0024526448
112	0x39c997f7	0.0003845093
113	0xbac954cc	-0.0015360354
114	0xbb9eaa09	-0.004842047
115	0xbb4d6d25	-0.0031345573
116	0xbb01a60c	-0.001978281
117	0xbb8f8cbb	-0.00438079
118	0x39392cfa	0.0001765973
119	0xbb8c7d06	-0.004287365
120	0xbbd146fe	-0.0063866368
121	0xbb945674	-0.0045269076
122	0xba91c57c	-0.0011121477
123	0xb96e3518	-0.00022717228
124	0xbbc2a93e	-0.0059405854
125	0xbb72aea0	-0.0037030354
126	0x3a98e04d	0.0011663527
127	0xbb0bcb8f	-0.0021331047
128	0x39475f49	0.00019013615
129	0xba33d646	-0.00068602373
130	0x3adb23d6	0.0016719054
131	0x3afbcf76	0.0019211608
132	0x3abcf363	0.0014415797
133	0xbb6a86a9	-0.003578583
134	0xbb90d7d6	-0.004420261
135	0xbb8a6ba7	-0.004224259
136	0xbbc8f527	-0.00613274
137	0xbb33d8e2	-0.0027442505
138	0xbadbaa18	-0.0016759066
139	0xbaecadea	-0.0018057202
140	0xba8fb988	-0.0010965327
141	0xbae04001	-0.0017108918
142	0xbab28605	-0.0013620263
143	0xbbbd23e2	-0.0057721
144	0x3aa28d16	0.0012401666
145	0xba497a29	-0.0007685745
146	0xb9f69eec	-0.00047039182
147	0xba3165af	-0.0006767166
148	0x3a424953	0.0007411439
149	0x3a9eb1a9	0.001210739
150	0x3b58d551	0.003308613
151	0x3aacdcb3	0.0013188332
152	0x3a539a7e	0.00080720324
153	0xba679185	-0.0008833635
154	0x3aab1aaf	0.0013054217
155	0x3b19b6f2	0.0023454991
156	0x3b450b27	0.0030066462
157	0x3b95c06c	0.0045700576
158	0x3b14d3b2	0.0022709188
159	0x3b0eff96	0.0021819822
160	0x3a88ca2c	0.0010436228
161	0x3aee9633	0.0018202722
162	0x3b11d9e0	0.0022255108
163	0x3a1a6709	0.0005889987
164	0x3aa3dd41	0.0012501852
165	0x3a42e4c1	0.00074345997
166	0x3af3e919	0.0018608897
167	0x3ace68ca	0.0015747782
168	0x3b586075	0.0033016477
169	0x3b6e1884	0.003633053
170	0x39c2e934	0.00037176313
171	0x3a5c143b	0.00083953486
172	0x3aa6eb7d	0.0012734976
173	0x3b589782	0.003304929
174	0x3b5971d0	0.003317941
175	0x3a69655b	0.0008903348
176	0x3a7de5ce	0.00096854276
177	0xba8a0e1c	-0.0010532769
178	0xba0eb134	-0.00054432754
179	0xba955abb	-0.0011394838
180	0x3aaf3732	0.001336789
181	0x3a0e77cf	0.0005434723
182	0x3aa43e3c	0.0012530754
183	0x3af91da6	0.0019006028
184	0x3abb390b	0.0014283968
185	0x3b4d6273	0.0031339198
186	0x3a4ad4c1	0.0007737391
187	0x3ae02c42	0.0017103034
188	0x3a597ce9	0.0008296506
189	0xb9356f67	-0.00017303006
190	0x3a85cffd	0.001020908
191	0x3aa19536	0.0012327794
192	0x3b0e1d76	0.002168504
193	0x3a68f39b	0.00088863977
194	0x3a20b522	0.00061305065
195	0xba4fd9d4	-0.0007928882
196	0x3ccc09d5	0.024907032
197	0x3cca4da2	0.024695221
198	0x3c9a0b06	0.018804085
199	0x3d16c1bc	0.036805853
200	0x3ca2fcca	0.01989593
201	0x3cc1fb36	0.023679357
202	0x3cc455bc	0.023966663
203	0x3ced5ac3	0.028973943
204	0x3cfa06f5	0.030520895
205	0x3ce3685b	0.027759722
206	0x3d4faf35	0.0507042
207	0x3cce8626	0.025210451
208	0x3cfaf5c4	0.030634768
209	0x3ce72963	0.028217977
210	0x3ccad5a6	0.024760079
211	0x3d018275	0.031618554
212	0x3b8e2b1e	0.004338636
213	0x3c1766b9	0.0092408
214	0x3c201b68	0.009772159
215	0x3cf4599a	0.029827882
216	0x3cd8874f	0.026431708
217	0x3d21fbd2	0.039546795
218	0x3d40a84e	0.047035508
219	0x3bcb7516	0.006209026
220	0xbb7a240b	-0.0038168456
221	0x3bc88754	0.006119648
222	0x3d395884	0.04525043
223	0x3d1cfec7	0.038328912
224	0x3cbfb7d6	0.02340309
225	0x3cdfe0c0	0.027328849
226	0x3c16ffb2	0.009216236
227	0x3c9613fb	0.018320074
228	0x3bad3d84	0.0052868742
229	0x3d013486	0.03154423
230	0x3cbebc2f	0.023283092
231	0x3ce14b54	0.02750174
232	0x3d00618f	0.03134304
233	0x3cd82a25	0.026387284
234	0x3d4a3c54	0.04937394
235	0x3ce198ac	0.02753862
236	0x3d02bcc5	0.031918306
237	0x3cda6db2	0.026663635
238	0x3cca5a1c	0.02470117
239	0x3cd6b82a	0.026210863
240	0x3ca3bf46	0.019988667
241	0x3d1d403f	0.038391348
242	0x3caffe2f	0.021483509
243	0x3cd53d88	0.026030317
244	0x3ccd28e4	0.025043912
245	0xbbbe103e	-0.005800276
246	0xbbe5a342	-0.0070079872
247	0xbc40987f	-0.011755108
248	0x3d0bed72	0.034161992
249	0xbc1f77b4	-0.009733129
250	0xbbf7f266	-0.007566738
251	0xbbd798c3	-0.00657949
252	0xbc3d303b	-0.011547144
253	0x3a81b30b	0.0009895278
254	0x3d0cbaec	0.03435795
255	0x3d63bb5c	0.0555986

queries.0.weight f4 [64, 3, 1, 1]
0	0xbcc0ce3a	-0.023535836
1	0x3c8ed6b1	0.017436357
2	0xbc83fded	-0.016112292
3	0x3d5158bb	0.05111001
4	0x3d855dab	0.06512006
5	0x3b42ab87	0.002970429
6	0xbd5c9fbb	-0.05386327
7	0xbc911278	-0.017709002
8	0xbd37827a	-0.044802167
9	0x3c779f1d	0.015113619
10	0xbd162678	-0.03665778
11	0xbd6a5149	-0.057206426
12	0xbaf88c9f	-0.0018962807
13	0x3d4f6c45	0.050640363
14	0x3d3f9e1b	0.04678164
15	0x3ad1fb87	0.0016020396
16	0x3a5445ab	0.00080975395
17	0x3c05480d	0.008134854
18	0x3d064355	0.032779057
19	0xbd757880	-0.05992937
20	0xbd4ab7c0	-0.049491644
21	0xbb9cd9fa	-0.004786727
22	0x3d4903c4	0.049075857
23	0x3d031fd1	0.032012764
24	0xbdb11f4d	-0.08648548
25	0x3ac924b1	0.0015346018
26	0x3b9dfa0b	0.004821067
27	0xbd733ff6	-0.05938717
28	0xbc9ae3b9	-0.018907415
29	0xbd2621ba	-0.040559508
30	0x3c043571	0.008069382
31	0x3d2a3c94	0.041561678
32	0x3c969d31	0.018385502
33	0x3d90b34b	0.070654474
34	0xbd612926	-0.054970883
35	0xbd49f05f	-0.0493015
36	0xbdf95004	-0.12173465
37	0x3cdf5180	0.027260542
38	0x3d7f158a	0.0622764
39	0xbd23b5da	-0.03996835
40	0xbd7b810c	-0.061402366
41	0xbbf6a35e	-0.007526799
42	0x3ce884a6	0.028383564
43	0x3d0c091a	0.034188367
44	0x3d7ca766	0.06168308
45	0xbc924490	-0.017854959
46	0xbc94eee1	-0.018180313
47	0xbc62e5a2	-0.013848694
48	0x39d477a5	0.00040524933
49	0xbb326401	-0.0027220252
50	0x3ac60699	0.0015108167
51	0xbcef68fe	-0.029224869
52	0xbd6ecf6d	-0.058303285
53	0xbd892acd	-0.06697617
54	0xbd570cf6	-0.052502595
55	0x3c43998d	0.011938465
56	0x3d8c33c3	0.0684581
57	0xbd72013f	-0.05908322
58	0xbd415a44	-0.047205225
59	0x3cf1cb87	0.029515995
60	0xbd4ce820	-0.05002606
61	0xbd005e4d	-0.031339932
62	0x3ccbf0fb	0.024895182
63	0x3dc7385a	0.09727545
64	0x3d095453	0.033527683
65	0x3c05dbcf	0.008170082
66	0xbc0d6ae4	-0.008631442
67	0x3c9410c8	0.018074408
68	0x3daa748b	0.0832301
69	0xbd786df9	-0.060651753
70	0xbd3d9889	-0.046288047
71	0xbd2669ba	-0.040628172
72	0x3c20f516	0.009824058
73	0x3c5b9e00	0.013404369
74	0x3d8f6ace	0.07002793
75	0xbd7d7b83	-0.061885368
76	0xbd814ba1	-0.06313253
77	0x3c45c299	0.0120703215
78	0x3dae68c9	0.0851608
79	0x3d60bb63	0.054866206
80	0xbe26ab28	-0.16276228
81	0x3c2e6b4e	0.010645701
82	0x3c90f03d	0.01769268
83	0x3c2d3cb1	0.010573552
84	0x3dc745f6	0.09730141
85	0x3d020d87	0.031751182
86	0xbcc63781	-0.024196388
87	0xbd9b905d	-0.075958945
88	0x3d3dfd2d	0.046384025
89	0xbe180fba	-0.14849749
90	0xbad50ba4	-0.001625408
91	0x3cc1c14b	0.02365174
92	0x3dd232f7	0.10263627
93	0x3d779460	0.060444236
94	0xbd7343d1	-0.059390847
95	0x3c220010	0.00988771
96	0xbadd0ea5	-0.0016865326
97	0xbb1fb709	-0.0024370572
98	0x3ad6c1a9	0.001638462
99	0xbd8452d9	-0.064611144
100	0xbd392ea5	-0.0452105
101	0xbc522eb2	-0.012828516
102	0x3d977a7c	0.07396409
103	0x3c7dba58	0.015486322
104	0x3d02b922	0.031914838
105	0xbd50d1c7	-0.05098131
106	0xbd50ee02	-0.051008232
107	0xbcaa36f5	-0.020778159
108	0x3cb2e380	0.021836996
109	0x3bc9edff	0.0061624045
110	0x3cc6e8db	0.024280956
111	0xbdb8f6b8	-0.09031433
112	0xbd8e2816	-0.069412395
113	0xbcac0bf2	-0.02100179
114	0x3c61ebd6	0.013789138
115	0x3d81212e	0.06305157
116	0x3dae9eec	0.08526406
117	0x3c82d187	0.015969051
118	0xbd03fcca	-0.0322235
119	0xbdca7646	-0.0988584
120	0x3da3dfc8	0.08001667
121	0x3d697a6d	0.05700152
122	0xbb87c020	-0.004142776
123	0xbd35e520	-0.044407964
124	0xbd424e9d	-0.047438253
125	0xbda47777	-0.080305986
126	0x3dae5d38	0.08513874
127	0x3ce4fc57	0.027952356
128	0x3bd29733	0.0064267158
129	0x3b181f6c	0.0023212088
130	0x3bb1e44a	0.0054288255
131	0x3c8672ba	0.016412128
132	0x3cb9a60d	0.022662187
133	0xb9ecd2b0	-0.00045170402
134	0x3d5690f8	0.052384347
135	0x3d8ba6bb	0.06818911
136	0x3d5567da	0.052100994
137	0x3c80a126	0.015701842
138	0x3c303cc0	0.010756671
139	0x3d425ac6	0.04744985
140	0x3da8ecc0	0.082482815
141	0xbbfe6d68	-0.007764507
142	0x3a1208c9	0.0005570767
143	0xbc6eeb42	-0.014582457
144	0x3beaa3b2	0.0071606273
145	0xbc4f1395	-0.012638946
146	0xbc9797f8	-0.018505082
147	0x3d368f29	0.044570122
148	0x3d0eb574	0.034841016
149	0x3d4263de	0.047458522
150	0x3d406767	0.046973612
151	0x3d4f2504	0.05057241
152	0x3b1839d3	0.0023227825
153	0xba874aaa	-0.0010321934
154	0x3a7bb7a3	0.0009602254
155	0xbb7ab858	-0.003825685
156	0x3d2deeab	0.04246394
157	0x3d0dc5fb	0.034612637
158	0x3cacf630	0.021113485
159	0xbdb48160	-0.08813739
160	0xbd3e2043	-0.046417486
161	0x3cd5a317	0.026078744
162	0xbbd4047a	-0.00647026
163	0x3d656630	0.056005657
164	0x3d82b050	0.06381285
165	0x3c57e68f	0.013177528
166	0xbd7a4d90	-0.061109126
167	0xbcdb240f	-0.026750593
168	0xbcc2731b	-0.023736527
169	0x3c936c8d	0.017996097
170	0x3d9a1e81	0.075253494
171	0xbbc06ac6	-0.0058721034
172	0xbd922ce9	-0.07137472
173	0xbcca42e4	-0.024690099
174	0x3d8de638	0.06928676
175	0xbcf45c1f	-0.029829083
176	0x3cad2e54	0.021140255
177	0x3c81ae68	0.015830234
178	0x3d6c7550	0.057729065
179	0xbd0bbf0e	-0.03411775
180	0x3c90715c	0.017632179
181	0xbd8ac972	-0.06776704
182	0xbd87ccdb	-0.0663087
183	0xbc742623	-0.014901671
184	0xbd3cf642	-0.046133287
185	0xbd9f9266	-0.07791595
186	0xbd978812	-0.07399
187	0xbcf409f1	-0.029789897
188	0xbc9648c9	-0.018345254
189	0xbb8354de	-0.0040079197
190	0xbc9b9c03	-0.01899529
191	0xbcea23c0	-0.0285815

queries.1.weight f4 [64]
0	0x3c0b9d64	0.008521412
1	0x3e6c213a	0.2305955
2	0x3e77db7f	0.24204825
3	0x3e166962	0.14688638
4	0x3e1f0d56	0.15532431
5	0x39b5a5fd	0.0003464668
6	0x3e2163c8	0.1576072
7	0x3d6fccaa	0.058544792
8	0x3e0a2bc8	0.13493264
9	0x3def54f5	0.11686126
10	0x3cddac5e	0.02705973
11	0x3ddd8ecd	0.10818253
12	0x3e1ff394	0.15620261
13	0x3e17fd9b	0.14842837
14	0x3e002216	0.12513003
15	0xba8e879c	-0.0010874155
16	0xb8eae5cf	-0.00011200795
17	0x3e62a19c	0.22131962
18	0x3e1796a9	0.14803566
19	0x3ddc4d94	0.10756984
20	0x3d491438	0.049091548
21	0x3e8e6866	0.27814025
22	0x3e244b95	0.16044457
23	0x3e6277f9	0.22116078
24	0x3e0d7822	0.13815358
25	0x3e59f7ef	0.21285985
26	0x3e869886	0.2628824
27	0xbbf66579	-0.0075194207
28	0x3e4e17da	0.20126286
29	0x3e27b40b	0.16377275
30	0x3eaf49cf	0.34236
31	0x3ce36d9e	0.02776223
32	0xba7166c9	-0.00092087366
33	0x3e0e1c31	0.13877942
34	0x3e443e26	0.19164333
35	0x3e2ab752	0.16671494
36	0x3c8c87f2	0.017154668
37	0x3edcea61	0.43147567
38	0x3ea89908	0.32929254
39	0x3e56ce43	0.2097712
40	0x3e6fb6ba	0.23409548
41	0x3e97dafb	0.29659256
42	0x3df77185	0.12082199
43	0x3b811b34	0.0039400104
44	0x3d5d2929	0.05399433
45	0x3e4d472c	0.20046681
46	0x3e575e9f	0.21032189
47	0xba839628	-0.0010039257
48	0x3b87882d	0.0041361065
49	0x3deb5793	0.11491313
50	0x3e1cc159	0.15308131
51	0xb95724bf	-0.00020517687
52	0x3e07029a	0.13184586
53	0x3e26fb0c	0.16306704
54	0x3e2a937e	0.16657826
55	0x3d38e480	0.04513979
56	0x3da9e47d	0.08295534
57	0x3e029274	0.1275118
58	0x3d0e39d5	0.03472312
59	0x3d6dc237	0.058046546
60	0x3e46c1f8	0.1940993
61	0x3e2bd598	0.16780698
62	0x3e49c0a6	0.19702396
63	0x3cb03c8c	0.021513246

queries.1.bias f4 [64]
0	0x3c1f2d02	0.009715321
1	0x3d894ee1	0.06704498
2	0x3d02ef1a	0.031966306
3	0xbd4c535c	-0.049884185
4	0xbd729e42	-0.059232958
5	0xbced5839	-0.028972732
6	0x3d2a023f	0.04150605
7	0x3deff28b	0.11716183
8	0xbd0c1053	-0.034195255
9	0x3cb8cfe1	0.022560062
10	0xbe08187b	-0.13290589
11	0x3cef1ead	0.029189432
12	0x3d3361a8	0.043794304
13	0xbcb1cff3	-0.021705603
14	0xbd10fc7f	-0.03539705
15	0x3b84d818	0.0040540807
16	0xbb832e55	-0.004003326
17	0xbd95e246	-0.07318549
18	0x3d14153a	0.036153056
19	0xbeb9b38b	-0.36269793
20	0xbd2041d5	-0.039125282
21	0xbedf4214	-0.436051
22	0x3d8866dc	0.06660244
23	0x3e2002ef	0.15626119
24	0xb8c2bcab	-9.285783e-05
25	0x3e0e6bd0	0.13908315
26	0x3dd55339	0.10416264
27	0xbd2a0b28	-0.041514546
28	0x3ecb9149	0.3975928
29	0xbe22a096	-0.15881571
30	0x3de3ad34	0.1111702
31	0xbbd0d041	-0.006372482
32	0x3b726070	0.003698375
33	0x3e4d520d	0.20050831
34	0xbdae399c	-0.08507082
35	0x3cceb135	0.025230983
36	0x3db7f81a	0.089828685
37	0x3e421865	0.18954618
38	0xbda8c164	-0.08240011
39	0x3e4ed8e2	0.20199922
40	0xbda4f05b	-0.08053657
41	0xbe28e156	-0.16492209
42	0xbd197a8b	-0.03747038
43	0xbb89d88a	-0.0042067217
44	0xbdfd6183	-0.123721145
45	0x3e01c23e	0.12671754
46	0xbe809394	-0.25112593
47	0x3cd37705	0.025813589
48	0x3c8d92d9	0.017281936
49	0xbc8aec97	-0.016958518
50	0xbd140d57	-0.036145534
51	0x3db0a505	0.08625225
52	0xbddc1bb8	-0.107474744
53	0xbe1fec61	-0.15617515
54	0x3d53026d	0.051515985
55	0xbe4b2dfa	-0.19841757
56	0x3d07b05d	0.033127178
57	0x3e937ff3	0.28808555
58	0x3e19575e	0.14974734
59	0x3d0f6e11	0.035017077
60	0xbc81b9e2	-0.015835706
61	0xbd8a2ae2	-0.067464605
62	0x3c9bfd19	0.019041585
63	0x3d4b4282	0.049623974

queries.1.running_mean f4 [64]
0	0xbc1efffd	-0.009704587
1	0x3d5c041d	0.05371486
2	0xbd4ed708	-0.05049804
3	0xbd089a55	-0.033350307
4	0x3d231b3e	0.039820902
5	0x3b9c50c8	0.004770372
6	0xbd059baf	-0.032619175
7	0x3d052821	0.032508973
8	0xbd1210cb	-0.035660546
9	0xbd4fc54f	-0.050725278
10	0x3cf04835	0.029331306
11	0xbc5dae9e	-0.0135304015
12	0xbc8e7292	-0.017388616
13	0xbd44da8d	-0.04805999
14	0x3d597208	0.053087264
15	0xbca691bb	-0.020333162
16	0xb9afd784	-0.00033539173
17	0xbd87bb7c	-0.06627557
18	0x3c2c1355	0.010502656
19	0xbd103a26	-0.035211705
20	0xbcd9c526	-0.026583266
21	0x3d7df99f	0.062005635
22	0x3d1852b8	0.03718826
23	0xbd839c84	-0.06426337
24	0x3d1f6476	0.038914166
25	0xbd4f2879	-0.050575707
26	0xbb94f587	-0.0045458707
27	0x3c8a5e04	0.016890533
28	0x3d41de99	0.047331426
29	0xbd9809f8	-0.074237764
30	0x3d538029	0.051635895
31	0x3b99c094	0.0046921466
32	0xba716368	-0.0009208233
33	0xbd5e0d73	-0.054212045
34	0x3d5abd7f	0.053403374
35	0xbd5d292d	-0.053994346
36	0x3cb1d751	0.021709116
37	0xbda3a455	-0.07990328
38	0x3d8c5efb	0.068540536
39	0xbd441084	-0.047867313
40	0x3d75d368	0.060016066
41	0xbd973b9a	-0.07384415
42	0x3d5b692c	0.053567097
43	0x3c255fd2	0.010093646
44	0x3d010c1f	0.0315057
45	0x3d7644c8	0.06012419
46	0x3d72d31e	0.05928337
47	0xbc14aca6	-0.009074366
48	0xbc239145	-0.009983365
49	0x3d644c26	0.055736683
50	0x3d35313d	0.04423641
51	0xbaa72a25	-0.0012753649
52	0x3d319613	0.043356013
53	0xbd4feacb	-0.050761025
54	0x3d43f2e2	0.047839053
55	0xbd03f463	-0.032215487
56	0x3ce9acc1	0.028524758
57	0xbd32c563	-0.043645274
58	0x3cd3db12	0.025861297
59	0x3c9104ee	0.017702546
60	0xbd4486d9	-0.047980163
61	0xbd6eef95	-0.058333952
62	0xbd5e8a5f	-0.05433118
63	0xbcb2e4d2	-0.021837626

queries.1.running_var f4 [64]
0	0x38657cec	5.4714197e-05
1	0x3aa8866e	0.0012857446
2	0x3a973268	0.0011535408
3	0x3a1fbace	0.0006093205
4	0x3a4ffdbf	0.00079342345
5	0x3747ab52	1.1901213e-05
6	0x3a2518a4	0.0006297922
7	0x3a0a1736	0.0005267741
8	0x3a251088	0.0006296714
9	0x3a982779	0.0011608443
10	0x39d1f742	0.00040047808
11	0x39a90f02	0.00032245374
12	0x3a0764d2	0.00051648647
13	0x3a873c7a	0.0010317706
14	0x3aad8755	0.0013239185
15	0x394a33a6	0.00019283462
16	0x3446a5db	1.8500525e-07
17	0x3b063091	0.0020475725
18	0x3986507e	0.00025618443
19	0x3a1dc60e	0.0006018587
20	0x39b7fa2f	0.0003509088
21	0x3ae29c00	0.0017288923
22	0x3a532e51	0.0008055913
23	0x3af1c998	0.001844692
24	0x3a4db512	0.0007847111
25	0x3a977d63	0.0011557754
26	0x3a664325	0.0008783809
27	0x3906ee03	0.00012867902
28	0x3a8dae97	0.0010809478
29	0x3b3f40e0	0.0029182956
30	0x3abf58d8	0.0014598621
31	0x38eb8d1b	0.00011231956
32	0x35015c5c	4.8190645e-07
33	0x3aaaccbc	0.0013030986
34	0x3aa7df6c	0.0012807674
35	0x3aa98afd	0.0012935098
36	0x39663344	0.00021953607
37	0x3b39664c	0.0028289733
38	0x3b1594cb	0.0022824283
39	0x3aab0391	0.0013047328
40	0x3ad346cd	0.0016119123
41	0x3b25eeb7	0.0025319287
42	0x3aa93cc6	0.0012911789
43	0x385c6ac8	5.2551535e-05
44	0x3a01bfc2	0.00049495336
45	0x3ad1f399	0.0016018032
46	0x3ae39253	0.0017362334
47	0x382af1e0	4.0756422e-05
48	0x3877113c	5.890544e-05
49	0x3ab8668f	0.0014068651
50	0x3a646843	0.0008713046
51	0x35b1510f	1.3211119e-06
52	0x3a5ad783	0.0008348154
53	0x3a9eaf25	0.001210664
54	0x3a984887	0.0011618295
55	0x3a0bdde3	0.0005335493
56	0x3a0f8395	0.00054746243
57	0x3a6c9ecc	0.0009026348
58	0x39bc1b7b	0.0003587863
59	0x39487b73	0.00019119475
60	0x3a9ee830	0.0012123641
61	0x3ad9c9e2	0.0016615952
62	0x3aac1a2c	0.0013130358
63	0x3974f627	0.00023361352

keys.0.weight f4 [64, 3, 1, 1]
0	0xb98fe2e8	-0.00027444144
1	0xb87f103d	-6.081186e-05
2	0x39ecbbdc	0.00045153394
3	0xba87caf4	-0.0010360167
4	0xba9a9fbb	-0.0011796871
5	0xba976afd	-0.0011552271
6	0x3ab80eed	0.0014042534
7	0x3a641fa0	0.0008702222
8	0x39d26aac	0.00040133798
9	0x393da051	0.00018084167
10	0x38262878	3.9615174e-05
11	0x3a51374a	0.0007980956
12	0x3b35ea9e	0.002775825
13	0x3d28767a	0.041128613
14	0x3dde1cb1	0.10845316
15	0x3d390cf1	0.045178358
16	0xbb5556a3	-0.003255286
17	0xbd337803	-0.043815624
18	0xbc9cfd49	-0.019163745
19	0xbc2b081b	-0.010438944
20	0xbd2555be	-0.040364973
21	0x3cd8680a	0.026416797
22	0x3cbef2b9	0.023309099
23	0x3d7983ab	0.060916584
24	0xbc9945cf	-0.018710045
25	0xbd7402f2	-0.05957312
26	0xbd7e1b9f	-0.06203806
27	0xbcc15ce5	-0.023603866
28	0x3d470b8b	0.048594993
29	0x3d9b1c86	0.075738
30	0x3daeac4b	0.08528956
31	0x3d5c16b5	0.053732593
32	0x3b4c7bd2	0.0031201732
33	0x3d0e0fdf	0.034683105
34	0xbc17920e	-0.009251131
35	0xbd9c4a55	-0.07631365
36	0x3b22f7cb	0.0024866934
37	0x3d2d8357	0.042361584
38	0x3d6fcd1e	0.058545224
39	0xbcb4229a	-0.021989156
40	0xbd71e728	-0.05905834
41	0xbd353b95	-0.044246275
42	0x3d02d1e0	0.031938434
43	0x3c2cfa57	0.010557733
44	0xbd105621	-0.03523839
45	0x3d9aa885	0.07551674
46	0x3d85beec	0.06530556
47	0x3ce42d6c	0.02785369
48	0xbbc4a81a	-0.0060014846
49	0xbc725fb4	-0.014793325
50	0x3c6c1db6	0.0144113805
51	0x3cd6187d	0.026134724
52	0x3cc6e120	0.02427727
53	0x3c45d766	0.012075281
54	0xbcc4a19f	-0.024002848
55	0xbc82e423	-0.015977925
56	0xbd38c9af	-0.045114215
57	0x3c75d1f9	0.015003675
58	0xbc2936fc	-0.010328051
59	0xbc43127c	-0.0119062625
60	0x3d767711	0.060172144
61	0xbc951b35	-0.01820145
62	0xbe11cef7	-0.14239107
63	0x3d54cf36	0.051955424
64	0x3c1e9e2b	0.009681265
65	0x3d591da8	0.053006798
66	0xbe4720b6	-0.19446072
67	0xbd743b66	-0.05962696
68	0x3d6f9e03	0.0585003
69	0xbd91c776	-0.07118122
70	0xbd2f3718	-0.04277715
71	0xbc8aa421	-0.016923966
72	0x3a3cbba7	0.0007199593
73	0xbd55872f	-0.052130874
74	0xbd8ad5b7	-0.06779044
75	0x3c17a786	0.009256249
76	0x3d93fde3	0.072261594
77	0x3da0e1b5	0.0785555
78	0x3d3505a5	0.044194836
79	0x3d2db87a	0.04241226
80	0x3d18711f	0.037217256
81	0xbcfbdad6	-0.030743998
82	0xbd3c524f	-0.045976933
83	0xbd7c85bb	-0.061650973
84	0xbbaa6d7d	-0.0052010403
85	0x3c93cac4	0.018041022
86	0x3d4730ff	0.04863071
87	0x3a22004c	0.0006179854
88	0xba69c64b	-0.00089177926
89	0x3c0d7ea6	0.008636152
90	0x3d095a36	0.033533297
91	0x3bd81b86	0.006595078
92	0xbd4ff7c1	-0.050773386
93	0x3d688e99	0.056776617
94	0x3c8d8312	0.017274413
95	0xbc219397	-0.009861848
96	0xbb8662ef	-0.0041011493
97	0xbd0e4114	-0.034730032
98	0xbd24d2ad	-0.04023998
99	0xbce5d0c2	-0.028053645
100	0x3c71218b	0.01471747
101	0x3d0526c9	0.03250769
102	0x3d685442	0.05672098
103	0x3d39001f	0.04516613
104	0x3c543512	0.012952106
105	0x3baea537	0.0053297537
106	0xbc67f2ab	-0.014156978
107	0xbd3d1fcd	-0.046172906
108	0x3d83ffad	0.06445251
109	0x3dfbd191	0.12295831
110	0x3de9e1ed	0.11420045
111	0xbdc87294	-0.09787479
112	0xbdf63ae3	-0.120229505
113	0xbdd6833c	-0.1047425
114	0x3da2a96b	0.0794247
115	0xb8f2edc1	-0.00011583744
116	0xbcf6b874	-0.030117251
117	0x3d9e0d41	0.07717372
118	0x3dd739ba	0.10509057
119	0x3d0ece76	0.034864865
120	0xbd8894c3	-0.06668999
121	0x3ce90d4c	0.028448723
122	0x3e20fd9a	0.15721741
123	0x3d878091	0.06616319
124	0xbd1ca0f4	-0.038239434
125	0xbe0dc4e0	-0.13844633
126	0xbcb32eb5	-0.021872858
127	0x3c51c4c6	0.012803262
128	0x3d8478e6	0.06468372
129	0xbe0315ac	-0.12801236
130	0xbb0d6c44	-0.0021579424
131	0x3e395b5d	0.18101259
132	0xbd127a75	-0.035761315
133	0xbce79b61	-0.028272333
134	0xbc12b6cf	-0.008954718
135	0x3c4f8b47	0.012667484
136	0x3bbbde5c	0.0057332944
137	0xbbfc3389	-0.007696573
138	0x3ca636e6	0.02028985
139	0x3cd2bd42	0.02572501
140	0x3ccb284b	0.024799487
141	0xbb950a24	-0.004548328
142	0x3c0a336a	0.00843511
143	0x3c94edd4	0.018179812
144	0x3d2f6701	0.04282284
145	0x3c90ee74	0.017691828
146	0xbd4427f0	-0.04788965
147	0x3d58bc11	0.05291373
148	0x3d61e4ec	0.055149958
149	0x3d7731b5	0.06035014
150	0xbdd975a6	-0.10618143
151	0xbd7d1385	-0.061786193
152	0x3d44721d	0.04796039
153	0xbde4daa4	-0.11174515
154	0xbd614801	-0.05500031
155	0xbc31d153	-0.010853129
156	0xbdaa3460	-0.08310771
157	0xbc692b45	-0.014231508
158	0x3d7d321f	0.061815377
159	0xbcd1f0e6	-0.025627565
160	0xbd121db6	-0.035672866
161	0xbd05bda8	-0.032651573
162	0x3e00757d	0.12544818
163	0x3d8b38a9	0.067979164
164	0x3ac02e80	0.0014662296
165	0x3d3faaaf	0.046793636
166	0xbc4b668c	-0.012414586
167	0x3c3c7193	0.011501688
168	0x3df6dc39	0.12053723
169	0x3c7dd360	0.01549229
170	0xbe1aae97	-0.15105663
171	0xbd87eef2	-0.06637372
172	0x3d3c07a1	0.045905713
173	0x3df5bc99	0.11998863
174	0xbd42c641	-0.04755235
175	0xbd86a410	-0.06574261
176	0xbb966596	-0.0045897467
177	0xbc27ffa0	-0.010253817
178	0xbd6f22ed	-0.058382917
179	0xbe12fd1d	-0.14354368
180	0xba87e8d3	-0.001036907
181	0x3ba8f5f6	0.005156274
182	0x3b17ac4b	0.0023143466
183	0x3c0ca474	0.008584131
184	0xbbae2708	-0.0053147115
185	0xbc0b9279	-0.0085188085
186	0xbc19b958	-0.009382568
187	0x3b0a8cda	0.0021141083
188	0x3c446b92	0.011988537
189	0xbc1784f2	-0.009248005
190	0x3ad2f611	0.0016095062
191	0x3c25f122	0.010128291

values.0.weight f4 [16, 3, 1, 1]
0	0x3d14a956	0.036294304
1	0xbdbe4413	-0.09290328
2	0x3e365e81	0.17809488
3	0x3eadb1c7	0.33924696
4	0xbe60d303	-0.21955495
5	0xbcd9fc97	-0.026609702
6	0xbea03e8f	-0.31297728
7	0x3e49122c	0.19635838
8	0xbccc89c8	-0.024968043
9	0xbe28a81d	-0.1647038
10	0xbd4555ca	-0.048177518
11	0x3ead5884	0.33856595
12	0x3d9ccddf	0.07656454
13	0x3deb0fcd	0.11477623
14	0xbce22391	-0.02760485
15	0xbdf0a3af	-0.1174997
16	0x3ca81eb9	0.020522462
17	0xbd76c629	-0.060247574
18	0x3ca83ead	0.020537699
19	0xbe091215	-0.13385804
20	0x3bcde565	0.0062834495
21	0x3d2832da	0.04106412
22	0x3dc9fee8	0.09863073
23	0x3ceac584	0.028658636
24	0x3daa3c49	0.0831228
25	0x3db2f869	0.08738787
26	0x3d722c04	0.059124008
27	0xbd8635b6	-0.06553213
28	0xbd2524ef	-0.040318426
29	0xbdb76ba8	-0.08956081
30	0xbd2d31c3	-0.042283785
31	0xbdd4e235	-0.10394708
32	0xbda50a97	-0.080586605
33	0xbd8e30f4	-0.06942931
34	0xbd83353d	-0.06406639
35	0xbda08788	-0.078383505
36	0xbccb2f06	-0.024802696
37	0xbdbc0074	-0.09179774
38	0x3d95fc45	0.07323507
39	0xbd8a5d5d	-0.06756089
40	0xbe0c873c	-0.13723463
41	0x3ddbded3	0.1073586
42	0xbcc820c7	-0.024429692
43	0x3df8aea0	0.12142682
44	0x3bbe7e96	0.00581343
45	0x3acfc418	0.0015851287
46	0xbdc66082	-0.09686376
47	0x3be24c1c	0.0069060456

values.1.weight f4 [16]
0	0x3e9cef9e	0.30651563
1	0x3e9c1aca	0.30489188
2	0x3eddeaf8	0.4334333
3	0x3e9d854f	0.3076577
4	0x3ebed0d9	0.37268713
5	0x3e9f0082	0.31055075
6	0x3e819a69	0.25313118
7	0x3e988075	0.29785505
8	0x3ef3de0f	0.47630355
9	0x3e54d378	0.20783794
10	0x3eb5d2cb	0.35512385
11	0x3e87f540	0.26554298
12	0x3d730bcd	0.059337426
13	0x3dfe2888	0.124100745
14	0x3e5295ba	0.20564929
15	0x3dc552fb	0.09634968

values.1.bias f4 [16]
0	0xbb68af17	-0.0035504752
1	0x3dc7c04e	0.09753476
2	0xbc99eae2	-0.018788759
3	0xbd3b7ae4	-0.045771495
4	0xbc6a3c2e	-0.0142965745
5	0xbd9027f1	-0.07038868
6	0xbc3a0225	-0.01135305
7	0x3e2fdbbd	0.17173667
8	0xbe8a18cf	-0.26972052
9	0xbe17cbe5	-0.14823873
10	0xbe37c541	-0.1794634
11	0x3e89bb0a	0.26900512
12	0x3dc67e33	0.09692039
13	0x3dfd5a7d	0.12370775
14	0x3d7110e1	0.058853988
15	0xbcffe818	-0.0312386

values.1.running_mean f4 [16]
0	0x3d42bc7f	0.047543045
1	0x3d368cc9	0.044567857
2	0xbd85c502	-0.06531717
3	0x3d2f2dff	0.042768475
4	0x3d973987	0.07384019
5	0xbd8c2cd9	-0.068444915
6	0xbd41df87	-0.047332313
7	0x3d9721b1	0.07379473
8	0x3dccc384	0.09998229
9	0xbdabb252	-0.08383621
10	0xbdc87c63	-0.0978935
11	0xbdbaf461	-0.09128643
12	0xbcb7412b	-0.022369942
13	0xbd423998	-0.047418207
14	0x3d37d1ce	0.04487782
15	0xbd1fe6d1	-0.039038483

values.1.running_var f4 [16]
0	0x3ae9e202	0.0017843845
1	0x3b5f8309	0.0034105203
2	0x3b749aa7	0.0037323625
3	0x3b96394b	0.0045844666
4	0x3b2398cb	0.0024962898
5	0x3b0ffdb9	0.00219713
6	0x3a9c1ef4	0.001191108
7	0x3b216408	0.0024626274
8	0x3b9269a2	0.004468159
9	0x3b5471b9	0.0032416417
10	0x3b90c60c	0.0044181403
11	0x3b77f376	0.0037834323
12	0x39d90545	0.0004139339
13	0x3abb8273	0.0014305845
14	0x3a8cc8c4	0.0010740985
15	0x3a473528	0.00075991685

conv.0.weight f4 [8, 16, 1, 1]
0	0xbb89a0ad	-0.0042000622
1	0x3da88c88	0.08229929
2	0x3dbd02b8	0.09229034
3	0xbdd11697	-0.10209387
4	0x3d5821be	0.052766554
5	0x3dc5ed5c	0.09664413
6	0x3d850570	0.06495178
7	0xbd4f4e11	-0.05061156
8	0xbd787c47	-0.060665395
9	0xbd8b2239	-0.06793637
10	0xbbc871a5	-0.006117063
11	0xbe01cca6	-0.12675723
12	0x3d5675da	0.052358486
13	0x3d824d93	0.06362452
14	0x3e342cff	0.1759529
15	0xbe258489	-0.1616384
16	0xbd45681c	-0.04819499
17	0xbd6a3bd6	-0.05718597
18	0xbdb4f705	-0.08836178
19	0x3e35f111	0.17767741
20	0x3ba64a7d	0.0050747977
21	0x3de05ccc	0.109551996
22	0x3dd476e6	0.103742406
23	0xbd297ab4	-0.041376784
24	0xbd88b43a	-0.066750005
25	0xbd59c36d	-0.05316489
26	0xbe35e1ee	-0.17761967
27	0x3d3d82cf	0.046267327
28	0xbda33f22	-0.07971026
29	0x3dbf4657	0.09339588
30	0xbe2a3bd3	-0.16624384
31	0xbd78ac24	-0.06071104
32	0xbe10b8d3	-0.14133005
33	0x3d0306d2	0.031988926
34	0xbcf6ab61	-0.030111017
35	0x3d317b15	0.04333027
36	0xbdc0aa27	-0.09407454
37	0x3e2982d1	0.16553809
38	0x3da3345d	0.07968972
39	0x3d2d488f	0.042305525
40	0xbd4c2f98	-0.049850076
41	0x3dd06f55	0.10177485
42	0x3d944261	0.07239223
43	0xbd6715fb	-0.056417447
44	0x3e002af5	0.12516387
45	0xbe59034c	-0.21192664
46	0xbd6c1cf3	-0.057644796
47	0xbdb2b152	-0.087252274
48	0x3d8bbaaf	0.068227164
49	0x3e118577	0.14211069
50	0x3debb576	0.1150922
51	0x3c8eccc3	0.017431622
52	0xbcba83ad	-0.022767866
53	0xbe2157de	-0.15756175
54	0xbde2632f	-0.11054074
55	0xbd19cc4d	-0.037548352
56	0x3d7d897d	0.061898697
57	0xbb9cd4d1	-0.004786112
58	0xbdc35850	-0.09538329
59	0x3da085b4	0.07838002
60	0x3c83c328	0.016084269
61	0xbdaba95b	-0.08381911
62	0xbe70d1b6	-0.23517498
63	0xbdb29efe	-0.087217316
64	0x3c147e57	0.009063325
65	0xbd6dc3cc	-0.058048055
66	0x3d11882b	0.03553025
67	0x3d0fde88	0.03512433
68	0xbd7c8dad	-0.06165855
69	0xbe0bc8c3	-0.13650803
70	0xbdd4b769	-0.10386545
71	0x3d255151	0.040360752
72	0xbd85853f	-0.06519555
73	0x3e26e761	0.16299202
74	0xbc9fae48	-0.019492283
75	0xbd9d5e18	-0.076839626
76	0xbd0c03be	-0.034183256
77	0xbd0414eb	-0.03224651
78	0xbcef3771	-0.029201241
79	0x3e5a3e8c	0.21312922
80	0xbda24ac6	-0.07924418
81	0xbcbe90ab	-0.023262342
82	0xbd9ebe29	-0.07751114
83	0x3d723972	0.059136815
84	0xbdc184f9	-0.09449191
85	0xbdb012a8	-0.085973084
86	0xbe159758	-0.14608514
87	0xbdd8ea08	-0.10591513
88	0x3cf411c3	0.029793626
89	0x3c00c218	0.007858776
90	0xbd39808f	-0.04528862
91	0x3c17f96a	0.009275774
92	0x3e4ea56c	0.20180291
93	0x3dc08f8e	0.09402381
94	0x3e0a4497	0.13502727
95	0xbd96f7ca	-0.07371481
96	0x3a28d72f	0.0006440756
97	0x3cf8c11c	0.03036552
98	0x3d4c6c03	0.049907696
99	0x3e149cfc	0.1451301
100	0x3e1f0a8e	0.1553137
101	0xbcd06f95	-0.025443831
102	0x3ce52bbc	0.027974956
103	0xbda42439	-0.080147214
104	0x3e0a2e65	0.1349426
105	0xbcdceac9	-0.026967423
106	0xbc3d8ca0	-0.011569172
107	0xbe074a97	-0.13212048
108	0x3e85ee6d	0.26158467
109	0x3d23ca74	0.039987996
110	0xbd729af1	-0.059229795
111	0xbe30be5a	-0.17260113
112	0x3d3ce387	0.046115424
113	0xbbc523d4	-0.006016234
114	0x3d7d9d1d	0.061917413
115	0xbdb329d5	-0.08748213
116	0xbd1955e4	-0.037435427
117	0xbd87715c	-0.066134185
118	0x3d906a26	0.07051496
119	0xbda7337d	-0.081641175
120	0x3b9cced4	0.004785398
121	0x3def3dd5	0.116817154
122	0x3c30fde6	0.010802722
123	0xbd48962e	-0.048971348
124	0xbe04302a	-0.12908998
125	0x3d28b7b3	0.041190814
126	0xbd4f6e7d	-0.05064248
127	0x3df5e4e0	0.12006545

conv.1.weight f4 [8]
0	0x3f06a067	0.52588505
1	0x3f47fb64	0.78117967
2	0x3e59cec6	0.21270284
3	0x3f007325	0.50175697
4	0x3e9f8cfd	0.31162253
5	0x3e9771ca	0.29579002
6	0x3f057861	0.5213681
7	0x3e1e8813	0.15481596

conv.1.bias f4 [8]
0	0xbe0e7b1b	-0.13914149
1	0xbf4f79b4	-0.8104508
2	0x3da0de3e	0.07854889
3	0x3eaaa3a3	0.3332797
4	0xbce345a4	-0.027743168
5	0xbe134097	-0.14380108
6	0xbf1e924a	-0.6194197
7	0x3b647813	0.003486161

conv.1.running_mean f4 [8]
0	0xbe0402c9	-0.12891687
1	0xbde9dce2	-0.11419083
2	0xba1020c2	-0.00054980454
3	0x3e145a0f	0.1448748
4	0x3e1a83e9	0.15089382
5	0xbd3942fc	-0.045229897
6	0x3c97991e	0.01850563
7	0x3da93365	0.08261756

conv.1.running_var f4 [8]
0	0x3c11b05d	0.008892146
1	0x3c307059	0.010768973
2	0x3c023c88	0.007949002
3	0x3d54d380	0.051959515
4	0x3ca9ee73	0.020743584
5	0x3bd2116e	0.006410769
6	0x3cb4a2af	0.02205023
7	0x3b765fa2	0.0037593623

conv.3.weight f4 [3, 8, 1, 1]
0	0xbd7d3685	-0.061819572
1	0xbed25bbb	-0.4108561
2	0x3dfc020c	0.12305078
3	0x3dd0129d	0.101598
4	0xbe2dad37	-0.16960607
5	0xbcc15bd2	-0.023603354
6	0x3e524652	0.20534638
7	0xbcc5fe29	-0.024169045
8	0xbdc464f7	-0.0958957
9	0xbed55355	-0.4166514
10	0x3deaf107	0.114717536
11	0x3dc4d89c	0.096116275
12	0xbd2d0661	-0.04224241
13	0xbc05615c	-0.008140888
14	0x3e642645	0.22280224
15	0x3e0c88ec	0.13724107
16	0xbdec084b	-0.11525019
17	0xbea99df6	-0.33128327
18	0x3dad03d7	0.08447998
19	0x3d216cba	0.03941033
20	0x3c883cfa	0.016630638
21	0x3e0665cf	0.13124774
22	0x3dff063a	0.124523595
23	0xbd2805b5	-0.041021068

conv.4.weight f4 [3]
0	0x3f8f33f9	1.1187736
1	0x3fa41072	1.2817519
2	0x3f9e975a	1.2389939

conv.4.bias f4 [3]
0	0xbe902d53	-0.2815958
1	0xbe95f869	-0.29291084
2	0xbebe0b38	-0.37117934

conv.4.running_mean f4 [3]
0	0xbc433c80	-0.01191628
1	0x3ba19232	0.004930758
2	0xbc6b7850	-0.014371946

conv.4.running_var f4 [3]
0	0x3c8959d6	0.01676647
1	0x3cac6da3	0.021048373
2	0x3c65155d	0.013982144

shortcut.0.weight f4 [3, 16, 1, 1]
0	0x3d3d5343	0.046221983
1	0x3cf4a526	0.029863905
2	0x3c950c60	0.018194377
3	0xbd63bd0a	-0.055600204
4	0x3e4e1e41	0.20128728
5	0xbe05a199	-0.13049926
6	0x3d9dfbd8	0.07714051
7	0xbc21f050	-0.009883955
8	0xbe811c6b	-0.25216994
9	0x3c9aa9db	0.018879822
10	0xbe3a3797	-0.18185268
11	0x3d2b1f70	0.041778028
12	0xbc257c4b	-0.0101004345
13	0xbd6a2729	-0.057166252
14	0x3be519be	0.006991594
15	0x3d067646	0.032827638
16	0xbbbf8c65	-0.0058455938
17	0xbd89ffaa	-0.06738217
18	0x3a93e009	0.0011281978
19	0xbdc5c017	-0.09655779
20	0x3e0b9ca6	0.13633975
21	0xbd02cf6b	-0.03193609
22	0xbe0d7746	-0.1381503
23	0x394ead5a	0.0001971027
24	0xbe725053	-0.23663454
25	0xbe4b26ad	-0.19838972
26	0xbd3491ca	-0.044084348
27	0x3d13fa49	0.036127362
28	0x3d5f10c5	0.054459352
29	0x3d53962a	0.05165688
30	0xbd0d2048	-0.034454614
31	0xbd2c5cc6	-0.042080663
32	0x3d076200	0.033052444
33	0x3d73b449	0.059498105
34	0x3c46c0b8	0.012130909
35	0xbd6f516d	-0.058427263
36	0xbdf51829	-0.11967499
37	0xbe4047eb	-0.18777435
38	0xbe43c648	-0.19118607
39	0xbe3d268a	-0.18471733
40	0xbdcf6656	-0.10126941
41	0x3d28453e	0.04108166
42	0xbd8365ce	-0.06415902
43	0x3e246ea1	0.16057827
44	0xbdef1ea4	-0.11675766
45	0x36b727b2	5.458446e-06
46	0xbdc112dc	-0.09427425
47	0xbde27d29	-0.11059029

shortcut.0.bias f4 [3]
0	0x373e40e3	1.133999e-05
1	0xb7461d44	-1.1808534e-05
2	0xb6c1bbfa	-5.7737316e-06

shortcut.1.weight f4 [3]
0	0x3f9d9123	1.2309917
1	0x3f804cb2	1.0023406
2	0x3f85e17b	1.0459436

shortcut.1.bias f4 [3]
0	0xbe902d53	-0.2815958
1	0xbe95f869	-0.29291084
2	0xbebe0b38	-0.37117934

shortcut.1.running_mean f4 [3]
0	0xbdf39321	-0.11893297
1	0xbe3f32b8	-0.18671691
2	0xbd0a2c4b	-0.033733647

shortcut.1.running_var f4 [3]
0	0x3db6a189	0.08917529
1	0x3d996f1f	0.07491898
2	0x3d812a78	0.063069284
