code/models weights/Lambda_gaussian_0.1_100.pth (torch, 47544 bytes, 28 tensors)

embedding f4 [16, 1, 1, 23, 23]
00000000: a1e5 433c 4846 123c 0c71 fb3b c382 ed3b
00000010: 27d2 cb3b 66a9 c43b 1eb8 113b 43b3 64bb
00000020: 59de 8f3a 5657 4b3c a9cd c43c 163b e03c
00000030: e071 c73c bc2f 5f3c 6472 0a3b 604f 50bb
00000040: 6956 0c3b 82d8 a73b c146 d03b 56b3 0f3c
00000050: 72eb 153c e260 203c 6bf3 5d3c 5cfb 013c
00000060: 493e c13b fa4a 533b ceff 583b 5e9f 1c3b
00000070: e959 2c3b 9178 93ba 792f 07bc 0ca2 a2bb
00000080: ffdb c23b fad3 873c 1dab b13c 5e98 8d3c
00000090: 2945 dd3b 4c95 56bb 81d2 eabb a2b6 d1ba
000000a0: 5de1 c93a a844 fd3a c751 673b 8e0d b53b
000000b0: f675 c03b 722f 163c 1c92 0a3c 5eb2 cd3b
000000c0: 1fd1 8e3b d83d a23b 2e14 823b 523c 753b
000000d0: f76a 92b9 f5f8 04bc 6f81 86bb 023b cb3b
000000e0: 838d 803c 1124 a93c 1451 7d3c 21de cf3b
000000f0: d5e3 94bb b75d 03bc 8963 9dba 6221 043b
00000100: 6095 fd3a be7a 503b e36c 9e3b 2239 a73b
00000110: a248 fd3b 3d50 fb3b 6bf8 c23b d4f4 843b
00000120: af42 873b 8042 773b e766 6d3b 9453 f6b9
00000130: c831 0cbc 7a1d b1bb f8c8 b03b 80aa 633c
00000140: 3fa1 973c 0702 583c 50ae 763b 953c aebb
00000150: 4aa5 05bc 23f5 13bb 15e6 893a c7ce 8138
00000160: 9569 fe3a 5644 633b 7776 813b f09c 933b
00000170: 1c8c af3b 0c71 7a3b a3fc c83a d6cf 243b
00000180: 77e8 6d3b 4934 343b 7b44 54ba 71b9 10bc
00000190: 2e55 b3bb e69e 983b b8b9 433c c45b 733c
000001a0: a633 403c 553b 863b 8933 b9bb c862 15bc
000001b0: 3324 3cbb 6bf2 823a 6807 5f3a e6aa b73a
000001c0: 97bb 0d3b 3dba 8d3a e748 ec3a c91f c23a
000001d0: 5d0c 623a 88f2 deb9 b1e3 b6b9 6e0c 5639
000001e0: 911b 13b9 fdf7 6ebb d61b 35bc 2711 f1bb
000001f0: c5d0 113b 6bbd 153c 5f8f 123c a70e 1e3c
00000200: 6de4 3d3b 3f0f d2bb 8797 1bbc 1996 60bb
00000210: 4de8 6a3a 4860 483a 8421 913a 5b8f 143a
00000220: f09f e438 bb85 b33a 668e 30bb 79b2 55bb
00000230: d975 79bb e969 32bb 6bf0 32bb 3166 0fbb
00000240: 93d9 cabb 33e3 7abc f501 3fbc 5a66 81bb
00000250: d0a6 213a 5983 66bb 12c8 fa3a 9ec7 6abb
00000260: 3806 3dbc 63bb 7ebc 49bc fbbb 9648 48bb
00000270: 279b 7bbb f664 01bb 0a0a 4fbb f937 7ebb
00000280: 5a2f 76bb 6976 3ebc d08c 36bc 0086 40bc
00000290: 9b74 2bbc fe2d 2ebc 1dfa 28bc caee 71bc
000002a0: cbdc cabc 09be a9bc eef0 56bc 3d00 0cbc
000002b0: 04ab 89bc 689a fdbb 0da3 50bc f458 9bbc
000002c0: 8c5a c8bc 6e93 8abc 55b2 5abc ebb0 4bbc
000002d0: ba93 25bc e073 33bc eadf 3ebc c017 32bc
000002e0: 643d a2bb 456c d6bb 31a9 fdbb 60fc b5bb
000002f0: 7813 ecbb bd12 c1bb e5da 36bc f6d2 abbc
00000300: 9407 76bc 87ea 01bc ab63 26bb d4a3 4fbc
00000310: c80c 39bb ea91 12bc ed72 75bc 1872 acbc
00000320: 0d2e 56bc 6780 19bc fcb7 0ebc e18b e3bb
00000330: fe05 05bc 8ef5 13bc 9ad2 cebb 5e3b 103c
00000340: b533 c03b e86e 423b cd70 7c3b e08c 2b3b
00000350: 2721 343b 12f1 34bb f167 4abc 49fa ebbb
00000360: 6f10 c6bb 8021 fbba f678 66bc 46f9 0cbb
00000370: 6c4b f1bb 8116 0fbc 6822 66bc 0d4c a9bb
00000380: 2b4f 003a f0ee d039 a09f 053b f55e 013b
00000390: bcc0 393b f870 a43b 45ec c93c c6d2 a83c
000003a0: 700f 953c d42e 8a3c 5ca2 643c 9c04 6d3c
000003b0: 1db2 093c 890e d2b8 f315 dc3b 1855 9a3b
000003c0: 04b2 4a3c b43c dfba 114b 4a3c 2987 823b
000003d0: b99a a93b 0cba 19bb 7377 c13b df69 473c
000003e0: 522e 5c3c 5102 803c 6313 873c ccd4 9a3c
000003f0: 0bcd c03c 16d8 533c b2fc 583c 66e0 4a3c
0.011956603 0.008927889 0.0076733883 0.007248254 0.0062201205 0.006001639 0.0022234987 -0.0034896887
0.0010976299 0.012410959 0.024023848 0.027371924 0.024346292 0.013622221 0.002112531 -0.0031785592
0.002141381 0.0051222453 0.006356091 0.008770784 0.009150373 0.009788724 0.013546805 0.007933464
0.0058973175 0.0032240734 0.0033111456 0.0023898701 0.0026298708 -0.0011251142 -0.008251064 -0.004963165
0.0059466357 0.01658057 0.021688038 0.017284568 0.0067526293 -0.0032742796 -0.0071662073 -0.0015999863
0.0015402246 0.0019322829 0.0035296546 0.0055252975 0.005873437 0.009166585 0.008457687 0.0062773665
0.0043584253 0.00495122 0.0039696908 0.0037419987 -0.00027926985 -0.008115997 -0.004104785 0.0062021026
0.015692478 0.02064708 0.015461225 0.0063436185 -0.0045437613 -0.008017949 -0.0012007813 0.00201615
0.0019346885 0.0031811441 0.0048347577 0.0051032463 0.007729606 0.0076694773 0.005950024 0.004057506
0.0041278224 0.0037728846 0.0036224665 -0.00046983047 -0.008556791 -0.005405125 0.005395051 0.013895631
0.018509505 0.013184077 0.003764052 -0.0053172805 -0.008157084 -0.0022576533 0.001052084 6.1897146e-05
0.0019410128 0.0034678183 0.0039508897 0.0045047924 0.0053572785 0.0038214354 0.0015334081 0.0025148294
0.003630189 0.0027496985 -0.00080973626 -0.008833275 -0.0054728007 0.004657614 0.011946134 0.014853422
0.011731064 0.0040964284 -0.0056518954 -0.00911779 -0.00287081 0.0009990459 0.00085078785 0.0014012724
0.0021626705 0.001081295 0.0018027098 0.0014810498 0.0008623058 -0.0004252384 -0.00034883388 0.00020413261
-0.00014029282 -0.003646373 -0.011054 -0.007356781 0.002224968 0.009139399 0.008945315 0.009647048
0.0028975264 -0.006410509 -0.009496576 -0.0034269153 0.0008961007 0.00076437416 0.001107261 0.00056671136
0.00010901678 0.0013696471 -0.0026940345 -0.0032607599 -0.0038064627 -0.0027223772 -0.0027303945 -0.002188098
-0.0061904876 -0.015312958 -0.011658181 -0.003948969 0.00061665196 -0.0035173504 0.0019133112 -0.0035824548
-0.011537127 -0.015547606 -0.0076823574 -0.0030560843 -0.0038392039 -0.0019744015 -0.0031591677 -0.0038790687
-0.0037564845 -0.011624911 -0.011141971 -0.011750698 -0.010464813 -0.010631083 -0.010313538 -0.014766404
-0.024763485 -0.020720499 -0.013118966 -0.008544979 -0.01680518 -0.007739354 -0.012734187 -0.018963315
-0.024457239 -0.016916003 -0.013348182 -0.012432317 -0.010106022 -0.01095292 -0.011650065 -0.01086992
-0.004951166 -0.0065436685 -0.0077411165 -0.005553767 -0.0072044693 -0.0058921264 -0.011160587 -0.020974617
-0.015016455 -0.007929451 -0.0025388997 -0.012673337 -0.0028236378 -0.008945921 -0.014981014 -0.021050498
-0.013072503 -0.009368992 -0.0087108575 -0.006944165 -0.008119104 -0.009030713 -0.0063117268 0.008803217
0.005865539 0.0029668156 0.0038519383 0.0026176497 0.002748558 -0.002760951 -0.012353883 -0.007201467
-0.0060444395 -0.0019159764 -0.014066925 -0.0021510883 -0.0073637273 -0.008733393 -0.014046289 -0.0051665367
0.00048946094 0.00039850874 0.0020389333 0.0019740437 0.0028343638 0.0050183497 0.024648795 0.020608317
0.018195838 0.016868033 0.013954725 0.014466431 0.008404282 -0.00010016288 0.0067164837 0.004709851
0.012371544 -0.0017031641 0.012346999 0.0039833975 0.005175915 -0.002345684 0.005904132 0.012171238
0.013438778 0.015626105 0.016488736 0.018900298 0.023535272 0.012929937 0.013243841 0.012382602

queries.0.weight f4 [64, 3, 1, 1]
00000000: 27f3 6abb 71dd d23c 704e 953c 5d9a 763d
00000010: 5546 b33d 3090 1f3d 7fa2 9a38 7f3e e838
00000020: 8d77 c938 47a9 6f39 7420 05ba 2ff5 a0b9
00000030: 6f3c 9c3c ff77 4e3d 0eed 173c c336 4fbd
00000040: e832 a5bd c223 5abd 7f6f 96bd d1f4 bcbc
00000050: f852 4bbc 9d73 a7b9 5a60 40b9 8062 4839
00000060: 16ea bc3b 223a 2dbd 79c4 1bbd a027 a137
00000070: 9f5b c7b9 73de 55ba 0b8c beb8 18e8 3e39
00000080: 6f6f d5b7 66ff 7fbc ec1b 4ebc 9ff9 903c
00000090: 12ee d1bb 33fd 22bb a003 51b8 6008 2bbc
000000a0: 3856 323d 9148 803b 60b3 b4bc 9619 33bc
000000b0: b76c d1ba e8d2 0fbd d1d6 113d 37a6 983c
000000c0: 8573 83bc 1acc f5bb 71f0 203c 519a b23d
000000d0: 1a4d c03d 55b0 a63d 59b7 95bc 134a b1bb
000000e0: 5f82 30bb c061 6cbc bb05 36bc 73dc a2bb
000000f0: 0fe7 963b c32e 363d a76c 143d 1f8c 59bd
00000100: 1ce8 a1bd 1ca0 9ebd 4e9f 50bd 09a5 80bd
00000110: d132 94bd 8643 1ebc d8e5 97bb ead1 613b
00000120: e264 d53c bf2a 613c 2e15 143c 69fa 823c
00000130: 7417 083c a56d 83ba 2a23 523c 9b30 453b
00000140: 24cf eabb 7fcb 08bc 0b95 66bc 09aa 32bc
00000150: 25b2 1b3c 45b4 bc3a 804c 23bb af2a f6bc
00000160: cdb1 d2bc f287 5a3c 10ea 4dbc 2639 08bb
00000170: e0d1 123b ace4 e6bc 1892 babc 9248 6abc
00000180: e758 9e39 7ca9 f2bc b96c 16bd cec8 7a3d
00000190: 7d54 a63d a59f a03d 5b16 b33b 0044 c93b
000001a0: 147e 1d3c 0f9e 423a b1f1 94ba 36ca d639
000001b0: a776 cfbc 7db6 1cbd 3ea0 84bc d4ca 45bd
000001c0: 5bb4 a3bd 321c 72bd 8e0a 3bbd a4cb 6bbd
000001d0: fee3 77bd 1539 9d3a 843b ee3b 2067 b336
000001e0: c693 993c e244 493d a3a7 223d 5ccb 4e3b
000001f0: df22 edb9 167f 4bb8 038e c63b 6737 813b
00000200: 6bba fcb9 fb09 b5bb d953 a2bb 5ee9 a6bc
00000210: b6c0 993a c884 48bb 289f 0f3a 08f0 823d
00000220: 405e c43c 35cd 543c a206 0cbc 32b6 14bc
00000230: cd1b 3dbc dee3 5c3c 5b4b edbc 3f4c 2dbd
00000240: 170b ea3b a02c 863b 1a51 6b3c 5206 8c3d
00000250: ec6e be3d c8ff 813d 9010 e23a ba00 c3ba
00000260: 0620 153c b0b8 4939 15cb 5a37 a8a8 bab8
00000270: 493a c0bc d430 dfbb 7185 15bd 2dd4 aabd
00000280: 623d c8bd 0dc7 34bd 4fa9 283d 5a51 543d
00000290: 0c8f b93d 425b 8136 d665 f6b8 de0c 4cb9
000002a0: cfc0 90bc 67cd 36bc 7d9d 9e3a c365 a53b
000002b0: a5b0 ddba 5832 32bb a07a 203a 891c d83a
000002c0: 0883 39ba 4229 edbb 0a7f 2ebc eab6 79bc
000002d0: a1ec 0ebb c834 2dbb 3657 91bc 3eed 173d
000002e0: 4e76 c13c c944 fcbc 6a86 9a3b 73eb 693c
000002f0: b4d7 fc3b d231 d3ba c748 9abb 82db 58bc
-0.0035850496 0.025740357 0.018225878 0.060205806 0.08753649 0.038955867 7.3735595e-05 0.00011074263
9.606695e-05 0.00022855877 -0.0005078383 -0.00030700254 0.019071786 0.050407406 0.009272827 -0.050589334
-0.0806635 -0.053256758 -0.07345485 -0.023065956 -0.012409918 -0.0003193886 -0.0001834644 0.0001911018
0.00576521 -0.042291768 -0.038029168 1.9211147e-05 -0.000380245 -0.00081584527 -9.085991e-05 0.00018206274
-2.5443469e-05 -0.015624857 -0.012579899 0.017697154 -0.006406554 -0.0024870157 -4.983286e-05 -0.0104390085
0.043539256 0.0039149006 -0.022058189 -0.010931393 -0.0015977834 -0.035113245 0.035605256 0.018633945
-0.016046295 -0.0075011374 0.009822951 0.0872084 0.09389706 0.081391014 -0.018275904 -0.0054104417
-0.0026933176 -0.014427602 -0.011109765 -0.0049701273 0.004605181 0.04447819 0.03623643 -0.053112146
-0.079055995 -0.07745382 -0.050933175 -0.06281478 -0.07236255 -0.0096596535 -0.004635554 0.0034457394
0.026049081 0.013743102 0.009038253 0.015988545 0.008306373 -0.0010027183 0.012825767 0.0030088786
-0.0071658064 -0.0083492985 -0.014073621 -0.010904797 0.009502922 0.0014396986 -0.0024917424 -0.03004965
-0.025719548 0.013338076 -0.012568012 -0.0020786016 0.0022402927 -0.028185211 -0.022774741 -0.014299529
0.00030202346 -0.029621832 -0.03672478 0.06122666 0.081215836 0.0784295 0.0054653115 0.0061421394
0.009612579 0.0007424065 -0.0011363534 0.0004096792 -0.025325133 -0.038259972 -0.01618969 -0.048289135
-0.079933845 -0.05910892 -0.045664363 -0.057567254 -0.060520165 0.0011995161 0.0072702784 5.346621e-06
0.018747222 0.049137957 0.039710652 0.0031554317 -0.00045230144 -4.851733e-05 0.0060594096 0.003943372
-0.00048204078 -0.0055248714 -0.004953843 -0.02037495 0.0011730406 -0.0030596722 0.0005478733 0.063934386
0.023970723 0.012988378 -0.008546503 -0.009076642 -0.011542273 0.013482062 -0.028966596 -0.042309042
0.0071424353 0.004094675 0.014362598 0.06837143 0.092985004 0.063476145 0.0017247368 -0.0014877536
0.009101873 0.00019237655 1.3041096e-05 -8.900586e-05 -0.023465293 -0.0068112407 -0.036504213 -0.083412506
-0.09777333 -0.044135142 0.04117709 0.051835395 0.09060487 3.8551234e-06 -0.000117491625 -0.0001945975
-0.017670063 -0.01115737 0.0012101379 0.0050475313 -0.0016913606 -0.0027190652 0.0006121788 0.0016487996
-0.0007076715 -0.0072375843 -0.010650406 -0.015241364 -0.0021808522 -0.0026429165 -0.01774178 0.037091486
0.023615982 -0.030794518 0.0047157304 0.014277327 0.0077161435 -0.001611287 -0.0047083828 -0.0132359285

queries.1.weight f4 [64]
00000000: 2b00 ad3c 4841 903e e431 0b38 33ae a538
00000010: 1fef 1b3e c965 813e 9352 233e 8960 4ab8
00000020: fc63 d73d e744 053a b809 6136 c25d 243c
00000030: 3ea6 023b 1855 183d 074d e53b f7df 3d3c
00000040: 7ad7 5a3a d0c7 e03e 0401 a23a 6bb8 563a
00000050: 3ec0 253e 1665 883e 6833 7d3e 0899 563a
00000060: 10b6 89bb fcc6 0cba 2fa4 9db9 1959 b03b
00000070: da6d 993a 9288 753c 95dd a7ba a09a c83c
00000080: ca16 013c 4043 903e d250 9cbb f65c 41b7
00000090: febb e73d 4fd4 2b3e 2623 623e 2305 96ba
000000a0: 7392 353e d23b 1938 dd6f bd39 53f2 99bb
000000b0: c15c 2d39 302f df3d 2d53 d4b9 3223 c43c
000000c0: b031 d83a 2e49 653e 2abd 163b ffa6 32b8
000000d0: cfcc 613d ace8 8a3e ead7 613e 1d20 0eb8
000000e0: 2f0f a2bb e04c 6cba a0f3 22b9 a8c7 6c3b
000000f0: 382f d83a a746 ce3c 4bce 72ba 9ee2 53ba
0.021118244 0.28174806 3.3186647e-05 7.90026e-05 0.15227936 0.25272968 0.15949468 -4.825046e-05
0.105171174 0.00050838146 3.353327e-06 0.010032119 0.0019935514 0.037190527 0.0069977078 0.011589042
0.00083481485 0.43902445 0.0012359922 0.00081909326 0.16186616 0.26639622 0.24726641 0.00081862556
-0.0042026117 -0.0005370227 -0.000300677 0.005381715 0.0011705712 0.014986174 -0.0012807125 0.024487793
0.0078789685 0.28176308 -0.0047703767 -1.1525341e-05 0.113151535 0.16780208 0.2208372 -0.0011445623
0.17731647 3.6533755e-05 0.00036132234 -0.0046980768 0.00016533119 0.10897672 -0.00040497762 0.023942564
0.00164943 0.22391197 0.0023000934 -4.2594034e-05 0.05512696 0.2713064 0.22055021 -3.3885346e-05
-0.0049456577 -0.0009014141 -0.00015540281 0.0036129747 0.0016493564 0.025180174 -0.00092623074 -0.000808278

queries.1.bias f4 [64]
00000000: b870 72bc f99f 33be 0c26 5dba b59f 3dbb
00000010: 7f1e 143e 6f9d c73e e7a6 ddbb 4ab7 30bb
00000020: 4355 4cbe 8ca5 22bb 8917 a6ba cf90 31bc
00000030: 36fe 51bb d110 0d3e 9ada e1bb 00e6 39bd
00000040: c5bc 62bd 34d8 b63e 5d0e ebba b142 94ba
00000050: 80cf 5a3d 93b0 fcbd ee42 aabe 307e 9dba
00000060: 1006 343c 11ab 0abb 7018 c2ba f43b ba39
00000070: 726d dcb7 d6e4 833d d128 4eb8 954a 5b3b
00000080: f0a6 15bd 41b9 d8be 1e8b 77ba c21c 7db9
00000090: cdc9 e93d 8958 2abe 409f 5c3e 38c8 c8b9
000000a0: 2f02 be3c 66e2 07bb a62d 4fba 6715 8c3a
000000b0: 1bf0 d339 d6f1 f03d 6930 373a f07c ca3c
000000c0: 4f7d d1bc 8f74 df3c 2bfc ac3b ecea a53a
000000d0: 2c4f fe3d e9eb 26be 71a0 f0bd bd59 b83a
000000e0: a376 09be 5787 b33a b3f7 e63a cfaf 6abb
000000f0: 8235 71b8 cdae 523e d824 09bb 3275 ef3a
-0.014797382 -0.17541493 -0.00084361504 -0.0028934304 0.14464758 0.389873 -0.006764281 -0.0026964718
-0.199544 -0.0024817912 -0.0012671809 -0.010837748 -0.003204239 0.13775946 -0.0068925144 -0.04538536
-0.055355806 0.35711825 -0.0017933358 -0.001131138 0.053420544 -0.12338366 -0.33254188 -0.0012015756
0.010987774 -0.0021159092 -0.0014808308 0.00035521353 -2.6277008e-05 0.06440131 -4.915224e-05 0.0033461202
-0.036536157 -0.42328838 -0.00094430323 -0.00024138673 0.114154436 -0.16635336 0.21545124 -0.00038296147
0.0231944 -0.002073431 -0.00079032255 0.0010687531 0.0004042395 0.117648765 0.00069881097 0.024717778
-0.025572447 0.02727726 0.005279084 0.0012658513 0.124174446 -0.1630093 -0.11749352 0.001406483
-0.13424163 0.0013696951 0.0017621428 -0.0035810356 -5.750871e-05 0.20574494 -0.0020926502 0.001826918

queries.1.running_mean f4 [64]
00000000: 340c 913c 9980 a83d 1950 8238 d760 48b9
00000010: 25f4 0e3d cb97 a5bd 7fde 45bd 6173 2bb9
00000020: ef84 e9bc 9cf0 cfb9 abe7 b337 bf3a 1d3b
00000030: 2fa6 c6b9 7bd0 883c 044e 8ebb 85a7 bd3b
00000040: fcfc 06bc 7e82 eb3d 74b5 04bc afec 69bc
00000050: af44 163d bf70 b9bd 66ce a5bd 25d9 e6bb
00000060: fa4f 533c 01ef c83b 8fae c33b 188c 72bc
00000070: 3541 003b 158e 9fbc ac18 a3bb 2c44 e4bc
00000080: 0406 bdbc 114d c43d 1af3 063c e6bc 0cb9
00000090: 01fa 0ebd af4a a8bd 8877 91bd 106c 4d3b
000000a0: 3a23 413d 2cec a13a ac2c 243b ac18 75bc
000000b0: 71cc 1ab8 aeb8 393d f77e 5bbc 6089 c6bc
000000c0: 3bce 353c 89d9 c93d 0073 be3b ae97 8538
000000d0: 053e eabc f832 cbbd 146b a13d b00b 9bb8
000000e0: b028 4cbc 432d 653a fab4 9bb8 4dcc 6fbc
000000f0: fb49 23bc 5204 5b3c 2acd 473c 2879 d3bb
0.017706014 0.08227653 6.2138024e-05 -0.00019109562 0.034900803 -0.08085593 -0.048307892 -0.00016350813
-0.02850577 -0.00039661385 2.1446342e-05 0.0023991314 -0.0003788932 0.016700974 -0.0043427963 0.005787792
-0.008239027 0.11499499 -0.008099902 -0.014277621 0.036686596 -0.09054708 -0.08096008 -0.0070449286
0.012897486 0.006132007 0.0059717367 -0.014803909 0.0019570116 -0.01947693 -0.0049773064 -0.027864538
-0.023074158 0.09585012 0.008236671 -0.0001342181 -0.03490639 -0.0821737 -0.07102877 0.0031344928
0.047152735 0.001235371 0.002505104 -0.0149594955 -3.6906862e-05 0.04534214 -0.01339697 -0.024235427
0.011096532 0.09855945 0.005812049 6.370187e-05 -0.028594026 -0.09921831 0.07881752 -7.393153e-05
-0.0124608725 0.0008742401 -7.4246855e-05 -0.014636111 -0.009966369 0.013367729 0.012194911 -0.006453652

queries.1.running_var f4 [64]
00000000: 324f 2339 b51b 453b 6443 5431 d81b dc32
00000010: bc53 0f3a 93ce 3f3b 24a8 883a 98b3 ad32
00000020: 5319 dd39 f05a b433 e32b 8830 1762 db37
00000030: 053d 2d36 d6aa 1b39 272d 0338 c035 9a38
00000040: f9f6 1338 d679 c13b 84b5 2838 cfe6 bc38
00000050: 0c4c 273a 01b6 733b 059c 423b a33e c337
00000060: 5fa6 db38 b3b0 f037 f86a a437 20bf cc38
00000070: 5b80 8736 e0d4 3b39 037b 5d37 dc36 b439
00000080: 9bb1 9639 0ce1 873b 68c6 0438 7de5 0534
00000090: 73ab 0d3a c707 473b 3191 153b 23ea 9f36
000000a0: 0054 853a 5900 4536 6735 ef36 ad02 d938
000000b0: 1cbc 3f34 ff4c 6f3a 3b1b aa38 daac a839
000000c0: bf61 7438 7913 8e3b 2474 8e37 0e0e 9f31
000000d0: d46d c939 5eb3 8e3b c780 3d3b 6b69 e231
000000e0: bd04 9238 39ee c235 7b79 f334 5a1a ca38
000000f0: f35f 5638 c12f 0239 0c64 8d38 06b8 c837
0.00015574394 0.003007633 3.0888367e-09 2.5624033e-08 0.00054674945 0.0029267415 0.0010426086 2.022152e-08
0.00042171273 8.3984446e-08 9.907776e-10 2.6152511e-05 2.5814527e-06 0.00014845593 3.1274885e-05 7.353304e-05
3.5277542e-05 0.0059044166 4.022337e-05 9.00753e-05 0.00063818763 0.003718734 0.0029695046 2.3274979e-05
0.00010473723 2.8692511e-05 1.9600135e-05 9.763078e-05 4.038256e-06 0.00017913012 1.3201267e-05 0.0003437315
0.00028742556 0.0041467007 3.1656033e-05 1.2470078e-07 0.0005404271 0.0030369626 0.0022822137 4.7658264e-06
0.0010172129 2.935549e-06 7.128972e-06 0.00010347865 1.7856695e-07 0.00091286 8.111304e-05 0.00032172241
5.8265166e-05 0.0043358174 1.6981801e-05 4.629107e-09 0.00038419536 0.0043548783 0.0028915869 6.5894503e-09
6.962705e-05 1.4523458e-06 4.5350666e-07 9.637019e-05 5.1110936e-05 0.00012415556 6.742039e-05 2.392755e-05

keys.0.weight f4 [16, 3, 1, 1]
00000000: bb9a c1bc 099c 88bc 679d 3abc 3868 0e3d
00000010: be3b cd3d 32fb ab3d 66a7 543b 71fd 4e3b
00000020: 6431 633b 9252 013a c082 e6b8 4a01 ae39
00000030: daa7 b83e 9d37 d63e c44e c33e 8cef cabd
00000040: af92 88bd aca8 afbd bb1e 9f3d abbe 193d
00000050: dce2 be3c 00b0 3a3a b9f8 123a 8239 523a
00000060: 134e 2abe 844d 7abe e1b2 5abe 8dbe c039
00000070: 495f 42b9 87c0 2a36 3557 45ba 7f7c 6cba
00000080: a873 0fb9 d848 37bb 3104 76bb 35a8 61bb
00000090: ad15 c3ba ff65 edba fb28 fdba b4ef 74bd
000000a0: 4a6c 9abc f9f0 993b 5218 1bbb 8ee5 19bb
000000b0: b9e2 e2ba 6421 5bbc a427 293c 422f db3c
-0.023633352 -0.016675966 -0.011390067 0.03476736 0.100211605 0.08397521 0.003244841 0.0031584168
0.003466689 0.00049332634 -0.00010991609 0.00033188827 0.3606556 0.41839305 0.3814603 -0.09908971
-0.06668603 -0.085770935 0.07769533 0.03753535 0.023301534 0.0007121563 0.00056065206 0.00080194336
-0.16631345 -0.24443632 -0.213573 0.00036763065 -0.00018536778 2.544404e-06 -0.00075279485 -0.0009021237
-0.00013680628 -0.0027967002 -0.003753912 -0.0034432535 -0.0014883779 -0.0018112062 -0.0019314581 -0.05979891
-0.018850464 0.0046979156 -0.002366562 -0.0023482773 -0.001731 -0.01337466 0.0103243925 0.026755933

values.0.weight f4 [4, 3, 1, 1]
00000000: 69f0 943e 29f5 99bd 7b36 87bd 5fdf bc3d
00000010: 2887 7cbe 2334 213e 2cb5 f3bd 3ebe 10be
00000020: 788c 3a3d d35f c13c f752 82bd d9c5 5abe
0.29089668 -0.07517464 -0.06602188 0.09222292 -0.24660933 0.15742545 -0.1189979 -0.14135072
0.045544118 0.023605263 -0.063634805 -0.21364535

values.1.weight f4 [4]
00000000: edd8 833e 3bef 563e f37c 9c3e f4b1 aa3e
0.2575144 0.20989697 0.3056408 0.33338892

values.1.bias f4 [4]
00000000: 1f6c 75be 406d 4a3e 8835 bbbe f34f 703e
-0.23967026 0.19768238 -0.3656428 0.23467998

values.1.running_mean f4 [4]
00000000: 837f 933d 3190 8dbb 1bbb c8bd dfc0 d8bd
0.07202055 -0.0043201675 -0.098013125 -0.10583662

values.1.running_var f4 [4]
00000000: a752 743b 4387 a43a 1058 903b 349e ca3b
0.003728071 0.0012552518 0.004405029 0.00618341

conv.0.weight f4 [8, 16, 1, 1]
00000000: 284a ae3c 1153 1fbc fe56 463b 15c1 19bc
00000010: 5af3 173e 6330 8abd eca4 8ebb b560 14be
00000020: 4f12 f3bd d9e3 703d e079 38bd a397 1fbd
00000030: a35c d6bd 7792 563d 2588 1ebd 52ad 293d
00000040: 19ee 7abc 5925 723b 23cf 403d dc59 583d
00000050: ad10 f2b9 2007 e13b 6f82 a6bc 6662 9abc
00000060: 41a6 43bd 2a6a 603d b8ce 11be 1f79 33bd
00000070: ed67 183e f3d3 bebd fe8d 973b 43c0 51be
00000080: b1d9 1d3d 8f8c 0dbc 0d23 273d 9eab 4bbd
00000090: 5852 7c3d 0145 3abd 8008 363d 9bc2 7bbe
000000a0: 11e0 c03c fe5f 27bc 58df b6bd a8cb ee3d
000000b0: 30f2 aebc 98b0 063d e8a3 45bd 391b 1d3e
000000c0: 04dd cdbc fe9a f1bc c6cb afbd d576 523c
000000d0: 0e1f 953c 4338 1c3d 5a0d f3bd 21b0 f2bc
000000e0: 00d7 c6bd 72c1 c53d c36c 363d 9975 ee3d
000000f0: 620b 03bd 8d99 54bc 978e e43d ac77 cd3d
00000100: e007 babc ea65 d83c 557c dfbd 9e6d 0ebd
00000110: 8fe1 8d3d 3331 62bd 2239 633e c05d c4bd
00000120: 03a8 2bbd 7b3f 2d3d dfdf 0cbe fd7e 7f3b
00000130: 1207 b53d 0a38 b7bd 9a94 863e d252 c03c
00000140: 8570 413d 1f74 c9bc 23b7 b63b 03a9 853d
00000150: 35be ac3d 65c8 94bd 1f42 8c3d fecc a3bb
00000160: 8340 bdbd 7830 913d 1920 2dbe 3733 98bd
00000170: 8857 873c a08e 863c 9344 86bc 141b 973c
00000180: 3ee4 a6ba 8b65 62b9 8e24 55bd d9f1 8a3c
00000190: d1d6 04bb 51ed 663c 1e60 9bbd c7d1 143e
000001a0: e0cf fa3c 478f 7fbd 8398 833e 9bda 973b
000001b0: 7656 303d fb61 1b3c 6c18 c8bb d913 b3bc
000001c0: 78a8 8bbd 2db0 fc3a 642e ca3d 5049 1b3e
000001d0: d904 f6bd 6dd7 863d c3be 11be 939f 063e
000001e0: b775 68bc 47d6 2e3d 8ff7 24be 41ea 45bd
000001f0: 059f b6bc 3a5a 23bc d155 1e3e a0d0 023e
0.021275595 -0.009724394 0.0030264254 -0.009384413 0.14838925 -0.0674751 -0.0043531563 -0.14490016
-0.118687265 0.058811042 -0.045038104 -0.03896297 -0.10466888 0.052385774 -0.038704056 0.041425057
-0.015315556 0.003694853 0.04707254 0.05282007 -0.0004617026 0.0068673044 -0.020325867 -0.018845748
-0.047765974 0.054788746 -0.14239013 -0.043816682 0.14883395 -0.0931777 0.004625081 -0.20483498
0.038537685 -0.008639469 0.04080491 -0.049724214 0.061601967 -0.045475964 0.0444417 -0.24585955
0.023544343 -0.010215757 -0.08929318 0.11659938 -0.021355718 0.032883257 -0.048252016 0.15342416
-0.025129803 -0.029492851 -0.085837886 0.012845715 0.018203285 0.038139593 -0.11867781 -0.029625
-0.09708977 0.096560374 0.044537317 0.11643524 -0.031993277 -0.0129760625 0.11160009 0.10032591
-0.022708833 0.026415784 -0.10912386 -0.034772508 0.069277875 -0.0552227 0.22189763 -0.09588194
-0.041908275 0.042296868 -0.13757275 0.0038985603 0.08839239 -0.089462355 0.2628525 0.023476992
0.047226448 -0.024591504 0.005576031 0.06526377 0.084347166 -0.07264785 0.06848549 -0.004998802
-0.0924082 0.07089323 -0.16906776 -0.074316435 0.01652123 0.01642543 -0.01639012 0.018445529
-0.0012732816 -0.00021590867 -0.052036814 0.016961025 -0.0020269642 0.014094667 -0.07586692 0.14533149
0.0306167 -0.0623925 0.25702295 0.004634214 0.043051206 0.00948381 -0.006106427 -0.02186005
-0.06819242 0.0019278579 0.098721296 0.15164685 -0.12012643 0.06584058 -0.14232926 0.1314681
-0.014188222 0.04268482 -0.16110061 -0.048319105 -0.022292623 -0.009970242 0.15462424 0.12774897

conv.1.weight f4 [8]
00000000: fc24 b13e 9dbb 293e b81a a13e 1a2a 013e
00000010: ba53 243f b65c 893e 544f 5f3e 9269 e43d
0.3459853 0.16575475 0.31465697 0.12613717 0.64190257 0.26828545 0.21807605 0.111529484

conv.1.bias f4 [8]
00000000: 25eb 74be 7270 9bbd 4bf5 6ebe d502 583e
00000010: 2da3 25bf 1f8f b4bd 5946 9cbc 454b 753d
-0.23917826 -0.075898066 -0.2333576 0.2109483 -0.6470211 -0.08816361 -0.019076513 0.059886236

conv.1.running_mean f4 [8]
00000000: 40df c6bd b208 aebd 8f8b 0bbe da43 16bc
00000010: 707d 45be adbb 2dbe 94f0 4d3e 0764 e63c
-0.0971055 -0.08497752 -0.13627456 -0.0091714505 -0.19286132 -0.16966124 0.20111305 0.028123869

conv.1.running_var f4 [8]
00000000: ab91 d73b 3fcf 133b 4e84 363c d4fe 533d
00000010: 499c de3b caf3 173c 5a91 463c 2cf8 a43b
0.0065786443 0.0022553948 0.011139942 0.051756695 0.006793533 0.009274432 0.012119615 0.005034467

conv.3.weight f4 [3, 8, 1, 1]
00000000: aa51 033e 9e9b c23d 31d5 6e3c 4fd1 293e
00000010: 34e9 98be a6dd 8039 5a49 07be d779 9cbd
00000020: 78ab a73d 67ae b63d d2ad 5e3d fd6c 2e3e
00000030: db99 96be 0685 93bd f3f0 8ebd 2929 a8bd
00000040: 4d0d cb3b 7da9 733d 7adc 1f3e 75fb 633d
00000050: b991 77be dc24 3cbe e322 673d e717 94bd
0.12824121 0.09502338 0.014577196 0.16583751 -0.2986542 0.00024579203 -0.13211575 -0.076404266
0.08187002 0.08919983 0.054364987 0.17033763 -0.29414257 -0.072031066 -0.06979551 -0.08210976
0.006196654 0.05948781 0.15611449 0.05565973 -0.24176683 -0.18373436 0.056429755 -0.072311215

conv.4.weight f4 [3]
00000000: efa6 8a3f 6f00 973f bfcf 9c3f
1.0832194 1.1797007 1.2250899

conv.4.bias f4 [3]
00000000: febf 91be a2f3 9dbe 5cb7 bebe
-0.2846679 -0.3084994 -0.37249267

conv.4.running_mean f4 [3]
00000000: 301d fe3a f6fa 993a 2902 86bc
0.0019387361 0.0011747766 -0.016358452

conv.4.running_var f4 [3]
00000000: a549 e73b 354a 063c 18b1 e03b
0.0070583397 0.008196403 0.0068570487

shortcut.0.weight f4 [3, 16, 1, 1]
00000000: 443b 623d 03ce 923d f98c dd3c da47 583e
00000010: c209 b63d 7a9b c73c 0747 3fbe e27d 943d
00000020: b91f 84be 89e5 5dbd 3182 2e3e 3ff1 b63c
00000030: ce6f cd3c 3b4c 5fbc f379 d63d 3cda efbc
00000040: b678 e9bd dae4 05be e517 2a3d 4737 203e
00000050: 32ab 26bd 026c a2bc 70eb 49be f133 edbc
00000060: 45d9 853b 637f 453e 005a 023e 9226 253e
00000070: ed02 2d3d b457 74bd 13ea c93d 7464 323c
00000080: 2445 cebd 172c c53d 49ba 093e c436 553d
00000090: f910 d9bd 4238 a13d 5eba 02be 502a 41be
000000a0: ad82 ee3c bc1d 83bd 2bf8 0abe 4390 8d3e
000000b0: 2e1a 9c3d 0ff9 24bd 0989 da3d 91f9 6a3d
0.0552323 0.071682 0.02704476 0.21121159 0.0888858 0.02436613 -0.18679439 0.07250573
-0.25805452 -0.05417398 0.17041852 0.022331832 0.025077727 -0.013629015 0.10472479 -0.029278867
-0.11399977 -0.13075581 0.041526694 0.15646087 -0.04069061 -0.019826893 -0.19718719 -0.028955432
0.0040847384 0.19286875 0.12729645 0.16127995 0.04223912 -0.059653953 0.09859099 0.010888208
-0.10071781 0.0962755 0.13449968 0.05205418 -0.105989404 0.078720585 -0.12766406 -0.18863797
0.029115045 -0.06402156 -0.13571231 0.27649125 0.07622181 -0.040276583 0.10670669 0.05736691

shortcut.0.bias f4 [3]
00000000: 7b60 7637 c3c1 eb36 fd2d e0b5
1.4685206e-05 7.0261026e-06 -1.6702685e-06

shortcut.1.weight f4 [3]
00000000: c339 a23f 2e32 893f da39 923f
1.2673877 1.0718439 1.1423905

shortcut.1.bias f4 [3]
00000000: febf 91be a2f3 9dbe 5cb7 bebe
-0.2846679 -0.3084994 -0.37249267

shortcut.1.running_mean f4 [3]
00000000: 1b09 5f3d d3f3 793b ac38 c5bd
0.054452043 0.0038139715 -0.0962995

shortcut.1.running_var f4 [3]
00000000: ca66 ad3d f0bf 9a3d f717 853d
0.08466871 0.075561404 0.064987116
