code/models weights/Lambda_gaussian_0.1_25_LayerOuputs64.pth (torch, 57080 bytes, 28 tensors)

embedding f4 [16, 1, 1, 23, 23]
000000 ed 31 af ba b3 90 3e bb dc 46 b8 ba 1a 37 4f ba
       -0.001336632 -0.0029077947 -0.0014059204 -0.0007904634
000010 1c 5c 08 bb 86 9a 36 bb af a5 2a bb e4 7a bc bb
       -0.0020806855 -0.00278631 -0.0026038697 -0.0057519544
000020 6d 7d 8e ba d8 c7 bc 3b 0c 83 71 bc f3 82 15 3c
       -0.001087112 0.005761128 -0.014740717 0.009125459
000030 c8 13 75 bc ef f1 bb 3b 2b f1 bb ba ce 8e 2f bb
       -0.0149583295 0.005735628 -0.0014338841 -0.0026788
000040 a8 4d ac bb a8 4e 3d bb d0 ed 22 ba 16 4b 31 bb
       -0.005258281 -0.0028885994 -0.00062152464 -0.0027052811
000050 fd 17 d2 3a 37 cc ba b8 ec 5f 13 bb a3 4b 5d bb
       0.0016028878 -8.907209e-05 -0.0022487594 -0.0033767007
000060 9e 58 5d bb f8 28 4e 38 d8 d3 f9 ba a0 ee 92 ba
       -0.0033774744 4.9152382e-05 -0.0019060327 -0.0011210032
000070 ee d3 ab 39 c1 72 34 bb 30 f1 a3 bb 0e a9 e7 ba
       0.00032773562 -0.002753422 -0.005003117 -0.0017674284
000080 60 4c f3 3b 43 75 ca bc de 71 03 bc ff 95 a9 bc
       0.007424876 -0.024714118 -0.0080227535 -0.020701407
000090 17 03 15 3c 83 fd 22 bb 40 e9 fc b9 70 40 92 3a
       0.009094975 -0.0024870343 -0.0004823897 0.001115812
0000a0 ce 07 61 bb 48 63 e6 3a 05 f4 de 39 7a 79 63 ba
       -0.0034336927 0.0017577196 0.00042524948 -0.0008677464
0000b0 dd bf ba 39 aa aa 8d ba ac 10 f8 ba b6 7f 60 b8
       0.00035619634 -0.0010808308 -0.0018925867 -5.35247e-05
0000c0 f2 72 f9 ba e2 13 ee ba b9 64 ac b9 0d 0a c9 bb
       -0.0019031449 -0.0018163885 -0.0003288144 -0.0061352313
0000d0 9f b6 f7 ba 91 15 a0 38 03 ea 1c bb 52 ca 2a 3c
       -0.001889903 7.6334116e-05 -0.0023943193 0.0104242135
0000e0 54 0f 2b bc 62 ec c5 b7 87 7c 5e bc 88 d2 3e 3c
       -0.010440666 -2.3594304e-05 -0.013579494 0.011646874
0000f0 35 c9 48 3b 83 76 8f bb 86 a9 ab bb 1c b6 ab ba
       0.0030637507 -0.0043781414 -0.0052387146 -0.0013100537
000100 a8 ad 9c ba c4 9c 2e 3a 27 8e 95 bb aa b5 b1 39
       -0.0011953609 0.0006660933 -0.004564065 0.0003389542
000110 b2 3d b6 ba 16 e7 2e bb d0 63 60 ba a9 42 39 bb
       -0.0013903885 -0.002668803 -0.0008559795 -0.0028268492
000120 c5 ae 91 3a 87 0a aa ba 13 bf 5d ba 92 aa c0 bb
       0.0011114707 -0.0012973108 -0.0008458953 -0.0058797086
000130 44 72 6b bc 60 7f 4f 3b c2 b6 4b 3c 86 b8 8d bc
       -0.014370505 0.0031661615 0.01243371 -0.017299902
000140 d6 cd 55 3b d0 11 9f bc 47 29 f9 3b 84 04 76 ba
       0.0032623908 -0.019417673 0.0076037976 -0.0009384828
000150 c8 6c 0f bb 1d 8d 53 bc e2 fb f2 39 33 9a 4e ba
       -0.0021884907 -0.012912062 0.00046345504 -0.0007881254
000160 0e 48 0b 3b 1b d6 15 ba ae dc 02 bb ad 81 d6 bb
       0.0021252665 -0.0005715803 -0.001996796 -0.0065462203
000170 68 f0 b9 ba 0e bc 3f ba 02 af ac ba e8 43 02 bb
       -0.0014186027 -0.0007314094 -0.0013174715 -0.00198769
000180 f1 94 72 b9 d2 55 88 b9 82 6a 51 ba f9 d5 2d 3a
       -0.00023134403 -0.00026003883 -0.0007988588 0.00066313107
000190 74 96 fa ba 96 dd 66 3c 4c c8 63 bc 81 df 13 3a
       -0.0019118325 0.014090916 -0.013902735 0.00056409097
0001a0 86 a4 02 3c 43 37 81 3c d6 15 42 3b 00 0c 4f bb
       0.007973796 0.015773421 0.0029615066 -0.0031592846
0001b0 f5 08 05 bb 20 3c 45 bb 41 e5 1f 39 b6 11 87 3a
       -0.0020299528 -0.0030095652 0.00015248825 0.0010304961
0001c0 00 4f 72 bb 6b 4c bb ba 6d b3 89 3a a9 56 5f bb
       -0.0036973357 -0.0014289742 0.0010505744 -0.0034078753
0001d0 f1 73 a2 3a f8 4e 24 bb bd 76 de b7 d3 d6 7b bb
       0.0012394172 -0.0025071483 -2.6519754e-05 -0.0038427606
0001e0 18 c0 82 bb b7 fb 3b ba 5a 57 e2 bb b4 63 bd bb
       -0.0039901845 -0.00071709923 -0.006907386 -0.005779708
0001f0 90 69 8f 3c 4e 45 46 bc 5a a0 3f bb 37 9f 73 bc
       0.01750639 -0.012101484 -0.0029239864 -0.014869503
000200 b6 f3 f5 38 91 cb b7 3b f5 17 0c bc 40 a5 01 bc
       0.00011727905 0.005608984 -0.008550634 -0.007912934
000210 5a ff d0 ba 1e f8 d0 ba 93 73 70 bb cb f8 98 ba
       -0.0015945241 -0.0015943085 -0.0036689981 -0.0011670826
000220 3d a8 34 bb 1d bb 18 bb 09 1c 02 bb 48 da 8e bb
       -0.0027566098 -0.0023304888 -0.0019853136 -0.0043595172
000230 4c 60 56 bb 7d cd 29 3a 83 4e cb ba 21 c9 9f bb
       -0.0032711206 0.00064774585 -0.0015511069 -0.0048762714
000240 0a 00 41 3b 7b 1f 83 bb 58 9d e2 39 74 44 19 3c
       0.0029449486 -0.0040015555 0.0004322331 0.009354699
000250 02 a6 9e bc d8 1e 49 3c 7d 77 9d bc 0a 9f 76 3c
       -0.019366268 0.01227542 -0.019222016 0.015052566
000260 3a 1b 71 3b 3d 0b ee bb c9 0f 6a bb e9 40 7a bb
       0.003678991 -0.0072645233 -0.0035714975 -0.0038185662
000270 2d 82 91 bb 5d 30 41 3b 96 88 7c bb 57 2a 4e bb
       -0.004440567 0.002947829 -0.003853356 -0.0031458342
000280 4f b4 72 bb ea 51 51 ba 65 ee 8d bb 8c 85 19 bb
       -0.0037033742 -0.00079849234 -0.0043313974 -0.0023425547
000290 72 1a 57 39 04 b1 3b bc cc e7 27 bc 0f 1e 42 bc
       0.0002051385 -0.011455778 -0.010248136 -0.011847987
0002a0 90 66 ff bb 85 c1 da 3b ac 27 ff 3b d8 0b de bc
       -0.007794209 0.0066759014 0.0077867117 -0.027105257
0002b0 fc 55 89 ba 4f 74 af bc 8b 22 f3 3c eb 7c 96 3b
       -0.0010477896 -0.021417765 0.029679557 0.004592528
0002c0 21 13 d7 bb f5 a9 f4 38 a8 7b b5 bb ae 19 10 bc
       -0.0065635596 0.000116664836 -0.0055384226 -0.008795185
0002d0 46 c3 65 bb 06 91 52 bb 14 45 1d bb 25 6e 83 bb
       -0.003505902 -0.0032129898 -0.0023997473 -0.004010933
0002e0 db 61 05 bb dc 4e ef 3a 20 b8 1b ba 0d 8d 66 bb
       -0.0020352516 0.0018257755 -0.00059402175 -0.0035179288
0002f0 2d 59 fe bb d5 4b ba 3a de 13 86 3b ef 08 08 bb
       -0.0077620954 0.0014213274 0.004091724 -0.0020757278
000300 0e d1 91 3c 31 ec b6 3c 33 b7 01 bd 69 8e 10 3c
       0.01779988 0.022329422 -0.031668853 0.008823016
000310 f2 6a fb bc 00 4c ae 3c 84 e9 f7 3a ab 7b e4 b8
       -0.030690644 0.021276474 0.0018914198 -0.00010894922
000320 3b ae a9 bb 46 75 b5 bb 3c 31 22 bc 93 5e e0 bb
       -0.0051782406 -0.0055376617 -0.009899434 -0.0068472116
000330 f9 32 57 ba 44 e7 31 bb 0d aa dd ba 2e df 17 3c
       -0.00082091946 -0.0027145902 -0.0016911641 0.009269519
000340 a7 f0 16 3c 22 16 c5 3b 05 6a b5 3b a6 08 44 3c
       0.009212649 0.0060146013 0.00553632 0.011964953
000350 0c 20 68 3c 6d 7c e4 3a 6f 21 d2 3c f2 7b d2 3c
       0.014167797 0.0017432101 0.025650708 0.025693867
000360 c8 ef 67 3c 4c 59 7e bd c2 40 e6 bc fe 0d 5a bd
       0.014156289 -0.06209688 -0.02810705 -0.053236
000370 f6 17 4b 3c 35 27 07 3d 8e 61 59 3c 66 21 ad 3c
       0.012395849 0.032996375 0.013267888 0.02113409
000380 7b 96 95 3c 40 41 86 3b 10 51 14 3c 55 25 1f 3c
       0.018260231 0.004097134 0.00905253 0.0097134905
000390 f8 8f fe 3b 3b 53 1f 3c 1d 20 d1 bb a2 e7 c7 bb
       0.0077686273 0.0097244335 -0.006382002 -0.006100611
0003a0 9f f4 d8 bb ef 82 bd bb 9f 26 8f 3a 68 5d 56 bc
       -0.006620958 -0.0057834308 0.0010921544 -0.013083793
0003b0 8f 8a 2b bc 99 48 c6 bc 35 6f cb bc 2f f1 8b bd
       -0.010470047 -0.02420454 -0.024833301 -0.068331115
0003c0 a9 0e 02 be 52 27 33 bc 21 58 0f be 36 cc 9f bd
       -0.12700905 -0.010934668 -0.13998462 -0.07802622
0003d0 9e e2 c0 bc 9d 62 9c bc 16 05 11 bc 5b 64 02 bc
       -0.02354556 -0.019089991 -0.00885131 -0.007958497
0003e0 e7 94 c6 bb 10 68 a8 bb 76 ee b8 bb 1e f6 ee bb
       -0.006060231 -0.0051393583 -0.005643661 -0.007292523
0003f0 f6 f9 02 bc 9c 66 2a 3c b4 a6 9d 3b 77 6c 63 bb
       -0.007994166 0.010400441 0.0048111323 -0.0034702101

queries.0.weight f4 [64, 3, 1, 1]
000000 45 20 bc 3b 93 44 0c 3e 92 1f 59 be 51 31 ae 3d
       0.0057411515 0.13698034 -0.2120345 0.085055
000010 dc 99 e8 3c 44 94 30 bc d2 c5 90 3c 47 05 ba 3c
       0.028393678 -0.010777537 0.017672453 0.022707595
000020 46 27 d5 3c 9f f7 40 bc 56 d6 9e bb 84 ed 9e bc
       0.026019704 -0.0117777875 -0.004847328 -0.019400366
000030 65 52 6c bd 35 90 66 bd 40 e2 c8 bc cb 68 d7 3c
       -0.057695765 -0.05628987 -0.024521947 0.026295086
000040 d1 0e 6d 3d c5 e6 3d 3c f8 c4 c8 bc 8f 4d af bc
       0.05787546 0.011590664 -0.024507985 -0.021399288
000050 44 48 31 bd d2 dd df bd 2e 3c b1 bc 63 cf d6 3c
       -0.04328181 -0.10930981 -0.021635141 0.026221937
000060 44 c3 ec 3b 25 39 1b bd a9 89 b2 bb 8f 1a eb bc
       0.007225426 -0.037896294 -0.0054485393 -0.028699188
000070 e3 86 bb bd 43 ce 02 3e ed 4a 8e 3d 6a 05 5e 3e
       -0.09156587 0.12773995 0.06947885 0.21681753
000080 4c ff c2 bd a6 a2 20 bc f5 82 f2 bb 2a 53 70 bd
       -0.0952135 -0.009804403 -0.007400865 -0.05867306
000090 e5 55 9f 3c 64 f0 12 bc a2 16 3c 3d da a6 32 3d
       0.019450137 -0.008968446 0.04592002 0.043616153
0000a0 f9 ea be 3c bd 04 95 bb 29 81 b1 bc a4 d8 1e bc
       0.023305403 -0.004547684 -0.021668034 -0.009695206
0000b0 b4 1f 01 bd eb 67 ba bd 04 1d af bd 65 42 61 3e
       -0.031524375 -0.09101852 -0.08550456 0.21997984
0000c0 99 8e 24 bd a9 35 4c bd b1 be 78 bc cb ab a0 3d
       -0.040175054 -0.04985586 -0.015182183 0.07845267
0000d0 05 75 02 3d 19 87 d3 3d dc 0d bd bc 75 59 cc bc
       0.03184988 0.10328502 -0.023077898 -0.024945
0000e0 25 2c c7 bb 7f 43 f2 bc 49 57 c9 bc 87 d0 ea bc
       -0.0060782605 -0.0295732 -0.024577754 -0.028663887
0000f0 62 a6 62 be 10 48 ac bc 96 fa 89 3d 71 59 ec 3d
       -0.22133783 -0.021030456 0.067372486 0.11540497
000100 2c ee cf 3c 5c 04 a1 bd cb 8c f1 3c e9 f6 2e 3d
       0.025382124 -0.078621596 0.02948608 0.04271594
000110 56 22 db 3c 21 68 5f bc 9c 33 3e bd d6 0f 97 bd
       0.026749771 -0.013635666 -0.046435937 -0.07376067
000120 f7 6d be 3c 8e 90 71 3c 77 e7 0f 3d 3d 5b 4e bd
       0.023245795 0.014743937 0.03513285 -0.05037998
000130 3d 0c 23 bd 35 cd b4 bc 32 05 ad 3d b3 0d b7 3d
       -0.039806593 -0.022070507 0.084482566 0.0893816
000140 d1 70 7c 3c e0 fa be 3c 6d 9d 47 3d 71 26 d8 3c
       0.015407757 0.023312986 0.048734117 0.026385518
000150 44 c7 3e 3b 5b de cc 3c 20 a6 2f 3d 04 6d d7 bb
       0.002911047 0.025008371 0.04288304 -0.006574275
000160 f6 3f b8 3c 2a 24 4a 3d 64 33 d3 bc d4 b3 a5 bb
       0.022491436 0.049350895 -0.02578134 -0.0050568376
000170 53 fd 99 bc e5 c4 81 bc bf e8 0a bd 82 f3 3c bd
       -0.018797552 -0.015840957 -0.03391337 -0.046130665
000180 32 89 32 3c f7 e0 8f 3c b1 c4 a4 3d 82 f9 ae 3d
       0.010896968 0.017563326 0.080453284 0.085436836
000190 8d ea 5f 3c 3b 59 97 3d 37 fb e1 bc 29 48 a9 bc
       0.013666761 0.07390066 -0.027585609 -0.020664291
0001a0 1d e6 ea bc 9f 74 49 bd a2 1e ae bc 6d 21 02 3c
       -0.02867418 -0.049183484 -0.021254841 0.00794254
0001b0 b0 fe c0 bc f1 c2 94 3d 73 0a 38 3d e2 95 82 bc
       -0.023558944 0.072637446 0.04493184 -0.01594061
0001c0 ae 07 47 bd b9 36 5d bd 26 db 2e 3d 93 80 ba 3c
       -0.04859131 -0.054007266 0.042689465 0.022766387
0001d0 54 9b 1b 3d 1a 84 ab 3c 31 b5 a6 bd 71 f1 f7 bd
       0.03798993 0.020937014 -0.08140028 -0.12106598
0001e0 38 55 fe ba 1e 8e eb 3c 5b 40 4a 3d 17 4a 05 bd
       -0.0019404059 0.02875429 0.04937778 -0.03254136
0001f0 5c d2 14 bd 81 bb 86 bd 91 3d d4 3d 92 63 37 3d
       -0.036333427 -0.06578732 0.10363305 0.044772692
000200 25 fe 77 3d 30 a7 d8 3c 1f 12 33 3d 6e 00 45 3d
       0.060545105 0.026446909 0.043718453 0.048096113
000210 ab 37 bd 3c 89 05 03 3d 1f 78 f1 3b 59 36 26 bd
       0.023097834 0.0319877 0.007369056 -0.040579174
000220 fc 15 f7 3c 19 c2 82 3d d3 f2 32 3c 0b 70 52 bc
       0.03016185 0.063846774 0.010922152 -0.012844096
000230 73 01 20 3b 19 fa aa bb 4b f5 2b bd 59 c9 8f bd
       0.0024414926 -0.0052178022 -0.041981976 -0.07020826
000240 52 78 c2 bc 0c 3a ba bc 4b 68 31 bd e5 f1 02 3e
       -0.023739014 -0.022732757 -0.043312352 0.12787588
000250 24 02 25 be 7a 21 2f bd 00 56 82 bc 65 75 85 3c
       -0.16114098 -0.042756535 -0.015910149 0.01629133
000260 ea ce 74 3c 04 8b e4 3b 1b 88 c3 bb 51 bd 8a bc
       0.01494191 0.0069745798 -0.005967153 -0.016935976
000270 87 2d a8 3c 12 cf eb 3d e3 e8 b0 3d b2 de 11 bd
       0.020529522 0.11514105 0.086381696 -0.03561277
000280 5d 78 62 bd 21 46 50 bd 5c 78 40 3d 0b 38 39 3d
       -0.05529057 -0.05084813 0.046989784 0.045219462
000290 f1 9e fa 3c 12 9a 05 3d 29 17 e5 3c 9f 9e 36 3d
       0.030593367 0.032617636 0.027965145 0.044584867
0002a0 3c dc 66 bb 99 8f 5b 3c 98 fe 17 3d e2 01 2b bd
       -0.0035226485 0.013400936 0.037108034 -0.041749842
0002b0 9c 2e 01 bd c9 0c ba bc 1c ce 56 bd 11 ac 8b bd
       -0.03153859 -0.022711175 -0.052442655 -0.068199284
0002c0 be 38 a9 bd bb a0 30 3d b9 95 9b 3c 14 5d a7 3c
       -0.08262776 0.043122035 0.018992292 0.020430125
0002d0 86 c3 66 bd 3e ba 5e 3d 35 fc 05 3d c3 01 15 bd
       -0.05633881 0.054376833 0.032711226 -0.036378633
0002e0 d3 42 dc bc 84 a7 15 bd 5b e4 cc bb d7 41 8a bc
       -0.026887333 -0.03653671 -0.006252808 -0.016877098
0002f0 cd a2 bd bc 89 da c9 3c 2d b3 1b 3c 3e 67 bd 3c
       -0.023148919 0.024640338 0.009503168 0.023120519

queries.1.weight f4 [64]
000000 3d c1 c4 3d 96 b0 31 3e de 48 23 3e 40 d5 19 3d
       0.0960717 0.17352518 0.15945765 0.037556887
000010 6b dd 9e 3e 25 36 40 3e e3 f7 3c 3e 38 a2 4e 3e
       0.31028304 0.18770654 0.18453936 0.20179069
000020 e1 0f 9e 3d 31 97 cf 3d 5d 2e 4b 3e 77 04 80 3e
       0.077178724 0.10136259 0.19841905 0.25003406
000030 cf b9 38 3e 10 e5 b3 3d d4 c7 d1 3d 8f 9f e1 3d
       0.1803963 0.087839246 0.10243192 0.110167615
000040 b7 3e 3b 3e f0 55 e2 3e 58 7a a9 3d 47 fa 88 3e
       0.18285643 0.4420619 0.08275288 0.26753446
000050 91 2c 07 3e c8 1d d7 3d 82 7d 5e 3e 65 e8 e6 3e
       0.13200594 0.10503727 0.21727565 0.45099178
000060 51 87 84 3e 6b 33 a6 3e 5a 39 e2 3e b7 fe 6b 3e
       0.25884488 0.32461104 0.4418438 0.23046385
000070 fa ed 8a 3e 70 81 c8 3d 75 96 66 3d 2f 73 e2 3e
       0.27134687 0.09790313 0.05629583 0.44228503
000080 8e 67 36 3e 6f ce 99 3e 61 79 20 3e ee 79 1b 3e
       0.1781294 0.3004031 0.15671302 0.15183231
000090 2f ff 1f 3e 1e 20 17 3e e7 bf 2c 3e 58 93 8a 3e
       0.15624689 0.14758345 0.1687008 0.2706554
0000a0 28 de 1c 3e 36 b5 a3 3e 5a 56 59 3e 60 a8 71 3e
       0.15319121 0.3197419 0.21224347 0.23599386
0000b0 ca 06 1d 3e 59 99 89 3d d6 0c 13 3a 9d ac c5 3e
       0.15334621 0.06718702 0.00056095177 0.38608256
0000c0 03 52 22 3e c6 b0 82 3d 19 5d 38 3c 99 3a 5b 3c
       0.15851597 0.06381373 0.011252665 0.01338067
0000d0 83 f0 d7 3e f1 8e 9f 3e 69 34 95 3e 6b 39 5a 3e
       0.42175683 0.31163743 0.29141548 0.21310966
0000e0 41 91 c2 3d b6 f2 2b 3e 84 96 b1 3e e5 61 2e 3e
       0.09500361 0.16791806 0.34685147 0.17029531
0000f0 fa 16 60 3d 6f 13 5e 3e 7b 7e 95 3d d2 91 fc 3d
       0.054709412 0.21687101 0.07299515 0.123325005

queries.1.bias f4 [64]
000000 39 7b 06 be 1d 7f 1c 3e d7 c0 a4 bc dc ed 29 be
       -0.13132943 0.15282865 -0.020111484 -0.16594642
000010 67 5a 8d 3e 31 cb c1 bd e2 16 12 3f fb a7 40 3e
       0.27608034 -0.09462584 0.57066166 0.1881408
000020 bc d9 37 3e d3 d3 4f be 47 d1 fd bc 36 9c 1a 3d
       0.17954153 -0.20295648 -0.03098358 0.03774663
000030 b0 b5 89 bd b2 9d ab be 41 34 6c bd aa 4d 5a 3d
       -0.06724107 -0.3351875 -0.05766702 0.053296722
000040 6d f0 f4 bd d4 b6 8e 3d 98 e7 07 be f4 2a c5 3d
       -0.1195992 0.069684654 -0.1327194 0.09627333
000050 59 2d 51 bc 21 b6 ca 3d 01 d6 90 bd 23 b2 60 be
       -0.012767159 0.098980196 -0.07072068 -0.21942954
000060 fe ad 0c be 19 84 94 bc a8 59 15 bd 29 f2 be 3d
       -0.13738248 -0.018129395 -0.036462456 0.09323532
000070 03 cb 66 bd 25 ca 83 3e 55 53 ac 3e f8 6b ce bd
       -0.05634595 0.25740162 0.33657327 -0.10079187
000080 b0 74 2f 3e 99 cd ae be de 47 8d 3c cb a3 af 3d
       0.17134356 -0.34141234 0.017246183 0.08576163
000090 2f 31 65 3d 09 dc b3 be a9 af a4 3d 48 8b f0 3e
       0.05595511 -0.3512881 0.08041317 0.46981263
0000a0 88 92 76 3d e5 e9 1e be 5e a8 e4 be 53 dc 82 3e
       0.060198337 -0.15518911 -0.44659704 0.2555872
0000b0 75 b9 a4 bd 8a 6f a4 be e1 a9 c1 3d 3e b2 75 3e
       -0.080431856 -0.32116348 0.0945623 0.23993775
0000c0 80 1e 7c be 3c 3e 90 3d 39 78 d7 bd 0f f8 66 bd
       -0.2462101 0.0704312 -0.105209775 -0.05638891
0000d0 4f 0c 16 3e 93 91 a0 3d f3 c4 ac 3e 18 09 80 bd
       0.14653133 0.07840266 0.3374401 -0.062517345
0000e0 90 7b 37 bd 11 78 58 be cc e4 c7 bd 52 10 81 3d
       -0.044795573 -0.21139552 -0.097604364 0.06301941
0000f0 62 ee 86 3d 1c 35 94 bc 74 75 76 3e db 16 f7 bd
       0.06588437 -0.01809173 0.24068242 -0.12064906

queries.1.running_mean f4 [64]
000000 f7 80 c0 bc 5d 13 42 3d 67 3c eb 3c 54 13 73 bc
       -0.023498995 0.047381748 0.028715326 -0.014836151
000010 81 d3 79 bd 0c e3 2d 3d 24 d1 1d bd fd 34 4a bd
       -0.06099272 0.042452857 -0.03852953 -0.04936694
000020 e5 cc 83 bc ed ec 34 ba 61 d9 b7 3d fa f8 02 bd
       -0.016088912 -0.000690176 0.089770086 -0.031975724
000030 13 79 be 3c 48 4e eb 3c 10 d2 db bc 72 05 24 3c
       0.023251092 0.02872385 -0.026833564 0.010011064
000040 07 a2 3d bd ed 39 bc 3d 0a 22 bf bc dd b3 12 bd
       -0.0462971 0.09190736 -0.02333166 -0.035816062
000050 71 a8 a9 bd db 2d 00 3d ee 63 31 3d 18 a9 69 bd
       -0.08284081 0.03129373 0.04330819 -0.057046026
000060 01 7c ff 3c 64 8a 4a bd 6e 61 ac 3d 95 7f 2e 3d
       0.03118706 -0.049448386 0.08417021 0.04260214
000070 87 38 f9 3c 1a 4b e3 3c 62 df ad bc 82 8b 29 bd
       0.030422462 0.027745772 -0.021224681 -0.04139281
000080 60 3f 3b 3d 68 18 9a 3d 0a 29 08 bd 6b 28 e8 bc
       0.045714736 0.075241864 -0.033242263 -0.028339585
000090 94 b4 21 3d 47 6d 50 bd 4f 98 37 3d b4 59 9a bd
       0.039478853 -0.050885465 0.044822987 -0.07536641
0000a0 0a 12 04 3d cd 6e 6b bd fc 37 bc 3d c2 e4 50 3d
       0.032243766 -0.057478715 0.09190366 0.05099941
0000b0 7f c5 dc 3c b6 f6 a8 3c 1f 1a 46 39 ff 8e 4a bd
       0.026949642 0.020625453 0.00018892482 -0.049452778
0000c0 3c 2f 1e bd 92 87 fd bc 8b 3c db 3b 9c 33 ca bb
       -0.038619265 -0.030948434 0.006690567 -0.006170703
0000d0 63 44 c4 3d 46 90 7a bd b5 eb 5c 3d ae 7f 39 3d
       0.09583356 -0.061172746 0.053935725 0.04528778
0000e0 9f dc ad 3c ee 29 2d bd 05 22 b3 bd 4b 08 15 3d
       0.021223364 -0.042276315 -0.08746723 0.036384862
0000f0 eb d0 3d 3c a0 5b 31 bd f3 3d a0 bc f1 0b ce 3c
       0.011585454 -0.04330027 -0.01956079 0.025152178

queries.1.running_var f4 [64]
000000 0b ca c1 3a aa e6 86 3a af ea c3 39 db e0 d9 38
       0.0014784945 0.0010292132 0.0003736815 0.00010389249
000010 16 e6 d6 3a 2b 37 53 3a 4c b2 33 3a f6 b3 9b 3a
       0.0016395475 0.0008057232 0.00068548764 0.0011879194
000020 1a a5 0a 39 f2 70 fb 39 83 de 84 3b af 96 0a 3a
       0.0001322221 0.00047958601 0.004054846 0.0005286736
000030 cf a2 93 39 b8 3b c2 39 ff 1c af 39 99 70 c4 3a
       0.00028159327 0.00037047057 0.00033400205 0.001498717
000040 a1 f3 77 3a 23 e2 7e 3b a9 83 7b 39 ec 9b 16 3a
       0.0009458606 0.0038892112 0.00023986273 0.000574528
000050 02 b8 6e 3b 26 f3 49 3a b1 9d 5b 3a 75 ee cc 3a
       0.0036425595 0.00077037734 0.0008377685 0.001563503
000060 00 dd ec 39 61 51 8d 3a 2f 9b 4c 3b 35 8f 56 3a
       0.00045178086 0.0010781699 0.0031220426 0.00081847917
000070 fa 88 f0 39 7e 8a d7 39 04 fa 54 39 a7 c1 51 3a
       0.00045878423 0.0004111118 0.00020311034 0.0008001574
000080 73 cd 8b 3a 35 1f 29 3b a3 01 03 3a eb 98 c0 39
       0.0010666087 0.0025805954 0.00049974973 0.00036735027
000090 ae 3c 59 3a 28 de 9e 3a c1 e6 6c 3a 9c 61 44 3b
       0.0008286935 0.0012120651 0.00090370706 0.0029965406
0000a0 7e 53 0a 3a d5 26 c9 3a e2 2d 76 3b 57 e5 9b 3a
       0.00052767235 0.0015346656 0.003756397 0.001189391
0000b0 d8 5a a8 39 2d dd bd 39 cc b0 8a 36 eb b2 9e 3a
       0.0003211114 0.00036213678 4.1333024e-06 0.0012107765
0000c0 b7 d4 34 3a c6 e8 9b 3a ae 11 1d 38 01 9f e0 37
       0.0006898152 0.0011894933 3.7448182e-05 2.6776923e-05
0000d0 00 b8 8c 3b 90 9a de 3a 02 e5 a8 3a fe 83 75 3a
       0.0042943954 0.0016983319 0.0012885632 0.00093656767
0000e0 04 01 77 39 40 35 4f 3a 09 0a 65 3b b2 cf 19 3a
       0.00023556134 0.0007904358 0.0034948608 0.0005867436
0000f0 fe 80 57 39 61 3f 5d 3a 9a 95 3c 39 5b 0e 96 39
       0.00020552051 0.0008439925 0.00017984808 0.00028620925

keys.0.weight f4 [16, 3, 1, 1]
000000 24 1c 09 be 92 fa 31 be 10 94 33 be 66 5c 01 be
       -0.13389641 -0.17380741 -0.1753695 -0.12632903
000010 d7 48 cc bd 00 0a c7 bd cc b6 a9 3d 47 de af 3d
       -0.099748306 -0.09718704 0.08286819 0.08587318
000020 98 56 ba 3d eb 9e 4b 3d 9f a3 ee 3b 2a ad c9 bc
       0.09098548 0.049712103 0.0072826887 -0.024618704
000030 5c 47 79 bd 5a 3f 92 bd 87 c0 8d bd 05 47 00 3e
       -0.06085907 -0.071409896 -0.06921487 0.12527092
000040 46 14 1a 3e b0 a1 02 3e 5d 4d 1f 3c bd 85 ee 3b
       0.15046796 0.12756991 0.009723035 0.0072791264
000050 fd 6f 92 bc 1d 97 77 3d e4 81 6e 3d 48 7f 90 3d
       -0.017875666 0.060446847 0.058229342 0.07055527
000060 89 70 08 3d b3 c3 d2 3b da e5 32 bc f7 d2 e1 3d
       0.033310447 0.0064320206 -0.010919059 0.110265665
000070 3d c7 1e 3e eb 8c 40 3e 01 86 16 bd c4 29 ac ba
       0.15505691 0.18803756 -0.03674889 -0.0013135006
000080 0e 9b 9b bc 46 2f 38 bd a6 af 8d bd 93 eb a2 bd
       -0.018994834 -0.04496696 -0.06918268 -0.079550885
000090 ba 30 0b be df d8 d8 bd 3f a0 80 bd 14 5e 82 bd
       -0.13592806 -0.1058824 -0.062805645 -0.063656
0000a0 9a f3 51 bd 06 4c 55 bd 5e 9f 1b bd d2 06 fa bc
       -0.051257707 -0.052074455 -0.03799378 -0.03052083
0000b0 d0 46 c2 bc aa 34 ca 3d 8d 96 ec 3d 03 ed 14 3e
       -0.023715407 0.09873326 0.11552153 0.14543538

values.0.weight f4 [16, 3, 1, 1]
000000 fb 67 45 3e 31 43 55 be b9 69 35 be f8 46 52 3d
       0.19277947 -0.20826413 -0.17716111 0.051337212
000010 30 f1 aa be f5 58 bd 3e 25 5f 39 be f3 87 0e be
       -0.33387136 0.3698193 -0.18102701 -0.13919048
000020 c4 4f 01 3e 08 b9 36 be 3a ef 28 be 54 ac 63 3e
       0.12628084 -0.17844021 -0.16497508 0.22233707
000030 cc 3d 27 3e ea 91 04 be e1 e2 09 3e d1 7d c8 3d
       0.16332167 -0.12946287 0.13465454 0.097896226
000040 ed ca 75 bc 46 dc 92 be a9 76 44 3e e0 1b d2 3e
       -0.015001995 -0.2868368 0.1918589 0.41036892
000050 3b 8f fa be bc 2e d8 3e 39 af 9f 3e b5 1f b6 be
       -0.489374 0.42223155 0.31188372 -0.35571066
000060 12 6a 7d be 34 c7 8c 3e 82 65 3f bd c4 29 1a be
       -0.24747494 0.2749573 -0.046727665 -0.15054995
000070 3a 78 04 be 43 a0 5e 3d 84 15 35 be bf ff 8f be
       -0.12936488 0.054352056 -0.17683989 -0.28124806
000080 92 30 a5 3e 42 57 a2 bd 8d 84 2a 3e dc 0c c5 bb
       0.3226362 -0.07926799 0.16652127 -0.006013496
000090 3c 81 a7 3e 7b 7d 82 3e 4c 51 99 be 8b 7e 37 3d
       0.32715786 0.2548636 -0.29944837 0.044798415
0000a0 b4 ac ba bd 3e c0 18 be f9 2b c1 be 25 59 a6 3e
       -0.09114972 -0.14917085 -0.3772886 0.32489887
0000b0 39 58 ae 3e b6 37 0d 3d 48 5e 7a bb 68 7c 0e 3e
       0.34051684 0.03447696 -0.0038203169 0.13914645

values.1.weight f4 [16]
000000 f9 41 18 3f 4d e2 00 3f fe 3c 32 3f 2f 20 b4 3e
       0.59475666 0.5034531 0.69624317 0.35180804
000010 27 1d 23 3f 38 77 1b 3f 8e d7 f6 3e 5f 0b 3d 3f
       0.6371636 0.6072879 0.4821133 0.73845476
000020 3e f7 ee 3e d2 74 0c 3f a7 64 1e 3f 83 e1 ba 3e
       0.46673006 0.54865754 0.61872333 0.36500177
000030 78 3d 2f 3f fc 1e 33 3f 4e 56 33 3f bf 22 41 3f
       0.6845317 0.69969153 0.70053566 0.75443643

values.1.bias f4 [16]
000000 d9 17 8d be 49 50 4d 3e c7 ae 5f 3e ca d6 02 be
       -0.27557257 0.20050158 0.21844016 -0.12777248
000010 bd 9a ab be de 85 79 3e da e5 54 be 53 18 61 be
       -0.33516493 0.24367473 -0.20790806 -0.21981935
000020 77 a6 8b be 4b bd 0f be 9d d8 70 be 21 8a 95 be
       -0.2727544 -0.14037053 -0.23520131 -0.29206946
000030 f5 e7 40 3e f9 06 8d 3e 3b 9a 67 3e de d4 22 3e
       0.18838485 0.27544382 0.22617428 0.15901515

values.1.running_mean f4 [16]
000000 23 93 9c bd 88 26 cf 3c 65 1e bb bd 15 a7 82 bd
       -0.076452516 0.025286928 -0.09136657 -0.063795246
000010 43 f1 90 3d 82 b6 a1 bd 05 c8 8e 3d a7 84 3c 3e
       0.07077267 -0.07896139 0.069717444 0.18409978
000020 4e 3a 17 bc 28 36 d3 bd 8c e0 96 bd 4d c1 0d 3d
       -0.0092302095 -0.10313064 -0.07367048 0.034608174
000030 18 e7 0e 3e 05 33 a5 bd 68 c0 e4 3d 0f 95 90 3d
       0.13955343 -0.08066372 0.11169511 0.07059681

values.1.running_var f4 [16]
000000 d9 6c a6 3b 15 db 90 3b 5a ba 90 3b 33 27 69 3b
       0.0050788936 0.004420648 0.004416746 0.0035576343
000010 09 54 42 3b 25 2d ac 3b ee 0a 1e 3c 08 01 a6 3c
       0.002965214 0.005254405 0.0096461605 0.020264164
000020 c8 ef 01 3b 90 5b a0 3b 0b 76 be 3b 0a 9b 81 3a
       0.0019826759 0.0048937276 0.0058124117 0.0009888124
000030 d8 dd 47 3c 04 d9 6f 3b d3 df 64 3c ea 7f 2b 3b
       0.012198888 0.0036597857 0.0139693795 0.0026168772

conv.0.weight f4 [32, 64, 1, 1]
000000 15 c9 f8 bd f3 ef 01 3d 63 de d2 bb e0 23 ac bd
       -0.12147728 0.031722974 -0.006435202 -0.0840528
000010 1d 58 dd 3c 1b 98 6a 3d 53 8c 29 bd 1b af 94 3c
       0.027019555 0.057273965 -0.04139359 0.018149903
000020 80 75 f5 bc 2f 6f 7b bd 6d 43 65 bd 97 17 6e bd
       -0.029963255 -0.06138533 -0.055972505 -0.058127966
000030 62 bb 1d bd 6e b4 64 3c 2e 46 86 3c 7f e5 5c 3d
       -0.03850878 0.013959033 0.016390886 0.053929802
000040 64 af 3e bd 51 82 89 3d e3 ad 4f 3d 54 75 2d 3d
       -0.046553984 0.06714309 0.05070294 0.04234822
000050 90 b6 b9 3c 68 08 46 3d cd fd 61 bd 14 64 ff 3c
       0.02267006 0.04834786 -0.055173684 0.03117565
000060 52 b8 27 3a 54 1a 5a 3d 1c a3 92 bd ac 31 df 3c
       0.00063980103 0.053247765 -0.07160017 0.027245365
000070 55 9c 0d 3d a2 25 99 bd d5 20 6e bd 09 5d 48 bd
       0.034572918 -0.07477881 -0.05813678 -0.04891685
000080 38 f5 f8 bd 86 11 bc 3d 2e ee da 3d e5 65 87 bd
       -0.12156147 0.0918303 0.106899604 -0.06611232
000090 f9 e1 b3 bd 5c 73 c2 3c 30 2f a5 bd 09 37 1e 3d
       -0.08783335 0.023736648 -0.08065641 0.038626704
0000a0 a8 d6 82 bd ed a5 29 be 35 bd e1 bc 6f 7b d8 3c
       -0.06388599 -0.16567202 -0.027556041 0.026426045
0000b0 a7 cd 29 3e 37 eb a6 3d 94 07 02 3e 6e c9 2d 3d
       0.16582356 0.081503324 0.12698203 0.042428426
0000c0 9a d2 94 3c fc 16 a8 bc d6 8c a7 3b d5 f0 d3 bc
       0.018166829 -0.020518772 0.0051132245 -0.025871674
0000d0 28 f5 d2 3c bd 19 b2 3c d5 28 77 3c 4e 09 94 bd
       0.025751665 0.021740789 0.015085419 -0.07228337
0000e0 79 4e 54 3b 8e 67 2c 3d 3f 6c 84 3b a6 f8 e9 3c
       0.0032395406 0.042090945 0.0040412243 0.028560948
0000f0 0b 14 38 3d 31 af 1f 3d d6 c4 9c 3c c9 e5 e1 3c
       0.04494099 0.038985435 0.019136827 0.02757539
000100 52 7e 04 3d b9 b1 b8 bb 7e 61 3f bb 8d ec 04 3c
       0.03234703 -0.0056364206 -0.0029202397 0.008113039
000110 7c cb f7 3b 77 0b 11 3b e9 60 41 3c 7d cf 76 3c
       0.007562099 0.0022132078 0.01180289 0.0150641175
000120 3e c7 4e bb 77 ae 9c 3c e7 77 00 3c 05 aa e0 ba
       -0.0031551863 0.01912616 0.007841087 -0.0017140514
000130 2c 54 a6 bb 1f e6 f7 3b f8 a2 14 bd a0 69 ce bc
       -0.005075952 0.0075652744 -0.03628823 -0.02519685
000140 44 c6 31 bd b2 44 76 bc 75 63 08 3d 6a b5 8d 3b
       -0.04340197 -0.015031027 0.033297975 0.0043246048
000150 f9 8f 4d bd 23 5e af 3b 96 fa 4f bb 6b 09 d3 bc
       -0.05018613 0.005351798 -0.0031735054 -0.025761327
000160 e0 c0 d3 3c 53 e5 d6 3c e1 70 c3 bc cb 5f cf 3b
       0.025848806 0.026232397 -0.023857536 0.006328558
000170 1f a7 10 3c 8a 09 a4 3c d8 98 88 bc f5 6a d5 bc
       0.008828907 0.02002408 -0.016674444 -0.026051978
000180 09 96 ed bb ec 8c 34 bc 1c 79 d9 3c 9e a7 ac 3c
       -0.0072505516 -0.0110199265 0.026547007 0.02107602
000190 04 23 a0 bb db aa 1b 3c 65 72 5d ba 29 55 3d 3c
       -0.0048869867 0.009501184 -0.0008447527 0.011555948
0001a0 f2 fc 5a 3d 24 b3 89 3c 0f 7f a1 3c 11 3e 9f 3c
       0.053463884 0.016809054 0.019713907 0.019438775
0001b0 a1 67 b8 bc 81 f4 b3 bc 47 70 4e 3c 18 ec e8 bc
       -0.022510352 -0.021967174 0.012600011 -0.02843289
0001c0 b1 c4 a4 bd bc dd 2b 3d a8 13 d6 bc aa c4 67 bd
       -0.080453284 0.04195951 -0.02613242 -0.056584038
0001d0 cc 7b 1e 3c 31 2a 33 ba 09 f6 cf bb ef 0e dd 3c
       0.00967307 -0.0006834595 -0.0063464683 0.02698466
0001e0 37 15 93 bd 00 f0 a1 bd 79 63 bb bd b1 fe a0 bc
       -0.07181781 -0.079071045 -0.09149832 -0.019652696
0001f0 d0 3e c3 3d fe a5 9b bc 6f ae 7d 3d 3d 00 c5 3d
       0.09533465 -0.01900005 0.06193393 0.09619186
000200 89 45 69 3d 11 2a 9f 3b e7 f6 03 3c e6 3f 45 3b
       0.05695108 0.0048573096 0.008054472 0.00300979
000210 ed a1 40 3c e2 36 24 bc 04 86 14 3d 3b 0d ac 3d
       0.011757356 -0.010022851 0.03626062 0.08400961
000220 bf 1d e8 bc 12 7c 04 bc 7c dc a0 bc 7a f6 f3 3a
       -0.028334497 -0.008086221 -0.019636385 0.0018612884
000230 88 81 a4 bd 70 78 10 be 35 d4 8b 3c 9f 72 ea bb
       -0.080325186 -0.14108443 0.017068962 -0.007154777
000240 ea 9c 86 3d d5 3d a8 bd ba d8 dc bd 1a 25 aa 3c
       0.06572898 -0.082149185 -0.10783525 0.020769645
000250 40 bc 27 3e 40 37 bc bd ef d9 fe 3c 5b 3d 84 3d
       0.16380405 -0.091902256 0.031109778 0.06457015
000260 18 1e e0 3d 36 5f 8c 3b 29 25 d6 3d 84 11 63 3b
       0.1094324 0.004283811 0.104563065 0.0034647891
000270 db 4e 06 be fb 92 a2 bd b5 4b 9a bd aa 4d 81 bd
       -0.13116018 -0.079381905 -0.07533971 -0.06313641
000280 61 48 d0 3c a6 a8 aa bc 12 61 60 3d ab 9c 5f bd
       0.025425138 -0.020832371 0.054780073 -0.05459277
000290 89 0a 41 bd b3 1b e0 3c 2c 45 5d bd b4 1a 50 bc
       -0.047129188 0.027356958 -0.054021046 -0.012701679
0002a0 ee c0 84 3a 73 53 0f bd 5b b9 aa bc d8 c2 05 bd
       0.0010128298 -0.034991693 -0.020840337 -0.03265652
0002b0 dd b9 12 bd 83 aa 44 3d e0 16 c8 3c 2e 9a 97 bc
       -0.035821784 0.048014175 0.02442497 -0.018506136
0002c0 98 e5 34 bd 78 df 62 3d 96 50 f6 3d 5c 41 34 bd
       -0.04416427 0.055388898 0.12027089 -0.044007644
0002d0 56 aa a2 3b c3 80 33 bc 3c b8 2b bd c1 e2 8e bd
       0.0049641533 -0.010955992 -0.041923746 -0.069768436
0002e0 37 44 52 bd 3f 62 a0 bd 44 b3 29 be df 19 17 3d
       -0.051334586 -0.07831239 -0.1657229 0.036889907
0002f0 ff 0a e2 3d be 85 e4 3c 8b d8 62 3d 8a 13 15 3e
       0.110372536 0.027895804 0.055382293 0.14558235
000300 24 79 b6 bd 44 9c 20 3d a3 52 a1 3d 33 06 f8 3b
       -0.089098245 0.039211527 0.0787709 0.0075690984
000310 55 cb b0 3b 40 52 d5 3a 46 d9 8d bd 34 91 06 bd
       0.005395333 0.0016275123 -0.06926207 -0.03285332
000320 03 88 7d 3c 94 4e 34 bd 32 81 9f 3c d2 ab 2a bc
       0.015474322 -0.04402025 0.019470785 -0.010416942
000330 31 26 09 3c ac 2c 11 3d 08 7b 1b 3d b1 ed 0f 3c
       0.008370922 0.035442993 0.03795913 0.008784697
000340 3d 40 18 3c fb 77 02 bd ec 2e 09 3d 73 c3 76 bc
       0.009292659 -0.031852704 0.033492014 -0.015061247
000350 bc 6e 57 3c 6b 9c 8b 3c 38 cd 41 bc fa 01 ef 3b
       0.01314896 0.01704236 -0.011828713 0.007293937
000360 c7 11 73 bb b5 ac 8f bd b7 22 6a bd 8b ae 29 bd
       -0.0037089454 -0.07015363 -0.057162013 -0.041426223
000370 99 82 90 3d f0 d2 46 3d aa 62 8d bd e9 5a 11 3d
       0.070561595 0.04854101 -0.06903584 0.03548709
000380 83 da f7 3c 83 53 07 bd 60 8e 0f bc f7 56 4e bd
       0.030255562 -0.033038627 -0.008761972 -0.050375905
000390 b0 ba 16 3c 06 6c 52 3c dd a6 bf 3b 18 30 04 3d
       0.009199783 0.012843138 0.005848749 0.03227243
0003a0 81 c5 ca bb e8 87 88 3c 8a fe 3f bb 71 4b b1 3a
       -0.006188095 0.016666368 -0.0029296004 0.0013526512
0003b0 c1 73 08 3b dc a0 4a bc 93 f9 21 bc bc 9a a4 bc
       0.0020820948 -0.012367453 -0.009886163 -0.020093314
0003c0 09 cd cb 3c 9a 71 a3 bb b6 0a 67 bd ee c8 8a bc
       0.024878042 -0.0049879076 -0.0564067 -0.016941514
0003d0 b5 9e c2 3c f5 82 75 bb db f8 c0 3c a3 e8 a1 3c
       0.023757318 -0.003746209 0.023556164 0.01976425
0003e0 b9 cc 83 bc f3 14 10 3c b9 03 f6 bc 2e d5 a7 bc
       -0.01608883 0.008794057 -0.030031072 -0.020487394
0003f0 ea b7 c1 3c bb 51 1a bb 15 4d be bc 82 8a 7c bc
       0.023647267 -0.002354725 -0.023230115 -0.015413882

conv.1.weight f4 [32]
000000 33 2c 2b 3f 7c b7 de 3e 40 3a bb 3e 25 80 20 3e
       0.6686432 0.43499362 0.3656788 0.15673883
000010 53 b8 0f 3f 74 42 04 3f e7 1a 1d 3e 35 0c 58 3e
       0.5614063 0.516639 0.15342294 0.21098407
000020 85 78 dd 3e 43 63 a6 3e fa 7d d9 3e 19 17 5c 3f
       0.43256012 0.32497606 0.42478925 0.85972744
000030 2d 3d 2c 3f a1 c6 a9 3e c9 56 9e 3e 27 75 3b 3e
       0.67280847 0.33159354 0.30925587 0.18306409
000040 51 c3 f6 3d 41 36 af 3e 23 24 46 3e 9e 28 d7 3d
       0.120489724 0.3422108 0.19349723 0.10505794
000050 63 5e c8 3e 42 9b 89 3e ae be d0 3e 85 ee 7c 3e
       0.3913451 0.26876265 0.40770477 0.24700363
000060 25 57 1c 3e e6 ad e1 3e ca 83 dd 3e b3 a0 13 3e
       0.15267618 0.44077986 0.4326461 0.1441677
000070 c0 85 25 3f 9c 32 a7 3e f1 5d 05 3f 7c 1f 6c 3e
       0.6465721 0.326558 0.5209647 0.23058885

conv.1.bias f4 [32]
000000 93 e1 22 bf c4 c5 2b be 5c 7e 87 be 7a b2 c5 bd
       -0.6362545 -0.1677466 -0.26463592 -0.09653182
000010 7f 04 bc be e6 b3 21 be 2b 76 a3 3d 53 00 d3 bd
       -0.3672218 -0.15791282 0.07981523 -0.10302796
000020 62 c2 d3 be 68 6a 66 3d 5d db 96 3d 57 e4 4c bf
       -0.4135924 0.05625382 0.07366059 -0.8003592
000030 1b 76 a9 be 5c 73 d6 3e cf c0 27 bd 5c 21 06 3c
       -0.3309792 0.41884887 -0.04095536 0.008186664
000040 d9 ac fc 3d 52 28 f4 3c 0f 7e 38 be ec fc c4 3d
       0.123376556 0.029804382 -0.18016838 0.096185535
000050 f5 4a 77 bd 78 62 2f be ce 8a a4 bd af d1 9f bd
       -0.06037422 -0.17127407 -0.080342874 -0.07803666
000060 bf ba 82 3d 70 ef 0d be 1f bb ba bd a0 f0 15 3d
       0.06383275 -0.1386087 -0.09117722 0.03660643
000070 3a c2 d6 bd e0 22 89 bc e1 48 b3 be dd 66 dc bb
       -0.104862645 -0.016740263 -0.3501654 -0.0067261294

conv.1.running_mean f4 [32]
000000 55 6b 17 bf 17 f7 a8 be 87 a4 e3 be a8 cc ef 3d
       -0.5914815 -0.33001015 -0.44461462 0.11708957
000010 fe 99 93 be fa 2f 46 bf 52 f5 e6 bd 8e d0 c8 bd
       -0.28828424 -0.77416956 -0.1127726 -0.09805404
000020 0d 8c a6 3e 9f 0a 76 3c 03 32 59 bf b9 17 2c bf
       0.32528725 0.015017181 -0.84841937 -0.672237
000030 d7 70 ae 3e e6 ce 0b bf 5f f1 08 bf 32 48 46 3f
       0.34070465 -0.54612577 -0.53493303 0.7745391
000040 ec ab 33 3c 81 45 6e bf b1 3e ad be 19 77 81 3e
       0.010966282 -0.93074805 -0.33836892 0.25286177
000050 03 3a 91 3e f2 da 95 be 3c e3 f5 3e d3 41 c9 be
       0.28364572 -0.29268605 0.4802493 -0.39308032
000060 48 8c 4c 3f 5c 6b 15 bf 0e c6 c0 3b 7b b1 9e 3e
       0.7990155 -0.5836694 0.005882985 0.30994782
000070 d8 dc 14 be 80 ad 3b bf 1c 5e eb 3e 1f a6 54 3e
       -0.1453737 -0.73311615 0.45970237 0.20766495

conv.1.running_var f4 [32]
000000 73 ba 49 3e 01 82 da 3e f2 53 29 3e 2b c3 c7 3d
       0.19700031 0.4267731 0.16535929 0.09754022
000010 73 99 02 3e 3d 7d 84 3f 9c c7 15 3e aa d9 06 3e
       0.12753849 1.035072 0.14626926 0.1316897
000020 23 3c d8 3e ed db b0 3e 5b 3e 26 3f 48 3d e2 3d
       0.4223338 0.3454279 0.64938897 0.11046845
000030 b1 80 68 3f 02 e3 91 3f 31 69 95 3e ec e4 d7 3d
       0.9082137 1.1397402 0.29181817 0.1054171
000040 d4 be 08 3e 88 17 9b 3f 79 c5 e9 3d 48 a3 e4 3d
       0.13354045 1.2116556 0.11414618 0.11163956
000050 3a 57 0d 3f 0d 91 34 3e 80 e6 e3 3e e8 5c 9d 3e
       0.5521122 0.17633457 0.44511795 0.30734944
000060 4e 98 e7 3d 41 ce 19 3f 3d ec 07 3f e9 4c 06 3e
       0.11308347 0.60080343 0.53094846 0.13115276
000070 cf 9e 88 3f 95 83 8c 3f 81 b0 12 3f 71 c6 13 3e
       1.0673465 1.0977656 0.57300574 0.14431168

conv.3.weight f4 [3, 32, 1, 1]
000000 44 48 a7 bd 11 24 72 bd 43 06 ba bd a4 ba 58 3d
       -0.081680804 -0.059116427 -0.090832256 0.05291237
000010 45 8d cc 3d 25 b8 5d bd b6 62 e8 3c 77 3f 9d bc
       0.099878825 -0.054130692 0.028367382 -0.019195301
000020 dd 9e 63 3d 42 38 bb 3d 51 79 7a 3d 79 15 bc be
       0.055571426 0.0914159 0.061150853 -0.36735132
000030 da c8 fd 3c 7c 64 c0 bb d9 ef 9d bc 96 d1 56 3d
       0.030979563 -0.0058713537 -0.019279407 0.05244597
000040 31 ef d4 bd f6 b0 21 bd 60 3b fd 3d a5 be 6e bc
       -0.10397185 -0.039475404 0.123648405 -0.01457182
000050 cc 86 67 3d 93 6a c2 bd fa e9 99 bd c6 8f 6a bd
       0.056525037 -0.09492984 -0.075153306 -0.05726602
000060 fd e6 8d bd 2a dd bd bc 32 ac 99 bd af 8a f3 bc
       -0.06928823 -0.023176748 -0.07503547 -0.029729215
000070 67 38 7c 3d 25 77 8b 3d 44 cc 2b 3e 0d ca 31 bd
       0.061577227 0.068098344 0.1677714 -0.04340558
000080 6c b9 73 be fe 19 f8 bc 88 40 cc bd c7 ce ac 3b
       -0.23801202 -0.030285832 -0.09973246 0.005273673
000090 fb 4a 1e 3c d7 9c 76 bd ee 87 95 3b 1b ec d5 3d
       0.009661431 -0.060208168 0.004563323 0.10445424
0000a0 bf b8 5b 3e 3e 6f b5 3d 5a de 64 3d 99 43 8d be
       0.21457194 0.088591084 0.055876113 -0.27590635
0000b0 95 60 5d 3d cb 37 35 3d 6b b2 ff bc 85 34 43 bc
       0.054047186 0.04424266 -0.031213006 -0.011914377
0000c0 91 fd d2 3c 72 31 9d 3d 9d 54 ec bd c7 73 a1 bd
       0.025755676 0.076754466 -0.11539576 -0.07883411
0000d0 6c a3 e8 3c 97 48 a2 3d d8 35 c7 3a 58 57 32 be
       0.028398238 0.07924002 0.0015198542 -0.17416131
0000e0 e0 dc 08 bc 02 cb 0e bd 6e 9c 86 bd 82 01 c4 3d
       -0.008353442 -0.034861572 -0.06572805 0.095706
0000f0 7e 02 77 3d 52 52 d5 bd 73 7a 20 3d 25 ad 02 3d
       0.06030511 -0.10416092 0.039179277 0.031903405
000100 90 62 66 be 1c af 0d bd d7 cc eb bd 7b f9 3a bd
       -0.22498536 -0.034590825 -0.115136795 -0.04564808
000110 16 3b 0b 3c b3 34 c0 bd 7c 45 a4 bd 6c f7 b9 3b
       0.008497974 -0.093850516 -0.080210656 0.005675247
000120 f1 bd 63 3d e6 71 b6 3d 59 ae 57 3b f7 68 7e be
       0.055601064 0.08908443 0.0032910316 -0.24844728
000130 7f c1 05 3e c3 b0 45 3e 00 8e 9d 3d 44 92 d7 bd
       0.13062094 0.1930571 0.076931 -0.10525945
000140 c1 87 a8 3d bc 79 6e 3d 87 a0 05 bd 57 6c 82 3d
       0.08229018 0.058221564 -0.032623794 0.063683204
000150 5a 95 79 3c 72 40 62 3d 94 7c 3a bd 75 e5 e3 bb
       0.015233362 0.05523724 -0.045528963 -0.0069548436
000160 8d 7f c2 3d f0 78 3c be e7 7b ea 3d f9 0f 90 bd
       0.09496985 -0.18405509 0.11449414 -0.070342965
000170 d5 1a dc 3d 2f 3d 5f bd 3a d7 d8 3b 23 89 4e bd
       0.10747305 -0.05450171 0.006617454 -0.050423753

conv.4.weight f4 [3]
000000 92 5d 94 3f f6 83 95 3f be f8 91 3f
       1.1591055 1.1680896 1.1404035

conv.4.bias f4 [3]
000000 7f 38 8b be dd ad 97 be ae 44 bc be
       -0.2719154 -0.29624835 -0.36771148

conv.4.running_mean f4 [3]
000000 14 0a 43 bd e0 6d 2d bc 03 de 8e 3d
       -0.047617033 -0.010585278 0.06975939

conv.4.running_var f4 [3]
000000 8e 2e 11 3d 82 9f 1d 3d e4 cd 36 3d
       0.03544479 0.038482197 0.044629946

shortcut.0.weight f4 [3, 64, 1, 1]
000000 4e 69 90 bc 5a 9d 7c 3d 91 71 cb 3d 1c 20 91 bb
       -0.017628338 0.0616735 0.099337704 -0.0044288766
000010 8b 05 1e be fd 4f 0c 3e c9 03 2d bd 7c ad 8d bd
       -0.15431802 0.13702388 -0.042239938 -0.06917855
000020 08 11 8a bd 09 40 18 bd a1 b6 d0 3c 6c 49 15 bc
       -0.0674153 -0.037170444 0.02547771 -0.009111743
000030 88 4e 93 3d 8c 1f 22 3e eb d6 2e 3d 71 c0 de 3b
       0.07192713 0.15832347 0.04268543 0.006797843
000040 38 a4 96 bd e5 aa 35 3d b2 9a e9 3c f4 57 09 bc
       -0.07355541 0.04435243 0.028516147 -0.008382786
000050 1c d7 80 bd ab de 0a bc ca 4a a3 3b fa a2 55 3d
       -0.06291029 -0.00847594 0.004983281 0.05215738
000060 b9 64 90 bd 2a f2 07 bd 26 10 ba bd 0a cf 35 bd
       -0.07050461 -0.03318993 -0.09085111 -0.0443869
000070 3b 29 c3 3c 92 e7 80 bd 51 99 58 bd 85 84 b0 3d
       0.023823371 -0.062941685 -0.05288059 0.08619026
000080 56 80 2a bd ca d9 b9 bc df 66 c0 3d 7f 28 33 3d
       -0.041626297 -0.022686858 0.09394621 0.043739792
000090 68 c2 74 be b7 e6 e9 3d 7f 07 19 bc d4 05 42 be
       -0.23902285 0.114209585 -0.009340166 -0.18947536
0000a0 ac f0 b1 3d 9b ea 08 3e 41 46 4e bc a3 3b c8 3c
       0.08688483 0.13370745 -0.012589992 0.0244425
0000b0 a8 b4 0e bd cd 7f 00 bc 15 f6 b0 3d 01 62 19 bd
       -0.034840256 -0.00784297 0.086406864 -0.03744698
0000c0 91 5b bf 3d 56 ea f8 bc 44 b3 b9 3c e2 13 3a bd
       0.09343637 -0.030385178 0.022668488 -0.045429118
0000d0 d7 92 fc 3d 40 be a2 bd 5e bf e3 3d c6 d0 a1 3d
       0.12332695 -0.079464436 0.11120485 0.079011485
0000e0 63 fa 3d bb 24 b2 2a 3d 5f 04 af 3d ef 5a fb bb
       -0.0028988353 0.041673794 0.085457556 -0.0076707522
0000f0 19 9f bd bc 24 60 76 bc 2e 43 a1 bd 73 25 06 bd
       -0.023147153 -0.01503757 -0.07874142 -0.032750558
000100 a4 34 d7 3d 9e be ed bd 4e 93 10 3e e0 1f 83 bb
       0.10508087 -0.11608623 0.14118692 -0.0040016025
000110 08 33 51 bd b3 8d f3 3d 81 57 9c bd b2 7d 8f bd
       -0.051074058 0.11892261 -0.076338775 -0.07006396
000120 ea 7a bd 3c 05 a5 b5 bd d7 73 ea 3c be 64 73 3d
       0.023129899 -0.088693656 0.02861969 0.059422247
000130 df 6c 2b bd 11 42 23 3d 1f f1 dc 3d 21 d0 2c bd
       -0.041851874 0.039857928 0.10788178 -0.042190675
000140 66 73 bd bd dc 51 a3 3d 31 82 aa 3c ae 88 a5 bd
       -0.09250526 0.07974598 0.020814033 -0.0808271
000150 d2 9e 81 bd 4d d8 da bd 11 62 43 bd fd 29 90 bd
       -0.06329121 -0.10685787 -0.047700945 -0.07039259
000160 d8 38 e1 3b 63 dc 82 bc 01 97 22 be f9 2e 0d 3d
       0.0068732314 -0.01597423 -0.15877916 0.034468625
000170 ab ac 2a 3e b1 41 93 3c b8 89 ec 3b 0c 50 84 bc
       0.1666743 0.01797566 0.007218566 -0.01615145
000180 82 a0 d0 3d 72 9a 51 3d 9d e6 0f 3e 5c a9 15 3c
       0.101868644 0.05117268 0.14052816 0.009134617
000190 af 2d 85 bd d2 80 96 3d ba e0 40 bd 45 87 1c bc
       -0.06502854 0.07348789 -0.047089316 -0.009553735
0001a0 66 62 1c be 33 9d 49 3c 28 87 ef 3d e6 d8 0a be
       -0.15271911 0.012305546 0.11695701 -0.13559303
0001b0 f8 30 d0 bc 50 2e 7d 3d 95 77 44 3b 7c 04 7e bd
       -0.025413975 0.061811745 0.0029978503 -0.062015995
0001c0 f6 4d 3c bd e0 66 c9 bd 3c a1 06 be b2 8e 42 bd
       -0.045972787 -0.09834075 -0.13147444 -0.047499366
0001d0 f3 03 86 3d bd 06 ea bd 3c f9 1c 3d a0 0c 21 3d
       0.06543722 -0.114270665 0.038323626 0.03931868
0001e0 f2 60 d6 3d 75 e7 84 3d 26 a3 72 3d 1d 41 b1 bb
       0.104677096 0.064894594 0.05923762 -0.0054093734
0001f0 c3 f1 69 bd 0b c0 91 3c 9a 74 6f bd 93 59 e4 bd
       -0.057115328 0.017791769 -0.05846081 -0.111498974
000200 92 75 d4 bc 55 0b 4a bd 27 86 74 bc 3e 87 8e 3c
       -0.025934968 -0.049327213 -0.014924563 0.017398473
000210 5e 14 0b 3d 3d e8 57 3d ce b7 ee bd 99 ce 8a bd
       0.03395497 0.052711714 -0.11656152 -0.067776866
000220 1d b5 70 3b 95 99 e5 3d 00 2a c4 bc bb d5 f5 bd
       0.0036729046 0.11210934 -0.023945808 -0.120036565
000230 8c 92 e5 3b c4 a9 df 3d 47 cc 42 bd a5 ed c8 3c
       0.007005995 0.10921052 -0.047558095 0.02452738
000240 f2 6e 05 be f2 6f 52 3d 5c ef 32 3c bd ac 7f bd
       -0.13030604 0.05137629 0.010921326 -0.062420595
000250 74 85 cf 3c da c2 82 bd a4 fd 9a 3c 91 e2 f3 bd
       0.02533219 -0.06384821 0.018919773 -0.119084485
000260 8d 92 13 bd 13 d5 9b bd f8 16 da 3d 0b bd a8 bd
       -0.036028434 -0.07609 0.10648912 -0.08239182
000270 a2 c6 4d 3d 6e 95 94 3d d4 20 25 3e f1 05 e7 3d
       0.05023826 0.07255064 0.16125804 0.1128043
000280 d4 d5 06 bd d0 01 43 be 4b c9 ff bc 0c 1a 86 bd
       -0.032918766 -0.1904366 -0.031223914 -0.06547937
000290 09 43 85 bd 58 19 12 3e aa 56 a5 bd b8 f5 33 3c
       -0.065069266 0.1426748 -0.080731705 0.010983877
0002a0 9e 30 29 3d da ba cf 3d 0e 0a dd 3b 01 86 9d bb
       0.04130613 0.10143061 0.0067455834 -0.0048072343
0002b0 03 23 04 3c b2 52 19 3e b1 e8 a8 bd 88 2b 10 be
       0.008064988 0.14972952 -0.08247507 -0.14079106
0002c0 38 53 c3 ba 34 ed 50 3d 3c c4 6d bd fd b6 08 3d
       -0.001490212 0.051007465 -0.05804847 0.033377636
0002d0 c8 06 dd 3b 6a b0 ff bc d3 fa 88 3d 94 18 a3 3d
       0.006745193 -0.03121205 0.06688466 0.07963672
0002e0 a3 17 90 bc 95 db 46 3c 29 68 a6 3d 4e 7d 4d 3d
       -0.017589396 0.012137313 0.08125336 0.050168328
0002f0 c6 69 9a bd 75 12 f3 bd 26 83 5f bd 29 91 b0 bd
       -0.07539706 -0.11868755 -0.054568432 -0.08621437

shortcut.0.bias f4 [3]
000000 d9 b4 0a b6 41 8e f2 35 c4 cd 18 36
       -2.066887e-06 1.8071806e-06 2.2769536e-06

shortcut.1.weight f4 [3]
000000 cf 8b 8c 3f 8a 09 88 3f 24 71 8e 3f
       1.0980166 1.0627911 1.1128278

shortcut.1.bias f4 [3]
000000 7f 38 8b be dd ad 97 be ae 44 bc be
       -0.2719154 -0.29624835 -0.36771148

shortcut.1.running_mean f4 [3]
000000 1f a2 0c bf 43 33 15 bf 66 7b 28 be
       -0.5493488 -0.58281344 -0.16453323

shortcut.1.running_var f4 [3]
000000 70 46 8c 40 17 65 6a 40 7b 91 81 40
       4.3835983 3.66242 4.049009
